small_scale_scenario/experiments/sttn/PEMS08/-fulltrain/final_model_s2018.pt (torch, 339618 bytes, 56 tensors)

t_modules.0.pos_embedding f4 [1, 12, 32]
-0.45210075 0.38858697 -0.03723454 -0.58528477 0.019815488 0.22982432 -0.7417619 -0.54526275
0.8504731 -0.0055567585 0.198796 0.059966438 0.25967783 -0.010688029 -1.2375287 0.30440027
0.28216836 1.2722477 1.1707718 -0.7286915 1.1311388 -1.0135069 -1.0391067 0.46887493
-1.3970287 0.9054245 -0.11236271 -1.322617 2.5339847 -1.2087859 -0.16720635 0.093208246
-1.151686 -0.7045294 -0.6678851 0.4461958 1.0936573 -0.6348184 0.8962894 -1.2752023
-1.4423977 0.11537324 1.329841 -1.2196021 -0.95645386 -0.1699339 0.39342713 -0.38731152
-1.8339459 -1.1821812 -0.04488442 0.5596453 -0.8203401 -1.3789172 -1.0586463 0.47790635
-0.80633855 1.3102363 0.7025883 0.16252142 0.52498186 1.2036666 -0.19060206 0.4345493
0.65343547 1.0398829 -0.11410541 -1.1799729 -0.9917201 0.84388936 -1.4839975 0.07222466
-0.23070742 -0.0069723595 1.3188449 1.3665501 -1.4963111 -1.2704537 1.071025 1.4366276
0.15949662 -0.13451432 -0.24143437 -1.4283855 1.5364866 0.13962138 0.7554256 -0.54503214
-0.4421022 0.7576279 0.19260801 0.9756797 0.23205325 0.23055121 0.16994365 1.8664349
0.7737208 -0.11343425 -0.21213487 -0.020095447 0.3528983 0.67358166 -0.7907775 0.12326251
0.69873506 -0.73122156 0.44010046 0.20520292 -0.5853007 -1.0285327 0.29200876 -0.60136807
-0.2878409 -0.4716225 0.5425881 -0.81695044 1.1616335 0.67185044 -0.03193646 -0.71939063
-1.0274587 0.102141984 -0.597981 -1.0269927 -0.9371946 0.2483856 -0.26748267 -0.563673
0.15185316 0.7817472 -0.014080906 -0.32680702 -0.35603964 -2.3635952 0.4184865 -0.4952427
-0.23955937 -0.3754673 -1.9156257 -1.1677371 -0.09284031 0.7906341 -0.34197813 -0.9330734
-0.47815153 1.0882876 0.008974373 0.84467584 0.014602073 -0.13503174 -1.0065092 0.32348987
-0.6302548 0.31893042 0.3440915 -1.1097258 0.05267929 -0.042278744 -0.58331233 0.9064818
2.0462434 -0.77430874 0.06456441 -0.340407 -0.28002414 0.4738643 0.11841171 -0.72344595
-0.67996985 -0.76398313 -0.37507677 0.42369005 -0.40167022 -0.24829906 1.059986 -0.2378475
1.1335444 -0.7923329 0.5219886 0.0059594847 -0.09149974 -0.41499054 0.44253758 -0.40918726
0.4948516 -0.9139909 0.24864346 -1.4272006 0.9942672 0.56676555 -1.2515086 0.60860896
0.6845467 -1.1355239 -0.5885598 0.016051102 -0.34375662 2.9337015 -1.0251763 1.3335382
0.43387508 0.7784578 -0.039968565 -0.9383224 0.9510285 -0.4197663 -2.0287216 0.41676706
-0.84391713 0.62932587 -0.68662184 0.18610011 -0.8351613 0.22799486 -0.33248326 -0.81549597
1.062964 0.09972336 -0.7521387 0.34563315 0.7275027 -0.8626261 0.04500773 -0.044219255
0.30807716 1.2390559 0.44292462 0.98128587 -0.46274975 0.010507252 0.5070898 -0.2916915
-1.3729953 -0.93488806 -0.062400255 -0.8997612 -0.39485827 0.15868695 0.15744102 -0.06991177
-1.0147988 -0.14700933 -0.1038412 0.3323401 -0.36889312 -0.31982118 -0.98032814 1.0490308
-1.3056308 0.11262431 -1.1034641 -0.3914457 -0.7177696 0.6069713 0.8569007 0.8381834
00000000: c079 e7be dff4 c63e 3f83 18bd 39d5 15bf
00000010: 1754 a23c 1157 6b3e 1ce4 3dbf 5796 0bbf
00000020: 9bb8 593f 7815 b6bb 2e91 4b3e 5e9f 753d
00000030: 7ef4 843e d81c 2fbc 5767 9ebf 5ada 9b3e
00000040: 5f78 903e 03d9 a23f dadb 953f 878b 3abf
00000050: 28c9 903f 98ba 81bf 7301 85bf 6010 f03e
00000060: d6d1 b2bf e6c9 673f 6c1e e6bd 844b a9bf
00000070: ce2c 2240 7fb9 9abf 2438 2bbe f7e3 be3d
00000080: 726a 93bf 0a5c 34bf 85fa 2abf c773 e43e
00000090: f6fc 8b3f 7583 22bf 3973 653f d439 a3bf
000000a0: 7da0 b8bf ce48 ec3d 3b38 aa3f ec1b 9cbf
000000b0: 29da 74bf 2703 2ebe 486f c93e b24d c6be
000000c0: bdbe eabf b751 97bf bad8 37bd ea44 0f3f
000000d0: cf01 52bf 5c80 b0bf b981 87bf 24b0 f43e
000000e0: 346c 4ebf d3b5 a73f d4dc 333f 046c 263e
000000f0: 3665 063f bf11 9a3f 302d 43be 3f7d de3e
00000100: 8c47 273f e21a 853f 19b0 e9bd 5a09 97bf
00000110: 5ee1 7dbf 2209 583f a1f3 bdbf 86ea 933d
00000120: 913e 6cbe 6478 e4bb e9cf a83f 1deb ae3f
00000130: 1f87 bfbf 3a9e a2bf 5917 893f 6ae3 b73f
00000140: 1553 233e 1fbe 09be 923a 77be 56d5 b6bf
00000150: 98ab c43f e8f8 0e3e 9263 413f 3a87 0bbf
00000160: 385b e2be e7f3 413f 093b 453e 25c6 793f
00000170: 5e9f 6d3e 9e15 6c3e b505 2e3e 57e7 ee3f
00000180: 9112 463f 3750 e8bd e239 59be 359f a4bc
00000190: 16af b43e d96f 2c3f 6570 4abf 0e71 fc3d
000001a0: 4de0 323f 5631 3bbf d954 e13e b720 523e
000001b0: 44d6 15bf f6a6 83bf 2c82 953e 42f3 19bf
000001c0: e25f 93be 8178 f1be 0ee7 0a3f aa23 51bf
000001d0: 68b0 943f 64fe 2b3f cecf 02bd fc29 38bf
000001e0: c483 83bf d12f d13d 4815 19bf 7f74 83bf
000001f0: fceb 6fbf cb58 7e3e 7df3 88be e04c 10bf
00000200: 657f 1b3e 9620 483f 9ab3 66bc 4053 a7be
00000210: d44a b6be 2545 17c0 dd43 d63e 7490 fdbe
00000220: 0d4f 75be 403d c0be 3933 f5bf 6978 95bf
00000230: 0f23 bebd ff66 4a3f c217 afbe e6dd 6ebf
00000240: 47d0 f4be 024d 8b3f 4009 133c ad3c 583f
00000250: 883d 6f3c c345 0abe 4bd5 80bf 77a0 a53e
00000260: 6158 21bf d94a a33e c32c b03e 7f0b 8ebf
00000270: 3dc6 573d 7a2c 2dbd f553 15bf 310f 683f
00000280: a7f5 0240 1939 46bf 583a 843d d449 aebe
00000290: 535f 8fbe 579e f23e d781 f23d c133 39bf
000002a0: 8112 2ebf 6694 43bf 100a c0be e7ed d83e
000002b0: b8a7 cdbe 1c42 7ebe 9fad 873f 4c8e 73be
000002c0: fc17 913f 54d6 4abf 0ba1 053f c847 c33b
000002d0: 3764 bbbd a479 d4be 4994 e23e fe80 d1be
000002e0: 305d fd3e 4ffb 69bf 649c 7e3e 82ae b6bf
000002f0: 4c88 7e3f 8c17 113f 6f31 a0bf cccd 1b3f
00000300: 743e 2f3f d958 91bf dbab 16bf 9a7d 833c
00000310: de00 b0be c4c1 3b40 fa38 83bf 61b1 aa3f
00000320: e024 de3e 0349 473f 14b6 23bd e635 70bf
00000330: 9b76 733f 9ceb d6be 93d6 01c0 7e62 d53e
00000340: f40a 58bf 801b 213f 73c6 2fbf 0791 3e3e
00000350: 22cd 55bf 7c77 693e 3f3b aabe 58c4 50bf
00000360: 340f 883f c33b cc3d 298c 40bf d4f6 b03e
00000370: 9e3d 3a3f 10d5 5cbf 075a 383d 401f 35bd
00000380: 4abc 9d3e 6299 9e3f 04c7 e23e 8d35 7b3f
00000390: 89ed ecbe 9c26 2c3c a3d0 013f 9758 95be
000003a0: 4fbe afbf d354 6fbf 6997 7fbd c056 66bf
000003b0: dd2a cabe d57e 223e 3838 213e e72d 8fbd
000003c0: ede4 81bf 9d89 16be b2aa d4bd 7b28 aa3e
000003d0: 8fdf bcbe 9abf a3be c9f6 7abf a446 863f
000003e0: e91e a7bf 93a7 e63d 503e 8dbf 926b c8be
000003f0: c0bf 37bf 7962 1b3f d85d 5b3f 3093 563f

t_modules.0.layers.0.0.qkv.weight f4 [96, 32]
0.123304196 -0.24884306 -0.16319549 0.13959695 -0.039590668 0.045909666 0.023187533 -0.12817387
0.056060795 0.10958297 -0.15750565 0.12834288 -0.19217308 0.02753376 -0.0072445516 0.034193333
-0.14580444 -0.095387325 0.0030860652 0.2234948 0.03763119 -0.14231253 0.24481519 0.11759747
-0.001139199 0.055727884 -0.021858647 0.0762427 -0.35611472 -0.17252402 0.13887674 -0.076319136
-0.14065827 -0.13364968 -0.03887549 0.021324592 0.125195 -0.15252124 -0.12591909 0.21793035
0.036860175 -0.16709465 0.2094462 -0.28656325 0.11379467 -0.04627719 0.040336493 0.14525416
0.08452453 0.010131042 0.052633785 -0.15319219 0.06755214 -0.089273445 0.12294801 -0.13486513
-0.11610211 -0.0102895 -0.056203183 0.055718426 -0.042805176 -0.06348522 -0.04223005 -0.010353337
-0.094113 0.092613555 0.117273875 0.024204148 0.0993513 -0.14227302 -0.1200951 0.16067854
0.061845228 -0.090926886 0.12159808 -0.10952883 0.025118819 -0.030244134 0.068914644 0.086136095
-0.012910277 0.07912685 0.06895463 -0.027599279 -0.018713228 0.085323125 0.00721842 -0.09386067
-0.088283055 -0.012506513 -0.06368757 -0.085678734 -0.005949238 0.03291882 0.016974129 -0.13529158
-0.083312176 0.12785754 0.16205099 0.037538096 0.13083473 -0.19746365 -0.13884787 0.19919667
0.050593317 -0.11832912 0.17919806 -0.20183189 0.14800961 -0.05333065 0.048718747 0.20665942
0.095293656 0.1832706 0.147558 -0.10730272 -0.17847194 0.118497886 -0.15639214 -0.19639935
-0.040531937 -0.027972247 -0.016906967 -0.10802861 0.17395115 0.054387465 -0.09705712 -0.09287858
0.11678583 -0.26191527 -0.16255122 0.15209353 -0.06623297 0.010783729 0.0016953046 -0.123257674
0.041957017 0.120465815 -0.20069388 0.19725843 -0.13762385 -0.0880382 -0.021827674 -0.007143811
-0.15790929 -0.17287084 -0.015880218 0.24575126 0.0057058036 -0.15861787 0.26010305 -0.03513455
0.04209288 0.038154695 -0.01728655 0.04263406 -0.25575292 -0.1700199 0.107777365 -0.13140143
0.034091827 0.24793296 0.33235246 0.0013559584 0.13818121 -0.22977781 -0.077229716 0.2141434
0.27559662 -0.0064376355 -0.16321294 -0.040195167 0.109711744 -0.09455159 0.0024221917 0.20102413
-0.07284861 0.15165763 0.28189152 0.08739251 -0.3310832 0.06588283 -0.21490082 -0.14838512
0.14302167 -0.17594023 -0.18746452 -0.2451333 0.14251076 -0.05407438 -0.09056949 -0.0861071
-0.040987503 0.15237528 0.086591795 -0.07072402 -0.041191854 -0.07946607 -0.009896481 -0.077479884
-0.045751326 0.03687952 -0.016616447 0.013041406 -0.006061163 0.032292902 -0.15732603 -0.14500557
0.13270782 0.08085722 0.0191507 -0.09007859 0.09055614 0.14022925 -0.19613431 0.10074719
0.2885363 -0.08051655 -0.11816369 0.0007933993 0.27867916 0.03430078 0.066448644 0.21137322
-0.27079964 -0.01643972 0.18978433 0.1277475 0.023735309 0.016724227 0.012464515 0.14257762
-0.14945914 -0.121286824 0.39136767 -0.21243323 0.19075534 0.058225095 -0.08235675 -0.08250229
0.21193334 -0.032327935 0.033125285 -0.2596407 -0.07103971 -0.019352706 -0.09625305 -0.0829522
-0.02821271 -0.06461037 0.13971092 0.04150614 0.010475223 0.061353285 -0.048416846 -0.040775117
00000000: e986 fc3d b7d0 7ebe b81c 27be 81f2 0e3e
00000010: d329 22bd c60b 3c3d c8f3 bd3c 0340 03be
00000020: 01a0 653d 096d e03d 2949 21be 516c 033e
00000030: 05c9 44be 7b8e e13c b463 edbb 4f0e 0c3d
00000040: c24d 15be 6e5a c3bd 953f 4a3b d2db 643e
00000050: 2a23 1a3d 60ba 11be d5b0 7a3e f1d6 f03d
00000060: 2d51 95ba ec42 643d e810 b3bc 2225 9c3d
00000070: ab54 b6be 23aa 30be b435 0e3e 354d 9cbd
00000080: b908 10be 76db 08be e83b 1fbd e9b0 ae3c
00000090: 1e33 003e 872e 1cbe eff0 00be 2229 5f3e
000000a0: b2fa 163d dc1a 2bbe 1179 563e 6bb8 92be
000000b0: 2e0d e93d 278d 3dbd e137 253d 82bd 143e
000000c0: 321b ad3d acfc 253c 8696 573d 6ade 1cbe
000000d0: c758 8a3d ffd4 b6bd 2bcc fb3d 161a 0abe
000000e0: f1c6 edbd 4a95 28bc 4f35 66bd 0139 643d
000000f0: 7b54 2fbd 8a04 82bd 6bf9 2cbd 0ba1 29bc
00000100: 51be c0bd 2dac bd3d 492d f03d c747 c63c
00000110: b278 cb3d 05b0 11be 6bf4 f5bd ea88 243e
00000120: 6c51 7d3d e037 babd 6a08 f93d a750 e0bd
00000130: fbc5 cd3c 8cc2 f7bc 1f23 8d3d 1f68 b03d
00000140: a085 53bc 420d a23d 1638 8d3d e217 e2bc
00000150: 7c4c 99bc e4bd ae3d 7f88 ec3b 063a c0bd
00000160: bfcd b4bd 1ee8 4cbc a16e 82bd 5578 afbd
00000170: d3f1 c2bb e2d5 063d 540d 8b3c e089 0abe
00000180: 939f aabd 16ed 023e b2f0 253e 8cc1 193d
00000190: 8af9 053e e933 4abe 232e 0ebe 36fa 4b3e
000001a0: f03a 4f3d 8a56 f2bd b27f 373e 05ad 4ebe
000001b0: d58f 173e 3d71 5abd 4f8d 473d 879e 533e
000001c0: 5229 c33d 4aab 3b3e 7219 173e 87c1 dbbd
000001d0: 59c1 36be 05af f23d 4325 20be e91c 49be
000001e0: d104 26bd 0e26 e5bc 7b80 8abc 1b3e ddbd
000001f0: 4020 323e 64c5 5e3d e2c5 c6bd 2037 bebd
00000200: 692d ef3d c219 86be d473 26be 68be 1b3e
00000210: 27a5 87bd 3dae 303c fc34 de3a 856e fcbd
00000220: 1fdb 2b3d c8b6 f63d b282 4dbe 1dfe 493e
00000230: 44ed 0cbe 5f4d b4bd f3cf b2bc a116 eabb
00000240: f9b2 21be 0e05 31be 3b17 82bc 38a6 7b3e
00000250: c0f7 ba3b b96c 22be 3a2c 853e 3fe9 0fbd
00000260: 9569 2c3d 1948 1c3d 869c 8dbc 0da1 2e3d
00000270: 0cf2 82be b219 2ebe 61ba dc3d 198e 06be
00000280: dfa3 0b3d 23e2 7d3e 1a2a aa3e 6aba b13a
00000290: 607f 0d3e e04a 6bbe 9d2a 9ebd 6848 5b3e
000002a0: 001b 8d3e cdf2 d2bb 4b21 27be b0a3 24bd
000002b0: 8db0 e03d 44a4 c1bd a2bd 1e3b 45d9 4d3e
000002c0: a731 95bd 234c 1b3e 1654 903e d8fa b23d
000002d0: bd83 a9be 94ed 863d f60e 5cbe 45f2 17be
000002e0: 4674 123e ad29 34be b3f6 3fbe 3904 7bbe
000002f0: 57ee 113e 197d 5dbd 7f7c b9bd eb58 b0bd
00000300: 83e2 27bd 4408 1c3e 0a57 b13d c1d7 90bd
00000310: cab8 28bd 1bbf a2bd da24 22bc c6ad 9ebd
00000320: be65 3bbd fb0e 173d 371f 88bc 9fab 553c
00000330: b89c c6bb 9045 043d 131a 21be 577c 14be
00000340: 8fe4 073e 7898 a53d eee1 9c3c 207b b8bd
00000350: 7f75 b93d 4298 0f3e 6fd7 48be 8b54 ce3d
00000360: 08bb 933e dce5 a4bd ceff f1bd 20fc 4f3a
00000370: 09af 8e3e fa7e 0c3d 3a16 883d 3972 583e
00000380: 40a6 8abe 97ac 86bc d356 423e 3ed0 023e
00000390: 8d70 c23c 3f01 893c f737 4c3c deff 113e
000003a0: d10b 19be 3a65 f8bd 5861 c83e 1988 59be
000003b0: 5e55 433e 707d 6e3d a8aa a8bd f6f6 a8bd
000003c0: 0e05 593e 4c6a 04bd 61ae 073d a0ef 84be
000003d0: 447d 91bd 9189 9ebc 5220 c5bd d8e2 a9bd
000003e0: 571e e7bc 7152 84bd 6110 0f3e 5802 2a3d
000003f0: 45a0 2b3c 954d 7b3d be50 46bd cf03 27bd

t_modules.0.layers.0.0.proj.weight f4 [32, 32]
0.034236547 -0.08445931 0.14858684 0.045411635 -0.18977395 -0.07655902 0.14249338 -0.10124623
0.024079595 0.02702896 -0.15712504 0.0089119915 0.07300711 0.05449089 -0.15890826 -0.26955408
0.16599736 -0.09875115 -0.14807224 -0.06490897 -0.04887026 0.008908143 -0.1278478 -0.078007214
-0.11357366 -0.015814262 -0.009119606 -0.026316987 -0.11861456 0.115471296 -0.033937573 -0.0534048
0.18021683 0.15744339 -0.21715939 -0.056896392 0.07470666 0.047765538 -0.06695556 -0.18883009
-0.10763107 0.06421158 0.10969385 -0.053915165 -0.107166916 0.022961972 0.13657106 0.13580205
-0.15743239 0.10842297 -0.18864882 -0.10611601 -0.08109066 0.015832145 0.07718452 -0.16683508
0.021677304 -0.07810537 0.34066176 -0.08012596 0.009627673 -0.070572756 -0.2861072 -0.36458203
0.119982496 0.011777389 0.011028667 0.06994094 -0.19657077 -0.16409785 0.12802583 0.07034538
-0.18659155 0.01882228 -0.18336117 0.23368233 0.060687475 0.13894844 -0.13189895 0.09371586
0.12699936 0.016633844 -0.25745717 0.036271572 0.10023149 0.0034052883 -0.096613705 -0.035677582
0.12754537 -0.12132118 0.06775697 -0.2274153 0.048139345 -0.028151736 0.27135053 0.122978926
0.11133479 -0.108501256 -0.13666376 0.05828634 0.11599542 0.075880595 -0.058397766 0.04247559
-0.061597873 -0.09158668 0.09069011 0.06449105 -0.07355091 -0.036897108 0.093758 0.073476866
-0.08669557 0.117762275 0.012162304 -0.15029939 0.095805004 0.08559723 0.10646964 -0.038851485
0.07699367 -0.0261606 -0.017411958 0.03819539 0.064909175 -0.041782923 0.027636884 -0.16471526
0.16524822 -0.12747127 -0.059500907 -0.016392153 0.05322839 -0.01969056 -0.17829657 -0.12956454
-0.006528925 -0.11094016 -0.13205269 0.05972467 -0.072554596 -0.17555724 -0.1383687 -0.10655153
-0.055515006 0.08246812 -0.42050305 -0.13503684 0.16728602 0.060970347 -0.23752488 0.2314365
-0.018121779 0.017275307 0.15432002 0.14376979 0.113283314 -0.13294816 -0.1008157 -0.09679667
-0.043917175 0.03629999 0.14443038 0.18206526 -0.07060665 0.103781894 0.011308843 -0.104206495
0.106702924 0.11260517 -0.24635203 -0.049971048 0.016192563 0.14461832 -0.008736429 0.052319385
0.011539677 -0.1773126 0.10899645 -0.044704493 -0.08227859 -0.027388401 -0.050551806 0.016034484
-0.05952631 -0.031125125 0.038073625 -0.08073895 -0.14909767 0.0148186525 0.10249824 -0.13780722
0.104280636 0.06515097 0.120354176 -0.052065574 0.048204858 0.21713614 -0.16629827 0.09107235
-0.0011752227 -0.02028791 0.3215058 -0.2356113 -0.001853632 0.21189746 0.19697855 0.102503285
-0.031865366 -0.025840646 0.20943108 0.07608194 -0.115105145 0.21960339 0.11037775 -0.030201042
0.1328708 0.1065789 -0.018442288 0.24094139 0.09190651 -0.119604655 0.18097855 -0.043546062
0.16440694 -0.03211452 -0.2426747 -0.0085154455 0.18743421 0.12778866 -0.35511354 0.0021795111
0.16833797 0.05976317 0.26272115 0.060692813 -0.042347785 0.2001393 -0.29293248 0.13082236
-0.008750603 0.010162029 -0.087860115 -0.048535757 0.1883521 0.081274316 0.0076642106 0.15857022
-0.21531396 0.036377255 0.042776827 -0.09701308 -0.13695687 -0.33043107 0.07401537 0.3658645
00000000: 9f3b 0c3d 01f9 acbd 2627 183e 8d01 3a3d
00000010: 1a54 42be faca 9cbd c9e9 113e 2f5a cfbd
00000020: 9242 c53c d66b dd3c 63e5 20be 9a03 123c
00000030: c084 953d d731 5f3d d9b8 22be fe02 8abe
00000040: 36fb 293e 0b3e cabd 40a0 17be feee 84bd
00000050: 2f2c 48bd 76f3 113c 89ea 02be 3fc2 9fbd
00000060: 4f99 e8bd e98c 81bc 666a 15bc b996 d7bc
00000070: 31ec f2bd 377c ec3d 2002 0bbd febe 5abd
00000080: c38a 383e d738 213e 085f 5ebe 310c 69bd
00000090: ceff 983d cca5 433d ff1f 89bd ad5c 41be
000000a0: ae6d dcbd 5c81 833d 2ba7 e03d 26d6 5cbd
000000b0: 547a dbbd bf1a bc3c 49d9 0b3e b10f 0b3e
000000c0: f535 21be dd0c de3d 282d 41be 5a53 d9bd
000000d0: dc12 a6bd 6ab2 813c eb12 9e3d d1d6 2abe
000000e0: 9a94 b13c b5f5 9fbd 386b ae3e 1419 a4bd
000000f0: 63bd 1d3c 7388 90bd a57c 92be 7faa babe
00000100: 62b9 f53d f3f5 403c 95b1 343c 323d 8f3d
00000110: d949 49be 4409 28be 3419 033e 3d11 903d
00000120: db11 3fbe 2f31 9a3c 08c3 3bbe 6c4a 6f3e
00000130: 6e93 783d 8048 0e3e 8510 07be 1aee bf3d
00000140: 1f0c 023e b343 883c 6dd1 83be 8091 143d
00000150: 2b46 cd3d 422b 5f3b 68dd c5bd a822 12bd
00000160: 419b 023e 3d77 f8bd 2bc4 8a3d 8edf 68be
00000170: c32d 453d 789e e6bc 75ee 8a3e 60dc fb3d
00000180: 7f03 e43d e835 debd 96f1 0bbe a8bd 6e3d
00000190: 028f ed3d 4967 9b3d 7f32 6fbd e2fa 2d3d
000001a0: 0d4e 7cbd cc91 bbbd bdbb b93d e213 843d
000001b0: dca1 96bd 6c21 17bd 3204 c03d 0a7b 963d
000001c0: 728d b1bd 592d f13d 6644 473c 15e8 19be
000001d0: 6a35 c43d 9a4d af3d c10c da3d bc22 1fbd
000001e0: dbae 9d3d c14e d6bc 86a3 8ebc c572 1c3d
000001f0: 1aef 843d 9224 2bbd bf66 e23c 1eab 28be
00000200: d436 293e d487 02be 39b7 73bd d648 86bc
00000210: 0306 5a3d 194e a1bc 6093 36be 91ac 04be
00000220: 98f0 d5bb 9834 e3bd d238 07be dba1 743d
00000230: 8197 94bd 47c5 33be 86b0 0dbe b037 dabd
00000240: b463 63bd 0ce5 a83d 2d4c d7be 1947 0abe
00000250: 074d 2b3e 0bbc 793d b939 73be b1fd 6c3e
00000260: 2074 94bc f284 8d3c 1106 1e3e 6338 133e
00000270: 1501 e83d 9023 08be 7678 cebd 553d c6bd
00000280: 7fe2 33bd 4caf 143d 8fe5 133e 516f 3a3e
00000290: 389a 90bd 9a8b d43d ba48 393c 376a d5bd
000002a0: 1087 da3d 8a9d e63d b543 7cbe 71ae 4cbd
000002b0: 44a6 843c d316 143e 3d23 0fbc da4c 563d
000002c0: ea10 3d3c 6f91 35be 8839 df3d 0f1c 37bd
000002d0: ad81 a8bd a45d e0bc 690f 4fbd c05a 833c
000002e0: dcd1 73bd 1efa febc 17f3 1b3d 765a a5bd
000002f0: 0fad 18be efc9 723c 99ea d13d 561d 0dbe
00000300: 1691 d53d df6d 853d 407c f63d b642 55bd
00000310: 7572 453d f058 5e3e 184a 2abe 2484 ba3d
00000320: ee09 9aba d532 a6bc 699c a43e 1744 71be
00000330: 92f5 f2ba a6fb 583e bfb4 493e 3eed d13d
00000340: 4285 02bd c3af d3bc 1a75 563e d9d0 9b3d
00000350: 3fbc ebbd b6df 603e bb0d e23d 2d68 f7bc
00000360: 480f 083e 0a46 da3d 4814 97bc 57b9 763e
00000370: 7b39 bc3d 49f3 f4bd 7152 393e 5b5d 32bd
00000380: 4b5a 283e 848a 03bd b77f 78be 5e84 0bbc
00000390: c1ee 3f3e 08db 023e 71d1 b5be 21d6 0e3b
000003a0: ca60 2c3e 3aca 743d 6383 863e 0799 783d
000003b0: df74 2dbd 51f1 4c3e 3ffb 95be 4cf6 053e
000003c0: b05e 0fbc a47e 263c 01f0 b3bd 6ecd 46bd
000003d0: 5fdf 403e 2673 a63d 0f24 fb3b 3b60 223e
000003e0: 437b 5cbe 5100 153d c136 2f3d cbae c6bd
000003f0: 6c3e 0cbe 432e a9be 5f95 973d 9752 bb3e

t_modules.0.layers.0.0.proj.bias f4 [32]
-0.040659703 0.052741617 0.09802598 0.0060721235 0.061642464 -0.06640899 -0.016789392 0.0012657837
0.06507755 -0.06289837 -0.040262785 0.12706333 -0.06558572 -0.057674382 -0.0659143 0.043328714
0.039187856 0.019965142 0.11479045 0.12120173 -0.080396496 0.09845444 0.043274753 0.026120218
0.0379476 -0.05652904 -0.11423732 0.08146634 0.07097912 -0.08617411 0.020813584 0.03801399
00000000: ca8a 26bd 9807 583d d8c1 c83d aaf8 c63b
00000010: cf7c 7c3d 7001 88bd e889 89bc a7e8 a53a
00000020: 6147 853d dcd0 80bd 97ea 24bd e41c 023e
00000030: ce51 86bd f93b 6cbd 14fe 86bd 7379 313d
00000040: 7283 203d f08d a33c 4117 eb3d 9d38 f83d
00000050: eba6 a4bd 7ba2 c93d de40 313d 11fa d53c
00000060: f16e 1b3d ff8a 67bd 42f5 e9bd d3d7 a63d
00000070: 805d 913d 0d7c b0bd 4081 aa3c 8fb4 1b3d

t_modules.0.layers.0.1.norm.weight f4 [32]
0.97163504 1.0237693 0.84042066 1.0507839 1.06489 0.96327776 0.9175184 0.81022346
0.9463771 0.8210084 0.99695 1.0044544 0.97573626 0.705869 0.93437123 0.95004493
1.0313345 0.86105734 0.95577455 1.016058 0.84307337 1.0556315 0.9760123 0.8973835
1.0376412 0.96703315 0.9365731 0.9104212 1.079249 0.94202715 0.7195005 0.98420703
00000000: 13bd 783f df0a 833f cf25 573f 1680 863f
00000010: 514e 883f 5f99 763f 7ce2 6a3f ce6a 4f3f
00000020: c545 723f 9b2d 523f 1d38 7f3f f691 803f
00000030: dac9 793f d5b3 343f f432 6f3f 2536 733f
00000040: c502 843f 416e 5c3f a4ad 743f 300e 823f
00000050: a8d3 573f ef1e 873f f1db 793f edba 653f
00000060: 6dd1 843f 7c8f 773f 41c3 6f3f 5d11 693f
00000070: d524 8a3f b128 713f 2f31 383f fef4 7b3f

t_modules.0.layers.0.1.norm.bias f4 [32]
-0.038190234 -0.05173654 0.051927064 -0.028873395 -0.03415161 -0.004278862 0.009743159 -0.075889334
-0.03295308 -0.008700749 0.014043252 0.02384594 0.04093559 -0.07520328 0.025903048 -0.030821167
0.041143615 -0.024584146 0.114811465 -0.014711797 0.025614906 0.007557764 -0.062678374 -0.012049292
-0.03503632 -0.05726327 0.083885334 0.059563562 0.0409902 -0.0052700853 0.022634238 -0.07238533
00000000: 5d6d 1cbd b2e9 53bd 79b1 543d e687 ecbc
00000010: 8fe2 0bbd b235 8cbb c5a1 1f3c de6b 9bbd
00000020: cff9 06bd 968d 0ebc ab15 663c 9058 c33c
00000030: 14ac 273d 2d04 9abd a132 d43c ac7c fcbc
00000040: 3586 283d b164 c9bc 4622 eb3d c009 71bc
00000050: 5ad6 d13c 1fa7 f73b 855d 80bd 656a 45bc
00000060: 3f82 0fbd e48c 6abd 13cc ab3d ecf8 733d
00000070: 57e5 273d aeb0 acbb 706b b93c c33e 94bd

t_modules.0.layers.0.1.fn.net.0.weight f4 [64, 32]
0.038540438 -0.0446079 0.13161315 0.1445161 0.024570193 0.103105515 -0.11392565 -0.17588246
0.06026862 0.18689637 -0.058963332 -0.0034353833 0.0845767 0.11851363 -0.063696556 -0.03705953
-0.023422744 -0.054806873 -0.14208269 -0.008408853 0.054943733 -0.22463474 -0.099808864 0.15495564
0.1939491 -0.07634978 -0.026259864 -0.07406299 -0.121531285 -0.15053464 0.01034283 -0.008615956
-0.04251778 -0.09002473 0.06133761 0.12554403 -0.011338184 -0.017727664 -0.08165689 0.0014264648
0.10704623 -0.031482305 0.16690725 -0.00012695833 0.19096841 0.06736675 0.024040734 -0.18079379
0.05458276 -0.034880143 -0.28628045 -0.1645137 -0.012774683 0.21819519 0.14159729 -0.119346835
-0.2686486 -0.01875983 0.111999586 0.11399296 -0.3678136 -0.10363678 -0.05516969 0.21606882
-0.011428411 -0.057486113 0.17836146 0.06665435 0.06049462 -0.04168323 -0.034674753 -0.016826408
-0.16871308 0.100575626 -0.22669558 -0.068693385 0.08475266 0.042017374 0.03515018 0.038778305
-0.1396175 -0.18462117 -0.11729632 -0.09197793 -0.0034921754 -0.0426856 -0.116164215 0.06295746
-0.0496201 0.10050037 0.028817058 -0.04692586 -0.06488144 0.07792855 -0.0888746 -0.0065614735
-0.087073594 0.09402615 0.04926494 0.0860636 -0.038234025 0.031823605 0.019505853 0.009332834
0.06581704 0.14669628 0.032869298 0.015404402 -0.07691898 -0.09455961 -0.052118916 0.11491747
0.102476865 0.045640837 -0.09718209 0.010973261 -0.09725087 0.3233827 -0.02546594 0.11969357
-0.17348118 0.014206305 0.014013614 0.10049052 -0.122017704 -0.19460328 0.061841927 0.0020440668
-0.021056283 -0.017771779 -0.05826803 -0.09055966 0.0550963 -0.03733886 0.1538533 0.017328674
-0.02394535 -0.018339701 -0.04726394 -0.029689442 0.07014205 0.10577104 0.12696463 -0.18419994
0.035547458 -0.11869894 -0.041764364 -0.15142854 0.02076667 0.093745135 0.00036235357 -0.18373552
-0.11595681 0.06906366 0.12776764 0.06796657 0.077231206 0.23443407 0.07404247 0.06621072
0.15063412 0.12148464 0.032235768 0.20555529 -0.14308648 0.09804648 0.17703128 -0.12770855
-0.18889007 0.05126565 0.22586183 -0.06724832 -0.011194501 -0.08321226 -0.22574706 -0.10762904
0.2146238 -0.03359198 0.13108847 -0.15480827 -0.11296224 -0.05264828 -0.10276343 0.13806863
0.0973203 -0.34486786 -0.09044389 0.05321915 -0.038414918 0.1342613 0.0075165182 0.28531358
-0.07099054 0.054384537 -0.0961728 -0.20474118 0.029678546 -0.060744073 0.1080702 0.010050166
-0.058492117 -0.031723376 -0.08096654 -0.06753441 -0.0088992305 0.04097651 -0.005385758 -0.0033156073
-0.057038113 0.04419564 -0.05617414 0.057706714 -0.09477596 0.057828844 -0.16443498 0.011369426
-0.03931249 -0.06082436 -0.008927441 -0.034520835 -0.09235193 0.018211102 -0.03580862 -0.015825907
-0.04259184 -0.11084145 -0.1031692 -0.048441432 -0.056891885 0.10231768 0.28650144 -0.025331464
-0.1966973 -0.03194476 -0.15184584 -0.01260117 0.081385836 0.17475855 -0.055845473 -0.26473445
0.31075916 0.031982522 -0.20340876 0.09206171 -0.0014614038 0.09577742 0.11742139 0.0612041
-0.078220695 -0.20733458 0.05589685 0.10924216 0.13010387 0.18934605 0.1924643 0.14655186
00000000: 94dc 1d3d c6b6 36bd 99c5 063e 07fc 133e
00000010: 6e47 c93c fc28 d33d da51 e9bd 881a 34be
00000020: 3adc 763d c361 3f3e 8983 71bd 2b24 61bb
00000030: 8d36 ad3d 46b7 f23d 5773 82bd bccb 17bd
00000040: 0ee1 bfbc 2c7d 60bd 207e 11be 49c5 09bc
00000050: ae0c 613d a606 66be 9768 ccbd b1ac 1e3e
00000060: 989a 463e 465d 9cbd ed1e d7bc 56ae 97bd
00000070: 65e5 f8bd c125 1abe f974 293c f029 0dbc
00000080: 2027 2ebd e35e b8bd 253d 7b3d 9d8e 003e
00000090: cac3 39bc 9b39 91bc ba3b a7bd 37f8 ba3a
000000a0: 0e3b db3d 97f3 00bd bce9 2a3e 1e20 05b9
000000b0: 398d 433e 94f7 893d 13f1 c43c 0222 39be
000000c0: 2c92 5f3d 7bde 0ebd 5a93 92be 4876 28be
000000d0: e74c 51bc 8f6e 5f3e e1fe 103e 1d6c f4bd
000000e0: 4f8c 89be 37ae 99bc 0a60 e53d 2475 e93d
000000f0: 1052 bcbe 853f d4bd 9df9 61bd 2541 5d3e
00000100: 3b3e 3bbc 8f76 6bbd 63a4 363e 1382 883d
00000110: 35c9 773d 09bc 2abd 1d07 0ebd 89d7 89bc
00000120: 1fc3 2cbe 98fa cd3d e322 68be 1eaf 8cbd
00000130: cd92 ad3d 691a 2c3d a3f9 0f3d 00d6 1e3d
00000140: e4f7 0ebe 550d 3dbe 0e39 f0bd ed5e bcbd
00000150: fbdc 64bb 19d7 2ebd 81e7 edbd d7ef 803d
00000160: 723e 4bbd 23d3 cd3d c011 ec3c 5535 40bd
00000170: 8fe0 84bd 0199 9f3d e303 b6bd a101 d7bb
00000180: a453 b2bd c890 c03d 09ca 493d 1d42 b03d
00000190: 489b 1cbd 7859 023d bdca 9f3c bee8 183c
000001a0: 16cb 863d 8d37 163e f5a1 063d bf62 7c3c
000001b0: b387 9dbd 78a8 c1bd a57a 55bd da59 eb3d
000001c0: 64df d13d e3f1 3a3d 6707 c7bd 31c9 333c
000001d0: 772b c7bd 6b92 a53e f29d d0bc e721 f53d
000001e0: 0da5 31be 90c1 683c 5b99 653c f9cd cd3d
000001f0: 6be4 f9bd 1546 47be f64d 7d3d c0f5 053b
00000200: 3a7e acbc 1f96 91bc 75aa 6ebd 5877 b9bd
00000210: a8ac 613d a2f0 18bd b88b 1d3e ddf4 8d3c
00000220: 0a29 c4bc 243d 96bc d597 41bd 4637 f3bc
00000230: a3a6 8f3d 7d9e d83d 0403 023e e99e 3cbe
00000240: 369a 113d 6e18 f3bd 1c11 2bbd 1510 1bbe
00000250: dd1e aa3c 73fd bf3d 46fa bd39 2a25 3cbe
00000260: c47a edbd 4071 8d3d 85d5 023e 0f32 8b3d
00000270: 652b 9e3d 7c0f 703e 94a3 973d 7c99 873d
00000280: d53f 1a3e f0cc f83d a709 043d 167d 523e
00000290: 4385 12be 98cc c83d b047 353e 08c6 02be
000002a0: 666c 41be eefb 513d 5348 673e 7db9 89bd
000002b0: 2469 37bc 306b aabd 3d2a 67be 9d6c dcbd
000002c0: 57c6 5b3e be97 09bd 0e3c 063e 0f86 1ebe
000002d0: bf58 e7bd b9a5 57bd a275 d2bd dd61 0d3e
000002e0: de4f c73d 8592 b0be a53a b9bd 53fc 593d
000002f0: f658 1dbd cb7b 093e 204d f63b 9f14 923e
00000300: 7d63 91bd 52c2 5e3d 3ff6 c4bd aca7 51be
00000310: 6c20 f33c c7ce 78bd e953 dd3d 74a9 243c
00000320: 6e95 6fbd 5ff0 01bd c9d1 a5bd 7b4f 8abd
00000330: 14ce 11bc fcd6 273d 037b b0bb a94a 59bb
00000340: cca0 69bd 7d06 353d db16 66bd e05d 6c3d
00000350: e619 c2bd f0dd 6c3d a561 28be d446 3a3c
00000360: 2206 21bd f722 79bd 6744 12bc b865 0dbd
00000370: 0223 bdbd 732f 953c 0fac 12bd 55a5 81bc
00000380: c874 2ebd d800 e3bd 604a d3bd 866a 46bd
00000390: 7707 69bd ef8b d13d 51b0 923e ee83 cfbc
000003a0: 046b 49be 82d8 02bd 7a7d 1bbe 2375 4ebc
000003b0: 9ead a63d e8f3 323e 39be 64bd 468b 87be
000003c0: d31b 9f3e 1b00 033d 634a 50be da8a bc3d
000003d0: 938c bfba f426 c43d a07a f03d 26b1 7a3d
000003e0: 2c32 a0bd 844f 54be 18f4 643d 5bba df3d
000003f0: f339 053e eee3 413e 5d15 453e b111 163e

t_modules.0.layers.0.1.fn.net.0.bias f4 [64]
-0.03968089 -0.25816375 -0.14462683 -0.03236314 -0.05842923 -0.026015168 -0.17495848 0.08057736
-0.1629642 -0.059272647 -0.01264341 -0.0038075494 -0.11931633 -0.16381028 -0.088659965 -0.111709915
-0.0398329 -0.020426312 0.050268482 -0.11248997 -0.15249702 -0.14558913 0.1793693 -0.1712809
0.0086036315 -0.100795425 0.028099502 -0.13439465 0.10340015 -0.05982113 -0.10574056 0.04658877
-0.057567663 -0.14351997 0.007925759 -0.1520232 -0.08819641 -0.005026372 -0.04363298 -0.03394233
-0.12829213 0.011621518 -0.2040209 0.04128122 0.069408484 -0.20455846 -0.026513118 0.017244123
-0.07948171 -0.023298873 -0.17054875 -0.07064295 0.00909117 0.02518461 -0.0028421003 -0.04569437
-0.18694486 -0.09982135 -0.18508272 -0.16296272 -0.10524545 0.010389877 0.025984263 -0.15742846
00000000: 6e88 22bd 0a2e 84be 0e19 14be 368f 04bd
00000010: 7d53 6fbd c31d d5bc 5128 33be be05 a53d
00000020: 16e0 26be e0c7 72bd 4e26 4fbc 1488 79bb
00000030: 1f5c f4bd e2bd 27be 5b93 b5bd 2bc8 e4bd
00000040: d327 23bd 1555 a7bc 53e6 4d3d 2461 e6bd
00000050: 2e28 1cbe 5115 15be 96ac 373e 4364 2fbe
00000060: 3ff6 0c3c d56d cebd ed30 e63c c09e 09be
00000070: 75c3 d33d 0007 75bd 828e d8bd ded3 3e3d
00000080: 12cc 6bbd e6f6 12be 0bdb 013c f8ab 1bbe
00000090: 52a0 b4bd 44b4 a4bb 7fb8 32bd 1d07 0bbd
000000a0: 035f 03be 2e68 3e3c dbea 50be 7f16 293d
000000b0: 0926 8e3d c677 51be 0a32 d9bc 8c43 8d3c
000000c0: 4fc7 a2bd 47dd bebc 55a4 2ebe 40ad 90bd
000000d0: 21f3 143c f54f ce3c 8842 3abb 052a 3bbd
000000e0: 796e 3fbe 236f ccbd 5386 3dbe b3df 26be
000000f0: ed8a d7bd 4d3a 2a3c f3dc d43c ed34 21be

t_modules.0.layers.0.1.fn.net.3.weight f4 [32, 64]
-0.0055084107 0.0006529602 -0.015633656 -0.05566671 0.06677736 -0.018086059 -0.02749046 0.052199233
-0.044554804 0.057664875 -0.04616795 -0.061341353 -0.0686158 -0.0044017 -0.033546463 -0.07299493
0.08508275 -0.12309338 0.008092185 0.036995497 -0.055183727 0.044648398 -0.029171046 0.13478485
-0.043126658 -0.14924264 -0.027219193 -0.11666551 0.07524445 0.017495792 -0.007887111 -0.083435304
-0.058292527 -0.046959706 -0.045884278 0.03352505 -0.11739994 -0.05431121 -0.07717228 -0.030280536
0.011555366 -0.036249436 -0.0084570795 0.051853165 -0.02958999 0.01975621 -0.13950484 0.0124537535
-0.091605134 -0.07624607 0.07143539 -0.016132139 0.1472721 -0.08939316 -0.031995114 -0.08434792
-0.0034312634 0.08246572 -0.05993415 0.013902767 -0.13342066 0.14080207 -0.17341505 -0.036199473
-0.08168287 -0.07671339 0.011749977 0.0059988536 0.11257121 -0.08392035 -0.011247202 -0.18817163
-0.0070461775 -0.011816944 0.059305426 -0.14199373 0.008956718 -0.0008302376 0.07193649 0.045919083
-0.010128725 0.10391807 0.0022729088 -0.23554973 -1.6713498e-06 -0.12840769 -0.05734585 0.12952381
0.10163411 0.1076244 -0.1655341 -0.017121209 0.07054627 0.09362783 0.03059055 -0.003554976
-0.04857625 0.0027116043 0.055412173 -0.075514056 0.14506413 -0.00685047 -0.011956324 0.02190455
-0.16935983 0.09357979 -0.031773392 -0.052194204 0.104465924 0.24721622 -0.0054500364 0.10844995
0.059286408 0.066148266 -0.025490772 -0.009742409 -0.18907848 -0.12027791 0.13637063 0.09657912
-0.07515623 0.04604395 0.18330403 -0.011549143 0.099100195 0.037255384 0.034308523 -0.032610312
0.17281713 -0.1623165 0.1074592 0.057532445 -0.08493397 0.1650742 0.030977938 -0.043503165
0.04131585 -0.010516291 -0.07984781 0.050605264 0.0020240357 -0.030090297 -0.13172092 0.116670355
0.14993201 -0.008651369 0.017043706 -0.115986444 0.0025340833 0.15029107 0.01958807 -0.26831216
0.013043363 0.048526883 -0.0598005 -0.02031718 -0.020662334 0.01833599 0.06994877 0.091646194
-0.062478375 0.0038801352 0.020280851 0.10599709 0.08348586 0.12536445 0.0062616975 -0.06714208
-0.040060014 -0.004495321 0.025368866 0.048541006 0.002412717 0.0417355 0.22785144 -0.0530604
-0.028085982 0.1761521 -0.06339287 0.09079804 0.17407627 -0.013731719 0.0641555 -0.07175412
0.0054010316 -0.015540362 -0.005218737 0.012107789 -0.015066055 -0.14021814 0.08747749 0.14127174
-0.030325139 0.061270535 0.037777543 -0.07699495 0.055817086 -0.014697336 0.00053415087 0.0017258207
0.0021323261 -0.11149973 -0.10055377 -0.008513042 -0.02775959 0.07823813 -0.050979376 0.09439903
-0.013702637 0.071950674 -0.08296568 0.057044003 0.025977714 0.0053800223 -0.06945404 -0.05838233
-0.03522199 0.011215797 -0.005943658 -0.13114199 -0.078650236 0.029631123 -0.07485269 -0.0027358558
-0.07676959 -0.02737321 -0.06205164 -0.083247386 -0.038220987 -0.006959603 0.13517371 -0.034156233
-0.080307476 0.047673054 -0.046953283 -0.115924284 0.043037035 -0.011028564 0.022284057 0.0007731219
-0.03963929 0.07170446 0.052800145 -0.07734685 -0.07331443 0.020300098 -0.089188576 0.017611837
0.06617741 -0.09553536 -0.016378803 0.036688 -0.02014277 -0.033657603 0.012328 -0.029733205
00000000: e67f b4bb 6b2b 2b3a 2712 80bc c702 64bd
00000010: 92c2 883d 3729 94bc ac33 e1bc ddce 553d
00000020: 197f 36bd 0132 6c3d 9b1a 3dbd 1241 7bbd
00000030: 7186 8cbd 233c 90bb 0468 09bd 5e7e 95bd
00000040: dd3f ae3d 6218 fcbd 1595 043c 9788 173d
00000050: 5508 62bd 3de1 363d 1ef8 eebc 0a05 0a3e
00000060: 94a5 30bd 10d3 18be c9fa debc 54ee eebd
00000070: c319 9a3d 5653 8f3c f138 01bc 21e0 aabd
00000080: 25c4 6ebd d258 40bd 27f1 3bbd 9051 093d
00000090: 616f f0bd 6e75 5ebd 800c 9ebd e30e f8bc
000000a0: b852 3d3c 4a7a 14bd 908f 0abc fc63 543d
000000b0: b566 f2bc c6d7 a13c 5bda 0ebe d40a 4c3c
000000c0: 799b bbbd e626 9cbd b84c 923d 8c27 84bc
000000d0: 7fce 163e c313 b7bd 4f0d 03bd 9abe acbd
000000e0: 0cdf 60bb cae3 a83d 837d 75bd 6ec8 633c
000000f0: 6d9f 08be 6b2e 103e b793 31be e645 14bd
00000100: 5949 a7bd e91b 9dbd fa82 403c 0892 c43b
00000110: bc8b e63d 6fde abbd 2f46 38bc 10b0 40be
00000120: 9fe3 e6bb db9b 41bc 3fea 723d ce66 11be
00000130: 33bf 123c 4da4 59ba 7053 933d a615 3c3d
00000140: f4f2 25bc ffd2 d43d 15f5 143b f333 71be
00000150: 2453 e0b5 4e7d 03be 7be3 6abd e4a1 043e
00000160: 8b25 d03d 2e6a dc3d c581 29be c741 8cbc
00000170: 907a 903d f3bf bf3d 0899 fa3c 9afa 68bb
00000180: e4f7 46bd 2cb5 313b e0f7 623d 1da7 9abd
00000190: b18b 143e e879 e0bb 75e4 43bc 2c71 b33c
000001a0: aa6c 2dbe c3a6 bf3d d124 02bd 97c9 55bd
000001b0: 3bf2 d53d 4026 7d3e 3896 b2bb 021b de3d
000001c0: 4ed6 723d be78 873d 06d2 d0bc a09e 1fbc
000001d0: ca9d 41be 4454 f6bd bea4 0b3e 46cb c53d
000001e0: 82eb 99bd 9598 3c3d 0db4 3b3e 9e38 3dbc
000001f0: 0bf5 ca3d 1a99 183d 1887 0c3d 6492 05bd
00000200: f9f6 303e 4c36 26be 9213 dc3d 24a7 6b3d
00000210: dcf1 adbd 3609 293e 72c5 fd3c 6030 32bd
00000220: cf3a 293d 854c 2cbc 4087 a3bd 7747 4f3d
00000230: afa5 043b ed7f f6bc d9e1 06be def0 ee3d
00000240: c787 193e 79be 0dbc 3e9f 8b3c 4d8a edbd
00000250: dd12 263b e7e5 193e 2977 a03c 3660 89be
00000260: d4b3 553c 20c4 463d 5ef1 74bd 3770 a6bc
00000270: 0e44 a9bc 5c35 963c 4d41 8f3d 00b1 bb3d
00000280: 53e9 7fbd de49 7e3b 0724 a63c 0115 d93d
00000290: a2fa aa3d 8a5f 003e ed2e cd3b c981 89bd
000002a0: f815 24bd 7c4d 93bb 5ed2 cf3c efd2 463d
000002b0: ad1e 1e3b d8f2 2a3d e351 693e dd55 59bd
000002c0: 9314 e6bc 3761 343e 1fd4 81bd 53f4 b93d
000002d0: 0d41 323e 01fb 60bc f563 833d d3f3 92bd
000002e0: 23fb b03b 019d 7ebc f001 abbb bf5f 463c
000002f0: 9dd7 76bc 5895 0fbe 6627 b33d 8aa9 103e
00000300: 6d6c f8bc d0f6 7a3d a0bc 1a3d 87af 9dbd
00000310: 75a0 643d 18cd 70bc 4206 0c3a ef34 e23a
00000320: 7fbe 0b3b f859 e4bd 23ef cdbd 497a 0bbc
00000330: 1468 e3bc 503b a03d c0cf 50bd 4754 c13d
00000340: 0681 60bc e05a 933d e9e9 a9bd f9a6 693d
00000350: 37cf d43c e64a b03b eb3d 8ebd 4f22 6fbd
00000360: ef44 10bd 76c2 373c 04c3 c2bb 164a 06be
00000370: 6013 a1bd f8bc f23c 5e4c 99bd 0b4c 33bb
00000380: 6039 9dbd c83d e0bc dc29 7ebd 9b7d aabd
00000390: 9c8d 1cbd 620d e4bb fa6a 0a3e 68e7 0bbd
000003a0: 3f78 a4bd d244 433d 1652 40bd b669 edbd
000003b0: 9a47 303d 26b1 34bc 0e8d b63c 55ab 4a3a
000003c0: cf5c 22bd cad9 923d f744 583d 0668 9ebd
000003d0: e025 96bd 644c a63c 80a8 b6bd b346 903c
000003e0: 0688 873d 0ba8 c3bd d72c 86bc 2846 163d
000003f0: 7302 a5bc 8edc 09bd 61fb 493c 0d93 f3bc

t_modules.0.layers.0.1.fn.net.3.bias f4 [32]
-0.07824642 0.0018112815 0.08076109 -0.07274804 0.1176577 -0.13588068 0.0031036143 0.078069635
0.027077135 -0.0034184298 -0.036880463 -0.035639014 0.06839605 -0.022952894 0.042658713 0.019921828
-0.054225694 0.030508965 0.048736308 0.009468999 -0.058484398 -0.029641848 0.05127089 -0.05501964
0.02100869 0.0013538414 0.058373332 0.041773304 0.00061315537 -0.046493232 -0.016371962 -0.05569175
00000000: a93f a0bd 8668 ed3a 1266 a53d edfc 94bd
00000010: 85f6 f03d 4e24 0bbe 0266 4b3b f9e2 9f3d
00000020: ded0 dd3c bc07 60bb f80f 17bd 37fa 11bd
00000030: 3a13 8c3d b507 bcbc e7ba 2e3d 1a33 a33c
00000040: c31b 5ebd f0ed f93c b99f 473d dc23 1b3c
00000050: 568d 6fbd 76d3 f2bc 6d01 523d 465c 61bd
00000060: 6b1a ac3c 6173 b13a e018 6f3d 7c1a 2b3d
00000070: 29bc 203a b06f 3ebd 7e1e 86bc 081d 64bd

t_modules.1.pos_embedding f4 [1, 12, 32]
1.1297649 0.087439194 -0.9627169 -1.3938802 0.14373867 -0.4827509 0.46741855 0.8754863
0.47507292 0.28584477 -0.36166617 -0.056828044 0.8760452 -0.057407953 0.49845862 0.35586986
-0.037564486 -0.094366975 0.4644659 0.48405373 -0.17150392 0.5374378 0.4030172 -0.4074565
0.5376311 -0.3641814 0.91587156 1.1371797 -1.1210662 0.4085198 -0.0126907965 -0.2781004
-0.27804288 0.48467335 0.3413079 0.22206293 0.8018698 -0.87401223 0.07760824 -0.5059855
0.23481292 1.0546722 1.0394512 0.41799 -0.053978845 -0.32398596 0.44041032 -0.1304073
0.13902853 -0.31579247 0.23438247 0.7142584 0.29808128 -0.44731474 0.13392396 0.06602052
-0.18883836 -0.2803083 0.53384554 0.49140754 0.06721733 0.36545905 0.45516536 0.19651738
0.32224974 -0.6133274 0.40274104 0.074087545 0.06675662 0.38429123 0.25715587 -0.21479185
0.95377785 0.04335855 -0.13247116 0.38789845 0.007495937 -0.10740616 0.7824443 -0.13092253
0.13170917 0.1912186 -0.28677526 -0.6219847 0.009189525 0.112556465 0.1600194 0.062307075
-0.9368842 -1.3187956 0.47069365 -0.31194872 0.15776707 -0.7670932 -0.63966554 -0.0013172529
-0.14792675 0.17673253 -0.20116794 -0.6037268 0.3528858 -0.52674174 -0.30169356 -0.22112481
0.5725408 -0.2668364 -0.4745421 -0.25534743 0.13491651 0.3221735 -0.022720084 0.27205193
0.2750788 0.15673597 0.31184423 0.610462 0.5624407 -0.22657259 0.1955892 -0.16519831
-0.22216071 -0.18700652 -0.2531923 -0.9008847 -0.027864391 0.044922918 -0.2033865 0.011530686
-0.37418342 -0.41550407 -0.12763797 -0.35941786 -0.33507362 0.049623795 -0.36607024 -0.6762446
-0.18999723 0.45123574 0.30471894 -0.5546879 -0.20527844 0.12294403 -0.929843 -0.11436997
-0.021202415 0.40069267 0.055809535 -0.1076343 -0.106793806 0.37532288 0.1362779 -0.18414254
0.2626802 -0.36177567 0.41896817 -0.8618408 -0.40887162 0.6626205 -0.03878784 0.16316834
0.36666164 -0.1871794 -0.06902655 -0.40224174 0.39220503 -0.3254822 0.14441384 -0.03743318
-0.17727293 -0.036628164 0.06371354 -0.28814185 -0.0075322087 0.09247117 0.3905764 0.15352915
1.5104789 -0.2052715 0.47671744 0.053566493 0.12493031 0.47115088 0.030442845 -0.05785715
0.39088205 -0.20254599 -0.052069988 1.0131285 0.009703575 -0.3565549 0.11574881 0.15641962
0.44013995 -0.083825715 -0.17916334 -0.25691584 -0.6683038 0.76921 0.96579224 0.6394559
0.41783497 -0.19297686 0.23760577 -0.21830143 -0.5716008 -0.3128482 0.8199863 0.07642647
-0.25818318 0.17808191 0.04847831 0.16380131 0.15376568 -0.05382166 0.00747849 -0.06832786
0.27210367 -0.9749898 0.07184596 -0.45718268 0.05705331 0.12705362 -0.544449 0.08384277
0.0006215379 1.005605 0.23343314 0.42156202 -0.33100352 -0.3115035 -0.01858499 -0.21700749
0.013254819 0.35538715 0.21492636 -0.4780772 -0.13906252 0.27173603 0.8533903 -0.14490576
-0.6688862 -0.22764009 -0.27582452 0.22489326 -0.047427885 0.056906562 0.013079805 0.031191565
0.4888154 0.09043508 0.50132114 0.46060655 -0.33513656 -0.21683636 -0.05343247 -0.20007281
00000000: 239c 903f 5213 b33d 9d74 76bf ab6a b2bf
00000010: 3b30 133e 202b f7be 7c51 ef3e df1f 603f
00000020: c23c f33e 3f5a 923e 4f2c b9be 86c4 68bd
00000030: 8044 603f 9a24 6bbd f835 ff3e 9334 b63e
00000040: 38dd 19bd 7943 c1bd 79ce ed3e e4d5 f73e
00000050: b99e 2fbe 8695 093f 4558 ce3e 239e d0be
00000060: 31a2 093f fc75 babe 8f76 6a3f 1b8f 913f
00000070: 197f 8fbf 8229 d13e 0fed 4fbc 2d63 8ebe
00000080: a35b 8ebe 1b27 f83e e9bf ae3e 7764 633e
00000090: 5747 4d3f 44bf 5fbf 12f1 9e3d 4488 01bf
000000a0: cc72 703e 80ff 863f bd0c 853f c902 d63e
000000b0: ec18 5dbd 7de1 a5be 767d e13e 7e89 05be
000000c0: 7f5d 0e3e 8daf a1be f501 703e a3d9 363f
000000d0: 1c9e 983e 7006 e5be 5d23 093e c435 873d
000000e0: d85e 41be 9284 8fbe 1aaa 083f c599 fb3e
000000f0: 3da9 893d 731d bb3e 6f0b e93e da3b 493e
00000100: ebfd a43e 0603 1dbf 1334 ce3e 36bb 973d
00000110: b2b7 883d d2c1 c43e efa9 833e 65f2 5bbe
00000120: c92a 743f bc98 313d 85a6 07be a09a c63e
00000130: 7aa0 f53b c3f7 dbbd 454e 483f 8e10 06be
00000140: c5de 063e cfce 433e 35d4 92be 643a 1fbf
00000150: a98f 163c 0184 e63d 20dc 233e b435 7f3d
00000160: a5d7 6fbf 4bce a8bf c2fe f03e beb7 9fbe
00000170: b18d 213e 3860 44bf 1fc1 23bf aca7 acba
00000180: 1c7a 17be 5ff9 343e f8fe 4dbe d78d 1abf
00000190: 73ad b43e 8cd8 06bf 9477 9abe 8b6e 62be
000001a0: 0992 123f c89e 88be 2ff7 f2be e6bc 82be
000001b0: 8e27 0a3e edf3 a43e 781f babc 644a 8b3e
000001c0: 21d7 8c3e 657f 203e 0caa 9f3e 3d47 1c3f
000001d0: 1dfc 0f3f a502 68be 8948 483e bf29 29be
000001e0: 197e 63be a37e 3fbe 6ca2 81be 61a0 66bf
000001f0: dd43 e4bc 1801 383d 8d44 50be 34eb 3c3c
00000200: f894 bfbe f3bc d4be 87b3 02be 9e05 b8be
00000210: c58e abbe 5242 4b3d 8f6d bbbe 5e1e 2dbf
00000220: a28e 42be 5f08 e73e 1f04 9c3e 0700 0ebf
00000230: 8334 52be 14ca fb3d 310a 6ebf ce3a eabd
00000240: b0b0 adbc 9727 cd3e 8a98 643d 5f6f dcbd
00000250: b6b6 dabd 522a c03e 6f8c 0b3e dd8f 3cbe
00000260: 057e 863e a93a b9be ff82 d63e 99a1 5cbf
00000270: 9f57 d1be 7fa1 293f 00e0 1ebd 9a15 273e
00000280: 13bb bb3e f5ab 3fbe cb5d 8dbd a1f2 cdbe
00000290: 19cf c83e 9aa5 a6be 39e1 133e 8953 19bd
000002a0: 0987 35be 6a07 16bd 3f7c 823d 5487 93be
000002b0: bfd0 f6bb 8661 bd3d a1f9 c73e bf36 1d3e
000002c0: 5f57 c13f b132 52be 4f14 f43e 8a68 5b3d
000002d0: 76db ff3d b03a f13e 4663 f93c 9efb 6cbd
000002e0: b121 c83e 3768 4fbe 5747 55bd 32ae 813f
000002f0: befb 1e3c 5d8e b6be b60d ed3d 772c 203e
00000300: 065a e13e d1ac abbd 9876 37be 798a 83be
00000310: f515 2bbf f2ea 443f 293e 773f 62b3 233f
00000320: 77ee d53e ba9b 45be ed4e 733e 698a 5fbe
00000330: 6e54 12bf a42d a0be 9fea 513f 7b85 9c3d
00000340: 9630 84be 1b5b 363e 3191 463d 88bb 273e
00000350: c074 1d3e 1a74 5cbd 1f0e f53b 7aef 8bbd
00000360: 2c51 8b3e ee98 79bf fa23 933d d913 eabe
00000370: bbb0 693d 581a 023e 0261 0bbf c2b5 ab3d
00000380: b4ee 223a aab7 803f 1909 6f3e fad6 d73e
00000390: 4b79 a9be 637d 9fbe 8d3f 98bc 3637 5ebe
000003a0: be2a 593c 4ef5 b53e a815 5c3e 89c6 f4be
000003b0: 6866 0ebe fc20 8b3e c977 5a3f 2d62 14be
000003c0: 203c 2bbf 7c1a 69be df38 8dbe 6b4a 663e
000003d0: be43 42bd db16 693d ae4c 563c 7485 ff3c
000003e0: 0346 fa3e 0736 b93d 9556 003f 9fd4 eb3e
000003f0: 0597 abbe 5a0a 5ebe 01dc 5abd e3df 4cbe

t_modules.1.layers.0.0.qkv.weight f4 [96, 32]
-0.13546768 0.030342976 -0.084952965 0.14985402 -0.013690541 -0.034229934 -0.0018182675 -0.06481844
0.0026972906 0.06465019 0.08673853 0.14407559 -0.11318258 0.043956738 0.0035910627 0.18695289
-0.16912101 -0.13186127 -0.034294207 0.1694496 0.050285127 -0.08246166 -0.18985114 -0.012148689
0.15250199 0.23668867 -0.11647402 -0.000867792 -0.057995174 0.1475475 0.06860873 -0.0072386963
0.13033882 0.05819019 0.13175368 -0.13262658 -0.23101439 -0.018704014 -0.0028084384 -0.04058299
0.15871365 0.19002697 -0.23955584 -0.019634986 -0.15972766 -0.12324353 0.106377095 -0.023718948
-0.15170623 -0.13952479 -0.036445808 0.14775337 -0.13440484 -0.12862374 -0.038513903 0.17127816
0.2556253 -0.040710915 0.06751842 -0.2606552 0.0051975264 -0.024309179 -0.02262358 0.07831689
0.02274744 0.09717533 0.078958675 -0.082487896 -0.18086329 0.1823136 -0.0054403897 0.049312823
0.12948748 0.08901234 -0.08022067 0.13456607 -0.122277625 -0.11605408 -0.023097942 0.05796402
-0.06856622 -0.011542969 0.023252232 0.004298294 -0.21230142 0.023814892 -0.24044594 -0.05941616
0.21849959 0.04947752 0.040357724 -0.14139561 0.029508425 0.096441925 -0.06803192 -0.072691366
-0.013636637 -0.087163225 -0.15448904 -0.028034816 0.07620924 -0.016512243 -0.082997784 0.090624385
0.0515778 0.11745545 -0.02800079 0.05536123 0.0761865 -0.019628963 -0.08599216 -0.10766755
-0.01007759 -0.009665389 0.017673505 -0.08230354 -0.03130844 -0.037571687 0.028036553 -0.17547816
-0.12651461 0.063505344 0.00021756356 0.17260368 -0.07306092 -0.12669337 -0.19179045 0.059319638
0.03309281 -0.012466302 0.07576988 0.15011293 -0.11713648 -0.09494053 -0.10217136 -0.19389097
0.14429829 -0.053388335 -0.082674004 0.04970204 0.039650023 -0.019832129 0.08150334 -0.10246393
-0.06315023 -0.053920228 -0.005484322 0.05439621 -0.090204716 -0.08281826 -0.07938909 0.10663986
0.06285194 0.14483878 -0.018406112 -0.009429268 0.077616304 0.114179075 0.0861283 -0.0933665
0.024462981 0.0044658566 -0.04198701 0.21353862 -0.06966918 -0.029152667 -0.11521271 0.0021306654
0.08443054 0.19138835 -0.061333425 -0.008805925 -0.07002075 -0.024535406 0.1143839 -0.19003972
0.11761205 -0.12777498 0.033920627 0.09378876 -0.14548297 -0.042624258 -0.07032411 0.095874995
0.072426334 0.20742954 0.01263519 -0.009317765 -0.106554106 0.059879836 -0.096533045 0.019973345
-0.1485771 0.053677194 0.11296426 -0.23340367 0.026672823 -0.032693144 -0.05352388 0.16428334
-0.08167999 -0.12704574 0.04970795 -0.07341302 -0.092737116 -0.04973818 0.00035906315 0.01135552
-0.0001628312 0.16802068 -0.07103125 -0.17074656 0.16816327 -0.08844318 0.037549008 -0.15934661
-0.04114595 -0.11600359 0.03235008 0.09590744 -0.0525847 -0.19471228 0.013351793 -0.08520125
0.027642913 0.038570028 -0.0010965773 0.13711315 0.22371522 0.05155763 0.1634406 -0.032167945
0.027225465 -0.1306557 0.06492426 -0.07677119 0.058101494 0.11722747 0.10122402 -0.10069794
-0.08782464 -0.036980312 0.007310258 0.008576462 0.14386308 0.015045383 0.1603683 0.1464419
-0.25196338 0.05007078 -0.0036759307 0.057906356 -0.09834306 -0.007657808 0.08349111 -0.028534412
00000000: 0ab8 0abe d591 f83c d2fb adbd 5573 193e
00000010: 4a4e 60bc b034 0cbd ef52 eeba 88bf 84bd
00000020: 07c5 303b 5267 843d f8a3 b13d 8d88 133e
00000030: 45cc e7bd fb0b 343d 0958 6b3b 9470 3f3e
00000040: 0f2e 2dbe a406 07be 1578 0cbd 3284 2d3e
00000050: c7f7 4d3d a9e1 a8bd 5668 42be 4b0b 47bc
00000060: 7b29 1c3e 845e 723e ee89 eebd 897c 63ba
00000070: 598c 6dbd b116 173e bc82 8c3d 9632 edbb
00000080: 8a77 053e d658 6e3d 70ea 063e 43cf 07be
00000090: 098f 6cbe 2939 99bc c70d 38bb 593a 26bd
000000a0: d585 223e 6e96 423e 204e 75be 8dd9 a0bc
000000b0: a68f 23be 1b67 fcbd 3cdc d93d 3d4e c2bc
000000c0: e158 1bbe 96df 0ebe 3348 15bd a94c 173e
000000d0: 6ca1 09be f1b5 03be c1c0 1dbd 8b63 2f3e
000000e0: 52e1 823e 7dc0 26bd 1947 8a3d 9974 85be
000000f0: 0350 aa3b 0b24 c7bc 1655 b9bc 9b64 a03d
00000100: d758 ba3c dc03 c73d 16b5 a13d 6aef a8bd
00000110: 3a34 39be 6bb0 3a3e 4c45 b2bb 3efc 493d
00000120: 5e98 043e 1a4c b63d bc4a a4bd b0cb 093e
00000130: b16c fabd c3ad edbd e537 bdbc ae6b 6d3d
00000140: 726c 8cbd b91e 3dbc 777b be3c b4d8 8c3b
00000150: 8b65 59be 7317 c33c 7637 76be 5c5e 73bd
00000160: 5bbe 5f3e f1a8 4a3d 244e 253d 03ca 10be
00000170: a7bb f13c 5883 c53d 5254 8bbd 36df 94bd
00000180: 336c 5fbc a282 b2bd 6032 1ebe 45a9 e5bc
00000190: 9713 9c3d af44 87bc befa a9bd 4799 b93d
000001a0: 3e43 533d 7c8c f03d ea61 e5bc 75c2 623d
000001b0: ab07 9c3d ebcc a0bc a81c b0bd ce80 dcbd
000001c0: 7a1c 25bc 945b 1ebc 07c8 903c c28e a8bd
000001d0: 473d 00bd c5e4 19bd eaac e53c 8cb0 33be
000001e0: 0c8d 01be 170f 823d c621 6439 05bf 303e
000001f0: f7a0 95bd e8bb 01be b764 44be 26f9 723d
00000200: 548c 073d 763f 4cbc 3d2d 9b3d 34b7 193e
00000210: 40e5 efbd 2e70 c2bd 383f d1bd 5b8b 46be
00000220: eec2 133e baad 5abd fd50 a9bd 5e94 4b3d
00000230: 1068 223d fd76 a2bc 39eb a63d 9cd8 d1bd
00000240: e854 81bd 75db 5cbd d4b5 b3bb 8fce 5e3d
00000250: 40bd b8bd 9f9c a9bd bf96 a2bd 0066 da3d
00000260: 85b8 803d 9e50 143e 6ac8 96bc 377d 1abc
00000270: 4cf5 9e3d b8d6 e93d 0964 b03d f036 bfbd
00000280: 9766 c83c 5256 923b 92fa 2bbd dea9 5a3e
00000290: b7ae 8ebd 93d1 eebc a4f4 ebbd a2a2 0b3b
000002a0: ebe9 ac3d 4ffb 433e c238 7bbd ba46 10bc
000002b0: 0a67 8fbd 7afe c8bc 1b42 ea3d c699 42be
000002c0: 96de f03d 72d7 02be 5bf0 0a3d 5214 c03d
000002d0: 7df9 14be c696 2ebd 1606 90bd 1c5a c43d
000002e0: 4254 943d 6968 543e d403 4f3c 8aa9 18bc
000002f0: 0a39 dabd 8f44 753d 1eb3 c5bd 249f a33c
00000300: 9824 18be 9edc 5b3d ce59 e73d 5f01 6fbe
00000310: f780 da3c 3fe9 05bd db3b 5bbd e439 283e
00000320: d747 a7bd 4718 02be 909a 4b3d 9159 96bd
00000330: f5ec bdbd 43ba 4bbd a440 bc39 810c 3a3c
00000340: abbd 2ab9 9d0d 2c3e d578 91bd 30d8 2ebe
00000350: fe32 2c3e b321 b5bd fdcc 193d c22b 23be
00000360: a888 28bd 4a93 edbd 8481 043d 1f6b c43d
00000370: 0e63 57bd a862 47be 7bc1 5a3c fe7d aebd
00000380: 6473 e23c 9bfb 1d3d 07bb 8fba 6467 0c3e
00000390: 9a15 653e 182e 533d f95c 273e 89c2 03bd
000003a0: f007 df3c 9cca 05be 03f7 843d 373a 9dbd
000003b0: d5fb 6d3d f514 f03d 8a4e cf3d b93a cebd
000003c0: 68dd b3bd ab78 17bd e48a ef3b 4a84 0c3c
000003d0: d850 133e e980 763c 9637 243e def4 153e
000003e0: 5801 81be 0517 4d3d e2e7 70bb 372f 6d3d
000003f0: 1668 c9bd 59ee fabb 63fd aa3d 00c1 e9bc
