small_scale_scenario/experiments/stid/KNOWAIR/-fulltrain-longterm/final_model_s2019.pt (torch, 273468 bytes, 18 tensors)

node_emb f4 [184, 32]
00000000: 62fe 6c3c a093 0dbe d92e 8b3c 10fe 0dbe
00000010: c2bd 20be fd9d 9f3d e454 383d d21d 0e3e
00000020: 65b2 193e c0ed 1bbe 2cab b33d a77a 193d
00000030: da63 043e 60ff b9be 5fd8 323d 7ef7 713e
00000040: d821 333e c5cd 983d 24d1 4d3e a984 ffbd
00000050: 8fbd e53d 4f65 16be 1cd4 4dbe f05d 893e
00000060: 7770 ac3d e927 5dbe 4b91 573e 9930 2cbd
00000070: e7cc ffbd ca61 a0be 7c14 35be b8a9 95be
00000080: 4620 59bd 2f14 54be 04eb 373e 4de0 18be
00000090: e97a 683c 6b08 873d a1da 01be c113 b93d
000000a0: 689b ca3c b97e 9cbe 8368 bdbb e69c 9ebd
000000b0: 68ce 3bbd ffa8 35be 5a51 eb3c ba92 64bc
000000c0: ef1b 343e 56ec ef3d a984 fe3d 77ea d03d
000000d0: 437c 05be 71b6 c03c 52b8 6abc eb61 0a3d
000000e0: 6f3f bd3d 32e8 9fbd c67e 7b3e 357b e23d
000000f0: b443 fd3d 3c7d cabd 323c f7bd 9fc7 7fbe
00000100: 8fab e13b 80e7 473e eb65 8abd c7c3 3cbe
00000110: bb3a 403c beec a03d ba3e 5c3e 2df4 5abe
00000120: ca29 6cbc a21d 373e 98e9 b8be 92b8 053e
00000130: 8533 793e c95b 8cbe 3ee1 38be 31ff 64be
00000140: c1c5 763e 9c8f 31be 14f1 073d d274 23be
00000150: ba6b 893d 4c98 8e3e 2818 cebc 799c b13e
00000160: 1677 3b3e bc1a fe3d bb3b 053e a1db df3d
00000170: 3d09 68bd 2d1c 193e cf90 89be 9425 03be
00000180: 1b41 083e 57d9 21bd c4d6 033e d6aa 97bd
00000190: 92f0 23be d62e b43d 76be 4fbe b844 96bd
000001a0: 8875 19be 7e28 833c 55bf aaba a46d 723e
000001b0: f9f1 0c3d 1a06 f23c 1e16 873b 8490 953b
000001c0: e469 6e3d 0f00 403d 2805 973d 90f3 acbd
000001d0: da31 c3bd 831d 12be 7d03 4e3c 357a e8bd
000001e0: d3d3 22bd 4b15 663d 4804 8f3e 1892 843c
000001f0: f96f 9fbc 26f7 25be 6ed6 35be 1e3a 43be
00000200: f1e1 29be f342 55bc 55ab 943d 7430 583d
00000210: 04d5 9cbe f528 9abd 3b5e a7bd e199 c0bc
00000220: 0dbd 7e3c 847b 75be c445 6fbc bffb 49bc
00000230: a745 c8bc 7164 da3d 98c8 9dbc dadd c83d
00000240: fc2a 64be cf71 fe3c 383a 10bd 7337 9dbc
00000250: 49d1 353d 75cd 04be 0b3d f5bd b8cf 51bd
00000260: f725 e3bd 220b 00be a638 1c3e c894 a6bd
00000270: d70c 2bbd 8f0a 0dbe 2d03 ee3d 9e4b c6bd
00000280: aee8 d73d 59d1 db3d 86db 9b3d 411d 99be
00000290: 25fc ac3d cbff aebc 6a2a fbbd 246c b1bd
000002a0: fc0f 16be cf52 143e 804f 98be 7a3c 9b3d
000002b0: e083 72bc f0e2 8cbd 8b19 01be 1091 80be
000002c0: ff09 7a3e f223 96be 6eec 1ebe 9050 cdbd
000002d0: 0daa e5bd d81d 743e bab3 1fbd 7442 eb3c
000002e0: 0661 eb3d da62 003e 23e9 763e e560 613e
000002f0: aac1 b63c 3d98 313e 375a 26be 49e8 9f3d
00000300: 6257 683c 6e8f ea3d 3a61 19be add5 0cbd
00000310: 308a 063d 4b37 cf3c da07 223c bd90 0cbe
00000320: 3528 26be f7bb ee3d 6d2f 26bf 8117 a03d
00000330: c0f1 0d3e 4729 8fbd 8800 37be 1459 b9be
00000340: 1db1 863e 8689 cabe a29d c9bd 78e2 a8be
00000350: 78bd 9e3c d414 f73d c5da 3b3e a223 833e
00000360: 5c89 ff3d 336b 753e 969f 883c 2504 bc3e
00000370: 5ee2 6dbe 00ee 853e 2c89 56be 95b7 10be
00000380: b56b 1dbd 56a1 413d 89f3 f6bc db6a 633e
00000390: 6140 dcbd d6c2 d2bd 78ff 5bbe 8506 ccbb
000003a0: cb1b 263e c089 3fbe 87c5 2bbd b123 e93c
000003b0: cc1d 45be d6c5 0abc 534d 2e3e 9687 1a3e
000003c0: 1569 2ebe 421f 1a3e 7d58 0f3e 235c 7f3d
000003d0: 629d 0e3d 9d8e 49be f55f a7bd e8bc c0bd
000003e0: 39a3 66bd 337f 7dbe c276 fabd 5e9c e63b
000003f0: ce14 b9bc 3755 16be 85bc 113e ff5d 9e3e
0.014464946 -0.13825846 0.016990112 -0.13866448 -0.15697387 0.07793806 0.045002833 0.13878563
0.15009458 -0.15227413 0.08772883 0.037470486 0.12928715 -0.36327648 0.04366338 0.23629567
0.17493379 0.074611224 0.20099312 -0.12476475 0.11217796 -0.14687084 -0.20100445 0.2682948
0.084198885 -0.21597256 0.21051519 -0.042038534 -0.12490254 -0.31324607 -0.17683595 -0.29231048
-0.053009294 -0.20710824 0.17960745 -0.14929314 0.01418946 0.065934025 -0.12681057 0.09036971
0.024732307 -0.30565432 -0.005780281 -0.0774477 -0.04585114 -0.17740248 0.028725315 -0.013950998
0.17588781 0.117149994 0.12427647 0.102009706 -0.13035683 0.023524495 -0.014326172 0.033784788
0.092406146 -0.078079596 0.24560079 0.11058656 0.12366429 -0.09887168 -0.12072028 -0.24978493
0.0068869065 0.19521904 -0.067577206 -0.18434058 0.011732752 0.07857655 0.21508303 -0.21382208
-0.01441426 0.17882398 -0.36115718 0.13058689 0.2433606 -0.27413777 -0.18054673 -0.22362973
0.24098875 -0.17339939 0.033188894 -0.15962532 0.0671 0.27850568 -0.025158003 0.34689692
0.18307146 0.12407443 0.13011067 0.10930563 -0.056649435 0.14952154 -0.26868293 -0.12807304
0.13306086 -0.039513912 0.12874895 -0.07405631 -0.16009739 0.08797996 -0.20287499 -0.07337326
-0.14986241 0.01601052 -0.0013026992 0.23674637 0.03441045 0.029543925 0.0041225096 0.0045643467
0.058206454 0.046875056 0.0737403 -0.08444893 -0.09530993 -0.1426907 0.012574074 -0.11351434
-0.039752793 0.05617265 0.27932954 0.016182944 -0.019462572 -0.16207561 -0.1775758 -0.19065139
-0.16590096 -0.01301645 0.072592415 0.052780584 -0.30631268 -0.07527343 -0.0817227 -0.023510875
0.015548003 -0.23972899 -0.014604036 -0.012328087 -0.024447275 0.10663689 -0.01926069 0.0980794
-0.22282022 0.031060128 -0.03521177 -0.01919148 0.044389043 -0.12969 -0.11974534 -0.051223487
-0.110912256 -0.12504247 0.15255985 -0.081338465 -0.041760292 -0.13773559 0.116216995 -0.096823916
0.10542427 0.10733289 0.0761023 -0.2990513 0.0844653 -0.021362206 -0.12263949 -0.08663204
-0.14654535 0.14484714 -0.29748154 0.07579894 -0.014801949 -0.068792224 -0.126074 -0.25110674
0.24417876 -0.293243 -0.15519878 -0.10025132 -0.11214075 0.2383951 -0.03898976 0.02871821
0.11493115 0.12537709 0.24112372 0.22009619 0.022309143 0.1734323 -0.16245352 0.07807977
0.01418099 0.11453138 -0.14978495 -0.034383465 0.03284663 0.02529492 0.009889567 -0.13727088
-0.16226275 0.11656945 -0.64916116 0.07816983 0.13861752 -0.06990295 -0.17871296 -0.36200774
0.26307002 -0.39558047 -0.09844519 -0.32985282 0.019377455 0.120645195 0.18345173 0.25613123
0.12477371 0.23966675 0.016677659 0.36721912 -0.23230883 0.26158142 -0.20950764 -0.14132531
-0.038432796 0.047273003 -0.030145423 0.22208731 -0.10754467 -0.10291068 -0.21484172 -0.006226363
0.1622154 -0.18704891 -0.041936424 0.028459402 -0.19249648 -0.008470019 0.17021684 0.15090784
-0.17032273 0.15050986 0.139986 0.062343728 0.03481806 -0.19683309 -0.08172599 -0.09411031
-0.056308005 -0.24755554 -0.122296825 0.0070376834 -0.022592928 -0.14680944 0.1423207 0.30931088

time_in_day_emb f4 [8, 32]
00000000: 4df2 903e 5ec5 303d 972d 6cbe d06d 75be
00000010: 3202 56be 597e 2abe ded2 5e3e e3a3 3e3c
00000020: 196c 693e c90d 86be be23 8e3e a2e1 123e
00000030: 1a8f 56be 2bb4 e5bd 543b 42bd 8ab4 15be
00000040: c5c0 18be a5b1 1a3e c4e2 7b3d 0164 aebc
00000050: 52b6 2e3e 4ce6 233e a567 a7be d01e d43c
00000060: 27e7 643d e31a b0be 6be8 3c3c fe46 4fbe
00000070: 60ba 543b 4a50 c23e 404e 16be ca02 4fbe
00000080: af54 f43d 64e8 69be bf7d a03d b9ff d2bd
00000090: d379 94be 363a 9a3e 2929 89bb 4c2a 86be
000000a0: fc18 843e 11f7 7dbe da35 813e ba03 0abe
000000b0: 644a 60be 3177 0ebd 1b71 0fbd 3296 5cbe
000000c0: 31a8 02be 4f96 053b 981c 3c3e 5d7d 55bd
000000d0: f55d d23c 1484 8f3e 8342 113e cc22 2d3e
000000e0: 2e7f 01bd c5a3 4ebe a59e 7dbd 82f7 dc3d
000000f0: c118 743e d3f8 ac3e 4b4b ab3d 49c1 d33d
00000100: 1c97 66bd ade3 6bbe b9f3 263e 349c 633e
00000110: 0496 60bd f0f5 3e3e 9684 8a3e f813 bf3d
00000120: a7cd 0ebe 1d1c 95bd 8dd8 443e ce34 2bbe
00000130: d561 0f3e 4b10 51be 79ba 5f3e fdf3 f53d
00000140: f001 cb3b 17d4 3b3e 22c6 aebe 2e1f 30be
00000150: 7984 eb3d d1bf 193e 21cd ccbd f43d ed3d
00000160: 3c9b 633e d32a a63d a65a a7bd ead1 9e3c
00000170: bfda 40bc 704e 413e 19b2 953e 77bc 30be
00000180: 78b5 4c3e 91aa 4cbe e0b4 9fbe 1ad2 083d
00000190: f872 3e3d e8ff 3fbe f51c 163e 0cf8 1dbe
000001a0: 3536 57be fd32 ccbc eea6 b1bd 1fed d2bc
000001b0: b151 85be fa26 c0be 0b43 113e 5409 623d
000001c0: 9d86 32be d8f1 f53d daf4 c0be 7c31 8d3e
000001d0: d1fb e43c dddb 0e3e fffa 48bd aab7 71be
000001e0: ffe8 483e f795 91be b571 3cbe 8ed9 8ebd
000001f0: 0cfa 683e d330 d1bd ba5f 483d 9ded 51be
00000200: 60f1 afbd 9bd2 9dbd d2cc 9e3d 5239 91be
00000210: 8dd2 4bbe 1694 2d3d ce17 81bd 7558 5dbe
00000220: f782 7e3e 80f5 873e 7ce9 9abd 39b1 46bd
00000230: 2307 c7be 442e 9cbe 9a26 4e3e 2829 7dbe
00000240: 4408 973e c295 703e 06a8 14bd aff7 893e
00000250: 8695 bbbd fa78 e23d 753a 31bd 0aeb ff3c
00000260: f7a6 723e dd85 de3d d0da 383d 7dac 87be
00000270: d3b5 81be 1ad6 5b3e 3347 13be 8579 42bc
00000280: 275a d83d 2ebb 2abe d3d5 853e 91bf 8e3e
00000290: 1d6c 1bbe 8524 26be 8d52 a33e 5b39 a8bd
000002a0: 26ae 2d3e d179 593e ab06 7b3e 13e9 85be
000002b0: 8078 abbe cd9b 1dbe 5a15 7abe 6e2a 413e
000002c0: 2729 7f3e 45bc 853e 7a17 d33d f407 a6be
000002d0: dc45 833d 2afc 94be 0e8d 8abe e90e efbd
000002e0: e1cb 45be ad5e 933d 43cd 70be 574d 32be
000002f0: ac50 5bbe defc f8bc 80e3 a8bd 60ea ab3d
00000300: c481 273e eff7 50bd dc2e 373e 8676 263e
00000310: f03d 26bd 1d70 d93c 6301 e3bb 9784 863e
00000320: 6c25 1bbd f9c5 d9bc 0cc1 3c3e dd90 5abe
00000330: e5c6 95be cfba 73be 4698 2b3e 1f70 71bc
00000340: 19c8 62be 70d7 a83e d462 6e3e 4c48 bbbd
00000350: 3f5d 223e c186 343e 846d 32be c241 83be
00000360: e446 363e da8c 833d c489 813e 6c83 503e
00000370: 6dc1 d13d ded2 8abd 8f06 5a3e 6564 6c3b
00000380: 5134 993d c8c0 20be 56d6 263b 48a7 bb3d
00000390: 1123 8d3e aeb4 29be 3d5c 22be b148 2b3d
000003a0: 064f 97bb 0a64 4dbd 662c 8e3e f752 e73d
000003b0: 28dc 953e b9c8 a6be ce53 a8bc 8442 6a3e
000003c0: e8bb adbe 6b4a 9d3e 89a7 173d 2a7b 83be
000003d0: e330 eabc 3c07 3f3e d653 aabe 5702 b8bd
000003e0: 59f8 25be a6b7 8abe 5cc8 223e 2db6 a2bd
000003f0: fa0d 5abd 3eee 7f3e 937b b6bd f5df 553e
0.2830986 0.043156974 -0.23064266 -0.23967671 -0.20899275 -0.1664976 0.21760127 0.011635753
0.22795142 -0.26182392 0.27761644 0.14343885 -0.20953026 -0.11216005 -0.04741986 -0.14619651
-0.14917286 0.15106829 0.061495557 -0.02128792 0.17061737 0.1600582 -0.32696262 0.025893599
0.055884507 -0.34395513 0.011530022 -0.20241925 0.003245972 0.3795188 -0.14678288 -0.20215908
0.119302146 -0.22842556 0.07836484 -0.103026815 -0.28999195 0.30122536 -0.004185815 -0.26204145
0.25800312 -0.2480128 0.25236398 -0.13477984 -0.21903378 -0.03478164 -0.035019975 -0.2154167
-0.12759472 0.002038378 0.18370283 -0.05212151 0.025679568 0.28030455 0.14185528 0.16907805
-0.03161543 -0.2017966 -0.061918873 0.10789396 0.23837568 0.33783588 0.0836397 0.103396006
-0.056296453 -0.2303607 0.1630391 0.22227556 -0.054830566 0.18648505 0.2705428 0.093299806
-0.13945638 -0.07280753 0.19223233 -0.16719362 0.14002164 -0.20416372 0.21848477 0.12009428
0.0061952993 0.18342625 -0.34135538 -0.17199394 0.114998765 0.15014578 -0.10000063 0.11584082
0.22227186 0.08113637 -0.08171587 0.019387204 -0.011770903 0.18877578 0.2923744 -0.17259394
0.199911 -0.19986941 -0.31192684 0.033403493 0.04649636 -0.18749964 0.14659484 -0.15426654
-0.21016772 -0.024926657 -0.086744174 -0.025747834 -0.26038888 -0.37529737 0.14185731 0.055184677
-0.17434163 0.12009019 -0.37686807 0.27576816 0.027952107 0.13951059 -0.049067494 -0.23605219
0.19620131 -0.28434727 -0.18402751 -0.06975089 0.22751635 -0.102143906 0.048919417 -0.20500799
-0.085909605 -0.077061854 0.0775391 -0.28364044 -0.19904537 0.042377554 -0.063033685 -0.21615775
0.24854647 0.2655449 -0.07564065 -0.048508856 -0.38872632 -0.30504048 0.20131913 -0.24722731
0.29498494 0.23494628 -0.036293052 0.2694678 -0.09159379 0.11058231 -0.04326864 0.031240005
0.23696505 0.10865376 0.04513055 -0.26498786 -0.25334033 0.21468392 -0.14382629 -0.011869793
0.1056407 -0.16672966 0.26139697 0.2788053 -0.1517796 -0.16224869 0.3189892 -0.08214065
0.16960964 0.21237876 0.24514262 -0.26154384 -0.33490372 -0.15391465 -0.24422207 0.18863842
0.24918042 0.261202 0.10307212 -0.32427943 0.06409809 -0.29098636 -0.2706074 -0.11672766
-0.19316055 0.07195792 -0.23515801 -0.17412315 -0.21417493 -0.030394014 -0.08246517 0.08394313
0.16358095 -0.051017698 0.17888969 0.1625615 -0.040586412 0.026542718 -0.0069276555 0.26273033
-0.037877485 -0.026583659 0.18433017 -0.21344323 -0.29253307 -0.2380173 0.16757306 -0.014736204
-0.22146644 0.32976866 0.23279887 -0.09144649 0.15855883 0.1762953 -0.1742459 -0.25636107
0.1780048 0.0642335 0.2530042 0.20362633 0.10241971 -0.06778501 0.21291564 0.0036070582
0.07480682 -0.1569854 0.0025457344 0.09162766 0.27565816 -0.1657283 -0.15855499 0.04181737
-0.0046175746 -0.050144233 0.27768248 0.11295121 0.29269528 -0.32575014 -0.020547774 0.22876936
-0.33932424 0.3072084 0.03702501 -0.25679904 -0.028587764 0.18655103 -0.33267087 -0.08984821
-0.16208018 -0.27093238 0.15896744 -0.079449035 -0.053235985 0.24993226 -0.08910289 0.20886214

time_series_emb_layer.weight f4 [32, 72, 1, 1]
00000000: 166f e6bc 3f1c 95bd 642c 643c 7f28 9fbd
00000010: 7baf b1bc 9942 e7bd 54f7 a9bd 9618 b9bb
00000020: 1889 3d3d 4673 933d 3b18 813d 6a2d 1a3d
00000030: 1a5a b03d d7ea 733d d1c4 b53c 67f0 b53c
00000040: 1cec ffbc f562 e03c cd5b 8cbd 2f70 913b
00000050: cfd2 e03c 53a4 0cbd 7eb8 dd3d dc03 603d
00000060: 2116 2c3d e4c4 7fbd 0bb1 003d 9376 11bd
00000070: 6cea a9bd 9559 953b c166 9abc 6fbf d93c
00000080: 8cb4 1bbd 1a15 a73c a0c0 803d 7427 5b3c
00000090: e848 cc3d 4fbf 86bd 63f2 7e3d 7f24 c53c
000000a0: fe39 a7bd bd22 d83d dcae ee3d 0916 96bd
000000b0: 8e26 33bd 3630 7a3c 585e b53d 5ab7 e03d
000000c0: b407 e9bd 5c2d 53bd aee2 cf3c 9fd3 5cbd
000000d0: caaf bab7 4a73 4fbd e6af e33c 99b2 9d3c
000000e0: bd22 d73b e4e2 0fbd 6e51 a93d 0c65 fc3b
000000f0: 9628 603b 4c05 693d 80b0 993d c271 aabd
00000100: c068 c2bd 98e0 593b dbca 2e3c 3752 043d
00000110: 9832 aa3d 08f4 7cbe 6aed 823d aa7b ee3d
00000120: c58d fb3d 7920 acbc 4a96 27bd 45fe 853c
00000130: c9ef 87bd 1555 523c 7b02 8dbd 56ca 82bd
00000140: b1eb b83c 7c9c c73c 7acc bebd d96b e2bd
00000150: 6b4c cd3c 12ab ce3d f9fa b9bd a07b afbd
00000160: 0275 063d 7386 e93c ccdc f6bc 8b06 ce3d
00000170: 05e7 9d3c 618d 033d 4516 8f3d 56c7 adb9
00000180: 9419 bc3d 2a34 c7bd 1860 8cbd 1497 edbd
00000190: 56dd ac3d a583 4abd c5e9 c23b 3907 cc3d
000001a0: d563 17bc 3834 d13d 3472 c1bc e6c5 53bd
000001b0: d408 d23a 9bd0 f5bc 6df3 8bbc 9246 01be
000001c0: 3c21 bc3d fc21 9abd f61f 5cbc 3f1b 883d
000001d0: 2341 29bc fe54 823d 7a2d aebd e3b8 5e3a
000001e0: 1857 cd3b 4c13 47bd 556f cc3d 4a09 fdbd
000001f0: 64f7 7c3d 72c4 8e3b a9f6 c3bd 2b6b 81bd
00000200: bc79 ca3d 9573 013e ef39 80bd cf01 e0bb
00000210: 99ed ec3d 869f 963d cbd5 acbd 554e 36be
00000220: 4c10 763d 0438 67bb 0315 19be f62d 223d
00000230: 93a8 61bd dafb 9b3d 9cec 133d e1a2 813d
00000240: 70c0 9f3d 5668 243d a0b5 d3bd 802f 05bd
00000250: 29e4 9ebd fb08 663d e65a ab3c b774 aa3d
00000260: af50 a63d 60fe 27bd bdba 89bd aecd e1bd
00000270: ef55 d33d cb28 c63d 8d6e 9abd 40e4 6b3d
00000280: de71 523d 035b 893d 93a0 fa3d ada2 99bd
00000290: ba1f 5abd 6c68 3d3b a24f 543c 115f 6a3d
000002a0: e201 213c fc7f 6d3d 3e19 7fbd bec0 263c
000002b0: 0dc2 a3bd 0b6c 9d3d 7832 29bd abff 883d
000002c0: e738 e43c f78b 963c 381a 3f3d e300 a1bd
000002d0: 4161 de3a d078 223b b9ff eebc b7e2 df3d
000002e0: df6c cd3d 9b1d 6a3d 27e0 873d 6c66 243d
000002f0: 2569 1d3d fd8d f23d 0764 74bd dba5 0fbe
00000300: ad78 623d 7a9a ca3d cdf5 583c 0fee 2dbd
00000310: 47c3 b43d 2135 ad3c 7daa 59bd da64 45bb
00000320: e979 133d c91b b1bc cdc8 32bd 2647 b2bd
00000330: e3de 29bd 7f62 af3d 7e33 d1bd bda9 90bd
00000340: 8b0d a5bc a969 b0bd a96c 12bd f29b dbbd
00000350: 9f92 c5bd 01e3 8dbe 6151 05bc 2fe6 67bd
00000360: 4bfb 1e3e de1c 9cbd 6324 3a3d ab36 c93d
00000370: de1b b53d 4d6a dcbd 64af 9c3d f76c 0b3d
00000380: ca1c 97bd 949a 6bbc 592b bebd c60f 7fbd
00000390: 2c95 4c3d 3c1e 7ebd 537b e73d 0fb1 bdbd
000003a0: 4874 b93c 48a6 603c d578 48b9 bea2 65bd
000003b0: bfc6 c03d 87ad 3cbe e9b1 773d 33f1 63bc
000003c0: fd22 3cbd 5c6d 8dbd 31cd f4bc a39a 1d3c
000003d0: 980b 983c 3ac3 293c 152c 863d 48ee 3d3d
000003e0: e8ea 02bd 1d2e a53d 267e 533b 99d0 9f3d
000003f0: 752a 17bd 5b4c 38bd b8fe 503d 9b6c 1fbd
-0.028129142 -0.07280778 0.013926599 -0.07771396 -0.02169012 -0.11291999 -0.08299127 -0.005648683
0.04627332 0.07199721 0.0630345 0.037640966 0.086109355 0.059550133 0.022188576 0.02220936
-0.031240515 0.027390936 -0.06853447 0.004438422 0.027444271 -0.0343364 0.10826205 0.05469118
0.04201329 -0.06244363 0.03141884 -0.03551347 -0.082966655 0.004557798 -0.018847825 0.02658054
-0.03801398 0.020395804 0.0628674 0.013376106 0.09974843 -0.06579458 0.062242877 0.024065254
-0.08165358 0.10553501 0.116544455 -0.073284216 -0.04373794 0.015270283 0.08855885 0.109724715
-0.113784224 -0.05155693 0.025376644 -0.053912755 -2.2254786e-05 -0.050647058 0.027793836 0.019250201
0.0065654204 -0.03512849 0.082674846 0.0077024754 0.0034203879 0.056889817 0.07504368 -0.08322479
-0.09492636 0.003324544 0.010668482 0.03230497 0.08310431 -0.24702466 0.063929394 0.11644681
0.122829 -0.021011578 -0.04091481 0.016356597 -0.06637532 0.012837668 -0.06885239 -0.06386249
0.022573324 0.02436661 -0.093163446 -0.110557266 0.025060853 0.10091223 -0.09081072 -0.085685015
0.03282643 0.028506493 -0.030134581 0.10059842 0.019275198 0.03211725 0.069866695 -0.00033145648
0.09184566 -0.097267464 -0.06854266 -0.116010815 0.08440654 -0.049441952 0.0059482777 0.09962315
-0.00924011 0.10215038 -0.023614027 -0.051702403 0.001602436 -0.030006697 -0.017083848 -0.12624577
0.091860265 -0.07526013 -0.013435354 0.06645822 -0.010330471 0.06363867 -0.08504768 0.0008496178
0.006266486 -0.048602387 0.099821724 -0.123552874 0.061759368 0.004356914 -0.09568531 -0.06319269
0.098865 0.12641747 -0.0626105 -0.006836153 0.11568756 0.073546454 -0.08439215 -0.17803319
0.060074136 -0.003528119 -0.14949422 0.039594613 -0.055092406 0.07616396 0.03611432 0.06329895
0.078003764 0.040138565 -0.103373766 -0.032516003 -0.07758362 0.05616091 0.020917367 0.08323043
0.08120858 -0.041014075 -0.067250706 -0.110255584 0.10319125 0.096757494 -0.07540617 0.057590723
0.051378123 0.06706812 0.12237658 -0.07501731 -0.053252913 0.0028901352 0.012958439 0.05721957
0.009827109 0.057983384 -0.062279932 0.010177789 -0.079959966 0.07686623 -0.041307896 0.0668939
0.027859164 0.018377287 0.046655864 -0.07861497 0.001696624 0.0024791248 -0.029174672 0.10931914
0.10030531 0.05715714 0.066345505 0.04013674 0.03843035 0.11843488 -0.059665706 -0.14028113
0.055290867 0.09892745 0.013242197 -0.04246336 0.08826309 0.021143498 -0.053141106 -0.0030119927
0.036004934 -0.021619694 -0.04364853 -0.08704977 -0.041472327 0.085637085 -0.102148995 -0.07063625
-0.02014806 -0.08613903 -0.035748158 -0.107231036 -0.096471064 -0.27712253 -0.008137078 -0.056616005
0.15525548 -0.076226935 0.045444857 0.0982488 0.08843206 -0.10762463 0.076506406 0.034039464
-0.07378538 -0.014380116 -0.09285612 -0.062270902 0.04994695 -0.062040552 0.11302819 -0.09262287
0.022638455 0.01371152 -0.000191185 -0.056063406 0.09412908 -0.1842557 0.060472403 -0.013912487
-0.045931805 -0.06905624 -0.029883 0.009619388 0.018560216 0.010361487 0.06551377 0.04636982
-0.031962305 0.08065436 0.0032271235 0.07803459 -0.036905725 -0.044994693 0.05102417 -0.038921934

time_series_emb_layer.bias f4 [32]
00000000: 962f 47bd 7e8e d83d 847c 3f3d 6784 96bd
00000010: c32f 9bbd bcd8 80bd 7015 a1bd a913 543d
00000020: 9bee 6abc ff63 363c f814 0fbd 6cce b13c
00000030: 195d fb3d 270d 913d 34bf 43bd 33b1 44bd
00000040: bd8e 153c 0a74 a5bd 571f 68bd 6c94 943d
00000050: e876 d83d a689 b53d d9ee 9d3a cea4 663d
00000060: fc8d 0f3d 1e29 dbbd 943c 033c 1ecd 21bc
00000070: fd83 da3d 2e6e 95bd 1938 873c 1866 c3bc
-0.048629366 0.10574053 0.046749607 -0.073494725 -0.07577469 -0.06291339 -0.07865417 0.051776562
-0.014339115 0.011132239 -0.034932107 0.021704875 0.12273616 0.07082587 -0.047789767 -0.048020553
0.00912827 -0.08078773 -0.056670513 0.07254872 0.105695546 0.08864145 0.0012049332 0.056309514
0.035047516 -0.10701202 0.008010048 -0.009875564 0.10669706 -0.07296406 0.016506242 -0.023852393

encoder.0.fc1.weight f4 [96, 96, 1, 1]
00000000: 6a6d 443c 84d1 ee3c e051 bfbb cd2e d1bc
00000010: 2185 cc3c a202 4a3d 7579 c1bd 9302 9dbd
00000020: 9189 aabc 4fa7 fabc 5a91 433d ab50 41bd
00000030: b0a8 e8bc 1c83 9c3b 251b 19bd cc68 cc3b
00000040: 4569 bdbd 3093 9f3d cec3 23bd c7b1 b83d
00000050: 0cea c23c a9d5 8fbd e29d 453c e0b9 1ebd
00000060: 77c9 f3bd 7e64 3e3d a87c 5b3d 8928 783d
00000070: d571 333c 630c 333d db79 30bd 8feb 24bd
00000080: b31d f73d 165a 98bd 6c78 403e 37c8 5cbe
00000090: 95cb 9a3d 5a17 91bc ddde 0bbe 5db7 fe3d
000000a0: 6031 16be 1976 153c f2f5 afbd c2eb 113e
000000b0: fad0 2cbd 3bd5 0ebe b452 f2bd dfae 56be
000000c0: 4e4d 133d 7b5b 043c 88a3 1bbe 2d25 a23d
000000d0: a6dc 2abd 788b 96bc add6 eebc 0659 653c
000000e0: 73e2 443d 214b 9e3d 6e4c 63bd 34a1 563e
000000f0: 277b cebd e973 46bd 0db3 debc 1e93 d2be
00000100: 6348 e4bd f881 153e f424 6ebd 5b40 8dbd
00000110: 4a6b 21bc 4790 8ebd cf10 e2bc 7549 493d
00000120: 514b 12bd 8ef9 ca3d 4ba5 05bd e5bd 1abd
00000130: 3859 04bd 693f 88bc 030f 583d bc2d 42bc
00000140: 570d 58bd 255d b5bd d537 263e c389 b0bd
00000150: a478 323d 6c8a e3bd b857 12bc cfd5 0fbe
00000160: f967 8dbd 4d09 423c 30e4 223e 8af7 743c
00000170: 45de fabd a4a9 9fbd 8dc8 34bd 1751 b43d
00000180: a1f6 e6bd 7e91 703d acde 283d 6dc9 943d
00000190: fca7 7f3d 8953 823d 6391 0d3d 5b10 e6bd
000001a0: 0f98 0fbd bbd3 923c 3a3a 89bd 705d cb3c
000001b0: 8be5 c0bd 244f bbbd 3f91 46bd 121f e7bd
000001c0: f392 103d c3b3 01bd ed2e 5dbd 6909 983d
000001d0: c247 5bbc 60f8 42ba 8c04 d4bd 564e 50bd
000001e0: 9f53 febd f5fc cabd 5c37 12bd 5fde aabd
000001f0: fa60 e63d 72a7 e2bd bc6c 043e eb1d f33d
00000200: 099c eebd 4266 42be c509 ee3d 9e74 6dbc
00000210: ebd8 c63c 84a8 dc3c 0061 97bd 9d69 783e
00000220: b5a8 04be 0a12 e8bd 9023 773b 4672 dbbc
00000230: 0534 1ebe b0ff b23c dcf1 4dbd f165 1ebe
00000240: 96f5 bb3a 4f15 13be 6e3f aa3d e6a7 87bd
00000250: 17f4 933d b9be 26bd f7c7 ffbd 88a3 dbbd
00000260: 6ec5 9cbd 9223 a5bd 38a0 323d 8c92 d23d
00000270: 3fbf 0e3e 227e 393d b56d 50bd 2a33 ca3c
00000280: f4db b93d 8d5b 1cbc 0c70 8a3c d039 69bb
00000290: ac51 953d e61a 9bbd 9970 b33d 615c 9a3d
000002a0: acf8 b9bd a1ae 013d 611f 6cbd d348 b63c
000002b0: f3c6 b53d 9df0 7f3d 3891 843d 08d0 ce3d
000002c0: a81e 85bd 6074 0dbd b24b 773b b22d abbd
000002d0: 535f a7bc 9596 b33b 7b9b 74bd e414 babd
000002e0: 9f7e e9bb 64bd ae3d 44d1 673d 4e26 52bd
000002f0: 029a 0fbd 0c04 76bd e886 6c3d 0ee8 923d
00000300: 83c1 563d a8e9 33bc f88c f6bd 45cc bdbc
00000310: 421e 1b3d a167 903d cdf3 ca3d 1f1f 0dbe
00000320: ea16 debc 2981 4d3d f11f c3bd 6721 8f3d
00000330: a2f3 79bd a9e8 313c a074 27bd 5eab d5bb
00000340: cae0 81bb 80fd 9a3d c75e 0a3c 4454 8dbc
00000350: 99c7 bebd ac7f 65bd 404a a9bd fcd0 0fbd
00000360: beac fe3c a4d5 32bc 7f7a be3c 1dc3 8ebd
00000370: 1eb9 fd3c 382b f2bd 64d9 4c3d 774a 8abb
00000380: 1c3f 18be e304 4dbe 91ea 543d 9439 a03d
00000390: 6c66 46be 408c b83c 96a6 83bb 1495 3e3e
000003a0: 5664 9b3d bca0 93be 570a e23c cc9a 05be
000003b0: e1f6 e6bd 239c c63c 744a 70bd 0631 fc3d
000003c0: 779b 3abd 2f9b 8e3d 1087 0d3e 747c c6bd
000003d0: 9e6c 133e 47c6 38be b703 9abd c411 273d
000003e0: 8a2f b1ba 15d0 9dbe 0b7d 3e3e e886 153d
000003f0: 6849 713d 285c 61be 5aa7 c5bd 16d9 40be
0.011988977 0.02915264 -0.0058386177 -0.025535012 0.024965825 0.049318917 -0.09446994 -0.076665066
-0.02081755 -0.030597357 0.04774604 -0.04719607 -0.028400749 0.0047763716 -0.037379403 0.0062380787
-0.09248594 0.07791746 -0.039981656 0.09018283 0.023793243 -0.07023174 0.012061568 -0.038751483
-0.11903661 0.046482556 0.05358568 0.060585532 0.010952433 0.043712985 -0.04308496 -0.04026371
0.120662116 -0.074390575 0.18795937 -0.21560751 0.075583614 -0.01771133 -0.13659234 0.124373175
-0.14667273 0.009122395 -0.08591832 0.1425009 -0.042191483 -0.13948528 -0.118321806 -0.20965146
0.035962395 0.008078451 -0.15199101 0.07917247 -0.041714333 -0.01837705 -0.0291551 0.013998276
0.04806752 0.077291735 -0.05549281 0.20959932 -0.10082083 -0.048450384 -0.027184987 -0.41127867
-0.11146619 0.1460036 -0.05814071 -0.068970405 -0.00985224 -0.069611125 -0.027595906 0.04914232
-0.03571636 0.0991088 -0.03262834 -0.037778754 -0.032311648 -0.016631799 0.05274869 -0.011851724
-0.052747097 -0.088556565 0.16232236 -0.08620026 0.043572083 -0.11110386 -0.008932047 -0.14046405
-0.06904597 0.011843038 0.15907359 0.014951596 -0.12249426 -0.07796028 -0.044136573 0.08804529
-0.112775095 0.058732502 0.04122798 0.072649814 0.06241606 0.06363589 0.03456248 -0.11233588
-0.035057124 0.017923227 -0.06700559 0.024824828 -0.09418782 -0.09145954 -0.04847836 -0.11285223
0.03529639 -0.031665575 -0.05399983 0.0742367 -0.013383808 -0.00074375235 -0.1035243 -0.050855957
-0.12418293 -0.09911529 -0.035697326 -0.08343195 0.112489656 -0.11067094 0.12932104 0.11870941
-0.11650855 -0.18984321 0.11622957 -0.014493136 0.024273356 0.026935823 -0.07391548 0.24259038
-0.12954982 -0.11331566 0.0037710406 -0.026787888 -0.15449531 0.021850437 -0.050279483 -0.15468575
0.0014340158 -0.14363597 0.083128795 -0.06623821 0.07224291 -0.04070923 -0.12489312 -0.107245505
-0.07654844 -0.08063425 0.043609828 0.10281858 0.13940142 0.045286305 -0.050885875 0.0246826
0.09075156 -0.009543312 0.016899131 -0.0035587437 0.07290968 -0.0757349 0.08761711 0.07537151
-0.090806335 0.03166068 -0.057647113 0.022251522 0.08875837 0.062485326 0.06473011 0.100982726
-0.06499988 -0.034534812 0.0037734327 -0.08358325 -0.020431196 0.0054805973 -0.05971859 -0.09086016
-0.00712569 0.08532217 0.056596056 -0.05130606 -0.035058983 -0.060062453 0.057745844 0.07173167
0.05243064 -0.010981001 -0.120386064 -0.023168692 0.037870653 0.07051016 0.099097826 -0.13781403
-0.027110536 0.050172005 -0.09527577 0.06988793 -0.061023362 0.010858693 -0.040882707 -0.0065206727
-0.0039635645 0.075678825 0.008445448 -0.017252095 -0.09315414 -0.05602996 -0.08266115 -0.035111412
0.03108823 -0.010915194 0.02325177 -0.06970809 0.03097206 -0.118246496 0.050012007 -0.0042203027
-0.14867824 -0.20021395 0.051981512 0.07823482 -0.19375008 0.022527814 -0.0040176613 0.18611556
0.07587497 -0.28833568 0.027592821 -0.13047332 -0.11277557 0.024244374 -0.058664754 0.12314038
-0.04555842 0.06963193 0.13821054 -0.09691706 0.14396903 -0.18044387 -0.0752024 0.040788427
-0.0013518196 -0.30822816 0.18602388 0.03650561 0.058907896 -0.22007811 -0.096510604 -0.18832812

encoder.0.fc1.bias f4 [96]
00000000: 5e7d 0bbc 3efb bfbd 202c 0d3d ec42 b5bd
00000010: 3038 283d db83 c6bd 3df8 6dbd d687 81bb
00000020: cb5d d2bd e43c 33bd 1f7b 023b e327 0d3d
00000030: 87af 60bd 7e02 993c 1de7 4fbd aea8 643c
00000040: 168a f3b9 ec0c 4fbd 42d7 ecbb c6b2 cbbd
00000050: acb1 b33c 4258 c33c 4c3b 85bd 91f9 16be
00000060: 249e 17bc cfe2 eebd f7f5 753d 4967 fc3b
00000070: 9b27 e93c 36cf db3b 26f4 e8bc dad4 8abc
00000080: 4d5c e5bd 614c e0bd c438 1ebd a630 02bc
00000090: 134f 17bd 6acf 3a3d ed1c 90bd 4309 ce3c
000000a0: 6300 b0bd 9457 a0bd 530d bebd 79a1 9bbd
000000b0: 6b68 e2bd d4de 003d d88f 903d 44cd 8bbd
000000c0: e17e 823c d5bb 5dbd 4098 683d a48a 96bd
000000d0: bdac c7bd 2776 363d 49e6 edbd 22fc eabc
000000e0: 8ef5 bdbd 5bee 17be 6f1a 2c3d 0dc6 933d
000000f0: 6ed2 aebd 95fc 45bd 6b68 f0bc 872f 94bd
00000100: 5f03 aebd 605d 64bd 3c23 03be 08ae afba
00000110: dbbd 98bd 48c7 93bb 1559 31bd f863 e0bd
00000120: acb8 9fbd 83db 18bd e352 583d 5198 44bd
00000130: ce4c 6e3c 392d a43c 2f2c a4bd 7b58 d23c
00000140: c820 16bd bc52 9cbd 231b 79bd 7678 16bb
00000150: 39e9 04bd 21fa 6f3b e72f 3fbd 997c 133d
00000160: e727 133d 660b a3bd 3378 77bc dc30 80bd
00000170: 157c 9cbd 3086 90bd 29f2 8a3a b0b4 8ebd
-0.008513777 -0.093740925 0.03446591 -0.08850655 0.04106921 -0.09693118 -0.058098067 -0.0039529605
-0.10271796 -0.04375924 0.0019909812 0.034461867 -0.054854896 0.018677946 -0.050757516 0.013956232
-0.00046451454 -0.050549433 -0.007227809 -0.09946208 0.021935306 0.023845796 -0.065054506 -0.1474364
-0.009254012 -0.11664354 0.060049023 0.0077027422 0.028461268 0.006708051 -0.028436732 -0.016947199
-0.111992456 -0.10952068 -0.038628355 -0.007946169 -0.036940645 0.04560796 -0.07036767 0.0251509
-0.08593824 -0.07829204 -0.09279885 -0.07599158 -0.110550724 0.031462505 0.07058686 -0.06826261
0.015929641 -0.05413421 0.056785822 -0.07350662 -0.09749744 0.044546273 -0.11616189 -0.02868468
-0.092753515 -0.14837019 0.042017397 0.072155096 -0.0853623 -0.048336584 -0.029346665 -0.072356276
-0.08496737 -0.05575311 -0.1280641 -0.0013403306 -0.07458087 -0.00450984 -0.043297846 -0.109565675
-0.07798895 -0.037318718 0.052813422 -0.047996823 0.014544679 0.020041095 -0.0801624 0.025676956
-0.036652356 -0.07632968 -0.060816895 -0.0022959984 -0.03244898 0.0036617594 -0.046676543 0.036007497
0.035926726 -0.079611585 -0.015104341 -0.06259319 -0.07640854 -0.07056844 0.0010600734 -0.06968057

encoder.0.fc2.weight f4 [96, 96, 1, 1]
00000000: e43f a9bd bc01 a4bd 7999 b53d eb47 9ebd
00000010: 443d b93d 855c 29bc 9742 0cbd 8bfb e03c
00000020: 3c82 8e3c e883 023d be87 9d3d 633a 6ebd
00000030: 2107 57bd 079a a43d 7539 d63d 6384 d03c
00000040: 1352 cd3d f465 abbc cf4d efbc c632 903d
00000050: 697a 183d 9c63 423c 1d97 053d b5d7 063d
00000060: 14a0 93bd d147 3f3d 7b69 f73c e690 96bd
00000070: 52a1 4cbd f2ab bb3b ba2f 643d 7455 d63d
00000080: a7d2 313c 7ca0 f5bb 4a8e 773d 9b8f 933d
00000090: 4b10 ee3c 3d04 bdbc 8009 e13b 7ad4 2cbb
000000a0: 2eb8 7abd c937 60bc 52ab a23c 7f8a ac3b
000000b0: 37d0 73bd 6b4e 97bc f1be a2bd 00ed f7bc
000000c0: a9ce 5ebd 4294 29bd 1f94 3cbc 084f a03d
000000d0: bcc4 d23d 07dc a5bd 6dc9 7a3c 026e b33d
000000e0: fa41 e83d 9f3a 8fbc f478 5b3c cc4e db3d
000000f0: 41fc 7a3d 4f3a 863d 7598 893d 5939 db3c
00000100: 3b81 8d3b 3ce3 733d c39d c03c cbd2 f93c
00000110: 2835 883d 2e13 fdbb cec4 913c 3dac c83c
00000120: 0668 c53d 2df9 bcbb ce86 9cbc e489 57bb
00000130: 2ce4 bcbc b994 3fbd 3401 fb3d 9077 a3bd
00000140: e82d 5b3d d0c7 dcbd 5050 f23b 42e2 05bd
00000150: 52f1 873d 8820 b9bd 6b0a 813c 67cf a5bc
00000160: 9742 08bd 6e58 cb3d e27c 8bbd 1443 1d3d
00000170: 05de 14bc 4968 933d 4e6c 993d 8291 c43d
00000180: 9f79 a0bc bf9f bdbd 5af6 66b9 53d7 333d
00000190: 8a56 a33d 331b 84bc d629 df3b 9f6d 85bc
000001a0: 0a9e 7dbd cc64 62bd 2255 c73d d2f8 913d
000001b0: cac8 273c 1819 203d 1eb0 113c 1101 043d
000001c0: 5a6b d3bc fa89 9bbc c44d 98bd ab82 18bd
000001d0: ebc0 14bd bb3c 323c 636f 0f3d 97c9 143e
000001e0: 9e9b 67bc 6e6b 6bbc bdc4 34bd df3d 05bd
000001f0: db80 403d 47b2 aabd 7002 3a3c fa58 043d
00000200: 27ec 813c 89c9 8ebc 81bf 42bd a755 bfbd
00000210: 7a07 083d 4094 163d fc09 883d b9a0 023d
00000220: e549 12bc 6bc4 d5bd 24dd 783d 2fa1 c0bc
00000230: 923f 79bd 1013 0abc 861c 903c b5e4 18bc
00000240: fe3d e43d 16bd 94bc a4c8 acbd 31b0 383e
00000250: 200a e03c 071d 16be 5b1c babd 06ba 53bd
00000260: 1304 503d db82 303b a94f 7dbd e47f c6bd
00000270: 7541 933d 14bd 2e3d 6106 413d 6247 973d
00000280: ea61 20bd bd32 8e3c deea 51bd 2933 063d
00000290: a76f ad3d 1ce3 2e3d d6d7 fa3d c8ad edbd
000002a0: a531 2abb d6ca 68bd cf3a eb3d 52af 94bd
000002b0: 2d68 a23d 0340 89bd 02b5 3a3d 900f ad3d
000002c0: 3364 80bd 941f e7bc 1282 003e f67b 973c
000002d0: d83c f13d 48fc 4a3d e0fe 1c3d 86a1 07be
000002e0: 23b6 d5bb d52c a03d 5335 c73c f242 ef3c
000002f0: bb87 cc3c f2db cb3d a927 cfbc b426 d83a
00000300: ccfd a03d 6160 663d 47f2 943d b28a 893d
00000310: e42e 6fbd e213 e63d 1ed4 86bd f469 1f3a
00000320: 53d2 e73d 84ef 613d 2838 f53d 749e 27bb
00000330: cf80 8d3d bd24 143d fabf babc 5d30 243d
00000340: 80e6 a6bd 5bdc a43b b634 b2bd ebde 813c
00000350: 1be1 18bc d448 98bc 322a 5cbc 9acf a63d
00000360: 6e6a 763c 4dde f33c 782e a6bd 1ed2 833d
00000370: 03c4 5c3c 175d 3a3d de6a 313d 8d9f 063d
00000380: e6da 78bd 0924 863d 5b5f aabc 2540 803d
00000390: ba2c 84bc dd31 1b3b 14ed 613d ee57 26bd
000003a0: cc9a 133c 083e 06bd d4bf 703c f35e 9f3d
000003b0: 60f9 b7bc 1616 a7bd ad25 ddbb cbc0 063c
000003c0: 04ed 24bb 70a5 d93d abc1 143d 9545 a93c
000003d0: a7b3 b63c 452d aa3d ccee 26bd f035 1a3d
000003e0: 7ed3 9abd 263c d6bd 50f4 32bd 4a2d 553d
000003f0: 7caa bdbd 62a8 193d 7ef8 453b ecad d0bd
-0.08264139 -0.08008143 0.08867163 -0.07728561 0.090448886 -0.010337 -0.034243193 0.027463695
0.017396085 0.031864077 0.076919064 -0.05816115 -0.052497033 0.08037191 0.10460178 0.025453752
0.1002542 -0.020922638 -0.029211907 0.07040934 0.037226114 0.011864569 0.032614816 0.032920558
-0.07208267 0.04669935 0.030201664 -0.07351856 -0.049958535 0.0057272846 0.055709578 0.10465518
0.010853446 -0.007495938 0.06043843 0.07205125 0.029060503 -0.02307331 0.0068675876 -0.0026371763
-0.061210804 -0.013685175 0.019857083 0.0052655335 -0.05952474 -0.01847001 -0.079465754 -0.030264378
-0.054396305 -0.041401155 -0.011509924 0.07827574 0.1029143 -0.080986075 0.015306813 0.08761217
0.11340709 -0.017484007 0.013395537 0.10708389 0.061275724 0.0655409 0.06718532 0.026760744
0.004318384 0.05954288 0.023512727 0.030496022 0.06650764 -0.0077232337 0.01779404 0.024496192
0.096389815 -0.0057670088 -0.019107249 -0.0032888586 -0.02305802 -0.046772692 0.12256089 -0.07981789
0.053510576 -0.10780299 0.007394828 -0.03268648 0.06637825 -0.09039408 0.015752038 -0.020240499
-0.03326663 0.09928976 -0.06810929 0.03839405 -0.009086137 0.07197625 0.074913606 0.09598066
-0.019589243 -0.09258985 -0.00022026282 0.04390652 0.079754904 -0.01612625 0.006810407 -0.016287623
-0.061918296 -0.05527191 0.09733035 0.07127537 0.010240743 0.03908643 0.008892087 0.03222758
-0.025808025 -0.01898669 -0.074367076 -0.03723399 -0.036316793 0.010878737 0.035018336 0.14530025
-0.014136223 -0.014368875 -0.044132937 -0.032529708 0.046997886 -0.08334785 0.01135312 0.032311417
0.015859677 -0.017430084 -0.047545914 -0.09342509 0.033210255 0.036762476 0.06642529 0.03189156
-0.008928751 -0.104378544 0.06075777 -0.023514358 -0.06085164 -0.008427396 0.017591726 -0.009331872
0.111446366 -0.01815657 -0.08436707 0.18035962 0.027348578 -0.1465951 -0.090874396 -0.051691078
0.050785135 0.0026933465 -0.061843548 -0.09692362 0.07190219 0.042660788 0.047125224 0.07386662
-0.039155878 0.017358178 -0.051249377 0.032763634 0.084685616 0.042697057 0.12248199 -0.11605412
-0.0025969532 -0.056834064 0.11485826 -0.07260002 0.07930026 -0.067016624 0.04558278 0.08450234
-0.062691115 -0.0282133 0.12549618 0.018491726 0.11779183 0.049557 0.038329005 -0.1324521
-0.0065219565 0.07821051 0.02431742 0.029206727 0.024967065 0.099540606 -0.025287466 0.0016491027
0.07860908 0.056244258 0.07272773 0.06715907 -0.058394328 0.11234261 -0.06583427 0.0006081157
0.11319413 0.05516006 0.119736016 -0.0025576623 0.06909334 0.03616785 -0.02279662 0.040085185
-0.08149433 0.005031151 -0.0870146 0.015853366 -0.009331013 -0.018589415 -0.0134377945 0.081450656
0.015040023 0.029769087 -0.08114332 0.06436561 0.013474467 0.045498934 0.043314807 0.032867003
-0.060755633 0.06549842 -0.020797422 0.062622346 -0.016134609 0.0023680844 0.055157736 -0.0406112
0.009009074 -0.032774 0.014694173 0.07781782 -0.022457778 -0.081585094 -0.006748876 0.008224676
-0.0025165686 0.10627258 0.03631751 0.020663062 0.022302462 0.08309416 -0.04075508 0.037649095
-0.0755987 -0.10460691 -0.043690026 0.052045144 -0.09261033 0.037514098 0.0030207927 -0.10189423

encoder.0.fc2.bias f4 [96]
00000000: 86bb 98bb 3440 c7bd d95a a2bd 09af f8bc
00000010: 9827 e13c d674 09bc 4af2 fbbc 8a13 44bd
00000020: c072 993c 43bc b63d 046f a13d e35a 6cbd
00000030: e4ab 8dbc c413 a43d 23ff 74bd 1128 003d
00000040: 5c47 803d d589 37bd bec8 0cbd 776c c2bc
00000050: 234b 5d3c 5e5c ab3d 9320 663d aed6 cfbc
00000060: 98bc 7bbd d17c 343c 3f33 8abb 233c 793d
00000070: df0d 9a3d 7c53 b5bd dc93 8bbd ef81 88bd
00000080: 0dd0 373d 68da 933d ba4c 6d3d 3f09 77bc
00000090: 7f81 06bd ca6f 323d 530b 633b bdfb 9bbc
000000a0: 9d20 c53c 63dd 6e3d 0637 4abd 076e 9bbd
000000b0: 35ce 64bc 8f26 8bbc e941 bb3d dec1 8bbc
000000c0: 808d 4e3c d587 79bd 6da8 4abd e0c4 523c
000000d0: 8047 8fbd 1837 253d 0f89 debd d7ea 93bd
000000e0: 64d1 55bd bb00 433d e907 52bd b1db 4ebd
000000f0: cb3b 383a 6e93 dbbc 60df 6b3d d522 21bd
00000100: ae8e 80bd 7edf 76bd db3e 403d 3821 a2bc
00000110: f69a 79bd 3ef2 2c3a 9633 8c3d 45f6 883d
00000120: a16a 843d 3500 903d 6a28 80bc 2dd2 61b9
00000130: fcaa ccbc 7160 893d 9183 683d 1725 7f3d
00000140: 5ea1 ca3d af43 d8bd 188f b9bd e187 2cbd
00000150: f4a4 62bd 24be c63d 02d2 2fb9 e73d 8a3c
00000160: f7c9 66bc c591 d8bd 90c8 b1bd c994 97bd
00000170: 947a 823d e75f ce3c e868 aa3d db12 b9bd
-0.0046610264 -0.09729043 -0.07927484 -0.0303569 0.0274847 -0.008389672 -0.03075518 -0.047870196
0.018731475 0.08922627 0.07882503 -0.057703864 -0.017293878 0.080115825 -0.05981363 0.03128821
0.06263611 -0.04480918 -0.03437113 -0.02373336 0.0135066835 0.08367227 0.05618341 -0.025370922
-0.061459154 0.011016087 -0.004217535 0.060848366 0.07522177 -0.08853814 -0.06815311 -0.06665408
0.044876147 0.07219392 0.0579345 -0.015077888 -0.03283834 0.04356364 0.00346442 -0.019040937
0.024063403 0.0583166 -0.04936888 -0.075893454 -0.013965179 -0.01698616 0.09143431 -0.017060217
0.012606978 -0.060920555 -0.04947703 0.0128643215 -0.069960594 0.040335745 -0.108659856 -0.072225265
-0.052201644 0.04760812 -0.051277075 -0.050502483 0.0007027953 -0.026803698 0.057586074 -0.03933986
-0.06277214 -0.060271733 0.046934944 -0.01979123 -0.060938798 0.0006597376 0.06845777 0.06687597
0.0646565 0.070312895 -0.01564427 -0.00021535969 -0.024983875 0.06707848 0.056766097 0.06229123
0.098940596 -0.105597846 -0.09060496 -0.04212177 -0.055333093 0.09704235 -0.00016767535 0.01687522
-0.014086238 -0.10574678 -0.086808324 -0.074014254 0.06371036 0.025192214 0.083207905 -0.090367995

encoder.1.fc1.weight f4 [96, 96, 1, 1]
00000000: 0025 a03d 9f66 003c 3eff 823d cc03 11be
00000010: 09a6 fa3d e589 d0bd e385 d2bc 1416 05bd
00000020: 7e65 d6bc 1afd 8fbd 28d5 79bd c334 4c3d
00000030: 80a6 57bd a427 a13d ec9c 323d 9952 a0bd
00000040: b5f6 a43d 8072 5dbb fcaa 23be 3ef0 fb3d
00000050: a12c 6fbd dc6f 46bd ee95 8bbd 933a 383d
00000060: 5054 993d 8d2b 473c 64b8 a2bb 0e88 f63c
00000070: 6bd7 c03c 56e5 183c 0abb 3d3c 2974 c1bb
00000080: 8737 ab3d 6f78 f13d 7f1c 473c 10d3 d6ba
00000090: d0f4 de3b 37dd 94bd 8c7b c63d 2ff0 0d3d
000000a0: be5d 1d3e 4301 213e dd9f 273d 139d a83d
000000b0: dfeb 6a3d d80f ddbd e0aa e33d 3271 12bd
000000c0: 90eb cd3d d06f d13d 3534 22be fc93 e33d
000000d0: 1e20 2dbe ae29 363d 96d7 42bd c5aa 933d
000000e0: 3f26 e23d c4de 7c3d b419 52bd 332b cabc
000000f0: c33b 09be ab9d 58bc acb5 4ebb fa14 c6bd
00000100: 9d9e 573d 2d74 4dba 2177 973d 9144 5f3b
00000110: fba1 9fbd 365f 16bc fbac fe3b 6227 10bc
00000120: 674b 343d 78fb a3bd 91d7 b63c c6c7 c63d
00000130: c964 5c3d 636b 18bd 535c 30bc 3679 063d
00000140: 1b7e a13c 747f c43d 6668 aebd 748b 1abc
00000150: 3f74 4d3d ead6 5fbd d040 ca3d 8630 79bd
00000160: 6dfe 0b3d 768b 91bd 5bda 6dbd 98da a23d
00000170: 3bbe 8e3d 3b60 fc3d dc65 67bd 6c9b a53d
00000180: 4a82 14bd 6efc 20bd 4349 d0ba 643b 1cbd
00000190: 37eb db3d 5961 9c3d 3edc 03bd 9373 373c
000001a0: 18c3 44bd 32de 62bc 4902 553c d8cc 40bd
000001b0: 3910 c0bb 9b1d 21bc d12b 483d c031 c73d
000001c0: e04f 53bd d570 69bd 0314 99bd c4f7 7a3d
000001d0: cf4f f43d 19bf f9bc a7f8 35bd 7151 c9bd
000001e0: d39f 423d 19bd 1a3d 17ad 513c f7cd 6b3c
000001f0: 93a9 29be d0e2 5f3c bc48 b0bd f583 933d
00000200: 16d8 ae3d f1c9 c4bd 5876 99bd 611b 10bd
00000210: 08d4 88bb c7bb 6bbc 6f21 06be 684b a33d
00000220: a7b0 10be 7482 3abe 0c5b 0fbe fc9b 143e
00000230: 6c35 143d eb7f cfbc 9425 0ebd 0409 fbbd
00000240: c5e5 d7bd 1f2f ca3b 23f8 61bd 0375 d9bc
00000250: dd3a d43d 514e 953b f9f4 4e3d a06c 04bc
00000260: d8c2 e5bd 20bb 24bd e0b6 3b3d 9569 e13d
00000270: 6f09 e6bc 2b12 ac3d dd13 c9bd a2ea 48bc
00000280: a057 3d3b 5bf5 b93d 659e 1abc 42c8 f3bc
00000290: 8036 923c d8a1 2cbe 75a8 833d ed30 373d
000002a0: c532 013d 70fc 493c 7f1d 793d 3440 6bbd
000002b0: 08ac c8bc 94ee 6d3d 358d cbbc e305 0abd
000002c0: f585 76bd d386 a93d f924 1d3e de9d d7bd
000002d0: baaf 93bd 7001 ffbc 6709 6f3d c910 6b3d
000002e0: 0fbc 6bbc 80c3 09bd c26e ab3d c7c9 853d
000002f0: f7e3 5bbd 5bf4 833d e15e 05be ab33 69bd
00000300: 6cd0 ddbd 1f6b c7bd d429 78bc 17de 3abd
00000310: a42f 923d 63a3 83bd 138a bb3a 9555 b7bd
00000320: eaef 943d d661 3a3d 1ab9 cbbd 9d72 0c3d
00000330: 5ab1 b5bd a24b 3b3a eaf7 92bd d078 46bd
00000340: ee1c 053d abed f4bc 03a3 5b3d a942 17bd
00000350: 691a d73c 362b 463c 3b4c c8bb 36c6 3c3c
00000360: 98bb 28be 615f 673d 9c88 163c 3548 01bd
00000370: c8cd 2839 444c 93bd 6aad cd3d 171b a3bd
00000380: 62b2 58bc 889f 72bd 1755 59bd 39ca 14bd
00000390: 13c4 a2bd 4120 8c3d 98b9 70bc abf0 cc3c
000003a0: 9f5c 383d 3b93 1d3d 9746 2e3d 64f5 7d3d
000003b0: fa0c 11bd efa7 d33d 11d3 cebb 95aa 8d3d
000003c0: 08af 57bc af66 1ebd 91ee 98bc 3898 fabc
000003d0: 664f a6bd 70b8 90bd 6c81 a5bd bac4 0dbd
000003e0: d5e6 a2bd aeaa bfbd a4aa 24bd 3b43 313d
000003f0: 1ce9 33be 23a8 4e3d 1bec a5bc 0d09 a1bd
0.07819557 0.007836967 0.0639634 -0.14161605 0.122387 -0.10182551 -0.025698608 -0.03249176
-0.026171442 -0.07030697 -0.060994297 0.049855005 -0.05264902 0.07868889 0.043606684 -0.07828254
0.08054868 -0.003379017 -0.15983194 0.12301682 -0.05839217 -0.04844652 -0.06815706 0.044977736
0.074867845 0.012156379 -0.0049658287 0.030094173 0.02354022 0.009332022 0.011580238 -0.00590374
0.083602004 0.11790549 0.01215279 -0.0016389806 0.0068040863 -0.07268756 0.096915334 0.034652885
0.15367791 0.15723138 0.040923942 0.082330845 0.05735385 -0.107940376 0.11116576 -0.035752483
0.100546956 0.10226405 -0.15840228 0.1111221 -0.16906783 0.044473343 -0.04756888 0.07210306
0.11042451 0.061735883 -0.051294044 -0.024678802 -0.13401704 -0.013221185 -0.003154139 -0.0967197
0.0526415 -0.0007837441 0.07395769 0.0034067968 -0.07794567 -0.0091779735 0.0077720857 -0.008798452
0.04401722 -0.08006948 0.022319587 0.097060725 0.053807054 -0.037211787 -0.010764199 0.03283044
0.019713452 0.09594622 -0.08516006 -0.009432662 0.05015969 -0.054648317 0.09875643 -0.06083729
0.034178186 -0.07106678 -0.058069568 0.0795185 0.06969877 0.12323042 -0.056493625 0.08086285
-0.036257066 -0.039303236 -0.0015890974 -0.038142577 0.10738223 0.07635755 -0.03219246 0.011196989
-0.04803762 -0.013846921 0.013001033 -0.047070354 -0.005861309 -0.009833719 0.04886991 0.09726286
-0.051589847 -0.05699237 -0.0747452 0.061271444 0.11929285 -0.03048663 -0.044426586 -0.09829987
0.0475157 0.037777994 0.0127976155 0.014392368 -0.16568594 0.013664916 -0.08607623 0.07202903
0.08537309 -0.0960883 -0.074932754 -0.03518236 -0.0041756667 -0.014388031 -0.13098691 0.07973367
-0.14129888 -0.18213826 -0.13999575 0.14512628 0.03618376 -0.02532955 -0.034703806 -0.12257579
-0.10541872 0.006170168 -0.055168282 -0.026545053 0.1036279 0.004556455 0.050526593 -0.008082539
-0.11218804 -0.04021752 0.0458287 0.11006466 -0.02808067 0.08401903 -0.09818242 -0.012262972
0.002889134 0.09080001 -0.009437178 -0.029758576 0.017848253 -0.16858613 0.06428615 0.044724394
0.03154256 0.012328252 0.060819145 -0.057434276 -0.024496093 0.058088854 -0.024847606 -0.03369702
-0.060186345 0.08277669 0.15346135 -0.10528158 -0.072112516 -0.031128615 0.058358576 0.057389054
-0.014388098 -0.03363371 0.08370735 0.065326266 -0.0536842 0.064430915 -0.13024475 -0.05693404
-0.10830769 -0.097372286 -0.015146691 -0.045621958 0.07137993 -0.06427648 0.0014308117 -0.0895187
0.072723225 0.04550346 -0.09947415 0.03428899 -0.08871718 0.0007144754 -0.07176192 -0.04845506
0.032498293 -0.029898485 0.053622257 -0.036928806 0.02625771 0.012095263 -0.006112603 0.011521867
-0.16477811 0.056487445 0.009187844 -0.031563003 0.00016098388 -0.07192281 0.10042842 -0.07964151
-0.0132261235 -0.059234172 -0.053059664 -0.036325667 -0.079475544 0.068420894 -0.0146926865 0.025017103
0.045010205 0.038470488 0.04254779 0.0620016 -0.035412766 0.10334765 -0.006311782 0.069173016
-0.013164289 -0.038672145 -0.018668445 -0.030590162 -0.08120613 -0.07066429 -0.08081326 -0.03461144
-0.07954184 -0.093587264 -0.040201798 0.043277007 -0.17569393 0.050453316 -0.020254185 -0.078630544

encoder.1.fc1.bias f4 [96]
00000000: 6964 b0bd f48e 38bd 2dd9 9cbd 244e 3b3d
00000010: 1665 0abe 916e 1b3d 165f f03c 6761 f83c
00000020: 2033 60bc 6437 983d 3aac febc 2cef d1bc
00000030: c893 243d 8a98 593d 8f84 ac3c d304 943c
00000040: 5cf7 893d f259 dcbc 0f49 c6bb a598 fabc
00000050: ab8f 4a3d 2620 dfbd 54d0 a5bd 33af e13b
00000060: 7c9b 833d 0d00 a8bd e6f2 b0bd 04a9 acbc
00000070: ecf4 8f3d c2d4 8bbb 4936 023d edc9 673d
00000080: deab afbd 818c 153c 10da 85bd d0e2 b1bd
00000090: 6fa8 f1bd 7b31 6bbc d91b 4b3d be6a cbbc
000000a0: fc7b 25bd 1610 ccbd b2a3 efbd 75e9 153d
000000b0: d002 08bd c88e c23c 4efd f23c 1ae1 92bd
000000c0: 6b1e 30bd 6d33 043d 0a82 aabc 3a0b 403d
000000d0: 44d9 dfbd 25cf 753d 5315 38bd 7fa6 19be
000000e0: cce0 81bd 5bec 893c b085 273d 12c0 64bd
000000f0: bed4 4fbd 39cc 9ebd c67a 8dbc c7c5 813d
00000100: fd05 883d e198 90bd feec 123d c0da adbd
00000110: 0ba8 593d 5840 3f3d ee1b c93d a99f 4ebd
00000120: 5555 79bd ab58 a2bd d61e 7cbd 8e0b 58bd
00000130: 80f7 09bd 1521 503d 7c51 22bc 43fd 9ebb
00000140: 89fe 293c 6272 63bd 6058 fb3c 9573 7dbd
00000150: 94d4 3ebd e606 2cbe 9db3 28bd 7460 513c
00000160: bf2e bdbd 0291 04bc f8c5 8abd 1310 e7bc
00000170: 275e 0abd d124 9b3c 66d0 a1bd d28b 48bc
-0.08612902 -0.045058206 -0.076586105 0.045728818 -0.13515124 0.03794724 0.029342216 0.030319883
-0.013684064 0.0743244 -0.031087983 -0.025626741 0.040179998 0.05312399 0.021059303 0.018068707
0.06736633 -0.026898358 -0.0060511897 -0.030590365 0.04945342 -0.10894804 -0.08096376 0.0068873405
0.06426141 -0.08203135 -0.08640079 -0.021076687 0.07029137 -0.004267306 0.03179005 0.056589056
-0.08577703 0.009127737 -0.06535733 -0.08685839 -0.11799704 -0.014355059 0.049587104 -0.024831172
-0.040401444 -0.09964006 -0.11701144 0.036599595 -0.033205807 0.023749724 0.0296618 -0.07171841
-0.04299776 0.032275606 -0.02081396 0.046885706 -0.10930112 0.060012 -0.04494221 -0.1500492
-0.06341705 0.016836336 0.04089898 -0.055847235 -0.050739996 -0.07753796 -0.017270457 0.06336551
0.06641767 -0.07060409 0.035870545 -0.08488989 0.053138774 0.046692222 0.0981978 -0.050445233
-0.060872395 -0.07927068 -0.061552845 -0.052745394 -0.0336833 0.0508128 -0.009907123 -0.0048519685
0.010375627 -0.055529006 0.030681789 -0.061877806 -0.04658945 -0.16799507 -0.041186918 0.012779344
-0.09237432 -0.008091213 -0.06776041 -0.028205907 -0.033781197 0.018938454 -0.07901077 -0.012240367
