small_scale_scenario/experiments/stid/KNOWAIR/-fulltrain-longterm/final_model_s2017.pt (torch, 273468 bytes, 18 tensors)

node_emb f4 [184, 32]
0.32689828 -0.2699895 -0.040046554 0.20742144 -0.08261818 0.1169046 0.30247754 -0.028589547
-0.02997299 0.119890966 0.15197535 0.25484738 -0.24263276 0.0128035 -0.19621815 0.19927306
0.028458819 0.04147081 0.21981494 0.21365662 0.14351739 -0.038187 0.17841698 0.09083974
-0.4097316 -0.07274181 0.22276057 -0.2942936 -0.083717786 0.25831816 -0.18262243 0.24094632
0.36830476 -0.03985979 0.07948886 0.21373093 -0.10593693 0.13455556 -0.031602696 0.24894279
0.14100516 -0.02123523 0.050517056 0.14590089 0.117392816 -0.13232991 0.0063156122 0.031242369
-0.20417134 0.089435235 0.056012772 0.17152674 0.029467132 0.064071916 0.102049 -0.06669171
-0.17108162 0.0010705726 -0.0077984906 -0.21449114 -0.2542174 0.18470185 0.09953431 0.16971302
0.29462337 -0.063869454 0.3670599 -0.24009384 -0.21422817 -0.19631572 0.0703816 -0.119821124
0.10494772 0.18206231 0.17673382 -0.04972258 -0.18048403 0.08932335 -0.012286228 0.18412827
-0.27888831 0.23722266 0.39928398 0.1710568 -0.1786411 0.259616 -0.16442044 0.00081299717
0.16830958 -0.24867523 -0.083757065 0.01005986 0.12312512 -0.10605242 -0.23112315 -0.22896037
0.048769545 -0.08374518 0.10269192 0.01358523 -0.17359485 -0.13304733 0.018790143 0.032270934
0.118903816 -0.058755606 0.15554509 -0.017484603 0.0050193984 -0.10535886 0.08849859 0.15292425
-0.032835804 0.107997745 -0.10176574 0.010057261 0.05867166 0.120585404 0.06363211 0.017393839
-0.2000062 0.1426834 0.09568857 -0.31168136 -0.09657854 0.1817942 0.22225699 0.0840427
-0.035423957 0.069993734 0.07823427 0.15701175 0.16580871 0.0022735451 0.0756773 -0.041066118
-0.07564222 -0.04355065 0.1166426 0.088093705 0.1895994 0.30224398 -0.02919782 -0.054600958
0.0072394013 0.011540478 -0.030214341 0.011889409 -0.042314153 -0.10176521 0.19134437 0.11436268
0.047493245 0.13706648 0.20421563 -0.17566238 -0.21878582 0.15584648 0.015749538 0.12822184
0.08828577 0.06794809 0.35914576 -0.18168445 -0.0036757148 0.03551617 -0.13529025 0.08098235
0.21466598 -0.03142468 0.086565785 -0.18881465 -0.023924781 -0.02966748 0.10912921 0.1962765
-0.3235162 0.1326491 0.27188823 0.011849868 -0.029508581 0.33063516 -0.099700026 -0.1073037
0.05997644 -0.08545396 -0.1597517 -0.11024439 0.3002999 -0.25360003 -0.12293708 -0.09472739
0.026527893 -0.026999641 0.5250495 -0.09369963 -0.081292436 -0.20834927 0.07829604 -0.111042
0.14663796 0.023576165 0.1548942 -0.36131015 0.014013908 0.17437634 0.06835721 0.07285405
-0.35012034 0.37068307 0.36258757 0.14096679 -0.06575085 0.3645009 -0.12395154 0.045554038
-0.04262791 -0.33400184 -0.07176393 -0.1592412 0.3815173 -0.31082132 -0.19349524 -0.20275946
0.00034548546 -0.17446898 -0.0004352171 0.3053971 0.14784992 0.17839958 0.012326522 -0.12118109
-0.04496281 0.0720235 0.0177759 0.010594819 0.22531891 0.067815356 -0.08698232 0.011788676
0.026117997 -0.14242831 -0.16454652 -0.18695384 0.09560423 0.031311974 0.16795371 0.1793292
-0.06387126 0.2864993 0.2639494 -0.002087413 -0.22378749 0.1127623 0.047484327 0.089957
00000000: 365f a73e 103c 8abe db07 24bd 4966 543e
00000010: b833 a9bd ae6b ef3d 56de 9a3e a034 eabc
00000020: ea89 f5bc 6589 f53d 6d9f 1b3e 5b7b 823e
00000030: b974 78be c5c5 513c 69ed 48be 3d0e 4c3e
00000040: 7822 e93c 4cdd 293d 2b17 613e cdc8 5a3e
00000050: 39f6 123e f969 1cbd f1b2 363e 300a ba3d
00000060: 57c8 d1be a8f9 94bd 591b 643e a7ad 96be
00000070: 3b74 abbd 4742 843e 6001 3bbe a2ba 763e
00000080: 7192 bc3e 0544 23bd 0ecb a23d 48dc 5a3e
00000090: 76f5 d8bd efc8 093e d471 01bd dcea 7e3e
000000a0: a863 103e 81f5 adbc f9ea 4e3d 0b67 153e
000000b0: a56b f03d 7e81 07be 32f3 ce3b ffef ff3c
000000c0: 4b12 51be d229 b73d a66d 653d b5a4 2f3e
000000d0: 0e65 f13c 2338 833d 11ff d03d aa95 88bd
000000e0: 0530 2fbe 7552 8c3a 7b8a ffbb 91a3 5bbe
000000f0: c828 82be 7b22 3d3e a5d8 cb3d 40c9 2d3e
00000100: e0d8 963e fdcd 82bd 46ef bb3e 29db 75be
00000110: a15e 5bbe fd06 49be 3a24 903d c764 f5bd
00000120: d5ee d63d 8b6e 3a3e b6f9 343e e7a9 4bbd
00000130: ced0 38be 29ef b63d 2d4c 49bc 1f8c 3c3e
00000140: 73ca 8ebe 7fea 723e f36e cc3e 8429 2f3e
00000150: b1ed 36be 63ec 843e d55d 28be 511f 553a
00000160: 5959 2c3e b8a4 7ebe d388 abbd 1cd2 243c
00000170: 0629 fc3d 0332 d9bd 8cab 6cbe 9674 6abe
00000180: 93c2 473d 9882 abbd 2450 d23d 9694 5e3c
00000190: d9c2 31be 8f3d 08be c9ed 993c 872e 043d
000001a0: d883 f33d b8a9 70bd 3647 1f3e df3b 8fbc
000001b0: c479 a43b 63c6 d7bd c03e b53d 2d98 1c3e
000001c0: d67e 06bd ec2d dd3d 8e6a d0bd 36c7 243c
000001d0: b251 703d 7bf5 f63d 8d51 823d 867d 8e3c
000001e0: 6dce 4cbe 991b 123e 5ef8 c33d b394 9fbe
000001f0: f8ca c5bd 4228 3a3e 5697 633e 941e ac3d
00000200: b618 11bd e058 8f3d 4a39 a03d b0c7 203e
00000210: c2c9 293e c2ff 143b b3fc 9a3d f234 28bd
00000220: 4fea 9abd 2b62 32bd 51e2 ee3d 796a b43d
00000230: 5826 423e b9bf 9a3e 4430 efbc 41a5 5fbd
00000240: 8038 ed3b 4614 3d3c 1184 f7bc cccb 423c
00000250: 9b51 2dbd 476a d0bd c7ef 433e fb36 ea3d
00000260: 4788 423d 285b 0c3e e71d 513e d7e0 33be
00000270: 6409 60be 3896 1f3e 2d05 813c 964c 033e
00000280: 2bcf b43d 5e28 8b3d f4e1 b73e 7d0b 3abe
00000290: 43e4 70bb 6779 113d 8789 0abe 13da a53d
000002a0: 66d1 5b3e 2ab7 00bd 6749 b13d a158 41be
000002b0: e7fd c3bc 3709 f3bc 237f df3d b5fc 483e
000002c0: eaa3 a5be 2ad5 073e ef34 8b3e f325 423c
000002d0: fbbb f1bc 0349 a93e 872f ccbd 0bc2 dbbd
000002e0: dba9 753d 7c02 afbd f395 23be d0c7 e1bd
000002f0: e9c0 993e ddd7 81be 70c6 fbbd 6f00 c2bd
00000300: 0651 d93c 5a2e ddbc a569 063f 97e5 bfbd
00000310: a67c a6bd 8359 55be ad59 a03d fd69 e3bd
00000320: 4328 163e cd22 c13c 969c 1e3e a5fd b8be
00000330: 979a 653c b68f 323e ddfe 8b3d 8134 953d
00000340: f942 b3be 2cca bd3e 14a5 b93e 9959 103e
00000350: 62a8 86bd dd9f ba3e 4eda fdbd df96 3a3d
00000360: 9a9a 2ebd 4a02 abbe f8f8 92bd 2010 23be
00000370: 3c56 c33e f923 9fbe 9e23 46be 2da0 4fbe
00000380: 4622 b539 ffa7 32be da2d e4b9 025d 9c3e
00000390: f865 173e 61ae 363e 2ef5 493c cb2d f8bd
000003a0: ec2a 38bd 0f81 933d c49e 913c e495 2d3c
000003b0: 00ba 663e c7e2 8a3d c923 b2bd 4a25 413c
000003c0: 69f5 d53c bad8 11be e27e 28be d470 3fbe
000003d0: 27cc c33d fc40 003d 0ffc 2b3e 13a2 373e
000003e0: efce 82bd 09b0 923e 6024 873e fbcc 08bb
000003f0: 8c28 65be ecef e63d ed7e 423d 603b b83d

time_in_day_emb f4 [8, 32]
0.23989388 0.2235657 -0.18861128 -0.19087157 0.2824748 0.18756394 0.08548664 -0.26204637
-0.0052591236 -0.01997736 -0.21449034 0.08905149 -0.05751156 0.19604981 -0.10009731 -0.098593265
0.1071586 -0.108661555 0.22875975 -0.32224688 0.17850024 0.31402588 0.15868932 -0.22992483
-0.32247323 -0.1168088 -0.034614347 0.1461678 -0.11415907 -0.19689842 -0.023299428 0.009208699
-0.10929489 0.00893559 0.027877262 -0.31174657 -0.060301844 0.1240954 0.17459573 0.2770519
-0.12674294 -0.35410565 0.02223211 -0.3116034 -0.06948087 0.17454006 -0.12769406 0.20457044
-0.16293177 0.1792433 0.3023012 0.088588506 -0.015768185 -0.016867854 -0.14314798 0.027417379
-0.024508385 0.1759628 0.04935933 0.044100937 -0.1847916 -0.32191283 0.011572296 -0.17376812
0.2131193 -0.08913613 -0.16633119 0.045668993 0.22444335 0.11272937 0.2871695 -0.18991764
-0.23536874 -0.2472437 0.14014412 -0.11329841 -0.30871543 -0.0034866254 -0.11332839 0.12277865
-0.14352824 0.2553145 0.07933244 0.12994786 -0.21573114 0.18982193 0.24174549 -0.16273467
0.080746226 0.064709455 0.17656416 0.118685335 0.177248 0.17531835 0.11474353 -0.34805223
0.20871954 -0.08538411 -0.0694499 -0.13138089 0.29223213 0.039808806 0.2066263 0.15651473
-0.084718734 -0.08681195 0.16730694 -0.08095729 -0.17030278 -0.11383302 0.23725739 0.2902983
-0.2520717 -0.14613281 0.14855874 -0.26082087 -0.04052857 -0.268844 0.03878253 0.13453327
-0.057390258 0.23438455 -0.15726382 -0.21630031 -0.14207661 0.25318107 -0.35731688 -0.22606032
0.34026942 -0.2829173 -0.011077986 -0.13649188 -0.040106118 0.07608972 -0.04198815 -0.13794027
0.24557693 -0.10200151 0.14797974 -0.23444246 0.22590268 0.016487824 -0.20573317 -0.04284495
-0.25395522 -0.21597756 0.16185099 -0.3681995 -0.013355402 -0.0154584125 -0.19874921 0.0185314
-0.19983958 0.046725288 -0.023613224 -0.003875541 -0.07080228 0.20173068 -0.020359058 0.21894257
0.12194952 -0.14475967 -0.20466864 -0.25314063 0.3018256 -0.11300699 -0.074215874 0.24039532
0.14114423 0.24398632 0.10992159 -0.007579231 0.18388738 -0.0077954507 -0.0014461152 -0.10700426
0.10402392 -0.20052886 0.14795017 -0.24532804 -0.08647926 -0.13192335 0.1115891 -0.32646164
0.14942321 -0.014420038 0.23333532 0.24958172 0.20205398 0.13043332 0.27029684 0.19515042
0.293726 -0.103586055 -0.15688807 -0.1549128 -0.21142724 -0.17989188 -0.16776319 0.30720434
0.18642479 -0.068536356 0.07872347 0.13985074 -0.2060982 0.13457207 -0.19618273 0.13699214
0.058240514 -0.11740648 0.02794998 -0.2637255 -0.116314515 0.31122863 0.28520036 0.045722272
-0.16858175 0.034235187 -0.27485046 -0.27162048 -0.24946146 0.12399914 -0.115635075 -0.16009368
-0.2201198 0.018622 0.20388752 -0.16223556 0.021740362 -0.1656248 -0.29713604 -0.25008944
0.17713079 0.18227132 0.21657424 -0.24494238 -0.2674532 -0.17844282 0.25874513 0.16819558
0.32899213 -0.028675593 0.25505638 0.09723157 0.1697459 0.31204146 0.07882833 -0.16787076
-0.21453707 -0.1410642 -0.3058474 -0.30528516 0.094679415 -0.18199575 0.06499264 0.10880234
00000000: bea6 753e 68ee 643e 5123 41be d673 43be
00000010: 89a0 903e c310 403e 9f13 af3d f12a 86be
00000020: ba54 acbb 8fa7 a3bc 5ba3 5bbe a160 b63d
00000030: 3e91 6bbd 48c1 483e d2ff ccbd 44eb c9bd
00000040: f875 db3d f389 debd ff3f 6a3e 8bfd a4be
00000050: c4c8 363e 00c8 a03e 747f 223e 6a71 6bbe
00000060: 361b a5be 7439 efbd c6c7 0dbd 03ad 153e
00000070: 3bcc e9bd bd9f 49be 71de bebc 15e0 163c
00000080: 00d6 dfbd 9566 123c db5e e43c 3f9d 9fbe
00000090: 11ff 76bd bb25 fe3d 39c9 323e bfd9 8d3e
000000a0: e7c8 01be 564d b5be 1d20 b63c 7b8a 9fbe
000000b0: fd4b 8ebd a1ba 323e 3bc2 02be ea7a 513e
000000c0: 96d7 26be 8e8b 373e 39c7 9a3e e46d b53d
000000d0: 482c 81bc 742e 8abc 6295 12be 699a e03c
000000e0: cfc5 c8bc 982f 343e 022d 4a3d 2fa3 343d
000000f0: 023a 3dbe c2d1 a4be ba99 3d3c 45f0 31be
00000100: f23b 5a3e 018d b6bd b952 2abe 690f 3b3d
00000110: 7ad4 653e a8de e63d e107 933e c579 42be
00000120: 8104 71be 742d 7dbe f181 0f3e ff08 e8bd
00000130: f30f 9ebe de7f 64bb b718 e8bd 5f73 fb3d
00000140: 11f9 12be 95b8 823e 0c79 a23d 0d11 053e
00000150: a0e8 5cbe ae60 423e 218c 773e eba3 26be
00000160: 475e a53d 6486 843d 3ccd 343e 4c11 f33d
00000170: 8080 353e a786 333e a8fe ea3d e733 b2be
00000180: 93ba 553e dddd aebd c03b 8ebd b688 06be
00000190: 739f 953e 8f0e 233d d895 533e 6645 203e
000001a0: 0481 adbd 77ca b1bd 8352 2b3e f0cc a5bd
000001b0: da63 2ebe 4921 e9bd 9af3 723e fba1 943e
000001c0: 8b0f 81be d7a3 15be c81f 183e 508a 85be
000001d0: 4901 26bd eca5 89be 6eda 1e3d 17c3 093e
000001e0: 0c12 6bbd 8102 703e c409 21be d47d 5dbe
000001f0: 887c 11be f3a0 813e 3df2 b6be 5b7c 67be
00000200: cb37 ae3e 89da 90be 7180 35bc 87c4 0bbe
00000210: 5046 24bd edd4 9b3d c4fb 2bbd 3740 0dbe
00000220: 8578 7b3e 2be6 d0bd 0088 173e af11 70be
00000230: 0853 673e 7911 873c b7ab 52be 307e 2fbd
00000240: 6b06 82be 3929 5dbe 44bc 253e a584 bcbe
00000250: 9ed0 5abc 4845 7dbc ea84 4bbe 2acf 973c
00000260: bfa2 4cbe 0463 3f3d 8570 c1bc cafc 7dbb
00000270: c900 91bd 7d92 4e3e 0ac8 a6bc 7b32 603e
00000280: acc0 f93d e13b 14be a894 51be a69b 81be
00000290: e388 9a3e 3570 e7bd 7efe 97bd 312a 763e
000002a0: 1d88 103e 8dd7 793e 921e e13d 335b f8bb
000002b0: f94c 3c3e fb70 ffbb 938b bdba 0d25 dbbd
000002c0: 7e0a d53d 7057 4dbe 4080 173e 4637 7bbe
000002d0: 0a1c b1bd ea16 07be d388 e43d fb25 a7be
000002e0: 6602 193e 0642 6cbc 74ef 6e3e 5a92 7f3e
000002f0: 3de7 4e3e 5090 053e 5964 8a3e 83d5 473e
00000300: 4163 963e ed24 d4bd 44a7 20be 76a1 1ebe
00000310: 6280 58be 9435 38be 1dca 2bbe e349 9d3e
00000320: 24e6 3e3e ca5c 8cbd c539 a13d 0835 0f3e
00000330: 680b 53be 43cd 093e 20e4 48be ab47 0c3e
00000340: 9b8d 6e3d cf72 f0bd 5bf7 e43c 0707 87be
00000350: 4e36 eebd 5c59 9f3e c805 923e 4747 3b3d
00000360: b2a0 2cbe 323a 0c3d 33b9 8cbe d711 8bbe
00000370: d372 7fbe 43f3 fd3d 15d2 ecbd 99ef 23be
00000380: 1667 61be 2a8d 983c e4c7 503e 1421 26be
00000390: d818 b23c 8c99 29be 3722 98be b90b 80be
000003a0: c661 353e 55a5 3a3e a3c5 5d3e 2dd2 7abe
000003b0: a0ef 88be b7b9 36be 3e7a 843e 763b 2c3e
000003c0: a871 a83e 14e9 eabc c096 823e 5821 c73d
000003d0: dfd1 2d3e e6c3 9f3e bf70 a13d 50e6 2bbe
000003e0: 9baf 5bbe 2273 10be 0898 9cbe 564e 9cbe
000003f0: 48e7 c13d 185d 3abe dc1a 853d c3d3 de3d

time_series_emb_layer.weight f4 [32, 72, 1, 1]
-0.002988773 0.047676288 -0.055163264 0.083091475 0.11174939 -0.07571612 0.050998576 -0.06746611
-0.026363442 -0.0035763474 -0.09291965 0.090538025 0.030201294 0.0008843601 -0.0037560407 0.05723102
0.0014966248 0.07269734 -0.09057793 0.005990991 -0.039037917 -0.09633521 0.026743948 -0.103144795
0.05705607 0.003705641 0.012170221 -0.030650795 -0.049046993 0.035230055 0.08059945 -0.09977843
-0.11247831 0.063379556 0.02641778 0.09510302 0.09648946 0.07712261 -0.08607695 0.09677231
-0.018464316 0.00036291467 0.0813372 0.00044393187 0.06315574 -0.09379596 0.077263355 0.015917037
-0.077523455 -0.031203277 -0.08617843 0.11982104 0.06666156 0.031052278 -0.045232635 -0.0863963
0.05960354 0.042736586 -0.08670066 0.01704073 0.17217678 -0.064730085 0.048390653 0.16377592
0.018610489 0.030943973 -0.072698385 0.027584309 -0.07077996 0.091112 -0.048752982 -0.044588022
-0.08399279 -0.08039752 0.0775677 -0.008596141 -0.037142914 -0.085369825 -0.02719026 0.030733312
-0.029605595 -0.05726339 -0.07619889 -0.04886555 -0.08232081 -0.033785354 -0.05890352 0.05320368
-0.07262797 -0.013753611 0.04173449 -0.0091295745 -0.05932026 0.029464748 0.048053306 -0.043074716
-0.012495886 -0.0047633736 0.09045321 0.044513762 -0.06432134 -0.04377755 0.08877667 -0.011849316
-0.056644175 0.03149665 0.059279658 0.058335196 -0.0913913 -0.09804254 -0.033737864 0.05006202
0.014572465 -0.07762651 0.15964438 -0.040083844 -0.065797985 -0.030064482 0.081014305 0.11533424
0.04674209 0.09567948 -0.10025489 0.1388562 -0.038407072 -0.034492653 0.14949462 -0.068016045
0.04557725 -0.015173887 -0.01437038 0.03534265 -0.10840094 0.08126921 0.012283251 -0.078502014
0.046499584 -0.087319896 -0.026278289 -0.016532088 -0.0058672945 -0.2094455 0.02278693 0.070005566
0.008700587 0.034891482 -0.060738143 0.08850544 0.085317515 0.11886424 -0.034078144 0.098766714
-0.03498873 -0.0047133416 -0.041310597 0.0044028955 -0.051805366 -0.10249029 0.10880725 0.07996308
0.045216065 0.032781143 -0.06718376 -0.07394335 -0.07020217 -0.02604508 -0.09615123 0.0229402
-0.03543553 0.0481559 -0.005772322 0.13313808 0.034677576 -0.03553341 0.033515096 -0.02643797
0.10352092 -0.08320474 -0.07971293 -0.012248387 -0.05117921 -0.006073668 0.015737858 0.13150461
-0.10254228 0.08329315 -0.0076453825 -0.08771303 0.04573197 -0.0045177997 0.04254771 0.03868248
-0.07908621 -0.09731252 -0.06207367 0.01841024 0.052712593 0.0862256 -0.02922966 -0.0799893
0.08985999 -0.060895234 0.04496472 -0.027594363 -0.13960592 0.039058097 -0.025728246 -0.027914658
0.014022463 -0.03289867 -0.1570082 0.079119846 0.032820314 0.10534753 0.05470461 -0.089411356
0.11227431 -0.0013300654 0.014586314 0.07131487 -0.04866053 0.021906804 0.002572316 -0.092941925
-0.03489505 -0.07494705 0.05284911 0.055392977 -0.0091488855 0.043709584 0.008619142 0.07724707
-0.09898518 -0.012351889 -0.014667404 0.026063314 0.07258161 0.007963757 -0.049929146 -0.0876192
-0.07884664 -0.112088665 -0.07020895 0.03296593 0.06812883 -0.10224175 -0.015309533 0.05230222
-0.10201907 0.04857874 -0.027325293 0.07298705 -0.07208708 -0.09586628 0.06262522 0.11829947
00000000: 4adf 43bb 3648 433d e0f2 61bd dd2b aa3d
00000010: dddc e43d 0e11 9bbd e2e3 503d ac2b 8abd
00000020: 25f8 d7bc 2761 6abb a84c bebd 006c b93d
00000030: b468 f73c 67d4 673a e827 76bb 136b 6a3d
00000040: 652a c43a 58e2 943d ec80 b9bd 1350 c43b
00000050: 39e6 1fbd 654b c5bd 2016 db3c 943d d3bd
00000060: a0b3 693d 57da 723b 9b65 473c 6017 fbbc
00000070: 80e5 48bd 644d 103d 5311 a53d a258 ccbd
00000080: 075b e6bd 24cd 813d 1a6a d83c 5fc5 c23d
00000090: 449c c53d 75f2 9d3d 1d49 b0bd 9030 c63d
000000a0: 7a42 97bc 9545 be39 1e94 a63d 87bf e839
000000b0: cc57 813d 1918 c0bd 403c 9e3d 7264 823c
000000c0: 9ec4 9ebd 049e ffbc 517e b0bd bc64 f53d
000000d0: db85 883d 5961 fe3c db45 39bd 8bf0 b0bd
000000e0: d722 743d 8f0c 2f3d 1e90 b1bd 0099 8b3c
000000f0: 1c4f 303e 3591 84bd 4735 463d e0b4 273e
00000100: 0675 983c 377e fd3c e4e2 94bd 7df8 e13c
00000110: 15f5 90bd ee98 ba3d 35b1 47bd eea1 36bd
00000120: 6904 acbd 74a7 a4bd d0db 9e3d d4d6 0cbc
00000130: 2b23 18bd 60d6 aebd 1cbe debc 6dc4 fb3c
00000140: 6f87 f2bc 048d 6abd 2a0e 9cbd 3e27 48bd
00000150: d097 a8bd 8362 0abd d144 71bd 1aec 593d
00000160: f9bd 94bd d356 61bc c9f1 2a3d 3694 15bc
00000170: cdf9 72bd 0e60 f13c 8bd3 443d 1d6f 30bd
00000180: 8bbb 4cbc 1316 9cbb 883f b93d 1054 363d
00000190: e8ba 83bd 1750 33bd 8bd0 b53d a223 42bc
000001a0: b903 68bd a202 013d 3acf 723d e3f0 6e3d
000001b0: 5d2b bbbd 87ca c8bd b730 0abd d50d 4d3d
000001c0: 59c1 6e3c a6fa 9ebd d179 233e f52e 24bd
000001d0: 18c1 86bd ca49 f6bc d4ea a53d 5c34 ec3d
000001e0: a274 3f3d 9af3 c33d 7052 cdbd 5230 0e3e
000001f0: bc50 1dbd 2b48 0dbd 1e15 193e ff4b 8bbd
00000200: 36af 3a3d e59b 78bc be71 6bbc 74c3 103d
00000210: 5001 debd 7970 a63d b03f 493c aac5 a0bd
00000220: 5976 3e3d c6d4 b2bd 9145 d7bc 4d6e 87bc
00000230: 6f42 c0bb e278 56be a8ab ba3c 145f 8f3d
00000240: e88c 0e3c 5fea 0e3d 8fc8 78bd 5742 b53d
00000250: f3ba ae3d 186f f33d 8695 0bbd 3446 ca3d
00000260: 5850 0fbd 6072 9abb 4d35 29bd 2a46 903b
00000270: dd31 54bd 6ee6 d1bd 56d6 de3d afc3 a33d
00000280: 7b34 393d 8545 063d a497 89bd 9c6f 97bd
00000290: 28c6 8fbd 7e5c d5bc f0ea c4bd 16ed bb3c
000002a0: d924 11bd 1f3f 453d bf25 bdbb 5955 083e
000002b0: 130a 0e3d 7b8b 11bd 2047 093d 7194 d8bc
000002c0: c702 d43d 3f67 aabd 8840 a3bd 75ad 48bc
000002d0: 4ba1 51bd 9f05 c7bb aeec 803c 25a9 063e
000002e0: b001 d2bd 9995 aa3d 1e86 fabb e4a2 b3bd
000002f0: 7251 3b3d 0d0a 94bb 8246 2e3d 8571 1e3d
00000300: f3f7 a1bd c94b c7bd f640 7ebd 12d1 963c
00000310: 29e9 573d 0c97 b03d 0a73 efbc 6ed1 a3bd
00000320: 8408 b83d 486d 79bd ed2c 383d 930d e2bc
00000330: dbf4 0ebe 62fb 1f3d 0bc4 d2bc 48ad e4bc
00000340: 79be 653c c1c0 06bd c2c6 20be 9609 a23d
00000350: 986e 063d 72c0 d73d f111 603d 4d1d b7bd
00000360: 13f0 e53d 9755 aeba 6ffb 6e3c 880d 923d
00000370: 4450 47bd e675 b33c 4d94 283b 5658 bebd
00000380: 1dee 0ebd d77d 99bd 4f78 583d bfe3 623d
00000390: 35e5 15bc d208 333d 4d37 0d3c b633 9e3d
000003a0: beb8 cabd 945f 4abc 8d4f 70bc bb82 d53c
000003b0: aba5 943d 6b7a 023c 8182 4cbd b271 b3bd
000003c0: 597a a1bd be8e e5bd b6c9 8fbd 4807 073d
000003d0: 2187 8b3d 1f64 d1bd d6d4 7abc da3a 563d
000003e0: 60ef d0bd 80fa 463d 4bd9 dfbc 3c7a 953d
000003f0: 64a2 93bd 8a55 c4bd a741 803d fe46 f23d

time_series_emb_layer.bias f4 [32]
-0.061643157 0.10370064 -0.027091147 -0.066054896 -0.031393252 0.12166231 -0.09719761 -0.07022131
-0.008264378 -0.019415116 -0.07138029 0.007761977 0.016307218 -0.09553126 0.022581361 -0.06931054
0.032858416 -0.03111084 0.080523655 -0.003556689 -0.10295786 -0.0870528 0.031250652 -0.027947813
0.06998816 -0.105696134 0.034734067 0.009600838 -0.057280585 0.021679223 0.057133466 -0.027068429
00000000: 897d 7cbd 0061 d43d 41ee ddbc ca47 87bd
00000010: 3696 00bd 172a f93d 8a0f c7bd 31d0 8fbd
00000020: 5067 07bc 730c 9fbc d42f 92bd 2f58 fe3b
00000030: b796 853c e5a5 c3bd 8cfc b83c aff2 8dbd
00000040: 8c96 063d 29dc febc 96e9 a43d 5717 69bb
00000050: 92db d2bd bd48 b2bd af00 003d d0f2 e4bc
00000060: f455 8f3d 3777 d8bd 4f45 0e3d d54c 1d3c
00000070: 0c9f 6abd a098 b13c c804 6a3d 9cbe ddbc

encoder.0.fc1.weight f4 [96, 96, 1, 1]
-0.027482104 -0.03899773 -0.11082244 0.10455555 -0.0049715126 -0.06669816 -0.04725543 0.005038943
0.0696504 0.02230353 -0.049939178 -0.013153551 0.036597703 -0.032111365 -0.026828652 -0.001822576
0.022647006 -0.103256464 -0.06223203 -0.108163215 0.060749803 -0.09834815 0.05719936 -0.05529559
-0.13392475 0.030458141 -0.0006165102 -0.03465302 0.052495364 0.06939277 0.058007203 0.11183254
-0.005453037 -0.20864162 -0.094541326 -0.11668311 0.13133855 -0.05026209 -0.049675032 -0.16888064
-0.06381082 0.13774224 0.109685965 -0.022027519 0.17275627 -0.29042137 -0.0916835 -0.0017623178
0.19317372 -0.1514519 -0.14891846 -0.0010531063 0.025866656 0.024644913 0.18849222 0.018413056
0.09177954 0.015781801 -0.0075569814 0.21163185 -0.17750739 0.0799196 -0.10838601 -0.06673857
-0.04702065 0.055466633 0.072726145 0.110040896 0.08837401 0.11750664 -0.074455775 -0.0048620105
0.059222702 -0.047186326 -0.018665927 0.03450979 -0.037861228 -0.055889577 -0.06436089 0.045347366
0.0283997 0.03674547 -0.092284195 0.05687414 -0.08741852 -0.032871496 -0.033173375 0.05462706
0.106280595 0.019620609 -0.014220891 -0.0079120835 0.0027480775 0.04992168 -0.019303659 0.023498772
-0.051626362 0.08682139 -0.059629966 0.0112175355 -0.13811411 0.03714256 0.048155963 -0.08817022
-0.18265033 -0.120567545 0.14807437 -0.08572234 -0.07096598 0.03960126 -0.03413328 -0.078410305
-0.096325666 -0.021246353 -0.012868249 -0.14206176 0.021360563 -0.056221988 0.079302244 0.08985754
-0.10367922 0.07300256 0.10314355 -0.102581196 0.008855614 0.055115607 0.10085439 -0.014446975
0.12700552 0.044920675 0.22652866 0.027355557 0.08876251 -0.040510193 -0.13242856 -0.039033536
0.09350707 -0.008871236 0.04991557 -0.14380212 0.04092473 0.089567475 -0.02535599 -0.05793124
-0.101612024 0.088288076 0.059234023 0.027554244 -0.0037322019 0.27013615 0.1894534 0.2526833
-0.043064695 -0.102328904 0.06175828 -0.30759543 0.017407382 -0.103937805 0.031762682 -0.029334303
0.066573575 0.08262013 -0.036223345 -0.010940757 0.011117047 -0.11176885 -0.08738311 0.005375393
0.109405376 0.114518195 -0.10471308 -0.033127528 0.04644774 0.10076646 0.054302357 -0.13381302
0.058606848 -0.104493804 -0.033771366 0.024509616 0.011456181 -0.05827778 -0.080473125 0.052800633
-0.009692398 0.002397796 0.05153007 -0.0045828675 -0.08701066 -0.05483316 0.00039566917 0.107379034
0.09263681 -0.051576033 0.031281494 -0.0033669954 0.026803697 -0.018502109 0.11540703 -0.08219253
0.096212834 -0.050280564 -0.07430926 0.06799268 0.07173728 0.024019437 -0.035531655 -0.022587523
-0.0471705 0.06571183 0.044935815 0.07422955 0.05054158 -0.04643805 0.04710111 0.032017402
-0.07559744 -0.076234825 0.013548891 -0.075462334 0.0318892 0.04544891 0.07907445 -0.06032211
-0.053276274 0.044931635 -0.2869318 0.051784072 -0.19048265 0.10725171 -0.09493409 -0.107035674
-0.0025422403 0.25927773 -0.039907765 0.2693968 0.06824952 -0.18327475 -0.009000991 -0.23436108
0.2897375 0.04243545 0.10811351 0.06533179 0.049281172 -0.3963179 0.07436771 -0.3382058
0.05664653 -0.0796748 -0.16371568 0.4112616 0.038393248 0.10345325 -0.21051228 0.032793377
00000000: 2622 e1bc 15bc 1fbd e0f6 e2bd 3821 d63d
00000010: 12e8 a2bb 0b99 88bd e98e 41bd b81d a53b
00000020: dea4 8e3d e4b5 b63c 068d 4cbd fe81 57bc
00000030: 79e7 153d 3587 03bd c3c7 dbbc 81e3 eeba
00000040: 3786 b93c 2078 d3bd 03e7 7ebd ad84 ddbd
00000050: c9d4 783d c16a c9bd e049 6a3d a17d 62bd
00000060: 9223 09be 5a83 f93c 4d9d 21ba 53f0 0dbd
00000070: 6105 573d cc1d 8e3d f698 6d3d 7508 e53d
00000080: 64af b2bb 26a6 55be e29e c1bd 8ef7 eebd
00000090: 9d7d 063e 9fdf 4dbd 0c78 4bbd 0cef 2cbe
000000a0: 3faf 82bd 4d0c 0d3e 09a3 e03d 0e73 b4bc
000000b0: 05e7 303e 1cb2 94be 8fc4 bbbd 93fd e6ba
000000c0: 55cf 453e 3516 1bbe 157e 18be 6208 8aba
000000d0: 4fe6 d33c 21e4 c93c 1b04 413e fad6 963c
000000e0: e9f6 bb3d d648 813c 8ea0 f7bb 05b6 583e
000000f0: 7fc4 35be e3ac a33d 7cf9 ddbd 3bae 88bd
00000100: ba98 40bd fb30 633d 72f1 943d 1f5d e13d
00000110: 6ffd b43d 52a7 f03d 457c 98bd 8051 9fbb
00000120: 8193 723d 7346 41bd 49e9 98bc 235a 0d3d
00000130: 6014 1bbd 78ec 64bd a4cf 83bd 29be 393d
00000140: 7da6 e83c 6b82 163d 7fff bcbd dcf4 683d
00000150: 7b08 b3bd 43a4 06bd cee0 07bd a0c0 5f3d
00000160: a4a9 d93d 66bb a03c bdfe 68bc afa1 01bc
00000170: 1719 343b ad7a 4c3d b522 9ebc 7f80 c03c
00000180: 2a76 53bd 6acf b13d 8d3e 74bd c1c9 373c
00000190: c96d 0dbe cc22 183d 303f 453d 9792 b4bd
000001a0: b008 3bbe 1eec f6bd cfa0 173e 328f afbd
000001b0: 9d56 91bd ee34 223d 57cf 0bbd 9595 a0bd
000001c0: 6446 c5bd d50c aebc 59d5 52bc a378 11be
000001d0: 59fc ae3c 0749 66bd 3769 a23d 3b07 b83d
000001e0: c555 d4bd 5e82 953d ed3c d33d 1716 d2bd
000001f0: 2317 113c e7c0 613d bf8c ce3d 01b3 6cbc
00000200: bc0d 023e befe 373d 21f7 673e c318 e03c
00000210: 1ec9 b53d 04ee 25bd 5a9b 07be a1e1 1fbd
00000220: a280 bf3d a958 11bc 4574 4c3d dd40 13be
00000230: b1a0 273d 276f b73d 5db7 cfbc 4f49 6dbd
00000240: f719 d0bd 61d0 b43d 609f 723d 70b9 e13c
00000250: f597 74bb 494f 8a3e 1200 423e b55f 813e
00000260: 9b64 30bd d191 d1bd 40f6 7c3d 267d 9dbe
00000270: ed99 8e3c 58dd d4bd 9619 023d 7e4e f0bc
00000280: ba57 883d be34 a93d ee5e 14bd dc40 33bc
00000290: 4624 363c 11e7 e4bd eaf5 b2bd 1124 b03b
000002a0: ed0f e03d 8488 ea3d d073 d6bd bbb0 07bd
000002b0: fc3f 3e3d a55e ce3d 266c 5e3d 4806 09be
000002c0: bc0d 703d d900 d6bd d853 0abd 64c8 c83c
000002d0: b5b2 3b3c aeb4 6ebd 18cf a4bd 7a45 583d
000002e0: ddcc 1ebc 5724 1d3b 3211 533d e12b 96bb
000002f0: a532 b2bd bc98 60bd d171 cf39 8ae9 db3d
00000300: 5eb8 bd3d 6441 53bd 0621 003d cfa8 5cbb
00000310: 6d93 db3c bc91 97bc 855a ec3d 8f54 a8bd
00000320: 3c0b c53d fef2 4dbd 742f 98bd bf3f 8b3d
00000330: ffea 923d 69c4 c43c a489 11bd 7809 b9bc
00000340: db35 41bd ed93 863d 9e0e 383d aa05 983d
00000350: b004 4f3d d335 3ebd 18ed 403d ae24 033d
00000360: d5d2 9abd 0121 9cbd 2bfc 5d3c ff8b 9abd
00000370: 409e 023d a328 3a3d c9f1 a13d 5114 77bd
00000380: 3938 5abd 3c0a 383d bae8 92be 891b 543d
00000390: e20d 43be c9a6 db3d ce6c c2bd 8535 dbbd
000003a0: b79b 26bb 0dc0 843e 5376 23bd 61ee 893e
000003b0: 68c6 8b3d 60ac 3bbe e478 13bc 5afc 6fbe
000003c0: 7958 943e cbd0 2d3d 9e6a dd3d accc 853d
000003d0: 0edb 493d 2eea cabe 194e 983d 5029 adbe
000003e0: 3106 683d 8b2c a3bd 15a5 27be e190 d23e
000003f0: 3d42 1d3d 4cdf d33d 8890 57be 5952 063d

encoder.0.fc1.bias f4 [96]
-0.11591358 -0.122831374 -0.07769039 -0.15686968 -0.08728607 -0.022569686 0.031759366 -0.029177787
0.017722925 -0.047149714 -0.09873152 -0.06959606 -0.04346412 -0.08009976 0.0197773 -0.053632036
-0.004107872 -0.09675444 -0.12774429 -0.10145691 -0.06713017 0.026005276 -0.081897765 -0.036932085
0.001499248 -0.06628675 -0.12263456 -0.002238552 -0.11872561 -0.068011284 0.032782394 0.024092944
-0.15270862 0.03828477 -0.14873323 -0.07786132 0.020222144 0.0019460203 0.04141319 -0.025455343
-0.13483596 -0.07680192 -0.012958365 0.016969776 -0.044868354 0.059101894 0.071607485 0.03428122
-0.15470523 -0.04056833 -0.025649292 0.028266642 -0.037338275 -0.035594244 -0.029793534 0.04420514
-0.098426335 -0.030892195 -0.07424143 -0.05926229 -0.06365665 0.025152244 0.07974411 -0.12637153
-0.02865385 -0.070459664 -0.15392211 -0.12371326 -0.07925789 0.053682856 -0.08791679 -0.07546329
-0.024218166 -0.12523426 -0.09705488 -0.036361888 -0.081708424 -0.10525459 -0.0649787 -0.048619326
0.020076072 0.037346225 0.036452763 0.027416503 -0.009567942 -0.09256774 -0.06461526 -0.12298269
0.04032064 -0.10880588 -0.12712547 0.03863334 -0.105794206 0.01085565 0.052826546 -0.11347415
00000000: 1964 edbd 048f fbbd 241c 9fbd 72a2 20be
00000010: 0ac3 b2bd 10e4 b8bc 1c16 023d 4106 efbc
00000020: ab2f 913c 0f20 41bd c033 cabd 6188 8ebd
00000030: 6f07 32bd 580b a4bd 0104 a23c 44ad 5bbd
00000040: 549b 86bb 3127 c6bd 66cf 02be a4c8 cfbd
00000050: 8b7b 89bd 0409 d53c 04ba a7bd 1946 17bd
00000060: 6a82 c43a 59c1 87bd d427 fbbd acb4 12bb
00000070: 6a26 f3bd 8049 8bbd d546 063d 915e c53c
00000080: a65f 1cbe 7ed0 1c3d 864d 18be c175 9fbd
00000090: e9a8 a53c 9b11 ff3a e1a0 293d b987 d0bc
000000a0: 7012 0abe 534a 9dbd 524f 54bc 3304 8b3c
000000b0: e1c7 37bd d414 723d f2a6 923d 776a 0c3d
000000c0: 0c6b 1ebe fa2a 26bd 771e d2bc 728f e73c
000000d0: 05f0 18bd 45cb 11bd 9211 f4bc 7310 353d
000000e0: bf93 c9bd a111 fdbc e40b 98bd 04bd 72bd
000000f0: 6b5e 82bd 140c ce3c e150 a33d 8a67 01be
00000100: 7bbb eabc 284d 90bd c29d 1dbe 615d fdbd
00000110: f651 a2bd 8ee2 5b3d b80d b4bd 7f8c 9abd
00000120: 2d65 c6bc 693d 00be b5c4 c6bd 34f0 14bd
00000130: bf56 a7bd b88f d7bd 8d13 85bd 0f25 47bd
00000140: 9376 a43c 5bf8 183d 7e4f 153d 9398 e03c
00000150: dbc2 1cbc 2894 bdbd 0155 84bd 59de fbbd
00000160: 4127 253d 9ed5 debd 2e2d 02be fe3d 1e3d
00000170: a2aa d8bd e5db 313c a660 583d 2365 e8bd

encoder.0.fc2.weight f4 [96, 96, 1, 1]
-0.1095885 -0.09980798 0.021152802 0.0688349 -0.06874236 -0.14473258 0.0852418 0.05947172
0.0302301 -0.026772218 -0.06094982 -0.032080606 0.03078001 0.018274115 -0.13389826 0.077457234
-0.060246527 -0.03392739 -0.13808589 -0.045134313 -0.19418007 -0.03516776 0.15690336 -0.10043698
-0.0042315307 0.02671249 0.0041101677 0.013756301 -0.14987803 -0.13591051 0.048267573 -0.045331582
-0.16525316 -0.072894365 0.013956102 0.06040886 0.03415589 0.023394525 -0.06503737 -0.09147845
-0.117081 -0.1471634 -0.048867155 0.07580027 -0.21485211 0.017597182 -0.034449123 -0.07541942
-0.02521067 0.04276254 0.07400247 -0.02860171 0.088502504 -0.08775153 0.010413835 0.019533996
-0.05490915 -0.10908075 -0.10918609 -0.06851591 -0.094779916 -0.074777715 -0.020057514 -0.1083679
-0.005511144 -0.0047818404 -0.1112166 -0.146939 -0.048593566 0.04229819 -0.070453115 0.010900595
0.06294612 -0.08124367 0.0031357468 0.038083598 0.0075579295 -0.03712572 0.054981563 0.07688081
-0.10090138 0.02041413 -0.025478039 0.006312564 -0.011232218 -0.10047064 -0.022708638 -0.09939085
-0.036930617 -0.12205412 -0.14305173 -0.009368541 0.008147738 -0.06602018 0.0544425 0.029047215
-0.0061554057 0.009417211 -0.04881243 0.00011343236 -0.03338094 0.03263007 0.029206 0.039326213
-0.07705745 0.023402296 0.079803206 -0.044904582 0.045691554 0.016479006 -0.009677832 -0.07247024
0.00880929 0.0010897849 0.09375055 0.12718768 0.057431057 -0.13317187 -0.060934577 -0.015106555
0.017854495 0.025753897 0.10911498 0.0064032734 0.09959421 0.044379804 0.08453199 -0.045354683
0.064496614 -0.03728499 0.19961073 0.00038834335 0.0117981825 0.08534598 0.07714489 -0.10828688
0.135552 0.0447842 0.006679421 -0.0017576326 0.09450864 -0.0006681347 0.09146784 -0.13239037
0.10009841 0.08696521 -0.03681353 -0.027471753 0.022001741 0.030661872 -0.042333912 -0.01225893
-0.079081856 0.12617841 -0.04269187 0.005500895 0.0906975 0.00036728158 -0.053839438 0.07945823
-0.004899129 -0.010191438 0.017422557 0.08733742 0.07563894 -0.09065673 0.17765939 0.15379082
-0.09098213 -0.02703188 -0.049362138 0.054150123 0.11648676 -0.05907996 0.04376949 0.03542541
0.030355848 -0.037870806 -0.0312565 -0.025587862 0.1387676 0.12964714 -0.04137264 0.076506786
0.051492583 0.08092948 0.19349094 -0.0019802363 0.008635964 0.0014099889 0.03428857 -0.061244752
0.09269427 0.046414968 -0.044777524 0.039647818 0.08148532 0.06723876 0.014236971 -0.082484424
-0.1816112 0.0042391373 -0.019544343 0.010361767 0.05510124 0.06103013 -0.054066155 -0.0850201
-0.015619554 0.005693355 0.015381223 0.10361066 0.14526072 -0.07173743 -0.22826819 0.02181975
0.09301517 0.044713974 -0.04314526 0.031762753 0.080923125 -0.016631093 -0.077774726 -0.05612486
-0.036621764 -0.00866146 0.001482758 -0.008589622 0.020329135 0.024514731 -0.04792548 0.021895882
0.11082097 0.13814105 -0.0151089905 0.0648011 0.11539804 0.0488516 -0.012122782 -0.070202634
0.06640517 -0.06826687 -0.07252797 -0.050966136 0.0040428666 0.0071419617 0.06681361 0.095187254
-0.023583766 0.17513326 0.03512569 0.0011273031 0.026640376 0.0032777989 0.06865413 -0.023201186
00000000: ef6f e0bd 2068 ccbd a448 ad3c 50f9 8c3d
00000010: cbc8 8cbd c734 14be 4193 ae3d 9e98 733d
00000020: 1da5 f73c 6951 dbbc 85a6 79bd f466 03bd
00000030: 5c26 fc3c 99b3 953c a01c 09be e6a1 9e3d
00000040: 10c5 76bd 72f7 0abd 6366 0dbe c2de 38bd
00000050: 24d7 46be 120c 10bd 46ab 203e e7b1 cdbd
00000060: a7a8 8abb 27d4 da3c 96ae 863b 1c62 613c
00000070: a079 19be 202c 0bbe 38b4 453d 9cad 39bd
00000080: 2038 29be a449 95bd 22a8 643c 486f 773d
00000090: 0ce7 0b3d e0a5 bf3c 5032 85bd 0e59 bbbd
000000a0: 2ac8 efbd 01b2 16be ed28 48bd 2c3d 9b3d
000000b0: 3102 5cbe f727 903c 861a 0dbd 7f75 9abd
000000c0: 9b86 cebc c627 2f3d 9b8e 973d 224e eabc
000000d0: cd40 b53d 13b7 b3bd ca9e 2a3c c205 a03c
000000e0: 6be8 60bd ba65 dfbd f59c dfbd 1252 8cbd
000000f0: f91b c2bd 0f25 99bd a84f a4bc fdef ddbd
00000100: d496 b4bb fcb0 9cbb 87c5 e3bd 2d77 16be
00000110: 0c0a 47bd de40 2d3d b949 90bd 6998 323c
00000120: e5e9 803d 1563 a6bd 1a81 4d3b 8cfd 1b3d
00000130: 82a8 f73b 2411 18bd 5934 613d b073 9d3d
00000140: 62a5 cebd 893b a73c 52b7 d0bc a0d9 ce3b
00000150: 5607 38bc 8dc3 cdbd 7707 babc 6e8d cbbd
00000160: 8f44 17bd 83f7 f9bd 277c 12be 827e 19bc
00000170: 177e 053c 9735 87bd 19ff 5e3d 6df4 ed3c
00000180: 49b3 c9bb a54a 1a3c 8bef 47bd 89e2 ed38
00000190: 74ba 08bd 1ca7 053d 6c41 ef3c 8614 213d
000001a0: 4cd0 9dbd 2cb6 bf3c dd6f a33d deed 37bd
000001b0: 1127 3b3d fbfe 863c c58f 1ebc 476b 94bd
000001c0: d754 103c 1dd7 8e3a 4a00 c03d 7d3d 023e
000001d0: d43c 6b3d 355e 08be 8996 79bd 7c81 77bc
000001e0: 9743 923c d6f9 d23c ad77 df3d 8dd2 d13b
000001f0: 0df8 cb3d 99c7 353d 1c1f ad3d d5c5 39bd
00000200: cd16 843d 25b8 18bd c166 4c3e 909a cb39
00000210: 2a4d 413c e0c9 ae3d 24fe 9d3d 83c5 ddbd
00000220: 25ce 0a3e a36f 373d 0bdf da3b 5d60 e6ba
00000230: bf8d c13d c325 2fba 7e53 bb3d 5791 07be
00000240: 6500 cd3d d11a b23d c9c9 16bd 710c e1bc
00000250: ff3c b43c 9b2e fb3c 5366 2dbd aed9 48bc
00000260: abf5 a1bd ea34 013e acdd 2ebd da40 b43b
00000270: 9cbf b93d b38f c039 be86 5cbd ffba a23d
00000280: df88 a0bb fdf9 26bc c0b9 8e3c f6dd b23d
00000290: 97e8 9a3d 3caa b9bd 58ec 353e 577b 1d3e
000002a0: d754 babd f671 ddbc f42f 4abd 85cc 5d3d
000002b0: 9c90 ee3d d4fd 71bd a347 333d 3c1a 113d
000002c0: d4ac f83c 6b1e 1bbd d106 00bd a39d d1bc
000002d0: 1819 0e3e 38c2 043e 5b76 29bd 97af 9c3d
000002e0: e3e9 523d 5bbe a53d 7d22 463e dac6 01bb
000002f0: dc7d 0d3c 60cf b83a 2c72 0c3d c7db 7abd
00000300: 7ed6 bd3d 9f1d 3e3d a368 37bd c065 223d
00000310: c7e1 a63d 7ab4 893d 2f42 693c 98ed a8bd
00000320: 49f8 39be 76e8 8a3b 751b a0bc 67c4 293c
00000330: d6b1 613d bbfa 793d 7974 5dbd 051f aebd
00000340: 28e9 7fbc 538f ba3b 8601 7c3c d331 d43d
00000350: 3abf 143e 13eb 92bd 23bf 69be 55bf b23c
00000360: bd7e be3d 0026 373d 16b9 30bd a919 023d
00000370: 06bb a53d ee3d 88bc 5b48 9fbd 2ee3 65bd
00000380: b400 16bd cce8 0dbc 1a59 c23a 7cbb 0cbc
00000390: 4989 a63c 1ed3 c83c 824d 44bd fe5e b33c
000003a0: 1bf6 e23d d974 0d3e b38b 77bc 70b6 843d
000003b0: cf55 ec3d 9e18 483d a29e 46bc 66c6 8fbd
000003c0: 6fff 873d 80cf 8bbd 8b89 94bd dec1 50bd
000003d0: 067a 843b 1e07 ea3b 93d5 883d 89f1 c23d
000003e0: be32 c1bc 2256 333e f5df 0f3d 04c2 933a
000003f0: eb3c da3c 57d0 563b 899a 8c3d 6a10 bebc

encoder.0.fc2.bias f4 [96]
0.07752744 -0.0338778 -0.029244862 -0.004554718 0.04231047 -0.053815253 0.065211706 -0.06774976
-0.09294948 -0.034425534 0.039921533 0.008964101 0.015266039 -0.07510825 0.095884636 0.013206136
-0.055026986 -0.034848765 0.044742335 -0.04488311 -0.09402268 0.059023432 -0.078427196 -0.0006674464
0.0958263 -0.06455422 -0.012360393 0.06390768 -0.07543428 -0.05106391 0.048458718 -0.033962306
-0.042400394 -0.00029969864 -0.035495613 0.044765238 -0.056676015 0.03594742 -0.008792819 -0.06790878
-0.023057796 0.02644648 0.03462924 0.040614564 0.107188016 0.09730478 0.05211403 0.009577936
-0.06122657 0.024393277 -0.078857414 -0.029941235 -0.034888208 -0.08298823 0.04879405 0.03536958
0.025606232 0.019196004 -0.004867941 -0.036601003 0.036603 -0.023172818 -0.0997655 -0.056036904
0.034804843 0.06086374 0.004621845 0.0104122665 0.020704098 -0.018182034 -0.0642359 0.057764363
-0.03847343 -0.0527521 0.006145936 -0.064792484 -0.048359692 0.015972579 -0.059553158 -0.10557037
0.08134669 -0.041749023 -0.020494154 0.02440835 -0.022941623 -0.07387935 -0.07262053 0.01870625
0.053268325 -0.02832738 -0.061143562 -0.031063013 0.052261427 0.011824673 0.0250195 0.027493186
00000000: b5c6 9e3d 73c3 0abd ec92 efbc be3f 95bb
00000010: be4d 2d3d 626d 5cbd b78d 853d 63c0 8abd
00000020: 4c5c bebd ca01 0dbd c384 233d 2ade 123c
00000030: 691e 7a3c 5bd2 99bd 2a5f c43d 8d5e 583c
00000040: fa63 61bd 94bd 0ebd bd43 373d 5ad7 37bd
00000050: f68e c0bd 8ec2 713d 709e a0bd 92f7 2eba
00000060: 9440 c43d 0135 84bd 3f83 4abc 08e2 823d
00000070: 4a7d 9abd 6428 51bd a67c 463d 0f1c 0bbd
00000080: 09ac 2dbd df20 9db9 d963 11bd c15b 373d
00000090: 1c25 68bd 9a3d 133d c20f 10bc c213 8bbd
000000a0: b4e3 bcbc 4aa6 d83c 64d7 0d3d 755b 263d
000000b0: 6485 db3d ba47 c73d 8575 553d c6ec 1c3c
000000c0: b6c8 7abd 69d4 c73c ff7f a1bd 5247 f5bc
000000d0: f0e6 0ebd bcf5 a9bd 45dc 473d b1df 103d
000000e0: 29c4 d13c f040 9d3c 4083 9fbb efea 15bd
000000f0: 07ed 153d ecd4 bdbc db51 ccbd f486 65bd
00000100: 868f 0e3d 424c 793d d972 973b 3698 2a3c
00000110: a49b a93c 7df2 94bc 1d8e 83bd 539a 6c3d
00000120: 5196 1dbd 9612 58bd d963 c93b ecb1 84bd
00000130: d014 46bd edd8 823c 03ee 73bd 4735 d8bd
00000140: 1899 a63d 0601 2bbd 5be3 a7bc 05f4 c73c
00000150: 12f0 bbbc 0f4e 97bd 13ba 94bd d93d 993c
00000160: e32f 5a3d d20e e8bc ac71 7abd dc77 febc
00000170: 1410 563d 46bc 413c b2f5 cc3c 6439 e13c

encoder.1.fc1.weight f4 [96, 96, 1, 1]
0.008842692 0.1525972 -0.002104314 0.11975034 -0.13119185 -0.075798474 0.045485787 0.0021386154
0.123619124 0.05630358 0.03349034 0.087586276 -0.10046138 0.03447267 0.06851332 -0.077418
0.13394019 0.12062742 -0.07521471 -0.017703753 -0.06237066 -0.014530583 0.104985066 -0.118959755
0.009050905 0.077462345 -0.0005485616 -0.022718165 -0.013059886 0.067717 0.038384344 0.15580499
-0.13868408 0.06861551 -0.0676203 -0.07496428 -0.057887986 0.012926431 -0.03286995 -0.03043566
0.090359 -0.008376962 -0.028508633 0.022348074 -0.10301648 0.09300998 0.08032074 -0.037201162
-0.08527178 0.09120021 0.040979292 -0.042281106 -0.09971135 -0.114828795 -0.04249605 -0.04565559
-0.03488391 0.036582183 0.04925146 -0.019137306 0.07521554 0.016279534 -0.04546366 -0.08719391
-0.0109337345 -0.03308365 -0.08215383 0.023612427 -0.05999792 0.09884897 -0.08890015 0.053121787
0.07949251 -0.0641265 0.043817926 -0.031924002 -0.031925548 -0.08052322 0.015586229 0.018294515
-0.06701637 0.041620933 0.01405159 0.09059422 -0.0907571 -0.057515938 0.04832248 -0.06729784
-0.057410263 -0.09636277 0.0010897083 0.0008270791 0.04422824 -0.055232573 -0.017163783 -0.09841241
0.02642401 0.030036045 -0.07171344 0.03058222 -0.13056205 -0.028181208 0.07455481 -0.06520632
-0.004604159 0.049350902 -0.06741856 0.07294504 0.0421599 -0.031477157 0.10978658 -0.11778558
-0.030122738 0.09029326 0.02099233 -0.0003299267 0.098420694 0.028404884 0.1602489 -0.17547767
-0.05660283 -0.081390105 -0.04380414 0.0278225 -0.07440789 0.03041599 0.01623421 -0.06416968
0.008550593 -0.10045351 -0.029599171 0.0071966383 0.020731246 0.016554158 -0.0085982485 0.01798538
-0.03227305 0.104775235 -0.049523123 0.10849625 -0.048772555 -0.028634379 -0.025664581 -0.034457434
0.029286439 0.16551267 0.05524727 0.04813875 -0.01522321 0.027086176 0.123936534 0.025515798
-0.009049003 -0.06183358 0.061652526 -0.15568407 -0.11291995 0.05982209 0.025682818 -0.0344395
-0.04182003 0.013552674 -0.0774788 -0.001679316 0.03937438 0.018705804 -0.090332136 -0.0016162496
0.03860858 0.050838288 -0.04343364 0.01776819 0.0131801395 -0.06366485 -0.03074431 0.046568092
0.032785673 0.030535445 0.033845954 -0.04961892 0.03200635 -0.08475089 -0.048390776 0.09475932
0.046731483 -0.058221657 -0.07613667 -0.02086805 0.016936174 0.048080835 0.10652994 -0.01931025
-0.0663912 0.039541192 0.0569931 -0.0195758 0.048729666 0.007924543 0.009101405 0.11374176
0.0874952 -0.008205402 -0.008743298 -0.022768613 -0.08044878 -0.03981893 0.097922765 -0.042848337
0.07199751 -0.029849289 -0.062301613 -0.050278783 0.043418497 -0.04133852 -0.039108522 -0.041291934
-0.024611752 0.06269353 -0.0069924416 0.040404845 -0.06593637 -2.8452103e-05 0.00437861 0.011663626
0.06946695 -0.028663721 -0.035130046 -0.0394243 0.07802405 -0.12131271 -0.09685595 0.004800927
0.08595312 -0.15728246 0.07399533 -0.032599635 -0.033853352 -0.06315957 0.03523899 0.073115535
-0.059334468 0.0062487996 -0.076015666 0.13127111 -0.07391086 -0.030063668 0.06428519 0.02255998
-0.023608027 -0.0017608571 -0.039050143 0.055971377 0.029524473 0.033704177 -0.07713363 -0.07631311
00000000: f0e0 103c 7142 1c3e 88e8 09bb ab3f f53d
00000010: 2857 06be 3b3c 9bbd 4e4f 3a3d 0328 0c3b
00000020: 062c fd3d 959e 663d 2b2d 093d 6f60 b33d
00000030: b2be cdbd 3733 0d3d b650 8c3d 548d 9ebd
00000040: 9e27 093e 820b f73d 2b0a 9abd 7607 91bc
00000050: 6178 7fbd af11 6ebc 6902 d73d 2ca1 f3bd
00000060: 3f4a 143c 94a4 9e3d 59cd 0fba 721b babc
00000070: 22f9 55bc 36af 8a3d e738 1d3d 588b 1f3e
00000080: 3303 0ebe 4a86 8c3d 837c 8abd df86 99bd
00000090: f41b 6dbd 62c9 533c a4a2 06bd 3554 f9bc
000000a0: 240e b93d 863f 09bc f08a e9bc 4f13 b73c
000000b0: 4efa d2bd 047c be3d 337f a43d 3f60 18bd
000000c0: f9a2 aebd 2dc7 ba3d e7d9 273d f42e 2dbd
000000d0: 7735 ccbd 5c2b ebbd 5710 2ebd 5b01 3bbd
000000e0: 6ee2 0ebd 33d7 153d e6bb 493d d7c5 9cbc
000000f0: 9b0a 9a3d a85c 853c 1a38 3abd b892 b2bd
00000100: 6823 33bc b982 07bd 4440 a8bd d96e c13c
00000110: 61c0 75bd 5471 ca3d 4811 b6bd 3b96 593d
00000120: f8cc a23d c154 83bd 6d7a 333d bec2 02bd
00000130: 5dc4 02bd 5ce9 a4bd 625d 7f3c 61de 953c
00000140: e13f 89bd b67a 2a3d a438 663c 7689 b93d
00000150: dcde b9bd d595 6bbd cbed 453d 73d3 89bd
00000160: 0627 6bbd d859 c5bd 8bd4 8e3a 57d0 583a
00000170: ac28 353d 8d3b 62bd 109b 8cbc 728c c9bd
00000180: 2a77 d83c 270e f63c 7fde 92bd 9087 fa3c
00000190: 0fb2 05be 47dc e6bc 31b0 983d e48a 85bd
000001a0: 7cde 96bb 2c24 4a3d be12 8abd 3664 953d
000001b0: dcaf 2c3d 31ee 00bd c9d7 e03d 9139 f1bd
000001c0: f6c3 f6bc aceb b83d 1bf8 ab3c 03fa acb9
000001d0: ca90 c93d 5cb1 e83c 4a18 243e 6bb0 33be
000001e0: 5ed8 67bd dbaf a6bd f86b 33bd 03ec e33c
000001f0: 2a63 98bd f42a f93c 9bfd 843c 656b 83bd
00000200: c917 0c3c 92ba cdbd f679 f2bc c7d1 eb3b
00000210: 93d4 a93c 969c 873c abdf 0cbc 1356 933c
00000220: bf30 04bd 6694 d63d c2d8 4abd 4833 de3d
00000230: bbc5 47bd a592 eabc 873e d2bc 3d23 0dbd
00000240: 1dea ef3c 277c 293e f64a 623d 232d 453d
00000250: c56a 79bc d4e3 dd3c 70d2 fd3d 8206 d13c
00000260: 4542 14bc 3545 7dbd 5c87 7c3d a56b 1fbe
00000270: 9342 e7bd 0208 753d c664 d23c 6f10 0dbd
00000280: 7b4b 2bbd 090c 5e3c 35ad 9ebd 7f1c dcba
00000290: 0847 213d ea3c 993c 0e00 b9bd 56d8 d3ba
000002a0: 0824 1e3d cf3b 503d 79e7 31bd 988e 913c
000002b0: 83f1 573c b862 82bd 7edb fbbc 2fbe 3e3d
000002c0: 454a 063d 7825 fa3c 0ea2 0a3d 353d 4bbd
000002d0: 1719 033d e091 adbd 6835 46bd 2d11 c23d
000002e0: 8369 3f3d d579 6ebd 8bed 9bbd 79f3 aabc
000002f0: bbbd 8a3c 69f0 443d 5f2c da3d 8830 9ebc
00000300: 1cf8 87bd f2f5 213d 9971 693d 6e5d a0bc
00000310: c298 473d f1d5 013c 0f1e 153c 71f1 e83d
00000320: af30 b33d f36f 06bc 0d40 0fbc 3e85 babc
00000330: 54c2 a4bd 2d19 23bd bb8b c83d bd81 2fbd
00000340: 6e73 933d 7f86 f4bc fa2f 7fbd 20f1 4dbd
00000350: 98d7 313d 9452 29bd 4230 20bd bb21 29bd
00000360: 969e c9bc 7765 803d da20 e5bb 8d7f 253d
00000370: a609 87bd 6dac eeb7 717a 8f3b cb18 3f3c
00000380: b044 8e3d 2ed0 eabc 86e4 0fbd 607b 21bd
00000390: 13cb 9f3d cc72 f8bd 6a5c c6bd 1851 9d3b
000003a0: 3008 b03d a70e 21be dd8a 973d 3287 05bd
000003b0: d0a9 0abd ce59 81bd c256 103d 99bd 953d
000003c0: b308 73bd bbc2 cc3b 1aae 9bbd ef6b 063e
000003d0: 945e 97bd 1548 f6bc f4a7 833d b5cf b83c
000003e0: 9f65 c1bc 8fcc e6ba 0bf3 1fbd 3e42 653d
000003f0: 4fdd f13c 640d 0a3d 3df8 9dbd 0c4a 9cbd

encoder.1.fc1.bias f4 [96]
-0.018196004 0.05712287 0.058110647 -0.109524734 -0.024386337 -0.04078629 0.027414342 -0.11669355
-0.00083902874 -0.034720723 -0.040424105 0.05042346 -0.14875641 0.042661108 -0.062093854 -0.050054733
-0.04076456 -0.03848576 -0.10676387 -0.03764388 -0.074544534 -0.08000144 0.018525517 0.017620364
-0.102160454 0.0128974095 0.020560484 0.036540717 -0.020602696 -0.04006663 0.05033223 0.0056379763
-0.1378312 -0.09218889 -0.04609953 -0.11105197 -0.09664811 0.081445806 -0.03313981 -0.051335387
-0.053923205 -0.081815 0.039586153 0.0059351996 -0.05675535 -0.1098758 0.013708169 0.07072509
-0.0032288046 -0.054905288 -0.09406972 -0.00301363 -0.09167093 -0.13266765 -0.046600085 0.0504215
0.02172744 -0.058129825 -0.046922695 -0.04403651 -0.0071904813 0.011382486 -0.017845916 -0.07213051
0.026063714 -0.0429216 -0.15421845 -0.04271096 -0.014045512 -0.04908308 -0.043973815 -0.061620545
-0.07260459 -0.08131334 0.00613946 -0.037339095 -0.06875785 0.02211046 -0.056984086 -0.0035463634
-0.062502645 -0.12654808 -0.020580888 -0.029439002 0.03878185 0.06270237 0.024922922 -0.17289163
-0.06647052 -0.040508784 -0.007235677 -0.059037205 0.030363819 -0.011029217 0.006316516 0.04119981
00000000: c90f 95bc acf9 693d 6e05 6e3d 814e e0bd
00000010: dbc5 c7bc 860f 27bd 0b94 e03c 07fd eebd
00000020: 44f2 5bba 5137 0ebd bf93 25bd d488 4e3d
00000030: 9a53 18be 6abd 2e3d 2056 7ebd 3106 4dbd
00000040: bdf8 26bd 3fa3 1dbd 04a7 dabd 7830 1abd
00000050: ceaa 98bd ccd7 a3bd d3c2 973c 9558 903c
00000060: 8039 d1bd a84f 533c 766e a83c b8ab 153d
00000070: fcc6 a8bc e81c 24bd 2b29 4e3d c6be b83b
00000080: 9f23 0dbe 87cd bcbd dcd2 3cbd 376f e3bd
00000090: 72ef c5bd 0fcd a63d 9cbd 07bd 0e45 52bd
000000a0: 94de 5cbd 9f8e a7bd 1725 223d 107c c23b
000000b0: 4c78 68bd 9006 e1bd 3a98 603c 51d8 903d
000000c0: 5a9a 53bb 5ee4 60bd a0a7 c0bd 5280 45bb
000000d0: f8bd bbbd 07da 07be bbdf 3ebd c686 4e3d
000000e0: bffd b13c 8a19 6ebd 0332 40bd a15f 34bd
000000f0: 219e ebbb 9b7d 3a3c 9931 92bc 29b9 93bd
00000100: 9283 d53c 8fce 2fbd 71eb 1dbe b0f1 2ebd
00000110: 261f 66bc 570b 49bd e31d 34bd d365 7cbd
00000120: b7b1 94bd 9c87 a6bd 862d c93b e1f0 18bd
00000130: ead0 8cbd ff20 b53c 2568 69bd 1b6a 68bb
00000140: 6301 80bd d295 01be 4099 a8bc 102a f1bc
00000150: b8d9 1e3d 1a6a 803d 282b cc3c 810a 31be
00000160: b221 88bd 8aec 25bd 4219 edbb ffd0 71bd
00000170: 8bbd f83c e4b3 34bc c7fa ce3b 22c1 283d
