small_scale_scenario/experiments/sttn/PEMS07/-fulltrain/final_model_s2017.pt (torch, 522146 bytes, 56 tensors)

t_modules.0.pos_embedding f4 [1, 12, 32]
-0.16001014 0.011583595 -0.97680116 1.281107 1.371259 0.2838435 0.93748426 -1.0991831
-1.117257 1.2177899 -1.0040638 0.9112075 -0.8799436 -0.36347115 -1.7072235 1.0229236
0.47968045 1.039649 -1.259354 -1.4068558 0.33741865 0.5966994 -1.3958406 -0.062733546
-0.95343417 -1.321338 -0.15654436 -0.3605982 0.17446178 -0.1959357 0.2289402 -0.2773282
0.2992282 -0.43637693 0.57966524 -1.4223343 0.5682829 1.7656258 -0.12722442 -0.12438843
-0.010535149 1.0710585 -0.7985144 0.14781907 -0.8912761 1.0796797 -0.24163385 -0.9705837
-0.17292126 0.18202582 -1.4538522 0.47365564 0.9816954 0.767112 1.8924081 -1.1422971
-0.7370037 -0.08140414 -0.08247779 -0.09729744 -0.47719207 1.064162 0.32810965 0.15632501
-0.2741447 -0.7144216 0.7750272 0.7172834 -0.07980271 0.15248333 0.3979802 0.0851692
-0.27076018 -0.36758906 -0.62693954 0.7787738 -0.29405233 -0.25136268 0.042645395 0.1156151
0.026596744 -0.8023548 -0.7775529 0.96045345 0.44119084 -0.5309822 -0.61421657 1.0649123
0.69983613 -0.2335835 -0.3176848 0.11856423 -1.177991 0.15277012 0.3350117 0.04694266
0.04430996 -0.2626861 0.3560175 -1.4066119 0.5433859 0.49932116 -0.45335233 1.4489855
-0.35076222 0.37571925 -0.53602934 0.19118594 -0.9046244 1.0222628 0.19723536 -0.19384646
-0.19671988 1.0025105 -0.2584504 -0.5751437 0.35776737 1.2353488 0.33709192 -0.62766904
0.25343332 -0.0006502133 0.22333749 0.21074346 -0.15985581 -0.0333359 -0.39367905 0.6457691
-0.56784683 0.50664335 0.542668 -0.47474992 -0.0806697 -0.6848472 -0.2001693 0.2677893
-0.2319974 0.27253196 0.396109 0.046044488 -0.117812485 -0.40644395 0.1811113 -0.85191923
-0.9007951 0.07493838 -1.0279344 0.21450192 0.21471433 1.0428528 1.2339743 0.19247577
0.60247105 -0.0013650327 0.049249843 -1.2158061 1.4590448 0.14774846 -1.7938592 1.1100305
-0.1215965 0.16147876 0.006788261 0.81259024 -0.00629877 0.24060465 0.018553933 -0.1351162
0.5985258 -0.012700963 0.3338949 -0.34262484 -0.05509593 0.19657263 0.35439765 0.0032447663
-0.5481955 0.48335317 0.56817216 -0.27827036 -0.16730551 0.4140456 -1.8140472 -0.3886676
0.28614083 -0.48701698 -0.11380834 0.31773293 0.041952025 -0.010934374 -0.16570312 0.13142575
-0.39965868 1.1129233 -0.066277936 1.1394416 1.0264449 -0.28915036 -0.6494657 0.024963355
-1.3609207 -0.5306512 -0.015330777 0.4152731 -0.03365952 -0.44042435 -0.6095349 -0.28771076
-0.4325016 -1.2580754 1.1284598 1.2404683 -0.7176445 0.4898041 -0.35009906 -1.7487189
0.3862586 1.2749958 -1.3849941 0.44176447 0.12902364 0.4372573 0.39998165 1.1119356
0.16278434 0.8842283 0.3414405 0.1337394 -0.37834382 -0.8018654 -0.6206794 -0.0218975
0.012350483 -0.9674197 -0.27896947 -0.51556194 0.5421896 -0.12297234 0.512497 -0.052619774
-0.10747726 -0.17331998 0.47161368 0.5093224 -0.6948869 -0.2624076 -1.1152916 0.14852105
0.055815008 -0.64475304 -0.13414985 -0.11648316 -0.035667907 0.45664257 0.50456744 0.48778096
00000000: b3d9 23be 1ec9 3d3c a40f 7abf 50fb a33f
00000010: 6a85 af3f ef53 913e f8fe 6f3f 08b2 8cbf
00000020: 4702 8fbf 8ae0 9b3f 2a85 80bf e544 693f
00000030: fc43 61bf e418 babe 4d86 dabf 29ef 823f
00000040: ad98 f53e 3813 853f 8332 a1bf da13 b4bf
00000050: 23c2 ac3e 4bc1 183f e8aa b2bf 727a 80bd
00000060: 4314 74bf 9b21 a9bf 2a4d 20be 54a0 b8be
00000070: 1ca6 323e 5ea3 48be 4d6f 6a3e f6fd 8dbe
00000080: 7034 993e cc6c dfbe f164 143f 0d0f b6bf
00000090: fd7a 113f 0700 e23f 1e47 02be 5cbf febd
000000a0: 9e9b 2cbc 7218 893f 716b 4cbf e25d 173e
000000b0: ac2a 64bf f232 8a3f dd6e 77be 2c78 78bf
000000c0: 4512 31be fa64 3a3e d417 babf fe82 f23e
000000d0: 6450 7b3f 7461 443f 6e3a f23f cb36 92bf
000000e0: 46ac 3cbf 37b7 a6bd 1eea a8bd e143 c7bd
000000f0: 8552 f4be 7636 883f fdfd a73e aa13 203e
00000100: b25c 8cbe 55e4 36bf 2f68 463f e39f 373f
00000110: 9a6f a3bd 9724 1c3e 10c4 cb3e 316d ae3d
00000120: 14a1 8abe a234 bcbe 1c7f 20bf b85d 473f
00000130: 078e 96be 9cb2 80be f0ac 2e3d 9cc7 ec3d
00000140: 6ae1 d93c 2067 4dbf b50d 47bf 47e0 753f
00000150: c4e3 e13e 73ee 07bf 4c3d 1dbf 0c4f 883f
00000160: 7628 333f 8330 6fbe 95a7 a2be ced1 f23d
00000170: 69c8 96bf c56f 1c3e a786 ab3e f246 403d
00000180: 5c7e 353d cb7e 86be ed47 b63e dc0b b4bf
00000190: 571b 0b3f 06a7 ff3e cc1d e8be 5b78 b93f
000001a0: 1b97 b3be 465e c03e 3839 09bf 3fc6 433e
000001b0: 7795 67bf 82d9 823f 11f8 493e b07f 46be
000001c0: f070 49be 4452 803f 9c53 84be 9e3c 13bf
000001d0: 492d b73e e91f 9e3f 5097 ac3e ebae 20bf
000001e0: 03c2 813e 1373 2aba 95b2 643e 22cd 573e
000001f0: 3eb1 23be 3a8b 08bd 4d90 c9be 2051 253f
00000200: 695e 11bf 61b3 013f 4aec 0a3f 6c12 f3be
00000210: 2836 a5bd 2552 2fbf 2ef9 4cbe ae1b 893e
00000220: ba90 6dbe 4f89 8b3e cdce ca3e 2599 3c3d
00000230: ac47 f1bd 6c19 d0be 3e75 393e 6117 5abf
00000240: 829a 66bf 4b79 993d 5b93 83bf 64a6 5b3e
00000250: 13de 5b3e 337c 853f dff2 9d3f 5e18 453e
00000260: 8b3b 1a3f e6ea b2ba 34ba 493d 899f 9bbf
00000270: fbc1 ba3f 5f4b 173e 2e9d e5bf 7b15 8e3f
00000280: 9607 f9bd b05a 253e 0f70 de3b ea05 503f
00000290: ea65 cebb 1161 763e 6bfe 973c e75b 0abe
000002a0: fd38 193f b317 50bc 46f4 aa3e 866c afbe
000002b0: 45ac 61bd 564a 493e 9c73 b53e 25a6 543b
000002c0: 8a56 0cbf 117a f73e bb73 113f 7479 8ebe
000002d0: 2352 2bbe c9fd d33e b332 e8bf 71ff c6be
000002e0: 0d81 923e 4a5a f9be 5914 e9bd e4ad a23e
000002f0: e3d5 2b3d 1726 33bc 14ae 29be 7994 063e
00000300: 10a0 ccbe 4574 8e3f babc 87bd 39d9 913f
00000310: 8c62 833f 840b 94be 6243 26bf f37f cc3c
00000320: a632 aebf c2d8 07bf f02d 7bbc ad9e d43e
00000330: 91de 09bd 4d7f e1be 7b0a 1cbf d34e 93be
00000340: da70 ddbe 9d08 a1bf 5f71 903f aac7 9e3f
00000350: 8db7 37bf 9ac7 fa3e 2f40 b3be 05d6 dfbf
00000360: b0c3 c53e 1033 a33f 7d47 b1bf f42e e23e
00000370: c61e 043e 30e0 df3e 65ca cc3e e853 8e3f
00000380: f0b0 263e c95c 623f 4ad1 ae3e fbf2 083e
00000390: 48b6 c1be 0d47 4dbf d8e4 1ebf 6362 b3bc
000003a0: ae59 4a3c d1a8 77bf 16d5 8ebe defb 03bf
000003b0: f0cc 0a3f ecd8 fbbd 0133 033f d587 57bd
000003c0: 0a1d dcbd cb7a 31be 5977 f13e f462 023f
000003d0: 1ce4 31bf 4a5a 86be e0c1 8ebf e715 183e
000003e0: 479e 643d 890e 25bf 945e 09be b98e eebd
000003f0: 8318 12bd 0ecd e93e 552b 013f 6dbe f93e

t_modules.0.layers.0.0.qkv.weight f4 [96, 32]
0.28789753 -0.15655611 -0.3970911 0.031687688 0.10001446 0.19355007 0.08978801 -0.11689938
0.22241907 0.014883815 -0.17226167 0.19121552 -0.18471922 0.16547844 -0.2515978 -0.18046877
0.32031906 -0.100406535 0.017512923 0.20049104 -0.036646366 -0.34832165 0.045253076 0.03535501
-0.24957502 0.25777888 0.047450464 -0.095385894 0.34750485 -0.27035215 0.24931633 -0.70625544
-0.118726514 0.077844605 -0.25888214 -0.26419696 -0.06506994 0.15117002 0.07276489 0.059603747
-0.07330732 0.027774276 -0.010165315 0.14700188 0.041079886 0.2670894 -0.27664316 -0.15133657
0.21770617 -0.27948922 -0.21891037 -0.16699767 0.09789259 -0.07461271 0.067899205 0.043008234
0.11403199 -0.06146486 0.13081168 0.27891505 0.036039278 -0.014503664 0.19127792 -0.05315847
0.3179478 -0.14639027 -0.38896775 0.06760806 0.114972495 0.18809722 0.12944452 -0.14340405
0.24967879 0.03387527 -0.18919508 0.27352217 -0.18362348 0.11832071 -0.25888762 -0.10693047
0.30384582 -0.17248763 -0.014418721 0.23925278 -0.06386121 -0.34623778 0.032793224 0.019730316
-0.3012601 0.34058973 0.051564917 -0.10250451 0.32957342 -0.21113211 0.25878677 -0.63978344
-0.01573283 0.13204138 -0.43140638 -0.1689744 -0.22413948 0.17117773 -0.024936734 0.047031548
-0.04635133 0.006099219 -0.0021410766 0.09049299 -0.029201835 0.2214302 -0.23208936 -0.077864185
0.15217584 -0.28749785 -0.15013564 -0.20301805 0.11643254 -0.10072062 -0.023484752 -0.011074785
0.20328344 0.038598243 0.1549419 0.18648742 0.035544697 0.051021293 0.1420805 -0.18992387
-0.2826035 0.17222342 0.33883575 -0.092718504 -0.08156473 -0.22333907 -0.11179615 0.14633442
-0.22475031 -0.057318915 0.26556155 -0.2699837 0.23178573 -0.14931786 0.26753414 0.16137159
-0.34914526 0.15964855 0.0055270605 -0.32677278 0.07068253 0.4414014 -0.029761292 -0.056996103
0.27736777 -0.4114594 -0.035787415 0.12261717 -0.2771927 0.24108116 -0.24732067 0.7009132
0.049580466 -0.2998431 0.25119928 -0.1398685 0.25756133 -0.09709599 0.027525049 -0.001758733
0.023033408 0.033374146 -0.035375006 -0.08370373 -0.06206635 -0.024876444 0.04891594 -0.012975816
0.0345498 0.20533289 -0.03738739 0.2625411 0.042882584 0.0012029812 0.11961442 0.09976431
-0.27967322 0.18481822 -0.01622309 -0.27302632 0.16360418 -0.14455408 0.07097092 -0.05440994
-0.122927666 0.15110534 0.029289786 0.00067692954 -0.21227498 0.016372846 -0.111136466 0.015482887
-0.055590443 0.08249839 0.03994552 0.0026465997 -0.0037928566 -0.048339676 0.13905774 0.19926019
-0.16643494 -0.03797897 0.020603208 -0.21949682 -0.00285889 0.16052346 0.01444009 0.0013552802
0.25107536 -0.08446641 -0.03219588 0.11942496 -0.10383229 0.24948877 -0.19807146 0.24458796
-0.2764433 0.04771096 0.37673733 -0.15463224 0.0061689676 -0.098876216 -0.16326891 0.19340076
-0.2019925 0.01946873 0.06835846 -0.1629969 0.109946415 -0.068850905 0.10359223 -0.0065479996
-0.31227067 0.16256064 -0.17962056 -0.15390104 0.08208164 0.23815575 -0.025227979 -0.13523673
0.24825108 -0.2182284 -0.02310202 0.112449676 -0.3004759 0.25274402 -0.26505014 0.6212164
00000000: 4e67 933e 3f50 20be 864f cbbe f3ca 013d
00000010: 62d4 cc3d fd31 463e c7e2 b73d f168 efbd
00000020: d3c1 633e 3fdb 733c 5d65 30be 00ce 433e
00000030: 0927 3dbe 2e73 293e 6dd1 80be cecc 38be
00000040: dc00 a43e f1a1 cdbd 4377 8f3c 864d 4d3e
00000050: 801a 16bd 3757 b2be 4a5b 393d 6ad0 103d
00000060: 9890 7fbe 98fb 833e 6b5b 423d ae59 c3bd
00000070: 28ec b13e 996b 8abe c84c 7f3e 28cd 34bf
00000080: e326 f3bd fe6c 9f3d 338c 84be d344 87be
00000090: 6443 85bd 50cc 1a3e c205 953d 0f23 743d
000000a0: 2622 96bd e186 e33c 6c8c 26bc a987 163e
000000b0: 6243 283d f1bf 883e 2ca4 8dbe f9f7 1abe
000000c0: 5eee 5e3e 3619 8fbe 0a2a 60be 7001 2bbe
000000d0: e97b c83d 8cce 98bd bd0e 8b3d 6729 303d
000000e0: 9b89 e93d 94c2 7bbd 7ff3 053e f4cd 8e3e
000000f0: ec9d 133d c7a0 6dbc 5cde 433e b2bc 59bd
00000100: 0eca a23e 55e7 15be c826 c7be 1876 8a3d
00000110: b376 eb3d 8f9c 403e 1b8d 043e 83d8 12be
00000120: ccab 7f3e ccc0 0a3d 5bbc 41be 190b 8c3e
00000130: cb07 3cbe 2152 f23d eb8c 84be 5dfe dabd
00000140: ae91 9b3e 99a0 30be 803c 6cbc aefe 743e
00000150: abc9 82bd 1446 b1be 3052 063d 79a1 a13c
00000160: c43e 9abe c761 ae3e bc35 533d e2ed d1bd
00000170: d9bd a83e 0433 58be b37f 843e d9c8 23bf
00000180: 23e2 80bc db35 073e 4ce1 dcbe a007 2dbe
00000190: d284 65be 3749 2f3e 1f48 ccbc 27a4 403d
000001a0: e4da 3dbd f5db c73b 4e51 0cbb 6454 b93d
000001b0: b038 efbc 99be 623e d5a8 6dbe 4277 9fbd
000001c0: fcd3 1b3e eb32 93be 28bd 19be f7e3 4fbe
000001d0: 2f74 ee3d 9d46 cebd 1863 c0bc 0473 35bc
000001e0: 8929 503e 3119 1e3d 17a9 1e3e 8ff6 3e3e
000001f0: 5197 113d b4fb 503d 8d7d 113e 677b 42be
00000200: 68b1 90be 565b 303e e17b ad3e 33e3 bdbd
00000210: 690b a7bd ffb2 64be 61f5 e4bd b1d8 153e
00000220: f224 66be 3dc7 6abd aff7 873e 4e3b 8abe
00000230: 3d59 6d3e c8e6 18be 3cfa 883e 983e 253e
00000240: 2bc3 b2be e97a 233e 581c b53b c34e a7be
00000250: 01c2 903d 5dff e13e f4cd f3bc bf74 69bd
00000260: 2603 8e3e ceaa d2be d395 12bd b61e fb3d
00000270: 34ec 8dbe fbdd 763e a141 7dbe 0c6f 333f
00000280: e314 4b3d 0985 99be 319d 803e b039 0fbe
00000290: 14df 833e 43da c6bd 367c e13c 4985 e6ba
000002a0: 8fb0 bc3c 54b3 083d 62e5 10bd dc6c abbd
000002b0: 4939 7ebd afc9 cbbc 155c 483d 8498 54bc
000002c0: 1784 0d3d c942 523e 8523 19bd c96b 863e
000002d0: a6a5 2f3d 5aad 9d3a 68f8 f43d 3b51 cc3d
000002e0: 5431 8fbe fd40 3d3e 49e6 84bc 1bca 8bbe
000002f0: db87 273e fc05 14be 3459 913d f5dc 5ebd
00000300: 80c1 fbbd 5cbb 1a3e 22f1 ef3c f973 313a
00000310: 9d5e 59be 5920 863c 849b e3bd efab 7d3c
00000320: ceb2 63bd eaf4 a83d ea9d 233d 9372 2d3b
00000330: 9391 78bb d3ff 45bd 2765 0e3e dd0a 4c3e
00000340: ec6d 2abe d68f 1bbd 0fc8 a83c c6c3 60be
00000350: 375c 3bbb 4360 243e 2196 6c3c a8a3 b13a
00000360: f38c 803e bafc acbd d4df 03bd 1395 f43d
00000370: 06a6 d4bd fc79 7f3e 3fd3 4abe 4475 7a3e
00000380: fa89 8dbe 916c 433d b7e3 c03e ea57 1ebe
00000390: 0d25 ca3b 9d7f cabd f72f 27be d90a 463e
000003a0: 1fd7 4ebe e37c 9f3c 85ff 8b3d a9e8 26be
000003b0: 962b e13d b401 8dbd 2a28 d43d 9a90 d6bb
000003c0: f1e1 9fbe 4c76 263e 74ee 37be 3c98 1dbe
000003d0: 6b1a a83d 1adf 733e e8aa cebc 7f7b 0abe
000003e0: 8835 7e3e 4477 5fbe 7340 bdbc 044c e63d
000003f0: fad7 99be aa67 813e a7b4 87be 0a08 1f3f

t_modules.0.layers.0.0.proj.weight f4 [32, 32]
0.3939161 0.13327235 -0.07246293 0.04902543 -0.23469976 -0.23846523 -0.09681324 0.07466039
-0.3230407 0.104186945 -0.22284041 0.18346134 -0.06752809 -0.16736472 -0.08559098 0.11157402
0.020516608 -0.21690613 -0.15514523 -0.06975303 0.0091347555 0.49555326 -0.119000465 0.3539119
-0.04309419 0.2172937 0.07512186 0.023331253 0.2945765 -0.24089089 0.18758097 0.08703887
0.14213493 -0.07892709 -0.020755596 0.27789578 0.15803184 0.15620531 0.15723534 -0.07203945
-0.07598376 0.08462955 -0.29266995 0.13314578 -0.069081075 0.10634374 -0.09709767 0.047868364
-0.07578062 0.025434185 -0.020820487 -0.20260748 0.096136674 -0.21579596 -0.07640903 0.2603648
0.12451089 -0.056940515 0.122296855 0.18142128 -0.14193459 -0.01353516 -0.09582133 0.19146912
-0.30134717 -0.09860985 0.1943013 0.2020601 -0.20856185 0.47796163 0.10789734 0.14619844
-0.4566694 0.31409857 -0.19170794 -0.16873035 -0.13652363 0.3187554 0.09634654 0.27960053
-0.17270775 -0.21181545 0.08027242 -0.052943587 0.330155 0.0039302506 -0.33603597 0.09211729
-0.049989518 0.024553249 0.009950151 -0.16933964 -0.07879235 -0.29318452 0.07586122 -0.108899444
-0.009861585 -0.0354478 0.093454584 -0.03891746 -0.02203707 -0.060231842 0.014279952 0.011093735
0.066192314 -0.18930177 0.09590861 -0.087913 -0.0030749196 -0.060216248 0.033691596 0.007922696
-0.010331664 0.027437314 -0.047022033 0.06627472 -0.1119013 0.0026579842 0.13109022 -0.098711655
0.012294541 0.083047636 0.0347147 -0.00793601 -0.028024325 -0.040768996 -0.027747892 -0.016053688
0.014518355 -0.023291789 -0.054591984 -0.042433076 0.003043422 -0.036440145 -0.05027299 0.053765614
-0.16755137 0.16455507 -0.14500214 0.20933376 -0.04450166 -0.023403179 0.005715833 0.046377856
0.01760484 -0.04495559 -0.021188395 -0.1729252 0.12613538 -0.1666757 -0.17508917 0.19642447
-0.032804847 -0.0078017022 0.058105104 -0.0077730194 -0.09409163 0.08078817 0.018345777 0.023776315
0.016608499 -0.037851322 0.38654608 0.1713122 0.15827627 0.032580324 0.07069961 0.10509295
0.43347013 -0.2926876 0.23522896 -0.06934619 0.24019457 -0.0029807906 -0.1505248 0.2374296
0.17752111 0.16092277 0.03847726 0.27753717 -0.18107936 0.0801206 0.09014471 -0.088546686
0.054596975 0.018130835 0.003026887 0.15651312 0.072724074 -0.1577692 -0.07575879 -0.09143886
0.35534936 -0.3752941 0.10267526 -0.07354407 -0.09703179 0.11580743 -0.16619372 -0.03768412
0.08478112 -0.3575023 -0.1943973 -0.1729355 0.09117946 -0.1408199 0.11022242 -0.3101601
-0.09037412 -0.058699347 -0.1841756 -0.09195175 -0.28959736 0.05206682 0.20060652 0.0076146945
0.004270612 -0.026308555 -0.23918036 0.06867709 0.10345141 0.066557 -0.23405448 0.12726898
0.23546077 0.4749019 0.12838644 0.12530763 0.55318797 -0.0727693 0.22807509 0.48113006
0.4760163 -0.1346169 0.45444956 -0.14607137 0.47474605 0.22474433 -0.4561846 0.16521077
0.09714337 -0.024601005 -0.07119534 -0.05555722 0.017592488 0.15695468 0.36871216 0.03396498
0.10178783 0.056937255 -0.30176178 0.025688807 0.008789361 -0.06382973 -0.11477609 0.018366942
00000000: 5faf c93e 8c78 083e 7267 94bd e4ce 483d
00000010: 2255 70be 3b30 74be 0546 c6bd 8ce7 983d
00000020: 9765 a5be f75f d53d 4730 64be 4add 3b3e
00000030: 2b4c 8abd a861 2bbe 534a afbd eb80 e43d
00000040: 7212 a83c a41c 5ebe 64de 1ebe adda 8ebd
00000050: f1a9 153c 28b9 fd3e 84b6 f3bd f133 b53e
00000060: 8983 30bd 3d82 5e3e 7dd9 993d 2f21 bf3c
00000070: bbd2 963e 1aac 76be 3a15 403e 6f41 b23d
00000080: d28b 113e 87a4 a1bd a407 aabc 5b48 8e3e
00000090: 19d3 213e 49f4 1f3e 4d02 213e 6b89 93bd
000000a0: 609d 9bbd 4252 ad3d d6d8 95be 5e57 083e
000000b0: 617a 8dbd bfca d93d 25db c6bd 9e11 443d
000000c0: df32 9bbd 5a5b d03c ba8f aabc 5678 4fbe
000000d0: 4ee3 c43d 9ef9 5cbe 567c 9cbd 894e 853e
000000e0: 91ff fe3d 753a 69bd c676 fa3d 80c6 393e
000000f0: 4d57 11be 93c2 5dbc f93d c4bd 7b10 443e
00000100: 2d4a 9abe f6f3 c9bd ecf6 463e d8e8 4e3e
00000110: 3d91 55be 63b7 f43e 48f9 dc3d 0bb5 153e
00000120: 92d0 e9be 87d1 a03e 164f 44be a6c7 2cbe
00000130: dacc 0bbe e833 a33e 5651 c53d cd27 8f3e
00000140: 4dda 30be 26e6 58be de65 a43d 60db 58bd
00000150: 130a a93e 55c9 803b e80c acbe fda7 bc3d
00000160: cfc1 4cbd e523 c93c f505 233c 5f67 2dbe
00000170: e25d a1bd 481c 96be 215d 9b3d ac06 dfbd
00000180: 7c92 21bc b631 11bd 1e65 bf3d ea67 1fbd
00000190: 1687 b4bc aab5 76bd 76f6 693c 7fc2 353c
000001a0: d68f 873d 53d8 41be bc6b c43d bb0b b4bd
000001b0: 9784 49bb 50a5 76bd 3300 0a3d 32ce 013c
000001c0: 2446 29bc 38c4 e03c 2d9a 40bd 0abb 873d
000001d0: 822c e5bd 9331 2e3b 843c 063e 5629 cabd
000001e0: 0b6f 493c e114 aa3d 0031 0e3d 0a06 02bc
000001f0: 4593 e5bc 64fd 26bd 8c4f e3bc 0683 83bc
00000200: 65de 6d3c 6cce bebc d89b 5fbd 4ece 2dbd
00000210: 2674 473b 4342 15bd 0deb 4dbd 5539 5c3d
00000220: 9692 2bbe 2081 283e 717b 14be 975b 563e
00000230: 5f47 36bd 06b8 bfbc e24b bb3b b5f6 3d3d
00000240: 0738 903c 5a23 38bd 4993 adbc 4e13 31be
00000250: a229 013e 09ad 2abe 934a 33be 7f23 493e
00000260: 605e 06bd 6ca5 ffbb 9eff 6d3d d0b4 febb
00000270: 1db3 c0bd 4574 a53d e249 963c 8cc6 c23c
00000280: 8c0e 883c fd09 1bbd 5ee9 c53e 776c 2f3e
00000290: 2d13 223e f272 053d f5ca 903d f93a d73d
000002a0: ccef dd3e 26db 95be dcdf 703e 6005 8ebd
000002b0: 91f5 753e 5e59 43bb 2c23 1abe bf20 733e
000002c0: 18c8 353e f0c8 243e 559a 1d3d 5a19 8e3e
000002d0: de6c 39be 4516 a43d ca9d b83d f757 b5bd
000002e0: 14a1 5f3d 1e87 943c bd5e 463b fa44 203e
000002f0: 5cf0 943d 408e 21be 6d27 9bbd 4c44 bbbd
00000300: 5af0 b53e 8c26 c0be 6847 d23d 469e 96bd
00000310: 9ab8 c6bd 722c ed3d b02e 2abe aa5a 1abd
00000320: b9a1 ad3d 8b0a b7be 1610 47be 0116 31be
00000330: 4cbc ba3d 1833 10be 4bbc e13d 4ecd 9ebe
00000340: 1116 b9bd ba6e 70bd 8798 3cbe 3351 bcbd
00000350: 1b46 94be 0544 553d cc6b 4d3e b084 f93b
00000360: 7df0 8b3b 0a85 d7bc b2eb 74be 93a6 8c3d
00000370: 55de d33d 094f 883d faab 6fbe cd52 023e
00000380: a11c 713e 5826 f33e bc77 033e a550 003e
00000390: ba9d 0d3f 1208 95bd 848c 693e ae56 f63e
000003a0: 69b8 f33e 03d9 09be 9dad e83e bc93 15be
000003b0: ea11 f33e 6123 663e 0791 e9be 032d 293e
000003c0: 1af3 c63d 0c88 c9bc ddce 91bd f88f 63bd
000003d0: 1f1e 903c bab8 203e d7c7 bc3e dd1e 0b3d
000003e0: 2376 d03d 0a37 693d 8580 9abe 5571 d23c
000003f0: 4101 103c 29b9 82bd ba0f ebbd 4576 963c

t_modules.0.layers.0.0.proj.bias f4 [32]
0.15255873 -0.10875079 0.060776666 0.048387494 -0.06568279 0.07082187 -0.05195295 0.04793086
0.010876566 -0.09397568 0.04204314 -0.05325412 0.2781604 -0.06017134 -0.14969443 -0.026479525
0.064185746 -0.13323028 -0.019310024 0.21820553 -0.06943339 -0.021810502 0.02116797 -0.020806124
-0.17000797 0.11844328 0.12027663 0.029005546 -0.03557125 -0.14096467 -0.13402477 0.07378197
00000000: 5b38 1c3e bcb8 debd f4f0 783d f731 463d
00000010: b384 86bd 0e0b 913d 9ecc 54bd 2653 443d
00000020: a033 323c 5276 c0bd 6d35 2c3d fe20 5abd
00000030: 0a6b 8e3e 3976 76bd 7f49 19be 97eb d8bc
00000040: d173 833d 856d 08be 0e30 9ebc 4571 5f3e
00000050: 1833 8ebd f0ab b2bc 7368 ad3c 9b71 aabc
00000060: 9216 2ebe 6492 f23d 9853 f63d 0a9d ed3c
00000070: 29b3 11bd 0b59 10be ca3d 09be 001b 973d

t_modules.0.layers.0.1.norm.weight f4 [32]
0.9201333 0.9110687 1.0278097 1.0229297 1.0470362 0.73536116 0.84143555 0.9666471
0.97959024 0.68100303 0.79185694 0.6707676 0.8350169 0.8912067 0.87162787 0.8547925
0.91340566 0.9695472 0.89799315 0.88428456 0.6822509 0.8194791 0.92208904 0.799211
0.82306546 0.9587373 0.95861095 0.9459611 0.802154 0.88934475 0.9031307 0.8829605
00000000: db8d 6b3f cc3b 693f 458f 833f 5cef 823f
00000010: 4805 863f a140 3c3f 5268 573f 2f76 773f
00000020: 6dc6 7a3f 3756 2e3f 23b7 4a3f 6db7 2b3f
00000030: abc3 553f 1f26 643f 0123 5f3f aed3 5a3f
00000040: f4d4 693f 3f34 783f e1e2 653f 7960 623f
00000050: ffa7 2e3f 62c9 513f 070e 6c3f 1899 4c3f
00000060: 6bb4 523f cf6f 753f 8767 753f 822a 723f
00000070: f759 4d3f 19ac 633f 9333 673f b309 623f

t_modules.0.layers.0.1.norm.bias f4 [32]
0.070558764 0.013218051 -0.141948 -0.025563436 -0.0023164046 0.010704655 -0.049133107 0.070483714
0.07229082 0.004747591 -0.07711893 0.109452784 -0.04123983 0.19120817 -0.10947731 -0.18383601
-0.04222297 -0.027652092 -0.047076628 0.088763416 -0.012639505 -0.043430433 -0.12495885 0.008376704
0.043091398 0.19431554 0.018203711 -0.10297543 0.10403578 -0.02999473 0.037264593 -0.11376598
00000000: 1d81 903d 8690 583c d15a 11be 696a d1bc
00000010: d2ce 17bb 9462 2f3c cc3f 49bd c459 903d
00000020: 360d 943d ae91 9b3b 88f0 9dbd c828 e03d
00000030: 19eb 28bd 13cc 433e a435 e0bd 823f 3cbe
00000040: fef1 2cbd a486 e2bc 6cd3 40bd 98c9 b53d
00000050: ed15 4fbc 1ce4 31bd 6dea ffbd 713e 093c
00000060: 9b80 303d a7fa 463e f31f 953c c8e4 d2bd
00000070: b610 d53d 82b7 f5bc c2a2 183d 23fe e8bd

t_modules.0.layers.0.1.fn.net.0.weight f4 [64, 32]
-0.24536392 0.34159258 -0.10259985 0.13917597 0.31372696 -0.22492215 0.12405391 0.14169249
-0.46576414 0.10421439 0.07660425 0.052901313 0.06014637 -0.030422663 -0.20225295 0.20497581
-0.3086088 -0.2339435 0.20427339 0.053318806 -0.11745086 0.0015114557 0.2015247 -0.1479597
0.10141554 0.033234403 -0.37193584 0.3354093 -0.13927376 0.116218805 0.25421187 0.16621198
-0.029096559 0.049189556 0.012031994 -0.017050276 -0.15404713 0.13429816 -0.03348641 -0.074010834
-0.10179454 0.1250654 0.09281539 0.026168885 -0.074601635 -0.07560959 0.17493802 -0.030904485
0.06812002 -0.028201427 0.14940785 -0.008481885 -0.03252674 -0.04635747 -0.07204137 0.024304403
0.027873965 -0.13044606 0.11201158 -0.07912081 0.17073396 -0.06371997 -0.10631288 -0.082892
0.2102048 -0.02624572 0.16849013 -0.2826122 0.4521634 -0.2915942 0.12767722 0.09660841
0.15914764 -0.28321603 0.16397478 -0.05754811 0.2270963 -0.09577771 -0.11662647 0.19335671
-0.002576275 -0.022436103 -0.0025463023 -0.1912446 -0.023016531 0.09886328 -0.06505738 0.20604503
0.0012130362 -0.43679905 0.33593932 0.10650998 0.12922291 -0.13121368 0.13099833 0.16148527
-0.010614432 -0.011399987 0.10436123 -0.12573735 -0.15120943 -0.0029614249 -0.04206536 0.01974701
-0.011849598 0.15260915 0.025215298 0.06889565 -0.0072019123 -0.051146075 -0.120924085 0.041000612
-0.04004122 0.110925 -0.05759091 -0.028333833 -0.13801888 -0.0328204 0.11629027 -0.043995053
-0.049539052 -0.045266274 0.13390063 -0.17431949 0.1704671 -0.06531864 -0.0047708624 -0.044400726
0.20358251 0.098108284 -0.0876436 0.018429365 0.24753766 0.06421877 0.16430074 0.27820322
-0.058196325 0.12484278 -0.06146019 -0.084115446 0.08751075 0.035450105 -0.09791925 -0.09692084
-0.34927306 -0.11852551 0.039989494 0.025075052 -0.122515246 -0.082460806 -0.004854114 0.10252122
-0.1351649 -0.019610915 -0.24621406 0.021715686 0.0759523 0.011835496 0.107130304 -0.16637377
-0.15579516 0.2112728 0.09889574 -0.044348344 -0.08277168 -0.14957711 -0.024930282 -0.004379533
-0.36452165 0.10152276 0.31701976 -0.14989462 0.09624556 -0.01708785 -0.024255415 -0.2246726
-0.017509582 -0.05258554 0.0018992182 -0.279547 0.074888974 0.28048196 0.27437285 0.0062019452
0.12802409 -0.21208091 -0.17372498 0.071905166 -0.11777613 0.02702073 -0.3773882 0.3205776
0.35204408 0.12768114 0.26694798 0.33721885 -0.17128314 -0.04672711 0.12133371 -0.09020308
0.0695415 0.18080784 -0.03680983 -0.20802683 -0.07019788 0.0730665 0.22108126 0.0948631
-0.012734971 0.20795952 0.030998422 -0.15771188 -0.06793792 0.03883002 0.42227983 0.16884293
-0.047881037 -0.37088192 -0.1213672 0.13977487 -0.42689627 -0.095283836 0.08133009 0.17446625
-0.21338294 -0.0867206 -0.09274315 0.00096053345 0.0035585337 0.010999857 0.0945392 -0.17524183
0.03764381 -0.11511739 -0.08886586 -0.0643794 0.14658602 0.0601873 0.16016075 0.051719688
0.0022328591 0.138986 0.28557163 0.17774253 0.09422019 0.11779702 0.005684696 0.07633829
-0.11184041 0.17807469 0.13397576 -0.32813266 -0.03437863 -0.39420563 -0.005377905 -0.002690314
00000000: ae40 7bbe 39e5 ae3e df1f d2bd 2584 0e3e
00000010: d2a0 a03e fe51 66be fa0f fe3d d617 113e
00000020: a378 eebe 5b6e d53d b0e2 9c3d 0caf 583d
00000030: 0a5c 763d f338 f9bc 661b 4fbe 2ee5 513e
00000040: f901 9ebe e38e 6fbe 0b2d 513e d264 5a3d
00000050: 148a f0bd 0a1c c63a 7e5c 4e3e bf82 17be
00000060: f3b2 cf3d cc20 083d 606e bebe c5ba ab3e
00000070: c89d 0ebe 2004 ee3d 0f28 823e 7933 2a3e
00000080: e85b eebc fd7a 493d d721 453c 05ad 8bbc
00000090: 88be 1dbe 7585 093e 0c29 09bd fe92 97bd
000000a0: a879 d0bd 2511 003e ff15 be3d 2160 d63c
000000b0: bec8 98bd 33d9 9abd f422 333e 672b fdbc
000000c0: 8282 8b3d ae06 e7bc 5ffe 183e 9bf7 0abc
000000d0: c23a 05bd 55e1 3dbd 6d8a 93bd 071a c73c
000000e0: f157 e43c a793 05be 5466 e53d 170a a2bd
000000f0: e2d4 2e3e 9e7f 82bd 91ba d9bd 48c3 a9bd
00000100: ed3f 573e 4401 d7bc ad88 2c3e 8cb2 90be
00000110: f681 e73e d64b 95be d1bd 023e a1da c53d
00000120: 99f7 223e b101 91be 01e9 273e 91b7 6bbd
00000130: ef8b 683e 1b27 c4bd dcd9 eebd 4dff 453e
00000140: b9d6 28bb ebcb b7bc dddf 26bb a0d5 43be
00000150: 2a8d bcbc d578 ca3d ce3c 85bd 78fd 523e
00000160: befe 9e3a 20a4 dfbe 3d00 ac3e e821 da3d
00000170: 0353 043e e15c 06be 6d24 063e 655c 253e
00000180: 28e8 2dbc 03c7 3abc 57bb d53d 4bc1 00be
00000190: a5d6 1abe 7714 42bb ba4c 2cbd 7bc4 a13c
000001a0: d124 42bc 9345 1c3e 5090 ce3c 2a19 8d3d
000001b0: 05fe ebbb 8c7e 51bd 0ca7 f7bd 42f0 273d
000001c0: 4302 24bd a52c e33d 72e4 6bbd 5b1c e8bc
000001d0: d254 0dbe af6e 06bd 9829 ee3d 2834 34bd
000001e0: 76e9 4abd 2169 39bd 3f1d 093e cf80 32be
000001f0: ed8e 2e3e c7c5 85bd e554 9cbb 89dd 35bd
00000200: ef77 503e ffec c83d 7d7e b3bd 2ef9 963c
00000210: 837a 7d3e 2185 833d 743e 283e a770 8e3e
00000220: 455f 6ebd 92ad ff3d aebd 7bbd b844 acbd
00000230: d638 b33d 2134 113d e389 c8bd 6f7e c6bd
00000240: ebd3 b2be 81bd f2bd 06cc 233d 326a cd3c
00000250: 46e9 fabd 36e1 a8bd 420f 9fbb a5f6 d13d
00000260: ab68 0abe 12a7 a0bc 8a1f 7cbe 18e5 b13c
00000270: e18c 9b3d abe9 413c 2267 db3d e35d 2abe
00000280: c488 1fbe e657 583e da89 ca3d 9ca6 35bd
00000290: 3384 a9bd be2a 19be 973a ccbc 3082 8fbb
000002a0: 95a2 babe 2aeb cf3d 6a50 a23e fa7d 19be
000002b0: 641c c53d d2fb 8bbc 4bb3 c6bc 9310 66be
000002c0: 4170 8fbc ef63 57bd 30ef f83a c920 8fbe
000002d0: 645f 993d 559b 8f3e 997a 8c3e b039 cb3b
000002e0: bf18 033e bd2b 59be f6e4 31be 0443 933d
000002f0: 9d34 f1bd 945a dd3c 0739 c1be bf22 a43e
00000300: 1f3f b43e d8be 023e 68ad 883e f3a7 ac3e
00000310: d964 2fbe ed64 3fbd cf7d f83d 64bc b8bd
00000320: c66b 8e3d b125 393e e8c5 16bd fc04 55be
00000330: e8c3 8fbd e4a3 953d 2063 623e 9647 c23d
00000340: 57a6 50bc 57f3 543e 67f0 fd3c 397f 21be
00000350: 0923 8bbd 3a0c 1f3d 1035 d83e 29e5 2c3e
00000360: e81e 44bd 3ce4 bdbe 5e8f f8bd 2521 0f3e
00000370: 2692 dabe 2c24 c3bd 6490 a63d 48a7 323e
00000380: 0f81 5abe 929a b1bd 1ff0 bdbd 4fcc 7b3a
00000390: 4a36 693b bf38 343c c59d c13d 9872 33be
000003a0: 6530 1a3d abc2 ebbd 4eff b5bd 59d9 83bd
000003b0: a51a 163e f586 763d 2e01 243e 06d8 533d
000003c0: 2955 123b 5952 0e3e 7236 923e 2302 363e
000003d0: 84f6 c03d 903f f13d b046 ba3b 4057 9c3d
000003e0: 960c e5bd 3659 363e f130 093e 0101 a8be
000003f0: 9bd0 0cbd 52d5 c9be 2339 b0bb fb4f 30bb

t_modules.0.layers.0.1.fn.net.0.bias f4 [64]
-0.12668201 -0.091922686 0.06403143 -0.06811151 -0.22276196 -0.057412677 -0.07186498 -0.08175602
-0.12957273 -0.26823622 -0.10035423 -0.35491297 -0.16529247 -0.092674814 -0.11944108 -0.045442387
-0.038121764 0.021666115 -0.04159991 -0.12926295 -0.06638115 -0.27040908 -0.35027632 -0.10290374
-0.19593704 -0.04750182 -0.36295533 0.041683055 -0.049033515 -0.19304958 -0.16230026 -0.13494028
-0.07855481 -0.024024803 -0.018675562 -0.058026228 -0.21219593 -0.11542961 -0.07763535 0.0568211
-0.024689717 0.07638826 -0.14088507 -0.26511735 -0.15822592 -0.10140794 -0.13378607 -0.13800287
-0.2950524 -0.11149211 0.033442162 -0.19894828 -0.12664735 -0.026102666 -0.10214619 -0.10797876
-0.044537783 -0.079410195 -0.11112544 -0.05265421 -0.077824265 -0.24710204 -0.17536302 -0.13111454
00000000: eeb8 01be f641 bcbd e922 833d 0c7e 8bbd
00000010: b61b 64be 8e29 6bbd f22d 93bd b36f a7bd
00000020: b7ae 04be 4256 89be 8586 cdbd 27b7 b5be
00000030: 6e42 29be 4bcc bdbd 869d f4bd cc21 3abd
00000040: 9125 1cbd 237d b13c ab64 2abd 825d 04be
00000050: d7f2 87bd 0f73 8abe 6b57 b3be 32bf d2bd
00000060: b8a3 48be 4591 42bd 48d5 b9be dabb 2a3d
00000070: 5ed7 48bd caae 45be 0a32 26be c92d 0abe
00000080: 58e1 a0bd aacf c4bc 7efd 98bc e9ac 6dbd
00000090: e449 59be 5c66 ecbd 48ff 9ebd 3ebd 683d
000000a0: 1742 cabc 7371 9c3d 2d44 10be 76bd 87be
000000b0: fa05 22be f7ae cfbd 37ff 08be a050 0dbe
000000c0: 1c11 97be fa55 e4bd a6fa 083d 19b9 4bbe
000000d0: d8af 01be 42d5 d5bc 0632 d1bd f823 ddbd
000000e0: 406d 36bd d0a1 a2bd bc95 e3bd f1ab 57bd
000000f0: 5462 9fbd 5108 7dbe 5d92 33be e442 06be

t_modules.0.layers.0.1.fn.net.3.weight f4 [32, 64]
0.14724159 -0.06738323 -0.2443414 0.097790025 0.025545636 -0.13325919 0.075337365 0.0017428851
0.022603815 0.10926207 -0.06437569 0.07358442 0.085360095 0.14336331 -0.040267847 -0.06373442
-0.1161394 0.026059102 -0.020078566 0.04997381 -0.040506072 0.029279556 0.001489922 0.15986061
0.017011212 0.08384189 -0.029693063 0.10526625 0.004737533 0.0567395 -0.0021524976 -0.0058908584
0.017598616 -0.12908751 -0.03941328 0.22134489 -0.15268199 -0.002801988 -0.015984759 -0.16336924
-0.028170995 0.00044022853 0.03402782 -0.09122745 0.007419618 0.11928625 -0.054578844 0.10996912
0.11206193 0.04545369 -0.06439653 0.14744522 0.09256495 -0.034992218 0.07290615 0.21805352
0.058103755 -0.09301484 -0.048287906 -0.21202381 0.04204665 0.12587726 0.05149347 -0.021938873
-0.046027385 -0.03729335 0.03838984 -0.017586403 -0.11006616 -0.0031721254 -0.10300084 0.0012564994
-0.015118655 0.1233595 -0.03985904 -0.004475337 0.067917466 0.18469208 -0.043604787 -0.013692711
0.11746143 -0.06636474 0.077758454 0.03407758 -0.03185621 -0.054668102 0.123505145 -0.060228772
-0.08768171 0.07340106 0.074568935 0.052406274 0.029166793 0.124446794 0.052724943 0.02681592
0.18514445 -0.025086029 0.030110816 0.013802461 0.23810834 0.054250322 -0.025997177 -0.06480718
0.09967018 -0.12545097 0.043197915 -0.07741572 0.029909538 -0.08528278 0.17267862 -0.06870238
0.012857811 -0.009950454 0.0999345 0.0087524345 0.11191499 -0.009971742 0.022600463 0.038592532
0.027944356 0.1106214 0.10230475 -0.081181414 -0.0024140633 0.0015965762 0.12644596 -0.06382055
-0.09636784 0.039893046 -0.12991351 0.053003516 0.031603605 -0.09283641 0.030148031 0.1216994
0.05430783 0.1548705 -0.04586098 -0.08632647 -0.047010303 -0.08832902 0.063570425 -0.033659033
0.006310726 -0.1535594 -0.079045035 -0.0753108 0.099571116 0.053644363 -0.020196443 0.027860545
-0.041709013 -0.15047914 0.18167706 -0.20108551 0.06176833 0.13531262 0.035084575 0.04770632
0.09416501 -0.09249026 0.028551288 -0.045469448 0.038892202 0.07042293 -0.07442305 0.013442482
-0.09935 -0.035964128 0.054541547 0.04653928 0.05546261 -0.17486311 0.1610819 0.009097891
-0.029588155 0.018192569 0.060473464 -0.050620783 0.047078088 0.015746964 -0.09679711 0.23921007
-0.021796053 -0.04157496 -0.013497921 -0.056786455 -0.020408653 0.033844892 -0.014560854 -0.18600918
0.09438555 -0.01172395 0.10978491 -0.08125654 0.027930962 -0.11779275 -0.15810387 -0.0028071345
-0.021345448 -0.0125579005 -0.036097076 0.0017219085 -0.016019886 0.05534197 -0.008483866 -0.0057785106
-0.0035620017 -0.009668589 0.026608253 -0.035585035 0.03633969 -0.015031496 0.00017922824 -0.079165794
0.08566181 0.048199438 0.041716017 -0.030822389 -0.03072967 -0.007971583 -0.053042114 -0.026950613
-0.08959752 0.008636595 -0.017019494 -0.09312058 -0.004083596 0.005853747 -0.016096927 0.0256314
-0.011254185 0.0051758545 0.007461494 0.021600379 0.028153095 -0.08124629 -0.0012455387 0.011058231
0.014026467 -0.013123228 0.022557866 -0.019163255 -0.022915771 -0.014070144 -0.04581505 0.12053813
-0.0010045676 0.019022949 0.00429716 -0.0052475627 -0.07537785 -0.03175153 0.00018114665 0.011683022
00000000: 80c6 163e 3800 8abd a234 7abe 2346 c83d
00000010: 1545 d13c 1975 08be 7a4a 9a3d 8571 e43a
00000020: a32b b93c cbc4 df3d 67d7 83bd 6eb3 963d
00000030: 46d1 ae3d d5cd 123e e6ef 24bd 3187 82bd
00000040: 7eda edbd e679 d53c ce7b a4bc 56b1 4c3d
00000050: b2e9 25bd aedb ef3c 7d49 c33a 80b2 233e
00000060: 195b 8b3c 4cb5 ab3d de3e f3bc d595 d73d
00000070: 4f3d 9b3b ae67 683d eb10 0dbb 1a08 c1bb
00000080: f92a 903c 842f 04be d26f 21bd 3ca8 623e
00000090: ab58 1cbe 8fa1 37bb 78f2 82bc 444a 27be
000000a0: dcc6 e6bc 79ce e639 c160 0b3d 75d5 babd
000000b0: 4420 f33b 594c f43d 118e 5fbd 7d37 e13d
000000c0: ba80 e53d a62d 3a3d 54e2 83bd e1fb 163e
000000d0: b192 bd3d 0054 0fbd d24f 953d 6c49 5f3e
000000e0: 34fe 6d3d 907e bebd 8ac9 45bd c51c 59be
000000f0: 1c39 2c3d f8e5 003e d1ea 523d 27b9 b3bc
00000100: 3687 3cbd e9c0 18bd aa3e 1d3d 5c11 90bc
00000110: 5e6a e1bd 6fe3 4fbb 1bf2 d2bd 20b1 a43a
00000120: 3cb4 77bc e8a3 fc3d 3c43 23bd d9a5 92bb
00000130: 5018 8b3d ec1f 3d3e ef9a 32bd 6457 60bc
00000140: 9e8f f03d 3dea 87bd d33f 9f3d ef94 0b3d
00000150: a87b 02bd a9eb 5fbd 44f0 fc3d 72b2 76bd
00000160: 7892 b3bd 4c53 963d 99b7 983d f6a7 563d
00000170: 33ef ee3c f6dd fe3d 1cf6 573d 0fad db3c
00000180: 8296 3d3e 3781 cdbc f5aa f63c b823 623c
00000190: acd2 733e 9635 5e3d 08f8 d4bc a0b9 84bd
000001a0: e11f cc3d 3876 00be 4cf0 303d 228c 9ebd
000001b0: d904 f53c bda8 aebd aad2 303e d5b3 8cbd
000001c0: 91a9 523c 3b07 23bc 76aa cc3d 5f66 0f3c
000001d0: b033 e53d 8460 23bc 9b24 b93c 3413 1e3d
000001e0: 90eb e43c 798d e23d 2785 d13d 7142 a6bd
000001f0: 4335 1ebb 3544 d13a 0d7b 013e 59b4 82bd
00000200: 815c c5bd e466 233d 0c08 05be 371a 593d
00000210: c872 013d 0421 bebd 01f9 f63c 893d f93d
00000220: e371 5e3d 5f96 1e3e b9d8 3bbd efcb b0bd
00000230: e08d 40bd d8e5 b4bd 3631 823d 0ede 09bd
00000240: 35ca ce3b ad3e 1dbe 5de2 a1bd 8c3c 9abd
00000250: f1eb cb3d 31ba 5b3d 0373 a5bc cc3b e43c
00000260: 12d7 2abd 3417 1abe 8d09 3a3e 5ce9 4dbe
00000270: ca00 7d3d 648f 0a3e d8b4 0f3d b467 433d
00000280: 96d9 c03d 896b bdbd 64e4 e93c 2c3e 3abd
00000290: 6e4d 1f3d e639 903d 1d6b 98bd db3d 5c3c
000002a0: 0378 cbbd 1f4f 13bd f566 5f3d f99f 3e3d
000002b0: c32c 633d 510f 33be a7f2 243e 520f 153c
000002c0: dc62 f2bc 9508 953c 06b3 773d bd57 4fbd
000002d0: f4d4 403d c7ff 803c 903d c6bd 7cf3 743e
000002e0: a38d b2bc 814a 2abd 6226 5dbc ea98 68bd
000002f0: 0c30 a7bc f1a0 0a3d a690 6ebc 3179 3ebe
00000300: 364d c13d cf15 40bc e9d6 e03d d469 a6bd
00000310: 79cf e43c 533d f1bd fbe5 21be e7f7 37bb
00000320: a6dc aebc a7bf 4dbc 87da 13bd a9b1 e13a
00000330: 233c 83bc 43ae 623d eaff 0abc a959 bdbb
00000340: 7970 69bb 0069 1ebc 8df9 d93c 9dc1 11bd
00000350: edd8 143d aa46 76bc 37ef 3b39 ad21 a2bd
00000360: 766f af3d c66c 453d 6ade 2a3d 3c7f fcbc
00000370: cabc fbbc 3e9b 02bc b042 59bd 88c7 dcbc
00000380: e87e b7bd 8180 0d3c 776c 8bbc 01b6 bebd
00000390: b0cf 85bb cad0 bf3b b4dd 83bc f1f8 d13c
000003a0: 7963 38bc 379a a93b 8c7f f43b 47f3 b03c
000003b0: 52a1 e63c 7464 a6bd 5841 a3ba 952d 353c
000003c0: 44cf 653c cf02 57bc 46cb b83c 42fc 9cbc
000003d0: dbb9 bbbc 7686 66bc 90a8 3bbd b2dc f63d
000003e0: b2ab 83ba 04d6 9b3c 31cf 8c3b bff3 abbb
000003f0: b45f 9abd e40d 02bd 2ff2 3d39 256a 3f3c

t_modules.0.layers.0.1.fn.net.3.bias f4 [32]
0.029097896 0.03205931 -0.013719637 -0.013494227 -0.011139385 0.0247254 -0.06259651 0.078253135
0.077241175 -0.15289518 0.034447324 -0.014936286 -0.2118852 -0.018178983 -0.08386922 -0.086663775
-0.010760117 -0.026096385 -0.08312175 -0.08465178 -0.020579223 -0.055118527 0.030827872 -0.086730696
0.05394059 0.039173342 0.13729231 0.0026854207 -0.021011729 -0.021673653 0.057826854 -0.057932854
00000000: b65e ee3c 9f50 033d 54c8 60bc e416 5dbc
00000010: f881 36bc ec8c ca3c 9932 80bd 2e43 a03d
00000020: 9f30 9e3d 8e90 1cbe a318 0d3d 53b7 74bc
00000030: 6ff8 58be 17ec 94bc a0c3 abbd c77c b1bd
00000040: 344b 30bc 16c8 d5bc bc3b aabd ea5d adbd
00000050: c295 a8bc f7c3 61bd bc8a fc3c dd9f b1bd
00000060: cff0 5c3d 3a74 203d 5b96 0c3e e2fd 2f3b
00000070: ca20 acbc f28c b1bc dadb 6c3d 004b 6dbd

t_modules.1.pos_embedding f4 [1, 12, 32]
-0.015797546 -0.24620058 -0.0033646799 0.13095388 -0.15795846 -0.020229576 0.0033355572 0.054588195
0.10011462 0.38040578 -0.03273064 -0.112452514 -0.03748063 -0.18199654 -0.3431496 -0.034722943
0.09321131 0.015392113 -0.21411158 -0.26730445 -0.4135876 0.109926395 0.045527034 -0.08397808
-0.20533806 -0.09432662 0.1333425 0.073188886 0.2718412 -0.29053035 -0.111210614 0.17046222
0.11905811 -0.08896643 0.1097288 -0.34508583 0.6457024 0.32835567 0.045966484 -0.29363158
-0.027363965 -0.18725725 0.36167035 0.075664595 0.21303582 -0.20265557 -0.17753084 -0.15176363
-0.2339533 -0.14748654 -0.26305896 -0.0035184168 0.053887594 0.21489511 1.1442806 0.42601392
0.23449817 -0.020973187 0.36959505 -0.49128616 0.08202705 -0.031895965 -0.55420476 0.10488289
0.02858532 -0.11854538 0.07641604 0.53073776 -0.19101611 -0.12369008 -0.057632413 0.01240706
-0.45930937 -0.03564676 -0.2215208 -0.030450074 -0.05144726 0.32182425 -0.11046005 0.011443916
0.10782727 0.031476066 0.14478493 0.12775508 -0.2747973 -0.081520736 0.27824476 0.34591696
0.00015374813 -0.09771135 0.03771541 0.16530295 -0.29754025 -0.10966195 0.022098001 0.05907084
0.057124887 -0.039590273 0.0218767 -0.24202111 0.06814755 0.063966356 -0.036291815 -0.07441023
0.08724256 -0.006056651 -0.059324343 0.062187284 -0.0028824722 0.32221937 -0.13363999 -0.06673825
-0.06184725 -0.11122834 -0.12517412 0.013227859 -0.30584815 0.11222196 0.6491861 -0.0393669
0.025885414 -0.101818465 0.16584262 -0.3763867 0.10182286 -0.00987689 -0.1867858 0.20814477
0.083580114 -0.112489365 -0.03206777 -0.4955217 0.24431299 0.09342479 0.0255985 0.05090578
-0.117165655 0.03965606 0.035656422 0.0047000893 -0.03503939 0.19902298 -0.0901066 -0.003911203
-0.02607788 0.008088289 -0.025259728 0.020606952 -0.033346765 0.14701855 0.8743679 -0.034624856
-0.094416685 -0.033367857 0.09115366 -0.30176204 0.25702342 -0.20171078 -0.0791126 0.15986043
-0.0058024675 -0.09192456 -0.10465245 0.16082345 -0.41210312 0.0438318 0.024098122 0.024479665
-0.15288275 -0.048154082 0.018541487 -0.06699879 0.033464298 0.27551728 -0.027791146 -0.054054264
0.1476024 -0.07729478 0.036199614 0.01714811 -0.38866398 -0.053819142 0.13253753 -0.23934999
-0.102148004 -0.27007464 0.089865096 0.047684085 -0.30728948 0.01721992 -0.010789245 -0.03718033
-0.0029758136 -0.055191923 -0.08780566 0.60802144 -0.3584258 -0.013915891 -0.022061778 -0.056815006
-0.16906744 -0.078467354 0.054991834 0.008594932 -0.023028437 0.30605978 -0.077011004 -0.028744733
0.070329435 -0.02472134 0.078148715 0.052050143 0.014741981 -0.0932636 -0.34898224 -0.4506126
-0.0273057 -0.034480065 -0.16377744 -0.009593203 -0.37795785 -0.036774494 -0.028457073 -0.031294193
-0.015980855 -0.0826389 -0.08309826 -0.040193126 -0.2231295 0.16765703 0.08821337 0.06632653
-0.24367337 0.16837697 -0.021439655 0.016807988 -0.116139315 0.0822471 -0.07013194 0.0073507493
0.086684436 -0.055851508 0.09635829 -0.063011624 -0.16235557 -0.09404463 0.19504823 0.009255074
0.012063745 -0.2882655 0.12252607 0.116795175 -0.26932335 -0.0056459527 0.047580153 -0.07858562
00000000: db69 81bc 011c 7cbe f681 5cbb c618 063e
00000010: ddbf 21be 7fb8 a5bc 5d99 5a3b df97 5f3d
00000020: e508 cd3d 8cc4 c23e 9010 06bd 814d e6bd
00000030: 4a85 19bd 4d5d 3abe 4eb1 afbe a539 0ebd
00000040: 92e5 be3d 332f 7c3c 1140 5bbe 21dc 88be
00000050: c1c1 d3be 1721 e13d 8e7a 3a3d b3fc abbd
00000060: 2444 52be 512e c1bd f08a 083e 0ee4 953d
00000070: c52e 8b3e 65c0 94be 64c2 e3bd a68d 2e3e
00000080: bdd4 f33d 0834 b6bd 7eb9 e03d 17af b0be
00000090: c14c 253f 3c1e a83e 5a47 3c3d e156 96be
000000a0: 652a e0bc 5dc0 3fbe db2c b93e 0af6 9a3d
000000b0: 1026 5a3e f184 4fbe a5ca 35be ed67 1bbe
000000c0: 7491 6fbe b606 17be aaaf 86be 3d95 66bb
000000d0: 3db9 5c3d 770d 5c3e c977 923f 7f1e da3e
000000e0: 4a20 703e f6cf abbc 903b bd3e dc89 fbbe
000000f0: ccfd a73d 58a5 02bd 5de0 0dbf d7cc d63d
00000100: c32b ea3c ecc7 f2bd 0380 9c3d 6ede 073f
00000110: ba99 43be 3a51 fdbd f70f 6cbd fb46 4b3c
00000120: 992a ebbe 5602 12bd 59d6 62be 6f72 f9bc
00000130: 5dba 52bd 26c6 a43e e138 e2bd 437f 3b3c
00000140: 8bd4 dc3d 0ced 003d 8042 143e 3ad2 023e
00000150: 3bb2 8cbe 58f4 a6bd 1976 8e3e 071c b13e
00000160: 7337 2139 e31c c8bd 797b 1a3d 2d45 293e
00000170: 3257 98be 7296 e0bd de06 b53c 44f4 713d
00000180: c9fb 693d 6929 22bd c436 b33c 62d4 77be
00000190: f190 8b3d cb00 833d baa6 14bd 6464 98bd
000001a0: 3aac b23d df76 c6bb 15fe 72bd 18b8 7e3d
000001b0: dce7 3cbb f0f9 a43e ecd8 08be 10ae 88bd
000001c0: 8b53 7dbd afcb e3bd a52d 00be a9b9 583c
000001d0: 2198 9cbe a1d4 e53d 0f31 263f 303f 21bd
000001e0: a60d d43c 3386 d0bd a6d2 293e c2b5 c0be
000001f0: 8188 d03d aed2 21bc c744 3fbe e723 553e
00000200: 0d2c ab3d d360 e6bd 7e59 03bd 05b5 fdbe
00000210: 2f2d 7a3e 7f55 bf3d f2b3 d13c 9482 503d
00000220: 8cf4 efbd 656e 223d 780c 123d 3503 9a3b
00000230: 7785 0fbd aecc 4b3e cf89 b8bd 8c29 80bb
00000240: 47a1 d5bc be84 043c 7ded cebc e9cf a83c
00000250: 9e96 08bd 088c 163e 93d6 5f3f cbd2 0dbd
00000260: 895d c1bd bcac 08bd c5ae ba3d 8e80 9abe
00000270: 9398 833e 458d 4ebe c905 a2bd 74b2 233e
00000280: a022 bebb f242 bcbd 0654 d6bd e7ae 243e
00000290: 2eff d2be f988 333d 6d69 c53c 9489 c83c
000002a0: 4c8d 1cbe 373d 45bd 51e4 973c a936 89bd
000002b0: dc11 093d 9a10 8d3e 42aa e3bc 0168 5dbd
000002c0: 1525 173e ba4c 9ebd 0c46 143d 317a 8c3c
000002d0: f7fe c6be 7671 5cbd ebb7 073e 2a18 75be
000002e0: f932 d1bd 3947 8abe 310b b83d 6350 433d
000002f0: 0c55 9dbe ca10 8d3c 60c5 30bc 674a 18bd
00000300: de05 43bb ed10 62bd 74d3 b3bd 4ba7 1b3f
00000310: 9683 b7be 7aff 63bc e7ba b4bc dab6 68bd
00000320: 0420 2dbe 7eb3 a0bd 1e3f 613d c2d1 0c3c
00000330: 22a6 bcbc deb3 9c3e f2b7 9dbd 137a ebbc
00000340: e108 903d 6884 cabc 6f0c a03d 8832 553d
00000350: 5a88 713c fc00 bfbd cdad b2be b2b6 e6be
00000360: 34b0 dfbc f83a 0dbd 46b5 27be cf2c 1dbc
00000370: b183 c1be daa0 16bd cf1e e9bc 572e 00bd
00000380: 48ea 82bc 953e a9bd 6c2f aabd 8ca1 24bd
00000390: 0f7c 64be 49ae 2b3e 36a9 b43d 34d6 873d
000003a0: 8385 79be 036b 2c3e 37a2 afbc e8b0 893c
000003b0: 73da edbd 2b71 a83d 56a1 8fbd 8ede f03b
000003c0: 9c87 b13d 8dc4 64bd 7f57 c53d 3d0c 81bd
000003d0: 8a40 26be 799a c0bd b9ba 473e 98a2 173c
000003e0: 04a7 453c 8997 93be f3ee fa3d 4f32 ef3d
000003f0: c0e4 89be af01 b9bb 68e3 423d 7ff1 a0bd

t_modules.1.layers.0.0.qkv.weight f4 [96, 32]
0.028437667 0.07688027 0.03884451 -0.022184484 -0.06889781 -0.04176651 0.23682554 -0.16718
-0.1456936 0.20608236 0.10963592 -0.038801227 0.0039144135 0.0556094 -0.14800812 -0.00728289
-0.048053328 -0.27716213 -0.47958016 -0.11571949 0.09812639 -0.14880389 0.21484557 0.07050675
0.22165635 -0.17678452 0.14321399 0.07202867 -0.047493666 0.03523564 -0.061605144 -0.017074015
-0.05269472 0.17956044 0.03280636 -0.094817206 -0.19632095 0.3723876 0.11892966 -0.03787926
0.01602918 0.09788115 0.06360027 0.14810748 -0.030456461 0.10329229 -0.13063078 -0.026258698
-0.036174614 -0.18682073 -0.17295583 -0.1396023 -0.09246526 0.011317712 -0.13150932 0.022687899
0.15661453 -0.1807969 -0.14357562 0.44691348 0.027781455 -0.024426943 0.0014665462 0.06531625
0.12012618 -0.2150111 -0.00024588162 -0.045161117 0.09907404 -0.3517837 0.05488325 -0.06300804
0.13947222 0.0026555962 -0.04127481 -0.13579813 0.03387385 -0.028363943 -0.083259724 -0.17768207
0.045283962 -0.062042154 -0.10059227 0.025437715 0.0076605813 0.10074189 -0.0005317938 0.15356587
0.086903915 0.062016252 0.13236865 -0.18797472 0.025022898 -0.0012076457 -0.1200723 0.025539078
0.13737768 -0.13934338 -0.010819457 0.10618976 -0.13024108 -0.3836932 -0.13192166 -0.16511698
0.32102242 -0.17647351 0.11149589 -0.17010309 -0.028458152 0.0230867 -0.10838085 -0.11655787
-0.12146234 -0.06510842 -0.15248199 -0.12853463 -0.03402288 0.18020216 -0.14620797 0.19806448
0.20381922 0.07465735 0.11593823 0.10241008 0.12528947 0.020978192 -0.21358438 0.090603374
0.042859778 -0.06907574 0.08603332 0.014459727 -0.12701724 -0.10220762 -0.20858559 0.062220804
0.12590568 0.043334514 -0.11795793 0.11444351 -0.17464541 0.18336137 -0.010207658 -0.023363052
-0.06343461 0.10382668 0.14194937 0.014617576 -0.14368968 0.14116901 0.047685776 0.049605247
-0.19235791 0.10257389 -0.0038980022 -0.001022734 -0.0077776127 -0.053611055 -0.05009752 -0.040913455
-0.09714585 -0.047542658 -0.10741125 0.07324536 0.1505713 -0.137687 -0.17238757 0.12707506
-0.057477254 -0.081845455 -0.0031381946 -0.2785837 0.13160056 0.0010845638 0.18075989 0.07983973
-0.058280937 0.018298483 0.14882979 0.08437837 0.10360371 -0.07314906 0.04858823 -0.14305975
-0.010702462 0.17241822 0.036352888 -0.17380844 -0.031535264 0.23776972 -0.050592802 -0.09346483
0.17474262 0.0063201142 0.0017749483 0.06738716 -0.11510475 -0.075445086 0.024779405 -0.152023
0.043027498 0.0849302 0.08533018 -0.019979091 0.14584617 -0.044573575 0.041350573 0.07156728
-0.116572425 -0.04576052 -0.15934715 -0.108359285 0.009127788 -0.049193382 0.07811856 0.11212366
0.21937136 -0.05751763 0.1763858 0.0063176462 -0.0427092 -0.041212022 -0.03511607 0.13686001
0.0097099915 -0.13753702 -0.031124003 0.11118476 0.08336433 -0.09309901 -0.24846032 -0.07024691
0.20209348 -0.20392129 0.0059822733 -0.1443128 0.026495678 -0.06924045 0.03466498 0.0211238
0.08247173 0.18113655 0.2726151 0.014517395 -0.03156432 0.09067214 -0.14517502 0.04483771
-0.004261199 0.28614655 0.007994389 -0.13033208 0.08358499 -0.053128053 -0.02630118 0.061334886
00000000: 1cf6 e83c 6773 9d3d 6c1b 1f3d 3cbc b5bc
00000010: 4c1a 8dbd 5c13 2bbd 6582 723e 3c31 2bbe
00000020: b430 15be 4107 533e cc88 e03d 09ee 1ebd
00000030: 7b44 803b afc6 633d 718f 17be 4fa5 eebb
00000040: 91d3 44bd 32e8 8dbe 888b f5be 57fe ecbd
00000050: 7df6 c83d 0c60 18be 7a00 5c3e d865 903d
00000060: e2f9 623e 0007 35be b0a6 123e c483 933d
00000070: b888 42bd 3f53 103d ad55 7cbd cede 8bbc
00000080: 6bd6 57bd b1de 373e f65f 063d 862f c2bd
00000090: 5c08 49be 96a9 be3e 6591 f33d 4827 1bbd
000000a0: a04f 833c ea75 c83d dc40 823d 7da9 173e
000000b0: d47f f9bc e88a d33d 13c4 05be 7b1c d7bc
000000c0: d52b 14bd ef4d 3fbe 551b 31be e8f3 0ebe
000000d0: 6d5e bdbd ed6d 393c 61aa 06be f9db b93c
000000e0: 8f5f 203e d322 39be 7d05 13be d8d1 e43e
000000f0: ef95 e33c 031b c8bc 2039 c03a 87c4 853d
00000100: b704 f63d df2b 5cbe ace9 80b9 ddfa 38bd
00000110: 55e7 ca3d fe1c b4be 42cd 603d 5c0a 81bd
00000120: ced1 0e3e 8309 2e3b c60f 29bd aa0e 0bbe
00000130: 4ebf 0a3d 805b e8bc 1384 aabd 4af2 35be
00000140: ad7b 393d ea1f 7ebd 5203 cebd c162 d03c
00000150: 9d05 fb3b c451 ce3d 1468 0bba 5f40 1d3e
00000160: aefa b13d c104 7e3d a68b 073e 727c 40be
00000170: d2fc cc3c de49 9eba 77e8 f5bd 5437 d13c
00000180: bcac 0c3e 08b0 0ebe 1744 31bc 047a d93d
00000190: eb5d 05be 6f73 c4be 7916 07be 6d14 29be
000001a0: 0d5d a43e 79b5 34be f557 e43d 812f 2ebe
000001b0: 1221 e9bc 5220 bd3c c7f6 ddbd e4b5 eebd
000001c0: 3fc1 f8bd 9057 85bd 3d24 1cbe 959e 03be
000001d0: 935b 0bbd ea86 383e 8bb7 15be 6ad1 4a3e
000001e0: fcb5 503e f4e5 983d 0671 ed3d 60bc d13d
000001f0: e24b 003e 75da ab3c ddb5 5abe 438e b93d
00000200: bc8d 2f3d 9577 8dbd 3d32 b03d 7ee8 6c3c
00000210: cf10 02be 3b52 d1bd 7697 55be 3edb 7e3d
00000220: 6bed 003e 887f 313d ed93 f1bd 5c61 ea3d
00000230: 3fd6 32be 15c3 3b3e 053e 27bc df63 bfbc
00000240: 01ea 81bd 15a3 d43d 2d5b 113e 8f7e 6f3c
00000250: 6323 13be 9c8e 103e 2952 433d df2e 4b3d
00000260: 79f9 44be 4212 d23d a075 7fbb 420d 86ba
00000270: 58db febb 4497 5bbd 0f33 4dbd de94 27bd
00000280: 67f4 c6bd 17bc 42bd 6efa dbbd aa01 963d
00000290: 5d2f 1a3e d2fd 0cbe 5e86 30be f71f 023e
000002a0: 456d 6bbd 979e a7bd 2baa 4dbb 86a2 8ebe
000002b0: 4cc2 063e ec27 8e3a 1f19 393e 0383 a33d
000002c0: feb7 6ebd b3e6 953c d666 183e 91ce ac3d
000002d0: 2f2e d43d 2dcf 95bd 7404 473d 417e 12be
000002e0: 6159 2fbc 678e 303e c4e6 143d d7fa 31be
000002f0: 1f2b 01bd e879 733e 663a 4fbd 7d6a bfbd
00000300: bbef 323e f618 cf3b 62a5 e83a 4802 8a3d
00000310: 0abc ebbd f482 9abd 2efe ca3c ebab 1bbe
00000320: 9a3d 303d e2ef ad3d 97c1 ae3d 31ab a3bc
00000330: b358 153e c892 36bd 385f 293d de91 923d
00000340: 86bd eebd 626f 3bbd e62b 23be 79eb ddbd
00000350: b88c 153c 007f 49bd a0fc 9f3d 17a1 e53d
00000360: e3a2 603e 9b97 6bbd 7b9e 343e 4204 cf3b
00000370: d8ef 2ebd f0cd 28bd ded5 0fbd 0825 0c3e
00000380: a816 1f3c 81d6 0cbe c4f7 febc d6b4 e33d
00000390: ebba aa3d b2aa bebd 626c 7ebe 9ddd 8fbd
000003a0: 98f1 4e3e bed0 50be f206 c43b bcc6 13be
000003b0: 770d d93c f0cd 8dbd defc 0d3d d20b ad3c
000003c0: f0e6 a83d dc7b 393e 3594 8b3e 5eda 6d3c
000003d0: 9749 01bd 51b2 b93d c3a8 14be bfa7 373d
000003e0: 87a1 8bbb cd81 923e e6fa 023c c675 05be
000003f0: 9b2e ab3d cd9c 59bd 9275 d7bc 4a3a 7b3d
