small_scale_scenario/experiments/sttn/PEMS07/-fulltrain/final_model_s2019.pt (torch, 522146 bytes, 56 tensors)

t_modules.0.pos_embedding f4 [1, 12, 32]
-0.27509224 0.48208055 -0.47702816 -0.0320932 -0.35579747 -0.17264201 -1.815781 -0.11836915
0.139605 -0.049395163 0.10641234 -0.04929032 0.11602041 -1.6037946 0.43393028 -0.5108728
0.00779834 -0.46229362 0.31327468 0.588493 -0.31490046 -0.45473483 1.2473121 1.0713462
-0.21311608 0.18281135 0.30092436 0.41060638 0.075766146 -0.20683514 -0.19081832 0.23621958
-0.8397197 0.3947043 1.6613547 0.12202464 -0.1473364 -0.20217669 0.42585644 -0.14427699
0.7551849 -0.8476648 -1.8363415 -0.31279746 0.22379027 -0.24833763 -0.69021976 -0.53479713
-1.2097622 0.48102957 0.27743325 -0.32753038 0.5085083 1.297872 0.12775992 0.50521314
1.3146662 1.1365756 -0.1086374 -1.0493068 -0.72168565 0.3545804 0.30062807 -0.58787864
0.5758255 0.28586102 -0.9232974 -0.2316288 -0.58979964 0.2578034 -0.8420561 -1.5626702
0.47321054 0.5556965 0.67301846 2.4460113 0.23789814 0.007452813 -0.30261678 0.7420779
1.3155301 0.24802078 0.32385597 -0.19323722 -2.1344144 -0.6209987 -1.5811965 -0.3253331
0.7849705 -0.72782725 0.17359501 -0.34031835 0.8927492 -0.038025886 -0.47036064 0.90047807
0.44271913 0.16655037 -0.11487331 -0.67566466 0.343541 -0.23544934 -0.3834988 -0.12833053
-1.149831 0.5262541 0.31186604 -0.47187382 0.18913284 0.14218585 0.2109552 -0.1547874
0.041265745 0.3110071 -0.17955014 0.2641036 -0.51683915 -0.27872843 -0.11012481 -0.24870238
0.063128754 0.35916415 0.41296482 -0.14853063 0.13026424 0.21936937 -0.7077374 -0.2502918
0.48517618 -0.25746065 -0.36259776 0.34200275 -0.041357312 -0.124031186 0.95025706 -0.571378
-0.7536102 -0.7745529 -0.21939725 0.20070185 -0.3054314 0.14615609 1.6531503 -0.43023553
0.008039857 -1.073144 0.20513517 -0.030455515 0.06324986 0.91272503 -0.5140372 1.2645556
0.01278692 0.27341464 -0.23292151 0.10780422 -0.36119005 0.15031356 -0.026068423 -0.10275878
-1.5393122 0.623098 0.96996826 -0.14141701 0.24165279 0.37384248 -0.03223098 0.65280646
-0.09890036 0.7979253 0.43078235 -0.48450845 0.62608856 -0.51356506 0.3894539 0.68217397
-0.31836855 0.7336155 0.30264494 0.2502082 -0.34738246 -0.7672702 0.09478114 0.07892189
-0.5273111 0.53645474 -0.2516051 -0.15307276 0.2651378 -0.4366152 0.3366804 0.3102822
0.73990494 -0.29393107 1.2578965 0.79388714 0.24739541 0.30053347 -0.060918912 0.54879534
0.7235845 0.027007762 -0.51481503 -0.85455 -0.5403776 -0.43173504 -0.4000729 -1.3537605
-0.28213456 1.5718241 0.17901106 0.45423272 1.2258182 -0.80350035 -0.2535258 -1.3235894
-0.37160754 0.7025948 -0.053546265 -1.1157895 -0.80542547 -0.27334917 0.5646504 -1.0239342
-0.5610945 -0.20002572 -0.037673622 -0.22682002 1.1937029 0.26909086 0.7150817 -0.011151708
-0.108570196 0.46269697 -0.7800183 -0.8891451 -0.19704165 1.0720215 -0.5349741 0.25237915
0.14817147 0.31549835 0.4752181 0.047424395 -0.5230208 0.92974764 1.328218 0.341015
-1.9829164 -0.7051683 -0.2375648 0.68920135 0.48230198 0.10080501 0.5490488 -0.1541233
00000000: e4d8 8cbe 43d3 f63e 093d f4be 2974 03bd
00000010: 162b b6be 11c9 30be 836b e8bf 866b f2bd
00000020: 9df4 0e3e 9552 4abd b7ee d93d a6e4 49bd
00000030: 1c9c ed3d 2449 cdbf 1c2c de3e 8fc8 02bf
00000040: 3889 ff3b c0b1 ecbe 8a65 a03e 7aa7 163f
00000050: a23a a1be 01d3 e8be eca7 9f3f df21 893f
00000060: 1a3b 5abe e632 3b3e c212 9a3e 003b d23e
00000070: 482b 9b3d 97cc 53be e165 43be 8ce3 713e
00000080: dff7 56bf af16 ca3e 45a7 d43f 0ee8 f93d
00000090: 5adf 16be 6807 4fbe db09 da3e 59bd 13be
000000a0: cc53 413f 8f00 59bf 3d0d ebbf fd26 a0be
000000b0: 4729 653e 384c 7ebe 3eb2 30bf 77e8 08bf
000000c0: 7dd9 9abf 8249 f63e bb0b 8e3e 10b2 a7be
000000d0: 9a2d 023f ab20 a63f 7fd3 023e a655 013f
000000e0: fb46 a83f 4f7b 913f 497d debd af4f 86bf
000000f0: 64c0 38bf 908b b53e eceb 993e 377f 16bf
00000100: 4d69 133f 605c 923e 385d 6cbf 1a30 6dbe
00000110: 1cfd 16bf cffe 833e fd90 57bf 9405 c8bf
00000120: a748 f23e 2042 0e3f f04a 2c3f 738b 1c40
00000130: 929b 733e ba36 f43b 96f0 9abe d1f8 3d3f
00000140: 4a63 a83f 29f9 7d3e 73d0 a53e fadf 45be
00000150: 3f9a 08c0 c5f9 1ebf a664 cabf 0f92 a6be
00000160: d4f3 483f e352 3abf e4c2 313e 353e aebe
00000170: 368b 643f 08c1 1bbd 1cd3 f0be bb85 663f
00000180: 15ac e23e 2e8c 2a3e b342 ebbd 5cf8 2cbf
00000190: 9be4 af3e a219 71be f459 c4be 1469 03be
000001a0: aa2d 93bf 97b8 063f e8ac 9f3e 7299 f1be
000001b0: 0aac 413e 2b99 113e a404 583e 9780 1ebe
000001c0: 4506 293d 533c 9f3e fedb 37be 9638 873e
000001d0: 924f 04bf 7eb5 8ebe 1e89 e1bd d6ab 7ebe
000001e0: a649 813d 5de4 b73e 2070 d33e 6a18 18be
000001f0: fd63 053e 5da2 603e 472e 35bf 3f26 80be
00000200: 0369 f83e e2d1 83be 6aa6 b9be fc1a af3e
00000210: 4966 29bd 1004 febd 0c44 733f d445 12bf
00000220: 99ec 40bf 1949 46bf aca9 60be c984 4d3e
00000230: 8161 9cbe f1a9 153e 6e9a d33f d547 dcbe
00000240: 9bb9 033c c85c 89bf f40e 523e d87d f9bc
00000250: 2589 813d 59a8 693f f197 03bf f5dc a13f
00000260: 3b80 513c 01fd 8b3e fa82 6ebe 75c8 dc3d
00000270: e7ed b8be cceb 193e 728d d5bc 3273 d2bd
00000280: 2f08 c5bf 5a83 1f3f d74f 783f 9fcf 10be
00000290: d473 773e 4868 bf3e a204 04bd 531e 273f
000002a0: 468c cabd d544 4c3f 818f dc3e 7e11 f8be
000002b0: 5747 203f 0079 03bf 8066 c73e f4a2 2e3f
000002c0: 3401 a3be 3ace 3b3f 47f4 9a3e 4a1b 803e
000002d0: 1ddc b1be d26b 44bf 9d1c c23d cda1 a13d
000002e0: dcfd 06bf 1955 093f 62d2 80be 1bbf 1cbe
000002f0: 24c0 873e 078c dfbe 6061 ac3e 4fdd 9e3e
00000300: 696a 3d3f 227e 96be c102 a13f 303c 4b3f
00000310: 3955 7d3e 86df 993e 1c86 79bd da7d 0c3f
00000320: d53c 393f 623f dd3c ebca 03bf cac3 5abf
00000330: 3056 0abf 600c ddbe 5bd6 ccbe 0648 adbf
00000340: f173 90be 8831 c93f ad4e 373e 3191 e83e
00000350: 9ce7 9c3f 33b2 4dbf 22ce 81be 616b a9bf
00000360: 5843 bebe 41dd 333f 5453 5bbd 31d2 8ebf
00000370: 5d30 4ebf 6cf4 8bbe ee8c 103f 4710 83bf
00000380: e4a3 0fbf 8bd3 4cbe a84f 1abd 8243 68be
00000390: 42cb 983f 47c6 893e 980f 373f a7b5 36bc
000003a0: 0d5a debd 9ee6 ec3e 48af 47bf 039f 63bf
000003b0: 49c5 49be 0038 893f 10f4 08bf d737 813e
000003c0: 43ba 173e 0089 a13e c94f f33e 1540 423d
000003d0: b1e4 05bf f103 6e3f 0c03 aa3f 8599 ae3e
000003e0: 34d0 fdbf e985 34bf 3044 73be 806f 303f
000003f0: 49f0 f63e db72 ce3d 768e 0c3f 80d2 1dbe

t_modules.0.layers.0.0.qkv.weight f4 [96, 32]
0.09615252 -0.13868958 -0.3526458 0.047848646 0.018642247 -0.041865956 0.09226212 -0.1343758
0.12856694 0.024538957 -0.19096135 0.13083968 0.090389 0.13046977 -0.3807352 -0.09912491
0.31627077 -0.030002631 -0.2327607 -0.34862792 0.2838405 0.26137674 -0.031700447 -0.0073346714
0.15685943 0.033392794 -0.034870934 0.012745935 0.018858304 0.06465989 0.091398925 -0.06331415
-0.33438787 0.2119332 0.4133818 -0.22207122 0.06494902 0.055222027 0.064151965 0.04629549
-0.24289815 0.0021947646 0.07987745 -0.015311967 -0.17340502 -0.21818529 0.4013485 0.10155433
-0.19883469 0.22074667 0.27278587 0.3797227 -0.389249 -0.34677005 -0.03902588 -0.04977923
-0.22588664 0.10284338 -0.0332636 -0.025534136 0.008533442 -0.3354734 -0.25351316 0.13009022
0.090565346 -0.03492674 -0.18304941 0.07993236 -0.06898057 0.21582243 0.010562938 -0.20386796
0.048202198 -0.21038586 0.009148242 0.0002715781 0.030680263 0.03665149 -0.35164902 -0.19261096
0.02789877 0.004238284 -0.09511573 -0.04789817 0.036524657 -0.0020753068 -0.055966076 0.2331712
0.12064518 0.17376794 0.07000737 0.042585157 -0.14579044 0.08884319 0.10396137 -0.0498011
-0.0040505435 -0.07324567 -0.1581708 0.06949006 0.045450814 -0.050308768 0.017642992 -0.029634446
-0.0730561 0.062826164 0.045661055 0.09789251 -0.00073086034 0.083444215 0.16727044 0.18011491
0.030066038 -0.12158895 -0.09024725 -0.07426268 0.066111855 0.20221855 -0.068665154 -0.10478949
-0.02037723 -0.20055169 -0.110314496 -0.020232059 -0.006429507 -0.11476785 0.059338227 0.011342871
-0.06665873 0.056292493 0.18246824 0.03147339 -0.047540158 0.13263658 -0.0020687298 0.042135328
0.011311677 -0.09324994 0.1260241 -0.088036045 -0.079377994 0.013337538 -0.011210845 -0.17883393
0.04377493 0.13149449 0.10984116 0.05466337 -0.065421686 -0.11076735 -0.06751879 0.20451386
0.013431925 0.19710924 0.19928639 -0.044042785 -0.076134406 0.048071783 0.09007638 -0.1093564
0.030439151 -0.061202098 -0.07353966 0.080709204 -0.025260719 0.09222716 -0.014094871 -0.0139039
-0.15691696 0.052321546 0.22733691 -0.09209466 -0.0077174106 -0.12593473 0.10625152 0.16382861
-0.054863747 -0.05965128 0.036224525 -0.12406303 0.07874314 0.18640256 0.03540434 -0.04300625
0.08836874 0.03489968 0.2778455 0.016989414 0.054722283 0.018667025 -0.062247876 -0.106260926
0.2659726 -0.036217414 -0.29044694 0.1498254 0.02115881 0.04986333 0.050083287 -0.08560226
0.14321195 -0.11644626 -0.07686775 0.048065517 -0.0060792416 0.10687124 -0.027590431 -0.03504889
0.050300676 -0.22645003 -0.15289585 -0.13516897 0.14334616 0.269043 0.04662243 -0.019145459
0.081061654 -0.18292436 0.016477212 0.026372958 -0.043849736 0.09846434 0.11387289 -0.018782092
0.102874 0.005518821 0.08615311 0.0012104141 -0.04662104 0.15585583 0.018074634 -0.07044111
0.111847505 -0.11962158 -0.06360734 -0.04593995 0.02654833 0.063476585 -0.19571656 -0.262962
-0.058056243 0.03655103 -0.004218238 0.11741329 -0.026254637 -0.06534448 -0.09507527 0.20925114
-0.0152737275 0.16063696 -0.031219296 0.12150414 -0.08095468 0.26172766 0.16599932 -0.03253666
00000000: 9deb c43d a404 0ebe fe8d b4be f1fc 433d
00000010: a0b7 983c a37b 2bbd ecf3 bc3d cf99 09be
00000020: 0da7 033e ec05 c93c 5f8b 43be d6fa 053e
00000030: de1d b93d de99 053e b9ef c2be 0002 cbbd
00000040: 3eee a13e 14c8 f5bc d258 6ebe 5c7f b2be
00000050: 8b53 913e 2cd3 853e 54d8 01bd af57 f0bb
00000060: c29f 203e e2c6 083d d3d4 0ebd 53d4 503c
00000070: bb7c 9a3c 686c 843d 5c2f bb3d d9aa 81bd
00000080: e334 abbe 0405 593e c7a6 d33e a366 63be
00000090: fe03 853d 7e30 623d 1b62 833d 57a0 3d3d
000000a0: 4bba 78be 0ad6 0f3b ca96 a33d 0bdf 7abc
000000b0: 1691 31be f76b 5fbe 8d7d cd3e b7fb cf3d
000000c0: 529b 4bbe 6a0b 623e 97aa 8b3e 046b c23e
000000d0: a54b c7be d88b b1be 9ad9 1fbd 4ee5 4bbd
000000e0: d44e 67be 8d9f d23d 6a3f 08bd f72c d1bc
000000f0: dacf 0b3c 2bc3 abbe 7acc 81be 5f36 053e
00000100: 537a b93d 570f 0fbd 4e71 3bbe 94b3 a33d
00000110: af45 8dbd 8e00 5d3e 2c10 2d3c c3c2 50be
00000120: ab6f 453d 646f 57be 82e2 153c 9862 8e39
00000130: 2d55 fb3c df1f 163d 570b b4be cf3b 45be
00000140: f68b e43c 4ee1 8a3b 09cc c2bd df30 44bd
00000150: e19a 153d df01 08bb af3c 65bd 6ec4 6e3e
00000160: d214 f73d 39f0 313e 0660 8f3d c66d 2e3d
00000170: 174a 15be 6bf3 b53d b3e9 d43d 3dfc 4bbd
00000180: 6cba 84bb d301 96bd 87f7 21be ce50 8e3d
00000190: a22a 3a3d 9110 4ebd 0988 903c f0c3 f2bc
000001a0: 709e 95bd 01ab 803d 1607 3b3d de7b c83d
000001b0: 3597 3fba cde4 aa3d f148 2b3e 0b70 383e
000001c0: 0d4d f63c a103 f9bd 8dd3 b8bd 0817 98bd
000001d0: a765 873d 6112 4f3e 51a0 8cbd df9b d6bd
000001e0: 26ee a6bc 6c5d 4dbe 91ec e1bd b4bd a5bc
000001f0: 9dae d2bb 680b ebbd a40c 733d 73d7 393c
00000200: 5f84 88bd f592 663d f4d8 3a3e 3eea 003d
00000210: 78b9 42bd e2d1 073e 8793 07bb 1896 2c3d
00000220: 9d54 393c d3f9 bebd 760c 013e 3e4c b4bd
00000230: ee90 a2bd b085 5a3c b1ad 37bc 3e20 37be
00000240: 574d 333d 7ea6 063e 67f4 e03d b3e6 5f3d
00000250: cefb 85bd fed9 e2bd 4b47 8abd 156c 513e
00000260: 9411 5c3c 01d7 493e bb11 4c3e 3566 34bd
00000270: 5bec 9bbd ebe6 443d f779 b83d 40f6 dfbd
00000280: 875b f93c 0daf 7abd f69b 96bd de4a a53d
00000290: 91ef cebc 98e1 bc3d 2cee 66bc 2fcd 63bc
000002a0: d7ae 20be 1e4f 563d 02cb 683e 209c bcbd
000002b0: 55e2 fcbb 09f5 00be 669a d93d b0c2 273e
000002c0: cfb8 60bd e754 74bd 2b60 143d c214 febd
000002d0: 1544 a13d 50e0 3e3e 2404 113d 5227 30bd
000002e0: acfa b43d f8f2 0e3d c441 8e3e 622d 8b3c
000002f0: 7924 603d 97eb 983c a1f7 7ebd 549f d9bd
00000300: 902d 883e b658 14bd 76b5 94be d46b 193e
00000310: 3e55 ad3c 7e3d 4c3d 2224 4d3d 3d50 afbd
00000320: 27a6 123e 607b eebd d76c 9dbd 59e0 443d
00000330: 6034 c7bb 4fdf da3d 5405 e2bc 6d8f 0fbd
00000340: 1508 4e3d 84e2 67be bb90 1cbe bc69 0abe
00000350: 56c9 123e 01c0 893e 29f7 3e3d f0d6 9cbc
00000360: a703 a63d 8650 3bbe 38fb 863c 1a0c d83c
00000370: c89b 33bd aca7 c93d 3136 e93d e7dc 99bc
00000380: 9baf d23d 3ad7 b43b 0b71 b03d c2a6 9e3a
00000390: b4f5 3ebd ac98 1f3e 4111 943c 6e43 90bd
000003a0: 4e10 e53d 29fc f4bd 9144 82bd 872b 3cbd
000003b0: e27b d93c 0300 823d ec69 48be f5a2 86be
000003c0: 62cc 6dbd 88b6 153d 2539 8abb 6176 f03d
000003d0: f713 d7bc 54d3 85bd d3b6 c2bd ee45 563e
000003e0: a83e 7abc 047e 243e 9cbf ffbc 2ad7 f83d
000003f0: 91cb a5bd 2b01 863e bafb 293e 2945 05bd

t_modules.0.layers.0.0.proj.weight f4 [32, 32]
0.37335986 0.13737984 0.06322555 -0.11224604 -0.48716697 -0.36182925 -0.26969972 0.3197578
-0.45767948 -0.041084643 0.50863194 -0.36243933 0.14695029 0.43994194 -0.03359155 0.47007
0.34179845 0.2477888 -0.09086719 0.15336265 0.37437746 0.026493816 0.056263383 0.16648722
0.19667742 0.22442847 0.035607442 0.17657237 -0.020410359 -0.010880222 -0.43508765 0.038577165
-0.07457224 -0.057501256 0.14425905 -0.05770527 0.21062979 0.31406358 -0.14119303 -0.1736443
-0.24297991 -0.14009391 -0.31097522 0.03712603 -0.075001724 -0.12983213 0.17020456 -0.049001988
0.11996703 -0.36071494 -0.18889067 -0.05497801 -0.21022582 0.24092369 0.19460064 -0.22173642
-0.33701077 0.16898718 -0.14922784 0.009072124 -0.18248945 0.3708422 -0.17569597 -0.1401824
0.01185786 0.08762864 -0.08261238 -0.15973248 -0.26048455 -0.19000274 -0.1424788 -0.026348202
-0.004871492 0.03534172 -0.08614246 -0.17378873 0.008174374 0.15840875 -0.16078413 -0.09538539
-0.018396795 -0.12577964 0.079760976 0.41847223 -0.033724904 -0.16876394 0.15762506 -0.055731513
0.16151464 0.005388309 0.16280347 -0.07542898 0.03288692 -0.064425334 -0.11995186 -0.10890514
-0.0028909051 0.21674801 0.05611764 -0.29595935 -0.03668045 -0.45833912 -0.34529 -0.18794128
-0.3131474 0.026427966 -0.25852248 0.3659222 0.1836257 0.22317941 0.08630577 -0.17788713
0.08090069 0.07210614 0.22443898 0.44774076 0.10549762 0.014877399 0.2615041 -0.0970838
0.22525123 0.0132380845 0.1828493 -0.24617198 0.076084524 -0.023418402 -0.11966076 0.13996556
-0.01406148 -0.08810577 0.12683699 0.024641411 0.30039915 0.1146428 0.26825306 -0.03955856
-0.13000421 -0.011025284 0.06408099 -0.10845316 -0.026233008 0.10138007 0.08413113 0.10060724
0.14237568 -0.049604353 -0.13821615 -0.24517243 -0.25552082 0.044631083 -0.08287703 -0.012512868
0.013327883 0.044989727 -0.17232004 -0.02274228 0.012479741 -0.05587646 0.06746634 0.021138981
-0.13159223 -0.115300894 0.10469886 0.30438387 0.4245196 0.38409707 0.21296835 -0.34334823
0.14756726 -0.07064669 -0.33114913 0.273536 0.21366765 -0.29325178 -0.049643543 0.01869916
-0.061682317 -0.0047938395 -0.31785983 -0.17217147 0.07814831 0.07296093 -0.34327105 0.11066942
0.1050237 -0.013511048 -0.42400277 0.14687976 0.10436249 -0.015357875 0.1214456 0.2032478
0.07400235 -0.03905445 -0.029650312 0.08729895 0.08578078 0.14821684 0.1399506 -0.06839267
-0.13716796 0.0686345 0.04756741 -0.0010654283 0.003873996 -0.051568713 -0.10067501 -0.06850131
-0.070068344 0.14388147 -0.031058192 -0.24011472 -0.066803224 0.093601346 -0.03776784 0.10762467
-0.10670194 0.13921674 -0.037973512 0.106130116 0.021237984 0.043014158 -0.031198986 0.05063829
-0.30682722 -0.050366335 -0.15591902 0.20240884 0.3887391 0.29655942 0.0821883 -0.056755826
-0.15334201 -0.027063105 -0.0051953336 -0.25644526 0.25359493 0.15555884 0.1111189 8.1657294e-05
-0.3757436 0.15592204 -0.33636478 -0.3317382 -0.04937174 -0.07744317 -0.2691076 0.2569877
0.05342875 -0.35999107 -0.02846549 0.26702654 -0.30463138 -0.011564913 0.13688639 -0.07956037
00000000: 0629 bf3e 4dad 0c3e 667c 813d 40e1 e5bd
00000010: f36d f9be af41 b9be 1516 8abe 4bb7 a33e
00000020: f754 eabe 5f48 28bd b435 023f a691 b9be
00000030: 237a 163e 1240 e13e 4b97 09bd 04ad f03e
00000040: 3500 af3e 59bc 7d3e 9418 babd 190b 1d3e
00000050: 67ae bf3e 8f09 d93c 6f74 663d a07b 2a3e
00000060: ce65 493e 94d0 653e 1cd9 113d 63cf 343e
00000070: a033 a7bc f542 32bc cfc3 debe 1703 1e3d
00000080: 55b9 98bd 7086 6bbd a5b8 133e 5c5c 6cbd
00000090: 56af 573e f1cc a03e e894 10be d0cf 31be
000000a0: bacf 78be c774 0fbe 2538 9fbe 7711 183d
000000b0: 819a 99bd b7f2 04be 1b4a 2e3e 4fb6 48bd
000000c0: 46b1 f53d a1af b8be 8e6c 41be 9f30 61bd
000000d0: 7045 57be b3b4 763e 6445 473e df0e 63be
000000e0: ad8c acbe fa0a 2d3e 2fcf 18be 3fa3 143c
000000f0: 84de 3abe 07df bd3e a5e9 33be fa8b 0fbe
00000100: 7847 423c a576 b33d ae30 a9bd e990 23be
00000110: 3b5e 85be 1490 42be f6e5 11be 2fd8 d7bc
00000120: 09a1 9fbb 7bc2 103d 756b b0bd acf5 31be
00000130: cfed 053c e735 223e 98a4 24be 6a59 c3bd
00000140: e0b4 96bc 61cc 00be b959 a33d fe41 d63e
00000150: 2023 0abd 74d0 2cbe 7768 213e ba46 64bd
00000160: 1864 253e 6990 b03b f4b5 263e 827a 9abd
00000170: 6fb4 063d 6ef1 83bd 52a9 f5bd a809 dfbd
00000180: 5775 3dbb 31f3 5d3e 9cdb 653d fc87 97be
00000190: 3d3e 16bd 6dab eabe dac9 b0be ae73 40be
000001a0: db54 a0be 767f d83c 0f5d 84be 285a bb3e
000001b0: 6008 3c3e 2589 643e 14c1 b03d 0b28 36be
000001c0: 43af a53d 62ac 933d 55d3 653e 473e e53e
000001d0: 230f d83d 56c0 733c dee3 853e dfd3 c6bd
000001e0: 42a8 663e 8de4 583c d93c 3b3e 8214 7cbe
000001f0: 34d2 9b3d f3d7 bfbc b310 f5bd 2253 0f3e
00000200: 1f62 66bc cc70 b4bd 8ee1 013e c9dc c93c
00000210: ebcd 993e d8c9 ea3d 7758 893e 2808 22bd
00000220: d31f 05be 65a3 34bc e53c 833d b11c debd
00000230: 9be6 d6bc 5ba0 cf3d f14c ac3d 2b0b ce3d
00000240: eeca 113e ef2d 4bbd 8988 0dbe 7b0e 7bbe
00000250: a0d3 82be 15cf 363d 6fbb a9bd c602 4dbc
00000260: 315d 5a3c 2647 383d aa74 30be 054e babc
00000270: d477 4c3c b7de 64bd cb2b 8a3d a82b ad3c
00000280: 1dc0 06be e022 ecbd 5b6c d63d 34d8 9b3e
00000290: a25a d93e 5fa8 c43e 6014 5a3e 57cb afbe
000002a0: df1b 173e 36af 90bd 618c a9be e90c 8c3e
000002b0: b1cb 5a3e 1925 96be 0757 4bbd fb2e 993c
000002c0: 99a6 7cbd a415 9dbb 86be a2be b84d 30be
000002d0: 390c a03d 8a6c 953d 39c1 afbe a6a6 e23d
000002e0: aa16 d73d 715d 5dbc e416 d9be a667 163e
000002f0: 00bc d53d 999f 7bbc 79b8 f83d 3120 503e
00000300: 8b8e 973d 8ff7 1fbd 36e5 f2bc cbc9 b23d
00000310: d5ad af3d 28c6 173e 364f 0f3e 7511 8cbd
00000320: c275 0cbe 3f90 8c3d 0bd6 423d d7a5 8bba
00000330: dee2 7d3b b739 53bd b32e cebd 6a4a 8cbd
00000340: fe7f 8fbd aa55 133e c06d febc a2e0 75be
00000350: 21d0 88bd 10b2 bf3d 73b2 1abd 536a dc3d
00000360: 8c86 dabd d58e 0e3e 1d8a 1bbd bf5a d93d
00000370: 48fb ad3c 9d2f 303d 0495 ffbc 186a 4f3d
00000380: 7518 9dbe ee4c 4ebd 3ca9 1fbe 4344 4f3e
00000390: d008 c73e a3d6 973e 5752 a83d cc78 68bd
000003a0: b005 1dbe 72b3 ddbc 9e3d aabb cb4c 83be
000003b0: 32d7 813e d14a 1f3e 4e92 e33d 6d3f ab38
000003c0: 7761 c0be 07aa 1f3e 0138 acbe 97d9 a9be
000003d0: 063a 4abd 869a 9ebd 79c8 89be e493 833e
000003e0: 1bd8 5a3d c050 b8be 7630 e9bc b4b7 883e
000003f0: a5f8 9bbe c37a 3dbc f22b 0c3e 8cf0 a2bd

t_modules.0.layers.0.0.proj.bias f4 [32]
0.012931367 0.036331516 0.075692795 0.014786753 0.16726856 0.08651253 0.0530262 0.055284027
0.11356776 0.032697357 0.040732577 -0.15372628 -0.11349662 -0.14803593 0.05461564 -0.11672091
0.1194945 0.019926844 0.13531166 0.05314498 -0.03537133 -0.062026173 -0.033549488 0.17853652
-0.06185775 0.01237092 0.057854876 0.1212547 -0.019636588 -0.0025934707 -0.123644225 0.1332488
00000000: 16de 533c 5bd0 143d d304 9b3d 2344 723c
00000010: 7348 2b3e 7b2d b13d 0032 593d 8171 623d
00000020: 3796 e83d aaed 053d 34d7 263d 6c6a 1dbe
00000030: ea70 e8bd bb96 17be a6b4 5f3d 5f0b efbd
00000040: 88b9 f43d 9f3d a33c 248f 0a3e 8dae 593d
00000050: 87e1 10bd 280f 7ebd 306b 09bd 47d2 363e
00000060: 8d5e 7dbd 66af 4a3c 3cf9 6c3d 6254 f83d
00000070: e9dc a0bc 38f7 29bb 2f39 fdbd 6072 083e

t_modules.0.layers.0.1.norm.weight f4 [32]
0.97299457 1.0405957 1.1281408 0.8596299 0.97162277 0.88340586 0.8903718 1.0256755
1.0189813 0.8818019 1.0363178 0.93578005 0.88170284 0.853281 0.98007846 1.0937945
1.0026886 1.1413128 1.0307242 0.9580888 1.1313978 0.9544193 0.75901514 1.0258291
0.79689384 1.1609753 0.95123184 1.0901651 0.9998705 1.0766777 0.9501729 1.1454792
00000000: 2c16 793f 3d32 853f eb66 903f b510 5c3f
00000010: 45bc 783f e326 623f 68ef 633f 5649 833f
00000020: fb6d 823f c5bd 613f 10a6 843f 488f 6f3f
00000030: 47b7 613f a070 5a3f 6ce6 7a3f 7501 8c3f
00000040: 1a58 803f 8a16 923f c5ee 833f 4f45 753f
00000050: a5d1 903f d354 743f d14e 423f 5e4e 833f
00000060: 3c01 4c3f d79a 943f ee83 733f 888a 8b3f
00000070: 83f7 7f3f 93d0 893f 883e 733f 109f 923f

t_modules.0.layers.0.1.norm.bias f4 [32]
-0.12481749 -0.06794301 -0.10308516 0.05940613 0.1616815 -0.094203375 0.07035581 0.03657657
0.07655055 -0.11749297 -0.018197743 -0.07469725 0.13487612 -0.17384472 0.038681753 -0.04701072
0.013010126 0.007880605 -0.04060329 0.04635665 0.035537288 0.022344915 0.055964693 -0.007133772
-0.14241695 0.05794268 -0.14876895 0.1264134 -0.023089126 -0.14311452 -0.061196376 0.040149294
00000000: 50a0 ffbd b425 8bbd 501e d3bd d853 733d
00000010: d68f 253e b3ed c0bd b516 903d 50d1 153d
00000020: 89c6 9c3d 27a0 f0bd 6f13 95bc dffa 98bd
00000030: f71c 0a3e 5a04 32be c270 1e3d 508e 40bd
00000040: 6c28 553c a71d 013c a34f 26bd 78e0 3d3d
00000050: 8c8f 113d af0c b73c 3c3b 653d 6bc2 e9bb
00000060: c0d5 11be 4e55 6d3d e356 18be 8472 013e
00000070: 6825 bdbc 9d8c 12be 0da9 7abd 9673 243d

t_modules.0.layers.0.1.fn.net.0.weight f4 [64, 32]
-0.043582134 0.021330694 -0.16172457 0.08080014 -0.02788306 -0.22251795 0.18623775 0.0012062131
-0.024538152 0.09981932 -0.12548381 0.27536786 -0.02103533 0.033665184 -0.26207548 0.12207665
0.205122 0.1194604 -0.06440243 -0.20647234 0.3662499 -0.017402023 -0.09617466 -0.20036261
-0.028190777 0.04349142 -0.08160136 0.11879202 0.08212751 0.12721063 -0.21669608 -0.03792864
0.029074201 0.27236626 0.09741494 -0.08318743 -0.048835497 -0.34940797 0.027586399 0.08913174
0.111628406 -0.055284172 -0.19336034 0.23840702 0.05177827 0.15436457 -0.042746715 -0.2745879
-0.13427909 0.20936379 -0.07455133 0.16543849 -0.0048749377 0.021996025 0.030396039 0.13055451
-0.09617769 -0.04063832 0.050278183 -0.17292477 0.17817748 0.28243634 -0.120230265 -0.05767378
-0.1809329 -0.17620179 -0.042414814 0.01047863 -0.07094729 -0.106261194 -0.0035094388 -0.036026586
0.060144275 0.046529856 -0.022128139 -0.20870699 -0.08749873 0.060212854 -0.09136197 -0.033104904
0.03442979 0.18374133 0.17031783 -0.01951827 0.019798689 -0.07205775 -0.026551517 0.067861244
-0.14798404 0.15105513 -0.1466281 0.35363752 0.098905966 0.023867672 0.15350127 0.06010038
-0.20919023 -0.061648417 -0.08544022 0.09553493 0.041715994 -0.15367733 0.08597164 -0.010561264
0.20714958 -0.14414167 0.0070220875 -0.024684979 -0.077139005 0.13337177 0.1397902 0.12168167
-0.15960185 -0.21284004 -0.14059342 -0.055699475 0.03064717 0.13419017 0.13315095 -0.041252088
0.16071527 0.03715372 0.048965435 0.056733318 0.056143224 -0.04379545 -0.13126194 0.022767067
0.27108583 -0.35156882 0.2616569 0.023582513 -0.28307202 0.0990455 -0.2038572 0.06526038
0.07704675 -0.17315383 0.20989387 0.024214085 0.12149296 0.21093999 -0.20264164 0.09208032
-0.08354955 -0.04508024 0.007864409 -0.059533667 0.030926242 -0.10466348 -0.11770478 0.1486484
-0.087553315 -0.21350667 -0.028557936 0.018816074 -0.10818387 0.3989872 0.09519868 -0.1637243
-0.12317103 0.009418206 -0.22922261 0.009140717 -0.018206555 0.045756817 0.021069203 0.085319325
0.025195431 0.22784628 -0.16651487 0.021959063 0.07731045 0.01774538 -0.24183863 -0.1788573
0.25255567 0.045876615 -0.2218376 -0.08331308 0.116375156 -0.060493503 0.1388949 -0.04049333
0.04888181 0.1035951 0.07720784 0.01946485 0.012728224 -0.008667743 -0.042564325 0.070432656
0.18846153 0.21905342 0.12872405 -0.05969218 0.055380534 0.21091999 0.06599877 -0.021243539
-0.15850791 0.11601929 0.15211838 0.2059179 -0.19321477 0.14878054 -0.028437564 0.043780465
0.037181925 -0.18535423 0.023052935 -0.039882805 -0.08948747 0.16764495 0.037934538 -0.004524352
0.06558338 0.07972287 -0.20624274 -0.06263397 -0.040852483 -0.11803631 -0.18656002 -0.12076526
0.2595085 -0.084298424 0.4050096 0.22973017 -0.08629838 -0.056025848 -0.012424313 0.08788005
0.3759211 -0.34067446 -0.288093 -0.16822194 0.028447077 -0.048996802 -0.2840285 -0.2628662
0.21571846 0.25887227 0.01354496 0.017125996 0.40607715 0.022343773 0.15512045 -0.27043438
0.12435953 0.020422878 0.07997085 -0.3105223 -0.22619154 0.24598008 0.34081054 -0.4349509
00000000: 2e83 32bd b5bd ae3c 209b 25be 8b7a a53d
00000010: 046b e4bc bfdb 63be 1cb5 3e3e cc19 9e3a
00000020: 3c04 c9bc 126e cc3d d47e 00be 04fd 8c3e
00000030: 4952 acbc 81e4 093d c22e 86be 5303 fa3d
00000040: 800b 523e a7a7 f43d 6ce5 83bd 7c6d 53be
00000050: 1b85 bb3e b08e 8ebc 38f7 c4bd db2b 4dbe
00000060: 58f0 e6bc 0f24 323d 9d1e a7bd 3b49 f33d
00000070: 7832 a83d 8143 023e 94e5 5dbe 105b 1bbd
00000080: 052d ee3c 9773 8b3e 7c81 c73d 2c5e aabd
00000090: bb07 48bd 9ae5 b2be dffc e13c b48a b63d
000000a0: 6f9d e43d a871 62bd 4100 46be f820 743e
000000b0: 7415 543d bf11 1e3e 2e17 2fbd c996 8cbe
000000c0: 7580 09be 7663 563e 5eae 98bd b568 293e
000000d0: f1bd 9fbb 0231 b43c 1d01 f93c 15b0 053e
000000e0: cff8 c4bd 5e74 26bd 7ff0 4d3d 3113 31be
000000f0: 2874 363e 7f9b 903e 493b f6bd 573b 6cbd
00000100: 7946 39be 3e6e 34be 28bb 2dbd 8fae 2b3c
00000110: d04c 91bd 789f d9bd 9dfe 65bb 9d90 13bd
00000120: d859 763d 1796 3e3d 1246 b5bc 49b7 55be
00000130: 8932 b3bd c1a1 763d fc1b bbbd 0299 07bd
00000140: 4006 0d3d b026 3c3e cc67 2e3e c7e4 9fbc
00000150: dc30 a23c 0393 93bd 9182 d9bc d6fa 8a3d
00000160: 2189 17be 32ae 1a3e ad25 16be fa0f b53e
00000170: 368f ca3d 2386 c33c 702f 1d3e d12b 763d
00000180: f735 56be 0d83 7cbd 48fb aebd d1a7 c33d
00000190: 64de 2a3d 975d 1dbe e611 b03d 2709 2dbc
000001a0: 051f 543e e099 13be 8a19 e63b 2738 cabc
000001b0: 0efb 9dbd 9c92 083e 2a25 0f3e 3d34 f93d
000001c0: ab6e 23be bdf2 59be b9f7 0fbe 2225 64bd
000001d0: c60f fb3c 2669 093e b958 083e f3f7 28bd
000001e0: 8b92 243e 802e 183d fb8f 483d 3261 683d
000001f0: 70f6 653d dc62 33bd 8869 06be 0082 ba3c
00000200: c3cb 8a3e d400 b4be e5f7 853e 1d30 c13c
00000210: d1ee 90be 5ed8 ca3d f1bf 50be 3ca7 853d
00000220: b0ca 9d3d 3d4f 31be 6bee 563e 9e5c c63c
00000230: 4dd1 f83d a700 583e 4a81 4fbe 9b94 bc3d
00000240: 071c abbd 0fa6 38bd b9d9 003c 93d9 73bd
00000250: 0859 fd3c ce59 d6bd 340f f1bd 4937 183e
00000260: 274f b3bd 7ea1 5abe 55f2 e9bc 2b24 9a3c
00000270: 818f ddbd 0d48 cc3e 87f7 c23d 58a7 27be
00000280: 1841 fcbd d24e 1a3c 55b9 6abe f2c2 153c
00000290: ea25 95bc 806b 3b3d 5299 ac3c e6bb ae3d
000002a0: a666 ce3c 8950 693e e082 2abe 7ee3 b33c
000002b0: f154 9e3d c25e 913c 8ca4 77be 5e26 37be
000002c0: fa4e 813e 1ee9 3b3d 6529 63be 0ca0 aabd
000002d0: 1956 ee3d 09c8 77bd 773a 0e3e 56dc 25bd
000002e0: 4b38 483d ab29 d43d 251f 9e3d c074 9f3c
000002f0: 0a8a 503c 2603 0ebc ee57 2ebd ff3e 903d
00000300: 0ffc 403e 8a4f 603e 3dd0 033e ca7f 74bd
00000310: b3d6 623d 69fb 573e 5d2a 873d ee06 aebc
00000320: e64f 22be 869b ed3d ecc4 1b3e 24dc 523e
00000330: 18da 45be ed59 183e e5f5 e8bc 2553 333d
00000340: 134c 183d 80cd 3dbe 82d9 bc3c 275c 23bd
00000350: 3545 b7bd 1eab 2b3e 3f61 1b3d 0441 94bb
00000360: 9450 863d be45 a33d 4c31 53be 3d46 80bd
00000370: ef54 27bd 05bd f1bd 9709 3fbe c753 f7bd
00000380: 4cde 843e a7a4 acbd 6b5d cf3e 633e 6b3e
00000390: 34bd b0bd 5c7b 65bd 598f 4bbc 75fa b33d
000003a0: bb78 c03e e26c aebe ed80 93be 5f42 2cbe
000003b0: d809 e93c dfb0 48bd 2f6c 91be 6696 86be
000003c0: 4de5 5c3e e88a 843e aeeb 5d3c d14b 8c3c
000003d0: 58e9 cf3e 4a0a b73c e5d7 1e3e 6076 8abe
000003e0: 36b0 fe3d e14d a73c c2c7 a33d c7fc 9ebe
000003f0: c19e 67be 34e2 7b3e b87e ae3e e2b1 debe

t_modules.0.layers.0.1.fn.net.0.bias f4 [64]
-0.099285126 -0.10072993 -0.1360605 -0.08062642 -0.20891716 -0.075542085 -0.20123678 -0.012418509
0.05986885 -0.025205715 -0.06286208 0.13614239 0.015382069 -0.010509467 -0.08170876 -0.1906181
-0.063341565 -0.07987871 -0.13663414 -0.08096825 -0.09973202 -0.23334363 -0.05900667 -0.21136312
0.008742049 -0.07372464 -0.020679645 -0.14340746 -0.13549301 -0.021584092 -0.19737187 -0.25011134
-0.16211802 -0.14624026 0.021948682 -0.017459814 -0.082282074 -0.26635027 -0.02054003 -0.028561862
-0.061480947 -0.06076313 -0.1085944 -0.15678401 -0.16804773 -0.0036819063 -0.21696772 -0.039610878
0.07789132 0.07818602 0.0112489695 -0.18118107 -0.15772086 -0.13487537 -0.15553063 -0.18990096
-0.01592292 0.017177036 -0.044146415 -0.2238618 -0.09444923 -0.082562484 0.11912381 -0.042095788
00000000: 0056 cbbd 7e4b cebd 7253 0bbe 771f a5bd
00000010: 61ee 55be cfb5 9abd 0411 4ebe 0177 4bbc
00000020: 0a39 753d 377c cebc d6bd 80bd e968 0b3e
00000030: 1305 7c3c e62f 2cbc ec56 a7bd 6431 43be
00000040: 39b9 81bd 7397 a3bd d2e9 0bbe afd2 a5bd
00000050: 4d40 ccbd a2f1 6ebe fab0 71bd 936f 58be
00000060: d03a 0f3c f2fc 96bd 5c68 a9bc 68d9 12be
00000070: aebe 0abe 1fd1 b0bc da1b 4abe 980e 80be
00000080: 4402 26be 02c0 15be b9cd b33c e207 8fbc
00000090: 8183 a8bd 105f 88be 9143 a8bc 91fa e9bc
000000a0: 72d3 7bbd c3e2 78bd be66 debd fd8b 20be
000000b0: b414 2cbe 234c 71bb c92c 5ebe 043f 22bd
000000c0: 7c85 9f3d fe1f a03d 994d 383c 8887 39be
000000d0: 9481 21be c51c 0abe 6c43 1fbe 6675 42be
000000e0: c970 82bc dbb6 8c3c dfd2 34bd 073c 65be
000000f0: 996e c1bd 8516 a9bd 2ff7 f33d a26c 2cbd

t_modules.0.layers.0.1.fn.net.3.weight f4 [32, 64]
-0.0785486 -0.13332315 0.11473089 0.026231345 -0.21048787 -0.09117149 -0.18003292 -0.0029330845
-0.09033442 0.039478075 -0.07120484 -0.20112605 -0.11050293 0.019064358 -0.0462019 -0.121629775
-0.10493012 -0.015746523 -0.24170317 0.10437892 -0.12604587 -0.15282264 -0.18543519 -0.009682268
0.009202022 -0.09567815 0.048377138 -0.12090507 0.0789147 -0.10278288 -0.06377088 0.04489898
-0.014864135 0.068610646 0.013675201 -0.10160975 0.024366984 -0.05977786 0.015284198 -0.020811627
0.04941401 -0.013476651 0.09324688 -0.14388967 0.1074023 -0.090896055 -0.0449825 -0.033531453
0.054978084 0.11243631 0.13857548 0.14492907 -0.070815235 -0.09108084 0.104482025 0.17819235
-0.049491808 -0.018823575 -0.01706059 -0.045337826 -0.04375233 -0.07936146 0.0058156773 -0.056300856
0.11296462 -0.12902713 0.025657065 0.13661022 0.13439287 0.13812312 -0.088838115 0.2265083
0.2342062 -0.09516558 0.02546267 0.38163117 -0.09143074 0.058245037 0.06375188 -0.055387467
-0.012682708 0.15581448 -0.117604025 0.02164284 -0.08534385 0.1406527 -0.1471844 0.020841133
-0.073919594 -0.095738776 0.1013683 0.024110068 -0.055828348 -0.058454793 -0.08216369 -0.13156746
-0.000888378 0.23304936 -0.07488714 0.20731246 0.2030901 0.13745244 -0.04795619 0.047231376
0.08117337 0.095005125 0.053197745 -0.077355266 0.07904755 0.009907265 -0.15820064 0.12304882
-0.043485425 0.15222903 0.05861549 -0.18631926 0.2079417 0.022916477 0.18133675 0.018695781
0.026243892 -0.13560623 -0.058818873 0.035454016 0.053856842 0.18692738 -0.0076493076 -0.088722035
-0.00031119672 0.11149137 -0.015436998 -0.041826498 -0.09942311 0.06709248 -0.23057261 0.18713999
0.1286297 -0.05600359 0.094882734 0.09259966 0.012707931 0.09588147 -0.118336946 0.006551078
0.05862764 0.08680268 -0.012973348 0.16474336 -0.010632158 0.13969527 0.030095287 0.1290578
-0.085500725 0.04892326 -0.041943774 -0.018673087 0.04481078 -0.02363453 -0.07945949 0.023419747
0.067938104 0.14456025 0.06154726 0.06833292 0.03316601 -0.034108944 0.03021462 -0.12649776
-0.02476543 0.1459698 -0.033208143 -0.0407666 0.05922249 0.07806177 0.0843005 -0.10001205
-0.043812275 0.18216357 0.115853004 0.008909425 -0.025896505 -0.03608926 -0.003378974 -0.05065609
0.04775984 -0.035551578 -0.010664484 -0.045022175 -0.03912751 0.11856643 0.18046731 0.028170913
0.22526991 0.2066193 0.117261775 -0.039067972 0.18319365 0.12014339 0.10470725 0.093261294
-0.06591846 0.31009948 -0.08887128 0.15321034 0.037588295 0.10628706 -0.00037415395 0.1646665
-0.09464552 -0.05717864 0.055593938 0.05484521 -0.019328173 0.19699588 0.02285321 0.12851985
0.007480755 -0.018564992 0.047586042 0.2847519 0.0047300616 -0.17882954 -0.0014434196 0.03952516
-0.08318786 -0.08964944 0.35156208 0.010608675 -0.07550076 -0.05286513 0.028348517 -0.048465773
0.0075830747 0.09008688 0.20797662 0.08231764 0.13161252 0.030282123 -0.057999857 -0.00079873396
-0.079267 -0.044223383 -0.0026597704 0.09004393 0.029538441 -0.29592657 -0.088897064 -0.23399262
-0.08926097 0.04130842 0.018523443 0.12660019 0.116984814 0.00959839 0.07130437 -0.16220893
00000000: 17de a0bd dd85 08be 07f8 ea3d 1ee3 d63c
00000010: 228a 57be 1eb8 babd 8d5a 38be fe38 40bb
00000020: 4101 b9bd c3b3 213d d8d3 91bd fdf3 4dbe
00000030: 5c4f e2bd db2c 9c3c 343e 3dbd 0819 f9bd
00000040: 9ae5 d6bd dafe 80bc 0981 77be 9dc4 d53d
00000050: 2b12 01be 8a7d 1cbe b9e2 3dbe 60a2 1ebc
00000060: 14c4 163c e8f2 c3bd 1b27 463d 149d f7bd
00000070: 089e a13d d57f d2bd 4f9a 82bd fee7 373d
00000080: b388 73bc bd83 8c3d f30d 603c c618 d0bd
00000090: 459d c73c a1d9 74bd 936a 7a3c 257d aabc
000000a0: 5866 4a3d 2ccd 5cbc 38f8 be3d d057 13be
000000b0: bdf5 db3d b627 babd 923f 38bd 4758 09bd
000000c0: b330 613d 0245 e63d bbe6 0d3e 4968 143e
000000d0: 9407 91bd 9788 babd acfa d53d 0e78 363e
000000e0: ecb7 4abd e633 9abc a7c2 8bbc 28b4 39bd
000000f0: a535 33bd 4388 a2bd 7091 be3b ba9b 66bd
00000100: ff59 e73d b01f 04be c42e d23c 8de3 0b3e
00000110: 499e 093e 2670 0d3e c2f0 b5bd cbf1 673e
00000120: c0d3 6f3e 2ce6 c2bd 1797 d03c 2965 c33e
00000130: 0a40 bbbd 5992 6e3d 5890 823d f8dd 62bd
00000140: 22cb 4fbc d58d 1f3e 61da f0bd 534c b13c
00000150: c2c8 aebd 4307 103e 82b7 16be 06bb aa3c
00000160: 2863 97bd b112 c4bd 2f9a cf3d 7a82 c53c
00000170: 44ac 64bd 4b6e 6fbd 7045 a8bd 9fb9 06be
00000180: 0ae2 68ba 7ea4 6e3e 6e5e 99bd b849 543e
00000190: daf6 4f3e 55c0 0c3e b66d 44bd b075 413d
000001a0: 393e a63d 0c92 c23d e1e5 593d 706c 9ebd
000001b0: afe3 a13d 1552 223c 59ff 21be 0501 fc3d
000001c0: c61d 32bd ede1 1b3e cc16 703d 7aca 3ebe
000001d0: abee 543e 56bb bb3c 57b0 393e e527 993c
000001e0: 6efd d63c 5cdc 0abe 0fec 70bd 3b38 113d
000001f0: fe98 5c3d e469 3f3e 0ba7 fabb e6b3 b5bd
00000200: 1e28 a3b9 9655 e43d 76eb 7cbc 4352 2bbd
00000210: 589e cbbd c867 893d 3a1b 6cbe a0a1 3f3e
00000220: 81b7 033e 0564 65bd e151 c23d e4a4 bd3d
00000230: ed34 503c 815d c43d a45a f2bd 6daa d63b
00000240: 8923 703d 9ac5 b13d 2a8e 54bc 7cb2 283e
00000250: 8132 2ebc 470c 0f3e 648a f63c ba27 043e
00000260: 011b afbd c263 483d 3ccd 2bbd 4df8 98bc
00000270: 828b 373d 349d c1bc a8bb a2bd c5da bf3c
00000280: 2223 8b3d 9a07 143e fb18 7c3d 21f2 8b3d
00000290: 15d9 073d d2b5 0bbd a784 f73c a188 01be
000002a0: dfe0 cabc 1b79 153e 4305 08bd e1fa 26bd
000002b0: 4893 723d d9de 9f3d bea5 ac3d 1ed3 ccbd
000002c0: 8074 33bd 1689 3a3e 5744 ed3d d6f8 113c
000002d0: e824 d4bc 55d2 13bd c771 5dbb c37c 4fbd
000002e0: d29f 433d 889e 11bd 17ba 2ebc 2c69 38bd
000002f0: 2b44 20bd f5d2 f23d 6ccc 383e b0c6 e63c
00000300: 28ad 663e 0394 533e f126 f03d bd05 20bd
00000310: 1e97 3b3e bd0d f63d c170 d63d c7ff be3d
00000320: 4200 87bd 5cc5 9e3e 2502 b6bd 2ce3 1c3e
00000330: 2ff6 193d 08ad d93d 182a c4b9 569e 283e
00000340: 83d5 c1bd 2634 6abd 78b6 633d 5fa5 603d
00000350: 1e56 9ebc 4ab9 493e a836 bb3c b59a 033e
00000360: 1f21 f53b 9c15 98bc 95e9 423d 00cb 913e
00000370: a2fe 9a3b 171f 37be 2031 bdba 22e5 213d
00000380: 665e aabd 209a b7bd f2ff b33e 02d0 2d3c
00000390: 24a0 9abd 1b89 58bd 263b e83c 0c84 46bd
000003a0: 717b f83b 787f b83d d3f7 543e 2796 a83d
000003b0: 6fc5 063e 3712 f83c 4291 6dbd 2162 51ba
000003c0: bd56 a2bd 9423 35bd 8b4f 2ebb f468 b83d
000003d0: 9afa f13c b083 97be aa0f b6bd c39b 6fbe
000003e0: 75ce b6bd 0533 293d 7abe 973c 7ba3 013e
000003f0: bc95 ef3d 9142 1d3c 0708 923d 191a 26be

t_modules.0.layers.0.1.fn.net.3.bias f4 [32]
-0.06342722 0.07229603 0.07375674 0.09354458 0.040331606 0.07430717 0.011744078 -0.04329418
-0.030022694 -0.12961225 0.024499528 -0.05863415 -0.006870927 -0.16666596 -0.074549004 -0.034496717
-0.00049520296 0.008855149 -0.029502649 0.0022695786 -0.08947923 -0.056552604 -0.01728133 0.058101006
-0.01689853 0.019597782 -0.082601644 -0.098463595 -0.041781932 -0.008199303 -0.015622728 0.083705895
00000000: 21e6 81bd f10f 943d c60d 973d 4d94 bf3d
00000010: c132 253d 5c2e 983d 3c6a 403c 3d55 31bd
00000020: 27f2 f5bc 13b9 04be 3cb3 c83c 5d2a 70bd
00000030: 8325 e1bb 7baa 2abe 26ad 98bd 6e4c 0dbd
00000040: 82d0 01ba 3015 113c 8aaf f1bc 36bd 143b
00000050: e340 b7bd b4a3 67bd 9391 8dbc 52fb 6d3d
00000060: c96e 8abc 878b a03c 0d2b a9bd 48a7 c9bd
00000070: 8823 2bbd 5f56 06bc 78f6 7fbc ff6d ab3d

t_modules.1.pos_embedding f4 [1, 12, 32]
0.275649 -0.38414738 0.41863418 -0.7817916 -0.32418105 0.29556873 0.20052013 -1.0802598
0.80189115 -0.7324573 0.69962466 0.007171499 0.24148653 -0.5024935 1.122511 -0.13249135
-0.34434757 0.10695773 0.57472396 0.27052423 0.10005407 -0.0075150095 0.42034754 0.6130026
-0.06920844 -0.2796518 -0.20018291 -0.16042177 -0.34839532 0.34540442 0.057572722 0.2999638
-0.07173424 0.016971758 -0.20203108 0.14622436 0.039691247 -0.12894033 -0.14725038 0.20258014
0.51680154 -0.24333656 0.15326762 -0.34352955 0.22511043 -0.26338303 -0.077677466 0.06412005
0.12588333 0.7544854 -0.060723428 0.35574523 -0.082671165 0.07922479 -0.18428788 -0.12408489
0.5346319 -0.39386955 0.09415268 -0.42126995 -0.5038972 -0.123301074 -0.08283291 0.10613843
0.0560068 -0.14555737 0.32943842 0.035363484 -0.049126644 0.030289441 0.22814526 0.020379737
0.16748199 0.0068681547 0.39229828 -0.0026482951 0.14999183 0.08423194 -0.6118984 0.09654053
-0.025333231 -0.036281187 0.07885042 -0.25553194 0.054091226 0.03445114 -0.13254182 0.03670719
0.018437583 -0.83643407 0.0511103 -0.23747408 -0.13717267 -0.076989636 -0.002170372 0.022914322
0.11414878 0.46098465 -0.2261172 0.19816256 0.06844098 -0.01803672 -0.17379124 0.07591455
-0.10154117 0.14060317 0.13455993 -0.42874107 -0.05185183 0.12029479 0.09980204 0.2583881
0.00014269637 -0.07999186 0.090904385 0.2343159 0.10207022 0.078294784 0.6882332 -0.009402094
-0.023846477 0.06856377 0.019682877 0.3834577 0.2645845 0.095179185 0.026494723 -0.0047784257
0.19711058 -0.058699053 0.19800931 -0.01783345 0.01961053 -0.0048761223 0.4853914 -0.046963785
-0.124417365 0.37889442 0.09487883 0.015593062 0.18648854 -0.1755613 -0.20631392 0.23666424
-0.073601395 -0.10548628 0.019036582 0.41523996 0.069446675 0.49595252 -0.40120226 -0.26874033
-0.11250594 0.021367082 -0.12584841 -0.18971083 -0.28963786 0.30982283 0.060546815 0.026073763
-0.30441615 0.14983836 -0.02038366 -0.82484806 -0.25810665 -0.11848855 0.6823563 0.29302704
-0.16341929 0.5811356 -0.34831044 -0.07990387 0.009341621 0.09946992 1.1069549 0.33193514
-0.042726733 -1.2264094 -0.023870107 -1.2062804 -0.023710642 -0.012140541 -0.03137457 -0.19026576
-0.013326929 -0.015396682 -0.037821386 -0.14183916 0.3030249 -0.29333076 0.2722014 -0.12193537
0.10518723 -0.13335578 0.11550137 0.13256769 -0.07431275 -0.029403811 -0.91565835 0.33080402
0.3028508 -0.3219105 -0.11192456 0.1550772 -0.06927289 0.13019952 -0.3060021 0.053301785
-0.5545925 0.12686764 -0.18057542 0.39042524 0.20571889 0.14403386 0.17264728 -0.18984742
-0.034638 -0.052200302 0.05417177 0.00586182 -0.4369975 -0.08020195 0.056655735 -0.04748678
-0.098126955 0.4455302 -0.2068968 -0.5054354 0.26183152 -0.08735331 -0.4695984 0.010848518
-0.20023468 -0.42020786 -0.0039509805 -0.39895096 -0.09647279 0.050607268 0.52824265 -0.018867511
0.17205566 0.11398824 0.07570101 0.57342607 -0.09497274 0.013263134 1.1745958 -0.28735936
0.3776092 -1.7304004 -0.7100271 0.37008786 -0.23124702 -0.1716124 0.30734062 0.10071706
00000000: de21 8d3e f7ae c4be 3857 d63e 7f23 48bf
00000010: 0ffb a5be c954 973e 2655 4d3e f445 8abf
00000020: bd48 4d3f 5282 3bbf 9a1a 333f e5fe ea3b
00000030: 3f48 773e 6aa3 00bf 71ae 8f3f d0ab 07be
00000040: 534e b0be a80c db3d 1c21 133f 2782 8a3e
00000050: 26e9 cc3d 7840 f6bb cb37 d73e bded 1c3f
00000060: 28bd 8dbd 852e 8fbe c0fc 4cbe 9b45 24be
00000070: df60 b2be d9d8 b03e 60d1 6b3d db94 993e
00000080: 67e9 92bd 5b08 8b3c 3ce1 4ebe d7bb 153e
00000090: 4a93 223d ef08 04be cec8 16be 2b71 4f3e
000000a0: 1b4d 043f 382d 79be 30f2 1c3e 1be3 afbe
000000b0: 5983 663e 24da 86be 5d15 9fbd 5f51 833d
000000c0: 8fe7 003e f525 413f 21b9 78bd 3d24 b63e
000000d0: 804f a9bd 9b40 a23d f6b5 3cbe 3820 febd
000000e0: a3dd 083f 45a9 c9be 1fd3 c03d b2b0 d7be
000000f0: 68ff 00bf 4685 fcbd 4da4 a9bd 1b5f d93d
00000100: 6367 653d fe0c 15be 27ac a83e 4dd9 103d
00000110: 0539 49bd 9021 f83c e99e 693e 68f3 a63c
00000120: 6680 2b3e 420e e13b 52db c83e 058f 2dbb
00000130: 7597 193e cc81 ac3d 60a5 1cbf 0bb7 c53d
00000140: a387 cfbc 959b 14bd 547c a13d 15d5 82be
00000150: c38e 5d3d a31c 0d3d 0bb9 07be 475a 163d
00000160: 6a0a 973c 8b20 56bf 0959 513d 682c 73be
00000170: fe76 0cbe beac 9dbd cd3c 0ebb d1b6 bb3c
00000180: d6c6 e93d 2e06 ec3e 448b 67be 20eb 4a3e
00000190: c92a 8c3d bec1 93bc 55f6 31be 1679 9b3d
000001a0: d1f4 cfbd 47fa 0f3e 14ca 093e f383 dbbe
000001b0: 9662 54bd 1d5d f63d 0365 cc3d 724b 843e
000001c0: c4a0 1539 c6d2 a3bd 142c ba3d 82f0 6f3e
000001d0: 310a d13d 0459 a03d 0d30 303f 3e0b 1abc
000001e0: b059 c3bc 296b 8c3d fc3d a13c 9154 c43e
000001f0: 9f77 873e 4eed c23d 760b d93c 5794 9cbb
00000200: 5bd7 493e 6b6e 70bd f4c2 4a3e 7517 92bc
00000210: 43a6 a03c e1c7 9fbb 3985 f83e 195d 40bd
00000220: 88ce febd 73fe c13e d54f c23d 0b7a 7f3c
00000230: daf6 3e3e 57c6 33be f543 53be 1c58 723e
00000240: 54bc 96bd 3109 d8bd 9bf2 9b3c 559a d43e
00000250: 0f3a 8e3d 7ded fd3e 626a cdbe 5598 89be
00000260: 8469 e6bd 050a af3c 68de 00be 8e43 42be
00000270: 6a4b 94be 19a1 9e3e f0ff 773d a598 d53c
00000280: 6fdc 9bbe 3a6f 193e a2fb a6bc 3e29 53bf
00000290: 8e26 84be 20aa f2bd e7ae 2e3f a407 963e
000002a0: 6357 27be 4dc5 143f bf55 b2be a4a4 a3bd
000002b0: 990d 193c e3b6 cb3d b3b0 8d3f 67f3 a93e
000002c0: 3a02 2fbd fcfa 9cbf 3e8b c3bc 6567 9abf
000002d0: d23c c2bc 1fe9 46bc 9f82 00bd 07d5 42be
000002e0: 3159 5abc 5d42 7cbc 99ea 1abd 493e 11be
000002f0: 1426 9b3e 732f 96be fb5d 8b3e 40b9 f9bd
00000300: 676c d73d 6b8e 08be fb8b ec3d d3bf 073e
00000310: 4831 98bd 43e0 f0bc 9668 6abf 255f a93e
00000320: 430f 9b3e 74d1 a4be b438 e5bd 8fcc 1e3e
00000330: f2de 8dbd 0653 053e 4fac 9cbe f952 5a3d
00000340: c6f9 0dbf 97e9 013e c3e8 38be d1e5 c73e
00000350: f9a7 523e 9d7d 133e 73ca 303e 5d67 42be
00000360: 93e0 0dbd fccf 55bd 38e3 5d3d 8314 c03b
00000370: 23be dfbe ec40 a4bd d80f 683d 7f81 42bd
00000380: c9f6 c8bd 891c e43e c1dc 53be 3764 01bf
00000390: c80e 863e 4be6 b2bd 346f f0be fcbd 313c
000003a0: 520a 4dbe 7c25 d7be 3a77 81bb 4d43 ccbe
000003b0: 8793 c5bd 9149 4f3d e93a 073f 0a90 9abc
000003c0: 5c2f 303e ab72 e93d 2209 9b3d 0dcc 123f
000003d0: 1181 c2bd 9e4d 593c 2859 963f c420 93be
000003e0: fe55 c13e c37d ddbf 56c4 35bf 287c bd3e
000003f0: 05cc 6cbe 29bb 2fbe c05b 9d3e bf44 ce3d

t_modules.1.layers.0.0.qkv.weight f4 [96, 32]
-0.109002694 0.029401552 0.01896683 0.027985172 0.1597423 0.063176915 -0.0033756532 -0.035147022
-0.00798794 0.022180293 -0.026219351 0.0010144991 -0.03213538 -0.07457346 -0.005210202 0.05332938
-0.035041645 -0.028786331 0.016697105 0.12756488 0.017038539 -0.202856 0.021468746 -0.032660138
-0.04285161 0.020380141 -0.08011138 -0.056053046 0.042517155 0.004291696 -0.056501284 0.14130443
-0.048988 -0.017714735 0.020581372 0.003635651 0.038717728 0.13625579 0.053036157 0.047716573
0.019435454 -0.016116064 0.12620467 -0.092058755 -0.08442901 0.03624264 -0.012296852 -0.0016880636
0.07049368 -0.026472883 -0.17357749 0.0055235145 0.09348797 0.1403575 0.0015014061 0.06526734
0.047374055 -0.08089369 -0.03618129 0.019092316 -0.0077476194 0.09069512 -0.016340787 0.21793133
0.034293246 0.10908103 0.087118536 -0.0201054 0.031785347 -0.022000633 0.053194504 0.031522278
-0.11556325 0.05737787 -0.1444949 0.041875504 0.002872534 -0.15296437 -0.20252408 -0.25238508
0.28599957 -0.07058005 0.005512757 -0.0044048075 0.026567506 -0.24610901 -0.11776363 0.053037412
-0.015283733 -0.029465035 -0.25416243 0.051355753 0.11497148 0.12994042 -0.12477011 0.19774593
0.04284579 -0.043341435 0.08546295 -0.033130545 0.017667742 0.086874925 -0.0031023659 0.0107281795
0.016048655 0.019051053 0.1889824 -0.06890962 -0.052935332 0.12008371 0.14311762 0.298158
-0.28776833 -0.09463686 -0.101455435 -0.04608584 0.079370596 0.22242317 0.10771173 -0.20700766
0.098363556 -0.20071824 0.07317311 0.014788835 -0.087723255 -0.078264825 0.11159926 -0.11404402
0.06681149 0.001099562 0.004672537 -0.022365771 0.027994532 0.12833169 -0.08811176 -0.0075146654
0.018807588 0.05453497 0.053877167 0.048805144 0.058908783 -0.09139329 -0.029951397 0.038478613
-0.06689355 0.015291531 0.07109275 -0.06725858 -0.033787284 -0.10755447 -0.0019049225 -0.029780138
-0.11228853 0.055122647 0.008360916 -0.003923096 0.027344145 -0.03320125 -0.0820351 -0.072231725
0.21103302 0.040081877 0.01776744 -0.07994858 -0.08221036 0.042138476 0.07646068 0.009835865
0.108459055 -0.20604815 0.007701373 -0.15973169 -0.0402973 -0.0305911 0.041380007 -0.13515851
0.18915378 -0.013263615 -0.101295084 -0.25935113 -0.009267977 0.24816307 0.017962577 -0.079163894
0.23327254 -0.0693013 -0.0726361 0.22814794 0.10697136 -0.082062475 0.013558734 -0.20686713
-0.038432084 -0.14697133 -0.17454469 -0.059356015 0.035204813 0.075384825 -0.030460415 -0.03274992
-0.07196777 -0.04962401 0.15549001 0.06382143 0.0058122175 0.065005496 0.07861748 0.07062326
-0.35417682 0.039578132 0.089889586 -0.18220432 -0.10913333 0.046381675 0.20246091 -0.13577269
-0.16238748 0.15994431 0.2516935 -0.11180375 -0.02680223 -0.15134051 0.12976377 -0.044786774
-0.046888687 -0.14660831 -0.20219803 -0.05671931 -0.1403157 0.027360182 -0.016768388 0.07995808
-0.12452483 -0.1023517 0.079687506 0.17131102 -0.07699982 -0.002529488 0.12297213 -0.062757134
-0.045923427 0.09112249 0.020909084 -0.27132106 -0.010736783 0.05142359 0.1633786 -0.00034376633
-0.11314122 0.0021027962 0.055274192 0.014363863 0.0736777 -0.13527301 -0.0035290897 0.010333457
00000000: ce3c dfbd 86db f03c 5360 9b3c 2941 e53c
00000010: 7c93 233e e662 813d 103a 5dbb 53f6 0fbd
00000020: d9df 02bc 72b3 b53c f7c9 d6bc f1f8 843a
00000030: 63a0 03bd f8b9 98bd 58ba aabb e86f 5a3d
00000040: d487 0fbd 50d1 ebbc 5ec8 883c 5ea0 023e
00000050: 6894 8b3c 7cb9 4fbe 39df af3c a3c6 05bd
00000060: 2b85 2fbd 41f4 a63c 6f11 a4bd e197 65bd
00000070: 7826 2e3d 5ba1 8c3b e46d 67bd 1cb2 103e
00000080: a4a7 48bd 7e1e 91bc 449a a83c 1a44 6e3b
00000090: 7b96 1e3d a386 0b3e 713c 593d 7472 433d
000000a0: 1a37 9f3c d605 84bc cc3b 013e 4d89 bcbd
000000b0: 1ee9 acbd 2a73 143d bc78 49bc 0442 ddba
000000c0: fe5e 903d a9dd d8bc 4cbe 31be 99fe b43b
000000d0: 9f76 bf3d e0b9 0f3e d4ca c43a e2aa 853d
000000e0: 4c0b 423d 97ab a5bd d532 14bd 7d67 9c3c
000000f0: bedf fdbb 5dbe b93d 1ddd 85bc 6429 5f3e
00000100: 1377 0c3d e065 df3d 346b b23d 14b4 a4bc
00000110: 5a31 023d ac3a b4bc 7be2 593d 811d 013d
00000120: 6dac ecbd 0f05 6b3d 79f6 13be a685 2b3d
00000130: 2041 3c3b b1a2 1cbe 7962 4fbe 9e38 81be
00000140: 896e 923e 468c 90bd 5ca4 b43b 3456 90bb
00000150: 19a4 d93c 0004 7cbe 0f2e f1bd c23d 593d
00000160: 9f68 7abc a860 f1bc 9421 82be 695a 523d
00000170: 2b76 eb3d 1a0f 053e 7987 ffbd e97d 4a3e
00000180: 117f 2f3d ca86 31bd 3307 af3d e5b3 07bd
00000190: f1bb 903c 7beb b13d 1051 4bbb 3fc5 2f3c
000001a0: 7878 833c f410 9c3c 9a84 413e 7d20 8dbd
000001b0: b8d2 58bd 73ee f53d 6d8d 123e 2aa8 983e
000001c0: 5f56 93be f8d0 c1bd dec7 cfbd 81c4 3cbd
000001d0: 0d8d a23d e6c2 633e f897 dc3d d1f9 53be
000001e0: d572 c93d 1589 4dbe c9db 953d df4c 723c
000001f0: 40a8 b3bd 4f49 a0bd 278e e43d e98f e9bd
00000200: 76d4 883d 2e1f 903a 151c 993b 6c38 b7bc
00000210: ca54 e53c 6269 033e f073 b4bd 953d f6bb
00000220: 5f12 9a3c 1060 5f3d 4eae 5c3d e7e7 473d
00000230: 564a 713d 682c bbbd a25c f5bc c09b 1d3d
00000240: 7cff 88bd 5489 7a3c 1399 913d debe 89bd
00000250: 8964 0abd 8545 dcbd 98ae f9ba 7af5 f3bc
00000260: 87f7 e5bd 49c8 613d 39fc 083c 518d 80bb
00000270: d400 e03c 09fe 07bd 0502 a8bd 3aee 93bd
00000280: 0a19 583e e52c 243d 068d 913c 15bc a3bd
00000290: e85d a8bd 6599 2c3d 6b97 9c3d 9c26 213c
000002a0: c81f de3d 49fe 52be cd5b fc3b b490 23be
000002b0: c80e 25bd 309a fabc 157e 293d fe66 0abe
000002c0: 87b1 413e a24f 59bc cc73 cfbd acc9 84be
000002d0: b7d8 17bc 761e 7e3e 4126 933c ae20 a2bd
000002e0: ffde 6e3e d7ed 8dbd 3cc2 94bd 9d9f 693e
000002f0: cd13 db3d 5f10 a8bd 7425 5e3c fad4 53be
00000300: f66a 1dbd a77f 16be d8bb 32be 4b1f 73bd
00000310: ec32 103d 5c63 9a3d 1f88 f9bc c824 06bd
00000320: d763 93bd 8c42 4bbd c638 1f3e cfb4 823d
00000330: 6a74 be3b 9a21 853d 3402 a13d eea2 903d
00000340: aa56 b5be ae1c 223d 0818 b83d c593 3abe
00000350: 4c81 dfbd b6fa 3d3d ea51 4f3e ff07 0bbe
00000360: e748 26be 71c8 233e f8dd 803e 5df9 e4bd
00000370: 5a90 dbbc 02f9 1abe cbe0 043e 5672 37bd
00000380: 5a0e 40bd 7d20 16be 000d 4fbe 8252 68bd
00000390: ebae 0fbe 7622 e03c dc5d 89bc 10c1 a33d
000003a0: e006 ffbd c59d d1bd 3433 a33d 286c 2f3e
000003b0: 15b2 9dbd c4c5 25bb d0d8 fb3d d086 80bd
000003c0: 341a 3cbd 6e9e ba3d 8749 ab3c 98ea 8abe
000003d0: 55e9 2fbc 8ba1 523d b84c 273e 893b b4b9
000003e0: 95b6 e7bd 11cf 093b 3167 623d 6856 6b3c
000003f0: 55e4 963d 0285 0abe 4d48 67bb a94d 293c
