small_scale_scenario/experiments/sttn/KNOWAIR/-fulltrain/final_model_s2017.pt (torch, 343202 bytes, 56 tensors)

t_modules.0.pos_embedding f4 [1, 12, 32]
-0.24991955 0.28541932 -1.1698586 1.3421456 1.4454745 0.21475919 1.3671832 -1.5263408
-1.3324342 1.2902031 -1.4451762 1.4140687 -1.2674632 -0.41200972 -1.9774244 1.6357126
0.8244972 1.0626168 -1.4112654 -1.7111027 0.2801899 0.6970507 -1.4729457 0.4970757
-1.0766317 -1.4482335 -0.11206828 -0.47279882 0.20722683 -0.437513 0.7142034 -0.20836735
0.5775057 -0.9642582 0.88887036 -1.3528221 0.5536659 2.272326 -0.030477926 -0.3624436
-0.20787024 1.6081948 -1.7945771 -0.16662247 -1.3226256 1.5474983 -0.30558017 -1.506071
-0.31447715 0.117022865 -1.684061 0.39487034 1.1851898 0.97998124 2.4222903 -1.5147289
-0.7796686 -0.0675426 -0.19786735 0.0048566167 -0.7318274 1.5450643 0.4400544 -0.0305391
-0.22521845 -0.9571994 1.5218321 1.0417305 -0.5503965 0.34836903 1.4584858 0.37127972
-0.73097014 -0.63030833 -1.0055529 1.8075135 -0.91399133 -0.20034908 0.41464755 -0.091451906
-0.041641057 -1.2079089 -1.1450868 1.7330214 0.66224086 -0.5762767 -0.4236603 1.866259
1.5458152 0.13559055 -0.9760466 0.49694568 -1.4840225 0.77582484 1.6322086 0.004875816
-0.12878133 -0.26796257 0.17765157 -1.847475 0.93770295 0.4624934 -0.993245 2.1656196
-0.34036914 0.08917852 -1.3944175 0.6004184 -1.8200957 1.6001003 0.3468729 -0.21261694
-0.2884067 1.3735182 0.07933939 -0.70161307 1.2223006 1.588086 -0.6887852 -0.90379953
0.36040387 -0.027592571 0.014129079 0.3645284 0.11077167 -0.22473958 -0.23209634 0.69656783
-1.3493854 1.0523862 0.95108485 -0.2078872 -0.22185926 -1.1588497 0.10654931 -0.18013768
-0.18914682 0.29071307 0.33695343 0.5069447 -0.23288545 -0.6497058 0.1559682 -1.0514238
-1.3549197 -0.070607744 -1.3381649 0.27288142 0.29211804 1.564427 1.3670162 0.3114993
1.5022596 -0.096554816 0.05372911 -1.8796732 1.5057808 0.15764397 -2.3318453 2.2028127
-1.3327323 0.4751871 -0.7444756 0.9013367 0.13089593 1.1830444 0.3804339 -0.26220348
1.1016401 0.1694887 0.14409761 -0.67763156 -0.028283978 -0.10840888 0.21809027 0.92881334
-1.2827624 0.9220837 0.995356 -0.6285537 -0.04796633 0.7595002 -2.5241826 -1.1607275
0.33547154 -0.6573284 -0.45834354 1.3745323 0.17779481 0.26315483 0.055310592 -0.23904209
-1.3955189 1.5055029 0.03823296 1.2743868 0.9707893 -0.04373148 -0.8750109 -0.42634627
-1.6063436 -0.6936862 -0.7281032 0.8241446 -0.020644397 -1.1829106 -1.2601193 -0.27587664
-0.42467332 -2.2504296 1.1358584 1.8024044 -1.1018765 0.668306 -0.31419468 -2.3010886
0.9971317 1.5558339 -3.0052123 1.1880962 0.11657592 1.8280163 0.72199327 1.1861802
-0.41479358 1.7320008 0.7423751 0.182773 -0.36512256 -0.94216263 -0.9148171 -0.44705504
-0.28337574 -1.4131205 -1.3127362 -1.085253 1.0770812 -0.27383697 0.76637095 0.12203539
-0.11786126 -0.34923702 0.52413183 0.710354 -1.1165333 -0.22917491 -1.1927866 0.4985832
0.6367635 -0.79751855 -0.78067726 0.12177057 -0.027562547 1.5824995 0.54764867 0.60145426
00000000: e9ea 7fbe 7b22 923e edbd 95bf 6dcb ab3f
00000010: 4f05 b93f d5e9 5b3e dcff ae3f 235f c3bf
00000020: 348d aabf 6025 a53f 89fb b8bf 3400 b53f
00000030: 3c3c a2bf f0f2 d2be 3e1c fdbf 085f d13f
00000040: 4012 533f d403 883f 58a4 b4bf 6a05 dbbf
00000050: 0d75 8f3e ea71 323f 7c89 bcbf b580 fe3e
00000060: 11cf 89bf b75f b9bf 0e84 e5bd b012 f2be
00000070: 4533 543e b401 e0be 09d6 363f 405e 55be
00000080: 6ad7 133f a0d9 76bf 028d 633f 4629 adbf
00000090: 0cbd 0d3f ca6d 1140 d8ac f9bc 3592 b9be
000000a0: f0db 54be 54d9 cd3f b4b4 e5bf 159f 2abe
000000b0: cc4b a9bf 6d14 c63f 0175 9cbe efc6 c0bf
000000c0: 2603 a1be afa9 ef3d 508f d7bf 722c ca3e
000000d0: 4db4 973f 0de0 7a3f ce06 1b40 a3e2 c1bf
000000e0: 5d98 47bf c653 8abd bd9d 4abe 4124 9f3b
000000f0: 0a59 3bbf abc4 c53f cf4e e13e 222d fabc
00000100: aa9f 66be 050b 75bf 65cb c23f 6d57 853f
00000110: c9e6 0cbf 6d5d b23e aaaf ba3f 6018 be3e
00000120: dc20 3bbf e35b 21bf f5b5 80bf 9a5c e73f
00000130: 56fb 69bf 4f28 4dbe af4c d43e 234b bbbd
00000140: d08f 2abd c29c 9abf 3492 92bf a5d3 dd3f
00000150: 9e88 293f df86 13bf 01ea d8be 93e1 ee3f
00000160: 46dd c53f 40d8 0a3e 31de 79bf aa6f fe3e
00000170: 73f4 bdbf 759c 463f 36ec d03f 4fc5 9f3b
00000180: 41df 03be 6432 89be 4bea 353e 107a ecbf
00000190: 4d0d 703f efcb ec3e 4e45 7ebf 8399 0a40
000001a0: dd44 aebe 3aa3 b63d 467c b2bf 05b5 193f
000001b0: e5f8 e8bf 16d0 cc3f 5399 b13e 41b8 59be
000001c0: 0baa 93be 72cf af3f b17c a23d ea9c 33bf
000001d0: 5974 9c3f 6746 cb3f 3a54 30bf 685f 67bf
000001e0: db86 b83e d109 e2bc a77d 673c 77a3 ba3e
000001f0: 42dc e23d 2222 66be aaaa 6dbe 4552 323f
00000200: a9b8 acbf 97b4 863f 4c7a 733f 62e0 54be
00000210: 132f 63be 3055 94bf 8636 da3d 0376 38be
00000220: b4af 41be 58d8 943e 2985 ac3e 21c7 013f
00000230: 8679 6ebe 1f53 26bf 21b6 1f3e 0e95 86bf
00000240: 026e adbf cb9a 90bd fd48 abbf 1db7 8b3e
00000250: 7f90 953e 253f c83f 63fa ae3f d67c 9f3e
00000260: 0b4a c03f 88be c5bd 0e13 5c3d 2299 f0bf
00000270: 6dbd c03f 6c6d 213e f43c 15c0 e2fa 0c40
00000280: f996 aabf b94b f33e f495 3ebf 01be 663f
00000290: 9509 063e 006e 973f 3bc8 c23e 893f 86be
000002a0: 8b02 8d3f 728e 2d3e 538e 133e 4379 2dbf
000002b0: cdb3 e7bc 7a05 debd 0e53 5f3e b6c6 6d3f
000002c0: 8f31 a4bf ad0d 6c3f a7cf 7e3f e5e8 20bf
000002d0: 5878 44bd 9b6e 423f 358c 21c0 b892 94bf
000002e0: edc2 ab3e ad46 28bf 01ac eabe adf0 af3f
000002f0: d80f 363e 3bbc 863e 5c8d 623d 73c7 74be
00000300: 5da0 b2bf 52b4 c03f 2a9a 1c3d 1b1f a33f
00000310: a685 783f c81f 33bd b700 60bf 0f4a dabe
00000320: ab9c cdbf 6b95 31bf f964 3abf 24fb 523f
00000330: 701e a9bc 9d69 97bf 974b a1bf b43f 8dbe
00000340: c86e d9be 0a07 10c0 cf63 913f 30b5 e63f
00000350: 4a0a 8dbf 1a16 2b3f 20de a0be 0945 13c0
00000360: 0644 7f3f 9125 c73f 6655 40c0 8913 983f
00000370: 5bbf ee3d 70fc e93f 8dd4 383f c1d4 973f
00000380: d35f d4be 34b2 dd3f 4b0c 3e3f d828 3b3e
00000390: 58f1 babe 9231 71bf 7431 6abf 66e4 e4be
000003a0: a016 91be 22e1 b4bf bd07 a8bf 92e9 8abf
000003b0: ccdd 893f 5c34 8cbe e330 443f b1ed f93d
000003c0: 3f61 f1bd 32cf b2be 812d 063f c2d9 353f
000003d0: 90ea 8ebf d4ac 6abe 3bad 98bf 4c46 ff3e
000003e0: ef02 233f 2d2a 4cbf 77da 47bf d962 f93d
000003f0: daca e1bc 588f ca3f b432 0c3f e8f8 193f

t_modules.0.layers.0.0.qkv.weight f4 [96, 32]
0.010037503 -0.17707652 0.13882096 0.18436691 -0.057807542 0.08131719 -0.23405667 -0.023720238
0.15766983 -0.08523006 -0.053101003 -0.098081216 -0.094690435 -0.20735753 -0.12629269 -0.16041933
-0.01883625 -0.002302992 0.111259185 -0.06888482 -0.13812517 -0.02038554 -0.100029185 -0.13736944
0.033654813 0.043758698 0.19481832 -0.00032740008 0.09610903 0.04337828 0.06859716 -0.003918939
0.23178604 -0.23452066 -0.11333986 -0.029585728 0.12463272 0.029129874 -0.24714702 0.18591082
0.2403818 -0.07440715 0.01620296 0.16366346 -0.066207185 -0.17641458 -0.24764317 -0.2615165
0.06279231 -0.09747733 -0.117751256 0.07159855 -0.21528368 -0.06377203 -0.19916745 0.050997622
-0.07233972 0.040668387 -0.07115274 0.14337961 0.13981016 0.046079766 -0.12040742 -0.05345109
0.17379045 -0.06092055 0.023019351 0.020266432 -0.030557444 0.17076878 -0.09652506 0.05525378
0.24606931 -0.08696724 0.058067475 0.09710942 0.0734025 -0.1923676 0.04332458 -0.07389598
0.14985043 0.013496102 -0.13986914 0.095001854 -0.046569686 -0.22282898 -0.18605113 -0.032507494
-0.23959075 0.035437424 -0.12968102 0.12518826 0.12412844 0.20593195 -0.044996507 -0.16111231
0.07437291 -0.022559214 -0.024162816 -0.004385603 -0.116546795 0.06699539 -0.09594312 -0.13028269
-0.14994618 0.07432769 0.028501885 -0.035417505 0.05909051 -0.14627858 -0.1099663 -0.0131336395
-0.037711557 -0.08843586 0.026678534 -0.14628132 0.0076489598 0.052371543 0.01931442 -0.05158237
0.07061198 0.11636235 -0.10368829 -0.1083348 -0.18128772 0.047810126 0.0654834 -0.07942961
0.09763722 0.02619753 -0.06055007 -0.2257508 0.15164948 0.052354228 -0.053938355 0.06090947
0.031351604 -0.06255393 0.04597422 0.019422144 0.09364476 0.0441907 -0.09699096 0.057977017
0.13307954 -0.11189277 0.10132093 -0.09168989 -0.13016707 0.18036048 -0.09867239 0.03163667
-0.14107634 -0.13746764 -0.017372934 0.07603638 0.0061598225 -0.009168315 -0.09751579 -0.06592806
0.062120013 0.023196504 -0.023173466 -0.21842745 -0.07259383 -0.06727952 0.053370662 0.06643695
0.054247186 0.03846376 -0.013236721 0.02981246 -0.03856142 0.06119703 -0.09777798 0.073149316
0.0034812887 -0.013123366 -0.18201318 0.15280673 0.20523831 0.117115624 0.096990265 0.167173
-0.09605883 0.009389632 -0.18476737 -0.04106742 0.09423997 0.016998343 -0.20038445 -0.16534464
0.3779029 0.050391596 0.058606803 -0.13263401 0.15689553 0.18562615 -0.33773726 0.08551342
0.15782703 -0.021565255 -0.07408771 0.14836851 -0.0074862344 -0.07457305 -0.21509908 -0.0018852818
0.057386667 -0.181971 0.15910763 0.055471398 -0.35917723 0.007442306 -0.016104432 0.08044311
-0.2836352 0.052025955 -0.16305688 -0.023896484 0.12251142 0.082434215 -0.15346552 -0.17631464
-0.15119953 0.152971 0.10208474 -0.0710253 0.048082855 -0.062216386 0.09957234 -0.20763275
-0.2307106 -0.0047798613 0.13458274 0.021309592 -0.042406715 0.3791918 0.032848157 0.1336063
-0.055618294 -0.026057165 0.13103247 0.07246693 0.1581566 0.08095345 0.09901219 0.14205065
0.12817991 -0.16072531 -0.07585632 -0.19159606 -0.308124 -0.13823277 -0.1537563 -0.15858525
00000000: 5774 243c 8c53 35be 1527 0e3e aeca 3c3e
00000010: 9ac7 6cbd a089 a63d 8dac 6fbe f250 c2bc
00000020: 3374 213e 198d aebd 7080 59bd cede c8bd
00000030: 0fed c1bd 8855 54be df52 01be f744 24be
00000040: 7b4e 9abc cbed 16bb dbdb e33d 7c13 8dbd
00000050: af70 0dbe 93ff a6bc 1adc ccbd 93aa 0cbe
00000060: a1d9 093d 523c 333d 747e 473e e5a6 abb9
00000070: d0d4 c43d 6cad 313d ab7c 8c3d 716a 80bb
00000080: 5259 6d3e 2f26 70be bb1e e8bd c55d f2bc
00000090: 713f ff3d c6a1 ee3c 1c14 7dbe 685f 3e3e
000000a0: a626 763e c762 98bd 12bc 843c 6597 273e
000000b0: a297 87bd 06a6 34be 2c96 7dbe 7ee5 85be
000000c0: 4199 803d 32a2 c7bd 9227 f1bd 43a2 923d
000000d0: 5373 5cbe e99a 82bd 8df2 4bbe e2e2 503d
000000e0: d926 94bd e593 263d 87b8 91bd 1bd2 123e
000000f0: 652a 0f3e 23be 3c3d 2a98 f6bd 88ef 5abd
00000100: 20f6 313e d487 79bd 1493 bc3c ca05 a63c
00000110: 9b53 fabc 03de 2e3e eeae c5bd ca51 623d
00000120: 98f9 7b3e e11b b2bd 29d8 6d3d 4ee1 c63d
00000130: 0d54 963d 03fc 44be 1d75 313d c756 97bd
00000140: 6472 193e c11e 5d3c db39 0fbe 5590 c23d
00000150: dbbf 3ebd 482d 64be 3084 3ebe 9426 05bd
00000160: 4757 75be d526 113d 1acb 04be 5a31 003e
00000170: 0d37 fe3d d3df 523e 424e 38bd a0fa 24be
00000180: d350 983d 1ace b8bc 19f1 c5bc 1bb5 8fbb
00000190: 16b0 eebd e134 893d d47d c4bd d368 05be
000001a0: 7e8b 19be 1e39 983d c97c e93c f211 11bd
000001b0: e408 723d 0dca 15be 0336 e1bd 7a2e 57bc
000001c0: 6f77 1abd dc1d b5bd f18c da3c c5ca 15be
000001d0: 20a4 fa3b 8b83 563d 4639 9e3c 0948 53bd
000001e0: 049d 903d 624f ee3d 875a d4bd a3de ddbd
000001f0: 7da3 39be 8dd4 433d 291c 863d feab a2bd
00000200: 06f6 c73d 349c d63c 5a03 78bd 382b 67be
00000210: 004a 1b3e 6371 563d 77ee 5cbd 357c 793d
00000220: 8a6a 003d 461c 80bd 774f 3c3d 301b 9f3c
00000230: d3c8 bf3d 4f01 353d 32a3 c6bd 4f79 6d3d
00000240: 0146 083e 0928 e5bd 5981 cf3d e9c7 bbbd
00000250: 844a 05be 6bb0 383e c014 cabd 7495 013d
00000260: 5176 10be 51c4 0cbe af51 8ebc f6b8 9b3d
00000270: 56d8 c93b b336 16bc 5cb6 c7bd 4a05 87bd
00000280: 8e71 7e3d 9806 be3c 48d6 bdbc 72ab 5fbe
00000290: 13ac 94bd d8c9 89bd 329b 5a3d 1810 883d
000002a0: 4c32 5e3d 2d8c 1d3d d5de 58bc 4339 f43c
000002b0: 94f2 1dbd bda9 7a3d d23f c8bd 4fcf 953d
000002c0: 5526 643b 6303 57bc aa61 3abe 5e79 1c3e
000002d0: fe29 523e 51da ef3d d5a2 c63d 662f 2b3e
000002e0: 7eba c4bd f9d6 193c a833 3dbe 5036 28bd
000002f0: e300 c13d 1c40 8b3c 9531 4dbe 1b50 29be
00000300: 7d7c c13e 6b67 4e3d b00d 703d 36d1 07be
00000310: 39a9 203e c814 3e3e e6eb acbe a921 af3d
00000320: 699d 213e 9ea9 b0bc 4cbb 97bd eaed 173e
00000330: 164f f5bb c1b9 98bd ef42 5cbe 8f1b f7ba
00000340: 480e 6b3d 9b56 3abe 1ced 223e fa35 633d
00000350: 14e6 b7be 96de f33b 71ed 83bc 5bbf a43d
00000360: a238 91be 2b19 553d 62f8 26be 8fc2 c3bc
00000370: 44e7 fa3d 45d3 a83d 1126 1dbe d38b 34be
00000380: 0dd4 1abe 6ea4 1c3e ce11 d13d b675 91bd
00000390: 87f2 443d 9cd6 7ebd 95ec cb3d ae9d 54be
000003a0: 663f 6cbe 62a0 9cbb 0fd0 093e 7491 ae3c
000003b0: aab2 2dbd 6d25 c23e ca8b 063d 17d0 083e
000003c0: 02d0 63bd d675 d5bc 602d 063e 8b69 943d
000003d0: cef3 213e ecca a53d e7c6 ca3d ba75 113e
000003e0: 9841 033e 2d95 24be 8f5a 9bbd c231 44be
000003f0: 6ec2 9dbe e48c 0dbe 4b72 1dbe 2c64 22be

t_modules.0.layers.0.0.proj.weight f4 [32, 32]
0.060331795 -0.033186436 -0.10721697 0.16332346 -0.02486655 0.015067833 0.13812104 -0.1154802
-0.03971889 0.090115 -0.0967656 0.04177358 -0.12800916 -0.13724896 0.054092605 -0.11315509
0.06680734 -0.13598649 -0.16008253 -0.0567697 -0.1627651 0.16583917 -0.15213987 0.052756198
-0.049586054 0.114905156 0.0068939244 -0.004545609 0.17024851 -0.1207807 -0.21734074 0.063749686
0.10188211 0.10935723 -0.043025177 0.16917506 0.11197574 -0.0952912 0.107271284 -0.12891561
-0.0732466 -0.035707805 -0.036486607 0.07830261 -0.20094146 0.048141483 0.1398969 -0.012938758
0.15331762 0.14821555 0.019230934 -0.03606338 -0.052246265 -0.1314916 0.016306657 -0.1381733
0.047566984 -0.103487805 0.1786729 -0.04123836 0.0114502255 0.048977733 -0.27275044 0.07155426
0.16814645 -0.17962782 0.16598965 0.08653513 0.029942749 0.18331763 -0.08181266 -0.0660153
-0.17973688 0.085071266 -0.2150606 -0.22733098 0.10021297 0.007073091 0.17719963 0.067900434
-0.23709117 -0.18491346 -0.025390346 -0.0129458355 0.1793093 0.0170453 -0.04368162 -0.035642974
-0.07442285 0.1842695 -0.089724615 -0.031195218 -0.19451316 -0.14018674 0.2254821 -0.053997543
-0.1579967 -0.17823522 0.16185088 -0.119431265 -0.0758267 0.074379586 0.010746745 -0.094066456
0.15160812 -0.1854211 0.06714753 -0.10732419 0.112432696 0.070651904 -0.20446049 0.083950065
-0.15034002 -0.036434762 0.052847743 0.1525217 -0.029562647 -0.06036756 0.13878836 0.017344125
-0.20630257 -0.0648759 0.32548714 0.116122074 -0.15467407 -0.15201066 0.17237088 -0.1196742
-0.16129649 -0.09788268 -0.0653504 0.068836026 -0.015377769 0.080013335 0.057735026 0.052172404
-0.0043072086 -0.09271816 0.07328781 0.010017508 -0.03641653 0.019382538 0.014849933 0.08022418
0.08472318 -0.12816352 0.019570353 -0.07729781 0.06399807 -0.10799047 -0.08736754 -0.045042466
0.057384204 0.14844306 -0.029664958 -0.0001478297 -0.031584345 0.08605995 0.013492576 0.11181107
0.0046060877 0.09005015 -0.038767137 0.02584737 -0.009656426 -0.0046031782 0.11571275 0.14033018
-0.023518091 -0.009642659 -0.11654988 0.10695728 0.05608658 0.14042617 0.11169265 -0.002501789
-0.113109656 0.17710294 0.15225558 -0.14458469 0.10808411 -0.14420044 -0.17377563 0.22659901
0.03433691 0.03714974 0.1473708 0.20139869 0.044322625 -0.20961949 0.1486518 0.060637128
0.16105793 -0.10324444 0.03037122 -0.063391834 0.19687915 0.037963156 0.014217639 0.14866449
-0.037207175 -0.059330367 -0.18977648 -0.07767264 0.009792356 -0.07937633 0.09786083 -0.2370125
-0.076849915 -0.18471132 -0.11843909 0.025753079 0.017219292 0.029927501 0.2380758 -0.074995525
-0.07278281 0.0058411467 -0.018031692 0.012942443 0.07129744 0.05719235 0.14791772 -0.0520787
0.1018369 0.3239925 -0.14705907 -0.20775947 0.0046242257 -0.24593487 -0.15842514 0.14796038
0.15555446 -0.06387891 0.036861908 -0.02687485 0.011567957 0.20989357 -0.26666316 0.111472204
-0.089834236 -0.073367015 0.03484 0.11402862 0.05851017 -0.103766285 -0.019601734 -0.028358715
-0.35060945 -0.096297614 -0.090514325 -0.03920447 -0.1976453 0.2747165 0.0911536 -0.034185216
00000000: 791e 773d 80ee 07bd 9294 dbbd 443e 273e
00000010: efb4 cbbc 12df 763c 9a6f 0d3e e280 ecbd
00000020: 46b0 22bd 378e b83d 0b2d c6bd c61a 2b3d
00000030: d514 03be fe8a 0cbe 3590 5d3d dbbd e7bd
00000040: 49d2 883d 0b40 0bbe adec 23be 5887 68bd
00000050: e5ab 26be bed1 293e 8eca 1bbe e216 583d
00000060: bf1a 4bbd 6553 eb3d 6ee6 e13b 55f3 94bb
00000070: a055 2e3e df5b f7bd 928e 5ebe 328f 823d
00000080: 91a7 d03d aff6 df3d 2b3b 30bd 3a3c 2d3e
00000090: 8953 e53d 0828 c3bd 0cb1 db3d 7402 04be
000000a0: 5002 96bd 5942 12bd fb72 15bd 1e5d a03d
000000b0: 99c3 4dbe 0130 453d 2241 0f3e 16fd 53bc
000000c0: 4bff 1c3e d1c5 173e 318a 9d3c 32b7 13bd
000000d0: 2e00 56bd bca5 06be 8a95 853c 4d7d 0dbe
000000e0: 99d5 423d 6af1 d3bd 07f6 363e 8ee9 28bd
000000f0: ba99 3b3c e09c 483d f2a5 8bbe 0a8b 923d
00000100: 952e 2c3e 5bf0 37be 31f9 293e 5539 b13d
00000110: 7f4a f53c 9eb7 3b3e 658d a7bd 0833 87bd
00000120: f20c 38be d839 ae3d d938 5cbe 74c9 68be
00000130: 753c cd3d 63c5 e73b d273 353e 620f 8b3d
00000140: 07c8 72be f459 3dbe 6aff cfbc c51a 54bc
00000150: db9c 373e 96a2 8b3c 80eb 32bd 5efe 11bd
00000160: 026b 98bd 25b1 3c3e 8ac1 b7bd 1d8d ffbc
00000170: 752e 47be 1d8d 0fbe c8e4 663e 872c 5dbd
00000180: e3c9 21be 4b83 36be 3dbc 253e 6198 f4bd
00000190: 074b 9bbd 5354 983d 1e13 303c eaa5 c0bd
000001a0: 293f 1b3e 07df 3dbe a584 893d c9cc dbbd
000001b0: 1d43 e63d f2b1 903d 175e 51be 03ee ab3d
000001c0: bcf2 19be 9e3c 15bd e076 583d a62e 1c3e
000001d0: 5d2d f2bc f943 77bd 891e 0e3e 4415 8e3c
000001e0: fb40 53be a8dd 84bd 40a6 a63e 69d1 ed3d
000001f0: e162 1ebe afa8 1bbe fe81 303e bf17 f5bd
00000200: e82a 25be b776 c8bd 6ed6 85bd e7f9 8c3d
00000210: 0af3 7bbc 08de a33d 907b 6c3d bbb2 553d
00000220: 7c23 8dbb 05e3 bdbd eb17 963d 7920 243c
00000230: 8029 15bd 21c8 9e3c 224d 733c 934c a43d
00000240: 5983 ad3d 4c3d 03be 0152 a03c 504e 9ebd
00000250: 6c11 833d 1c2a ddbd c1ed b2bd 737e 38bd
00000260: b30b 6b3d 7501 183e ed03 f3bc bc02 1bb9
00000270: 965e 01bd 3340 b03d f70f 5d3c 34fd e43d
00000280: aaee 963b 376c b83d 4aca 1ebd ddbd d33c
00000290: fc35 1ebc 42d6 96bb cefa ec3d b7b2 0f3e
000002a0: 03a9 c0bc 3efc 1dbc b4b1 eebd 6b0c db3d
000002b0: 0bbb 653d e1cb 0f3e 1ebf e43d 0ef5 23bb
000002c0: 09a6 e7bd 795a 353e e3e8 1b3e 020e 14be
000002d0: 345b dd3d 48a9 13be 3df2 31be 9209 683e
000002e0: dca4 0c3d 532a 183d 5fe8 163e 753b 4e3e
000002f0: a48b 353d 7ea6 56be 2d38 183e a35e 783d
00000300: 5fec 243e d271 d3bd 11cd f83c 94d3 81bd
00000310: b09a 493e 417f 1b3d 1af1 683c 813b 183e
00000320: 8d66 18bd 6604 73bd c454 42be d512 9fbd
00000330: 1e70 203c 0f90 a2bd 426b c83d 68b3 72be
00000340: 7d63 9dbd f724 3dbe 3290 f2bd 1ff8 d23c
00000350: 790f 8d3c 852a f53c 24ca 733e 4197 99bd
00000360: 270f 95bd 1767 bf3b 33b7 93bc 8a0c 543c
00000370: 6404 923d 8742 6a3d be77 173e 7a50 55bd
00000380: dd8f d03d 58e2 a53e a796 16be e6be 54be
00000390: d186 973b 5ad6 7bbe 333a 22be ed82 173e
000003a0: ab49 1f3e f2d2 82bd 83fc 163d a528 dcbc
000003b0: 8787 3d3c 57ee 563e 1388 88be 8a4b e43d
000003c0: 03fb b7bd 7241 96bd 63b4 0e3d d687 e93d
000003d0: 5ca8 6f3d 6b83 d4bd d193 a0bc 8950 e8bc
000003e0: 1583 b3be af37 c5bd 935f b9bd de94 20bd
000003f0: 8863 4abe a4a7 8c3e bdae ba3d cc05 0cbd

t_modules.0.layers.0.0.proj.bias f4 [32]
-0.022191282 -0.2021232 0.21364492 0.07966624 -0.11497799 0.036893398 0.057318702 0.01808958
0.07298315 -0.15690258 0.06898507 0.08524682 -0.095107 0.1942016 0.15333858 0.15111059
-0.11228828 0.0034586564 -0.106385656 -0.047057983 0.05157066 -0.21327275 -0.085089594 -0.13547163
0.06300726 0.0506713 -0.0054874797 -0.19831076 -0.0018774129 0.039270174 0.0023983163 -0.111261964
00000000: 7eca b5bc 62f9 4ebe bcc5 5a3e 0e28 a33d
00000010: 9579 ebbd 881d 173d 04c7 6a3d 9930 943c
00000020: 3178 953d 12ab 20be 0b48 8d3d e295 ae3d
00000030: 75c7 c2bd c9dc 463e ca04 1d3e bcbc 1a3e
00000040: 66f7 e5bd a0aa 623b b9e0 d9bd dfbf 40bd
00000050: c23b 533d 2c64 5abe 7443 aebd 13b9 0abe
00000060: f309 813d b68c 4f3d 51d0 b3bb fa11 4bbe
00000070: 8613 f6ba c3d9 203d 122d 1d3b 50dd e3bd

t_modules.0.layers.0.1.norm.weight f4 [32]
1.0675995 1.0389403 0.9316774 1.0396327 1.1149247 0.95324856 0.97450787 1.0271113
1.0179403 1.0107287 1.1005863 0.99539155 1.039582 1.045237 0.9987212 1.0318466
1.0426 1.0449518 0.95483893 1.0438405 1.0642023 0.9795163 1.1065348 1.0138531
1.1292704 0.96153635 0.96600413 0.90276164 0.9942704 1.0547345 1.0993398 1.0090157
00000000: 1aa7 883f fffb 843f 6982 6e3f af12 853f
00000010: dab5 8e3f 1908 743f 5979 793f 6278 833f
00000020: de4b 823f 8f5f 813f 03e0 8c3f fbd1 7e3f
00000030: 0611 853f 53ca 853f 31ac 7f3f 8d13 843f
00000040: eb73 853f fbc0 853f 5370 743f 919c 853f
00000050: c837 883f 95c1 7a3f efa2 8d3f f0c5 813f
00000060: ef8b 903f 3f27 763f 0c4c 773f 631b 673f
00000070: 8188 7e3f 8a01 873f 2bb7 8c3f 6d27 813f

t_modules.0.layers.0.1.norm.bias f4 [32]
0.0747131 0.05720238 0.012990921 0.023575429 0.004681645 -0.019662673 0.010194637 -3.6288657e-05
-0.06040875 0.020682445 0.029717855 0.023330795 -0.020086084 0.030574083 -0.037789438 -0.07195468
-0.033208534 -0.0778529 -0.012388779 0.0446751 -0.034741037 -0.021619994 -0.069837786 0.010045784
0.018735621 -0.020534487 -0.036340456 0.03371017 0.058888134 0.0017929042 -0.008162502 0.028782116
00000000: 2f03 993d 0b4d 6a3d dfd7 543c 4221 c13c
00000010: 7c68 993b 9d13 a1bc 6807 273c a634 18b8
00000020: 2a6f 77bd 3b6e a93c dc72 f33c 3920 bf3c
00000030: 928b a4bc 8076 fa3c 19c9 1abd fa5c 93bd
00000040: ac05 08bd 5771 9fbd 4efa 4abc 3dfd 363d
00000050: 9e4c 0ebd 6a1c b1bc 1d07 8fbd 1297 243c
00000060: 727b 993c f137 a8bc bbd9 14bd ad13 0a3d
00000070: af34 713d e2ff ea3a 04bc 05bc 79c8 eb3c

t_modules.0.layers.0.1.fn.net.0.weight f4 [64, 32]
-0.1974435 -0.09229832 0.005605821 0.14446943 0.09310415 0.0639055 0.059631035 0.056378867
0.005785781 0.40011063 0.021850469 0.13901334 -0.010631907 0.13052139 -0.19021043 0.14724973
-0.05840029 -0.09477528 -0.12632674 -0.04716462 -0.035136648 -0.056441374 0.222167 0.03676911
0.14569148 -0.10276179 -0.04675713 0.14993837 -0.008938171 0.15873972 0.1271927 0.123536445
-0.16750336 0.15227488 0.06413696 0.11886712 -0.10908548 -0.006557269 -0.06116229 -0.086539276
-0.10840438 -0.06717848 0.06197396 -0.27443627 0.1305671 0.080164194 0.2135407 0.08478108
0.056866113 0.059113417 0.074718535 -0.058655765 0.11779395 -0.16823794 -0.12975217 -0.13476112
0.054768357 -0.03471983 -0.12705368 0.046085563 0.23837383 -0.10822735 -0.16591418 -0.07468981
0.16843012 -0.105675645 0.020818168 0.17700462 0.21659684 -0.044394694 -0.14223982 -0.20694958
0.18241763 -0.21654499 -0.043787196 0.06412025 0.15999791 -0.1357958 -0.13520777 -0.121815056
-0.0449425 -0.011921819 0.05822022 0.22551863 0.03128483 0.13537847 0.13286863 0.0045241853
-0.2558206 -0.13084757 0.14770085 -0.09857536 0.07569808 -0.21030678 -0.03219189 -0.0508417
-0.13047355 0.07380656 0.17021404 -0.110171236 -0.16618262 0.063288175 -0.03600923 0.21795826
-0.101395056 0.17282471 -0.011117824 -0.0526703 -0.058942683 0.016358044 0.043630615 0.08023228
-0.026903668 0.059542213 0.050054263 -0.10978088 -0.21263412 -0.13102232 0.2951367 -0.018299572
-0.13290861 -0.001641574 0.15709321 -0.20037116 0.010710983 0.01905437 -0.1356394 -0.071049884
-0.10338412 0.13592136 0.049292624 0.35675263 0.18075243 -0.14858559 0.18310033 -0.30575082
-0.16337217 0.09067005 -0.049932893 0.054275453 -0.12050804 0.09598581 -0.13077486 0.21705024
-0.1000057 0.14058213 -0.03158819 -0.08194285 -0.090275146 0.10194406 0.013641525 -0.07023014
-0.2071936 -0.052568134 0.11229077 0.02943364 -0.063875236 -0.04823165 0.22324254 -0.07103058
-0.061149854 0.16483113 -0.08870487 0.11839944 0.013811338 -0.10468204 -0.048671037 0.011303302
-0.1656782 -0.08336068 0.06825488 -0.06110891 -0.08488 -0.22842884 -0.1438003 -0.13591118
-0.011424142 -0.20442654 0.2098235 -0.1692566 0.041106466 0.0019259667 0.13029116 -0.07654799
0.121297665 0.15748312 -0.13893068 0.08866448 -0.06090509 -0.10292746 -0.14619003 0.21539712
0.08823942 -0.14439154 0.28363335 0.09806279 -0.03646131 -0.1568618 0.023252793 0.0020639931
0.026082205 0.09968977 0.05579337 -0.2841362 0.02208147 0.057064448 0.15454012 0.1494097
0.04588922 0.02823375 0.110049576 0.08104752 0.07448078 -0.17898336 0.2242162 0.08592068
0.027254432 -0.0049666283 0.083157815 -0.2168506 -0.25750792 -0.16318643 0.08850713 0.061950415
-0.21049899 0.15172525 -0.114126705 -0.20542169 0.09717172 -0.09700121 0.15474305 -0.002935319
-0.07985237 0.12983134 0.048211936 -0.1328277 0.2657442 -0.05132159 0.13789645 -0.04087889
0.04330323 0.054035183 0.028096324 0.063964665 0.19941793 0.16205886 0.004533038 0.15736331
0.051432952 0.019199919 0.019576035 0.033178292 0.0376106 -0.08782558 -0.03337269 0.08501277
00000000: a12e 4abe e706 bdbd 09b1 b73b cbef 133e
00000010: 63ad be3d e3e0 823d ac3f 743d 87ed 663d
00000020: a696 bd3b 4ddb cc3e c1ff b23c 8359 0e3e
00000030: 7331 2ebc 66a7 053e 86c6 42be a2c8 163e
00000040: 2435 6fbd 8b19 c2bd cc5b 01be b02f 41bd
00000050: 72eb 0fbd 122f 67bd bf7f 633e 359b 163d
00000060: 2630 153e c674 d2bd 6884 3fbd 7289 193e
00000070: 6871 12bc aa8c 223e ce3e 023e ad00 fd3d
00000080: 0086 2bbe f2ed 1b3e 3d5a 833d 9b70 f33d
00000090: 3568 dfbd 5cde d6bb 4f85 7abd 813b b1bd
000000a0: 1e03 debd df94 89bd 68d8 7d3d e982 8cbe
000000b0: 62b3 053e 202d a43d 6aaa 5a3e b4a1 ad3d
000000c0: 71ec 683d e920 723d 0806 993d 0741 70bd
000000d0: f43d f13d 9146 2cbe c1dd 04be d2fe 09be
000000e0: c954 603d 6136 0ebd 5c1a 02be 37c4 3c3d
000000f0: 4518 743e 4da6 ddbd 68e5 29be f9f6 98bd
00000100: f278 2c3e 796c d8bd dd8a aa3c b340 353e
00000110: 90cb 5d3e 36d7 35bd 51a7 11be 97ea 53be
00000120: b0cb 3a3e f8bd 5dbe 345a 33bd 7a51 833d
00000130: 7ed6 233e 0e0e 0bbe e873 0abe 2c7a f9bd
00000140: a015 38bd bc53 43bc 5378 6e3d 5bee 663e
00000150: 8624 003d a7a0 0a3e b70e 083e 9e3f 943b
00000160: ebfa 82be e8fc 05be e43e 173e e1e1 c9bd
00000170: 9807 9b3d a95a 57be a5db 03bd 633f 50bd
00000180: dc9a 05be e527 973d 974c 2e3e 75a1 e1bd
00000190: c72b 2abe 3b9d 813d 6a7e 13bd 7330 5f3e
000001a0: 36a8 cfbd f6f8 303e 8927 36bc d0bc 57bd
000001b0: e26d 71bd 4e01 863c 04b6 323d d250 a43d
000001c0: 1565 dcbc 89e2 733d b305 4d3d ccd4 e0bd
000001d0: c2bc 59be b72a 06be 281c 973e fce8 95bc
000001e0: 3219 08be 152a d7ba 0bdd 203e 192e 4dbe
000001f0: 1e7d 2f3c e917 9c3c 0ee5 0abe 9a82 91bd
00000200: 0ebb d3bd f82e 0b3e 10e7 493d 48a8 b63e
00000210: 2a17 393e d226 18be a77e 3b3e 5f8b 9cbe
00000220: 094b 27be 38b1 b93d 6f86 4cbd f04f 5e3d
00000230: ebcc f6bd 3594 c43d d8e9 05be 6b42 5e3e
00000240: cacf ccbd c3f4 0f3e 9e62 01bd a7d1 a7bd
00000250: 2de2 b8bd 0cc8 d03d b480 5f3c d2d4 8fbd
00000260: 8f2a 54be af51 57bd b4f8 e53d d11e f13c
00000270: 05d1 82bd 8d8e 45bd b199 643e 7b78 91bd
00000280: 4578 7abd 7ec9 283e e6aa b5bd 687b f23d
00000290: f348 623c 8a63 d6bd 485b 47bd 7c31 393c
000002a0: 8ca7 29be 01b9 aabd 37c9 8b3d 564d 7abd
000002b0: 91d5 adbd 40e9 69be 6340 13be 4d2c 0bbe
000002c0: 532c 3bbc 3155 51be f9db 563e 9a51 2dbe
000002d0: 415f 283d b870 fc3a 0c6b 053e 31c5 9cbd
000002e0: e96a f83d 4143 213e d843 0ebe b995 b53d
000002f0: 9e77 79bd a2cb d2bd d7b2 15be 1091 5c3e
00000300: deb6 b43d 60db 13be 6438 913e 25d5 c83d
00000310: 7458 15bd 61a0 20be a47c be3c 0f44 073b
00000320: 59aa d53c 262a cc3d 9787 643d 4d7a 91be
00000330: 33e4 b43c 69bc 693d c43f 1e3e dbfe 183e
00000340: 56f6 3b3d 774a e73c ac61 e13d 3efc a53d
00000350: 6189 983d 6a47 37be ee98 653e 2ef7 af3d
00000360: b044 df3c 19bf a2bb a54e aa3d 150e 5ebe
00000370: 14d8 83be 581a 27be 3a43 b53d b8bf 7d3d
00000380: 0c8d 57be dd5d 1b3e 43bb e9bd 105a 52be
00000390: f701 c73d 92a8 c6bd f674 1e3e 7b5e 40bb
000003a0: a489 a3bd 82f2 043e e179 453d fc03 08be
000003b0: a00f 883e 9636 52bd ba34 0d3e 9f70 27bd
000003c0: ba5e 313d ff53 5d3d 432a e63c e8ff 823d
000003d0: 3734 4c3e c2f2 253e e189 943b d923 213e
000003e0: 5cab 523d 2649 9d3c ec5d a03c f6e5 073d
000003f0: 930d 1a3d e6dd b3bd cdb1 08bd 2d1b ae3d

t_modules.0.layers.0.1.fn.net.0.bias f4 [64]
-0.13565569 -0.008700232 0.056018468 -0.15299003 -0.15857641 0.000482707 -0.01427158 -0.067016326
0.057572283 -0.07050136 0.07739044 -0.055734 -0.06284669 -0.06871464 0.042200997 0.049555812
0.018192988 -0.044902556 -0.041488357 0.02099237 -0.16415568 -0.15260449 -0.21938889 -0.020551411
-0.112200215 0.12361249 -0.085059196 0.009727135 0.052732322 -0.23107287 -0.086755455 -0.07996949
0.006854406 -0.040699005 -0.03154078 -0.10463666 0.12614574 -0.1397455 0.062479 -0.032876253
0.061590914 -0.037952416 0.04530363 0.053875457 0.12683319 -0.12969387 -0.0073116114 -0.07172069
-0.18656163 0.092173785 -0.054168075 -0.16145231 -0.06960924 -0.026364662 -0.107672356 -0.09209917
0.016370349 0.0075301393 -0.12546109 0.040714286 -0.03610104 -0.042664576 -0.17183378 -0.028685817
00000000: 53e9 0abe 6b8b 0ebc 9f73 653d 6ba9 1cbe
00000010: db61 22be d613 fd39 58d3 69bc db3f 89bd
00000020: ead0 6b3d 0463 90bd e17e 9e3d 5649 64bd
00000030: c4b5 80bd 43ba 8cbd f4da 2c3d 09fb 4a3d
00000040: 7609 953c beeb 37bd b2ef 29bd 31f8 ab3c
00000050: 6d18 28be 5a44 1cbe 7ba7 60be 6f5b a8bc
00000060: 3ac9 e5bd 8c28 fd3d 8433 aebd 905e 1f3c
00000070: d9fd 573d 5e9e 6cbe d8ac b1bd 0bc7 a3bd
00000080: ed9a e03b 00b4 26bd e830 01bd bf4b d6bd
00000090: 592c 013e 7219 0fbe fbe9 7f3d 40a9 06bd
000000a0: c146 7c3d fe73 1bbd 4d90 393d 83ac 5c3d
000000b0: 8fe0 013e 78ce 04be 3e96 efbb 4ce2 92bd
000000c0: 030a 3fbe 9cc5 bc3d 58df 5dbd c153 25be
000000d0: 4a8f 8ebd b4fa d7bc 5383 dcbd 7d9e bcbd
000000e0: 1c1b 863c 63bf f63b df78 00be 06c4 263d
000000f0: afde 13bd 0dc1 2ebd 32f5 2fbe 85fe eabc

t_modules.0.layers.0.1.fn.net.3.weight f4 [32, 64]
0.08441795 -0.034925353 -0.18875483 -0.0078976955 -0.11124966 -0.059891157 0.033330154 -0.13065997
-0.00910424 0.080963135 -0.0328675 -0.054476976 0.12044992 -0.02982446 -0.04872389 0.061299574
0.018373339 0.048423782 -0.060892936 0.087095395 -0.033517655 0.07946104 0.011889489 0.0405588
-0.006753624 -0.12168303 -0.033913158 0.094887234 0.14864646 0.12082046 -0.025355596 -0.14035498
0.08000212 0.016068544 -0.056230057 0.07817268 -0.071932875 -0.009533991 -0.107282706 0.027307719
-0.049900312 0.10365249 0.09994407 -0.037692204 0.15826164 -0.029525217 0.08115225 -0.06356538
0.023033096 0.048597876 0.14284438 0.017663764 -0.02645981 0.06553103 0.13721932 0.049215864
0.12117606 -0.021865053 0.09002429 -0.14994577 -0.07901184 0.11483507 0.09354022 0.029112892
-0.08082141 0.041738853 0.20855598 0.15830527 0.029520884 0.05725007 -0.09362777 0.030307481
0.02943783 0.11851506 0.110284545 -0.019712292 0.020084666 -0.0007435229 -0.1923852 0.17269316
0.1168332 0.07994601 0.13775471 0.10061344 -0.09137742 -0.08458729 -0.02337541 -0.09320091
-0.08654259 0.1462178 0.09645697 0.050554994 0.018043047 -0.17273122 0.011370069 -0.0039883447
0.057628047 -0.13998054 -0.030747209 0.2602646 0.34677964 0.06792804 0.21759547 -0.14830722
-0.055001754 -0.10719923 -0.03767544 0.19296798 0.14043528 -0.1282997 0.14234166 -0.05159064
0.11088037 0.0471429 -0.041522328 -0.0487775 0.0916134 -0.09306838 0.050013006 -0.0858777
0.16114429 0.060970314 -0.049520887 -0.085566886 0.044824686 0.16389409 0.079219684 -0.027443152
-0.15018623 -0.033760976 0.09240689 -0.07398409 -0.080562264 0.07538391 0.041685548 0.044208106
-0.022358526 -0.0067835487 0.07138871 -0.032401763 0.05228192 -0.02600716 0.11079505 0.019217465
-0.02462739 -0.13495672 -0.08939922 -0.14574881 -0.009713978 0.09118666 -0.15279663 -0.05689561
-0.023393841 -0.10287616 0.073615566 0.025936862 0.017386448 0.0022345802 0.1118267 0.022527738
-0.03402042 0.056259744 0.056474645 -0.023370005 -0.06301162 -0.087668896 -0.024264446 -0.15271363
-0.06497568 -0.05902582 -0.13959807 -0.075797744 -0.08422067 -0.14890182 0.005191262 -0.03761422
0.0042359657 0.032615367 0.19209479 -0.029016953 -0.097710274 0.07636477 -0.13117543 0.064119756
-0.13332476 -0.10933542 0.17530811 0.034719676 0.03317336 -0.06358174 -0.0585435 -0.22943838
0.11582512 -0.10957199 -0.18439996 -0.15405844 0.15270925 -0.10635304 -0.057049274 -0.014982205
0.0064296694 -0.13870329 -0.10918765 0.01203324 0.025800493 0.04897211 -0.04729861 -0.016493933
0.033595927 -0.04558794 -0.0129259415 -0.04072824 0.071705766 -0.07151279 0.015913334 -0.022402633
0.07734123 0.0950304 0.123882726 -0.058611315 -0.082891025 -0.118517555 -0.09814919 0.12891705
-0.15969478 0.03323985 0.003018582 -0.14936376 -0.03928996 -0.06780147 -0.048284534 0.12603095
-0.052503735 -0.08003871 0.14157104 -0.085173905 -0.048955694 -0.09092879 0.07867201 0.048176978
-0.057548497 0.100501694 0.09122553 -0.017306633 0.02645405 -0.0068868473 -0.09698034 -0.021535804
-0.10778873 -0.1318361 -0.013232614 0.026277447 -0.13334861 -0.26041508 -0.04190909 -0.15934968
00000000: 51e3 ac3d e30d 0fbd f248 41be 5665 01bc
00000010: ddd6 e3bd 6e50 75bd 3385 083d bacb 05be
00000020: f329 15bc 00d0 a53d 12a0 06bd 4023 5fbd
00000030: 73ae f63d 6d52 f4bc b492 47bd 4315 7b3d
00000040: af83 963c 0458 463d df6a 79bd 125f b23d
00000050: cf49 09bd 78bc a23d 22cc 423c fc20 263d
00000060: 814d ddbb f434 f9bd 86e8 0abd 3d54 c23d
00000070: c736 183e b870 f73d 8ab6 cfbc 37b9 0fbe
00000080: 27d8 a33d 2ea2 833c 7d51 66bd 0019 a03d
00000090: 8b51 93bd 7534 1cbc 09b7 dbbd 70b4 df3c
000000a0: 4564 4cbd c247 d43d 7aaf cc3d 2463 1abd
000000b0: 570f 223e dede f1bc 2733 a63d 912e 82bd
000000c0: e7af bc3c 910e 473d cc45 123e 99b3 903c
000000d0: 3ec2 d8bc 2235 863d 3983 0c3e 9396 493d
000000e0: 272b f83d 571e b3bc a85e b83d 628b 19be
000000f0: f6d0 a1bd a62e eb3d 0492 bf3d 297e ee3c
00000100: b285 a5bd 5cf6 2a3d b38f 553e c71a 223e
00000110: c8d5 f13c 0d7f 6a3d ebbf bfbd 6547 f83c
00000120: 9b27 f13c 06b8 f23d dddc e13d ac7b a1bc
00000130: 9988 a43c fae8 42ba a000 45be 7ad6 303e
00000140: 3f46 ef3d bcba a33d 920f 0d3e 6b0e ce3d
00000150: 1624 bbbd 1a3c adbd ca7d bfbc 1ee0 bebd
00000160: 3e3d b1bd 1eba 153e 3b8b c53d c112 4f3d
00000170: 03cf 933c 74e0 30be 8749 3a3c a9b0 82bb
00000180: 630b 6c3d 0f57 0fbe 92e1 fbbc 6741 853e
00000190: 1a8d b13e db1d 8b3d 59d1 5e3e d9dd 17be
000001a0: 8549 61bd 458b dbbd 9051 1abd 6699 453e
000001b0: 44ce 0f3e ff60 03be 03c2 113e b550 53bd
000001c0: 3f15 e33d ea18 413d 5113 2abd eaca 47bd
000001d0: ce9f bb3d a39a bebd 70da 4c3d a6e0 afbd
000001e0: 0203 253e 02bc 793d 6ad6 4abd b13d afbd
000001f0: 179a 373d dad3 273e ee3d a23d 76d0 e0bc
00000200: 6bca 19be f348 0abd d33f bd3d f884 97bd
00000210: d4fd a4bd e162 9a3d 77be 2a3d 8f13 353d
00000220: 3a29 b7bc 8848 debb 3e34 923d b6b7 04bd
00000230: 9125 563d f80c d5bc 84e8 e23d f26d 9d3c
00000240: 61bf c9bc 1832 0abe f016 b7bd 2d3f 15be
00000250: 6027 1fbc 12c0 ba3d b876 1cbe 5f0b 69bd
00000260: 71a4 bfbc bcb0 d2bd c2c3 963d 8b79 d43c
00000270: 066e 8e3c 0972 123b 6605 e53d 178c b83c
00000280: ff58 0bbd 9e70 663d f551 673d 7472 bfbc
00000290: 3c0c 81bd c08b b3bd 3bc6 c6bc f660 1cbe
000002a0: f811 85bd 0fc5 71bd ccf2 0ebe d93b 9bbd
000002b0: e37b acbd b879 18be 761b aa3b 5e11 1abd
000002c0: dbcd 8a3b b197 053d 7fb4 443e f6b4 edbc
000002d0: 531c c8bd 2265 9c3d da52 06be 3851 833d
000002e0: 4986 08be 40eb dfbd f883 333e 3836 0e3d
000002f0: cae0 073d 2537 82bd 4fcb 6fbd e5f1 6abe
00000300: b835 ed3d 4867 e0bd 58d3 3cbe 7fc1 1dbe
00000310: d05f 1c3e 9fcf d9bd 80ac 69bd ec77 75bc
00000320: faaf d23b 3c08 0ebe c69d dfbd 1127 453c
00000330: 8e5b d33c fb96 483d 30bc 41bd 491e 87bc
00000340: e29b 093d 6bba 3abd 54c7 53bc a8d2 26bd
00000350: 79da 923d 4c75 92bd ae5c 823c ba85 b7bc
00000360: 1465 9e3d 4c9f c23d 3ab6 fd3d 6b12 70bd
00000370: c5c2 a9bd 55b9 f2bd 7102 c9bd d502 043e
00000380: 0787 23be 8226 083d 67d3 453b d0f2 18be
00000390: 82ee 20bd 7fdb 8abd 01c6 45bd 420e 013e
000003a0: 280e 57bd 56eb a3bd 00f8 103e a86f aebd
000003b0: c485 48bd e038 babd ca1e a13d 3955 453d
000003c0: f9b7 6bbd d5d3 cd3d 73d4 ba3d a4c6 8dbc
000003d0: 2ab6 d83c 10ab e1bb a19d c6bd db6b b0bc
000003e0: 56c0 dcbd 0b00 07be 9bcd 58bc cd43 d73c
000003f0: 8a8c 08be 2055 85be dea8 2bbd 902c 23be

t_modules.0.layers.0.1.fn.net.3.bias f4 [32]
-0.060762167 -0.07061022 -0.04742524 0.03523933 -0.038688213 0.021722764 0.04858922 -0.004314354
-0.009337869 0.001900885 0.08521423 0.037113275 -0.016641803 -0.08366698 -0.0022657872 -0.06554028
0.0197133 0.0488642 -0.08701746 0.026542846 0.030484268 -0.06676988 0.0647349 -0.0023482386
0.010650788 -0.043486793 0.04684131 -0.030036172 -0.0030788428 -0.014480828 -0.06728723 -0.0924731
00000000: c0e1 78bd 179c 90bd f840 42bd 1e57 103d
00000010: 8877 1ebd f0f3 b13c 7d05 473d 6d5f 8dbb
00000020: dcfd 18bc 1e27 f93a cc84 ae3d 1704 183d
00000030: 6454 88bc 9859 abbd 9a7d 14bb fb39 86bd
00000040: c97d a13c d425 483d 3636 b2bd 6270 d93c
00000050: 25ba f93c a6be 88bd bb93 843d e8e4 19bb
00000060: a580 2e3c 351f 32bd acdc 3f3d 6b0e f6bc
00000070: 69c6 49bb ff40 6dbc e3cd 89bd 8962 bdbd

t_modules.1.pos_embedding f4 [1, 12, 32]
-0.4813906 -0.8539593 -0.55328846 0.67820793 -1.5024348 -0.4555265 -0.98693585 -0.45210236
0.8859065 0.1166924 0.4138656 -1.363877 -0.8900576 0.7177537 0.03698586 -0.16520122
-0.2433486 0.21854581 1.0468639 -0.21478197 0.8437545 -1.2097139 -0.38593587 0.90775615
-0.21465424 -1.3055389 0.79450893 -0.12909009 -0.21877885 0.48471472 -0.030487357 -0.50308
-0.04358101 0.0009277223 1.0072653 -0.47672975 1.3218328 -0.20476633 0.9938414 -0.997545
-0.5485083 0.3674016 0.020593816 -0.9716178 -0.5081228 0.12919259 0.46712345 1.0323861
0.05038686 1.8116546 -0.45785713 0.056387734 0.61020374 -0.15892093 0.22720487 -1.1778255
0.98761994 -0.12500054 -0.78061557 -1.1085702 -0.27039504 -0.91477776 -0.3353911 -1.0227791
0.3258563 -0.6365744 -0.28410017 0.50578254 -1.397579 -0.6090947 -0.63179773 0.764307
1.9141237 0.13827084 -1.2886547 -1.4306616 -1.5536219 0.08540395 0.93954706 0.43534103
-0.25068626 1.0607778 -0.78190935 -0.04305842 -0.69213635 0.1317156 -0.82198846 0.9924469
0.37000638 0.09492544 0.49886307 -0.12249066 -0.48670557 -0.9789235 0.73091924 -1.5309697
0.53578305 -1.3309426 -0.19271491 -1.2833747 0.073251925 -0.86558586 -0.8723512 -2.2014072
0.426568 0.13904892 0.7046856 0.5975306 0.31145743 -1.0688311 1.5042833 1.2699922
-0.5081119 0.79603875 0.43132243 1.1665477 0.5527817 -0.62069505 -1.7507427 -0.9750068
-0.16369154 -0.7085951 -1.1785296 1.8024347 -1.3310635 -1.0143647 0.29498014 -0.24970108
0.4582727 -0.30187148 -0.014419702 1.460033 -0.9851572 0.29639018 -0.52632326 0.8030663
0.4966907 -1.1811092 1.2745407 -0.14280525 0.6995159 0.15604368 0.75292856 -0.22521853
-0.45702198 0.36842507 -0.5951067 1.053083 0.2966409 -0.85119724 0.21726356 -0.79490775
1.4380509 0.5086128 0.40328136 2.0138102 -2.2992208 0.5763254 -0.33018818 0.2820253
0.40974662 -0.59657985 0.54478025 -1.4399844 0.10779841 0.76294595 -0.22971621 -0.44985527
-1.4334388 0.73919094 -0.14525716 0.2911021 0.84802854 0.38944462 -0.85459757 0.40837544
-0.29897305 -0.048847597 0.56953436 -0.74880105 1.0623865 -0.30303788 0.28905347 0.08853799
-0.9618011 1.0799181 0.3384454 0.64603573 0.27740276 0.22003618 0.13587445 1.427647
0.4868803 -0.4371098 1.0185791 -0.114619076 0.5831059 1.2119606 0.1622299 0.23442805
-0.059941698 -0.9806836 0.22929054 -1.854322 -0.96938926 -0.8731195 -0.9510301 2.4493675
-1.2294745 0.9651399 0.023168257 0.5297786 0.5324787 -0.1225782 0.476521 -0.3267339
0.06554435 1.5193301 0.53621405 0.40330335 0.22727187 0.8473003 0.2248488 0.09071398
-0.613791 -0.37818348 -0.18590827 0.9504785 0.9948549 -0.017319724 -0.5315499 0.56984556
-1.8069725 0.48526302 0.40162385 0.19283429 -1.3254147 -0.83617646 0.049121905 0.26866636
-0.9107558 -0.22811846 -1.2635291 0.6157385 -1.374376 0.10829549 -0.7391372 0.48882112
-0.894747 0.39014584 -0.50767034 0.29062858 -0.71153325 -0.4252073 -1.3640612 0.10399136
00000000: d478 f6be 149d 5abf 50a4 0dbf 099f 2d3f
00000010: c94f c0bf c53a e9be d4a7 7cbf f679 e7be
00000020: c5ca 623f 6dfc ee3d 31e6 d33e 8693 aebf
00000030: d1da 63bf b5be 373f 7c7e 173d 822a 29be
00000040: 6030 79be 79ca 5f3e a3ff 853f ceef 5bbe
00000050: 4b00 583f e8d7 9abf 6399 c5be b562 683f
00000060: 52ce 5bbe e61b a7bf f064 4b3f 3130 04be
00000070: 9007 60be 872c f83e 9fc0 f9bc dac9 00bf
00000080: 0082 32bd 6432 733a 12ee 803f ec15 f4be
00000090: d131 a93f 44ae 51be 646c 7e3f 1c5f 7fbf
000000a0: 0a6b 0cbf 101c bc3e 5db4 a83c f2bb 78bf
000000b0: 5614 02bf 104b 043e ce2a ef3e 3a25 843f
000000c0: 7462 4e3d 4ce4 e73f 406c eabe d3f6 663d
000000d0: 5036 1c3f 2bbc 22be 65a8 683e fcc2 96bf
000000e0: a9d4 7c3f 2400 00be 6cd6 47bf a1e5 8dbf
000000f0: 3871 8abe e02e 6abf 62b8 abbe 6dea 82bf
00000100: a3d6 a63e 8af6 22bf 9475 91be f77a 013f
00000110: dee3 b2bf a1ed 1bbf 7fbd 21bf a0a9 433f
00000120: 0102 f53f df96 0d3e a3f2 a4bf eb1f b7bf
00000130: 15dd c6bf 44e8 ae3d 2886 703f 05e5 de3e
00000140: f359 80be 91c7 873f 362b 48bf 075e 30bd
00000150: d92f 31bf 74e0 063e d66d 52bf 0011 7e3f
00000160: 7a71 bd3e 4568 c23d fb6a ff3e 62dc fabd
00000170: 7931 f9be bb9a 7abf 861d 3b3f d1f6 c3bf
00000180: 1429 093f 545c aabf 0f57 45be 9f45 a4bf
00000190: 1b05 963d 0997 5dbf 6952 5fbf dbe3 0cc0
000001a0: 1f67 da3e d762 0e3e 4766 343f c4f7 183f
000001b0: 5977 9f3e 75cf 88bf 5b8c c03f 1b8f a23f
000001c0: 9f13 02bf 32c9 4b3f 4bd6 dc3e 6f51 953f
000001d0: 1a83 0d3f dfe5 1ebf 5618 e0bf 0c9a 79bf
000001e0: c19e 27be 7d66 35bf 0fda 96bf 2eb6 e63f
000001f0: 4a60 aabf b4d6 81bf a307 973e a4b1 7fbe
00000200: b8a2 ea3e e68e 9abe 9d40 6cbc 5de2 ba3f
00000210: 4333 7cbf 74c0 973e 1fbd 06bf c195 4d3f
00000220: 3e4e fe3e 962e 97bf 2624 a33f 8a3b 12be
00000230: 7913 333f eac9 1f3e edbf 403f b09f 66be
00000240: c9fe e9be 36a2 bc3e ea58 18bf 6ccb 863f
00000250: 51e1 973e 10e8 59bf 577a 5e3e 137f 4bbf
00000260: 0d12 b83f 7334 023f e57a ce3e 44e2 0040
00000270: 6f26 13c0 108a 133f 6d0e a9be 9f65 903e
00000280: 4fca d13e 75b9 18bf b876 0b3f 6951 b8bf
00000290: 6ac5 dc3d 6d50 433f ba3a 6bbe 6e53 e6be
000002a0: ec7a b7bf 9e3b 3d3f 4bbe 14be 560b 953e
000002b0: 6618 593f 4965 c73e e8c6 5abf 9616 d13e
000002c0: ff12 99be 6b14 48bd 01cd 113f 6db1 3fbf
000002d0: 48fc 873f c827 9bbe d1fe 933e 6853 b53d
000002e0: 9938 76bf c23a 8a3f b748 ad3e 9962 253f
000002f0: bc07 8e3e 2a51 613e ac22 0b3e 23bd b63f
00000300: 6048 f93e dbcc dfbe cd60 823f 68bd eabd
00000310: 6e46 153f 8621 9b3f 981f 263e e80d 703e
00000320: 6d85 75bd 150e 7bbf 24cb 6a3e 6c5a edbf
00000330: e529 78bf c284 5fbf b576 73bf 70c2 1c40
00000340: 6c5f 9dbf 6913 773f 5bcb bd3c 929f 073f
00000350: 8650 083f 480a fbbd 8ffa f33e aa49 a7be
00000360: 1e3c 863d 6979 c23f 5345 093f c77d ce3e
00000370: f5b9 683e ace8 583f c43e 663e 40c8 b93d
00000380: 6821 1dbf 44a1 c1be bd5e 3ebe 8f52 733f
00000390: d0ae 7e3f 18e2 8dbc a713 08bf 66e1 113f
000003a0: e04a e7bf 6574 f83e a4a1 cd3e 5a76 453e
000003b0: 30a7 a9bf a90f 56bf 0d34 493d a38e 893e
000003c0: 4b27 69bf e397 69be 52bb a1bf 0aa1 1d3f
000003d0: 8eeb afbf 07ca dd3d 1838 3dbf c346 fa3e
000003e0: 240e 65bf 32c1 c73e aff6 01bf 45cd 943e
000003f0: 0b27 36bf c5b4 d9be 8f99 aebf 6cf9 d43d

t_modules.1.layers.0.0.qkv.weight f4 [96, 32]
-0.053626884 0.014443876 -0.008358253 0.13537155 -0.08710104 -0.0027656832 -0.022891423 0.16179352
-0.034457035 0.03225833 0.0011030196 -0.007741086 0.018250916 -0.12064611 0.13613914 -0.04289221
-0.18637262 -0.039914712 0.16715086 -0.11985004 -0.069170654 -0.09679224 0.07718603 -0.14557621
-0.12438373 0.13646787 -0.16429046 -0.05713036 0.114961945 -0.009819517 -0.02205636 0.12577648
0.19963121 0.010663532 0.023523495 -0.045471665 0.09220397 -0.12400828 0.05631037 -0.056015573
-0.05378108 0.012685614 0.0185831 0.030866573 -0.0076929983 -0.09486721 -0.11791293 0.12216259
0.084102914 -0.078765206 -0.097560845 -0.020166453 0.023947814 -0.04089053 -0.053646907 0.17243484
0.10523027 0.033892646 0.064935364 0.00051401125 0.0521743 -0.09648933 -0.12531348 0.07876936
-0.10894114 0.086760014 -0.011908366 0.06448187 0.07607447 0.00937408 0.14800961 0.097365685
0.07945689 0.024494145 0.23015496 -0.14336853 -0.04940921 0.080861546 0.16670588 0.089244515
-0.030459838 0.09520166 -0.016489824 -0.10867938 0.089242555 -0.17772871 -0.06465615 -0.027491871
0.051760945 0.082043685 0.0799114 0.031689283 0.12857933 -0.09707038 -0.039202824 -0.17646877
0.13851087 -0.012066677 0.026332816 -0.1301315 0.02225971 -0.047793906 0.054890607 0.045471024
0.03293324 0.002948137 0.061284877 -0.012819438 0.06583044 0.0031555216 -0.05602537 -0.038568262
0.01224207 -0.022266176 -0.018760303 0.058071773 0.011389001 -0.027354162 -0.009269226 0.1628291
-0.077790424 -0.029137459 0.0005713444 0.17803968 0.19842558 0.056260448 -0.044224657 0.1653854
0.011137334 -0.16353826 -0.17748363 0.10231545 0.24455264 -0.1240896 -0.1392673 -0.15953475
-0.07368003 -0.046103973 0.025323445 -0.088770695 0.02146095 -0.1925019 0.045504153 -0.061459165
0.07885293 -0.07603886 -0.035395727 -0.09340684 0.14363371 0.033717647 0.093777336 0.1691338
0.11280654 -0.081133656 -0.027155332 -0.07500872 -0.02491113 0.06329056 0.060353942 -0.002698851
-0.14850233 0.013400449 -0.17713442 0.07832177 -0.23512356 0.11649835 -0.07184734 0.24122904
0.21274115 0.1666881 0.26381013 -0.181344 -0.11275187 0.04216466 0.12473876 -0.07941368
-0.005237726 -0.031019645 0.12366508 -0.09850141 -0.09893195 -0.15244389 -0.024898773 -0.14976794
-0.04455467 0.2300287 0.0045449757 0.08591358 -0.07908358 0.07667874 -0.024318993 -0.27964947
0.09184071 0.046764087 0.13863555 -0.016370926 -0.08213496 0.020253375 0.1130101 -0.11681014
-0.12217236 0.0881032 -0.08615989 0.08217877 0.09079332 -0.0036591922 -0.03528761 0.05158303
-0.011023443 0.15787376 0.08150982 0.016516373 -0.1923513 0.18208721 0.1284519 -0.22079457
0.014691069 0.124970324 -0.03930815 0.028816618 -0.20633301 -0.07918288 0.10534337 -0.019642528
-0.00021509916 -0.04816105 -0.07299202 0.13241023 -0.07564093 -0.038422037 0.06354115 -0.021816742
-0.071540505 0.15251908 0.08261692 -0.05466527 0.21995555 0.02478317 -0.014431998 -0.12090333
0.02379778 0.04495163 -0.06162432 -0.14587894 0.043175865 0.091769084 0.10662968 0.011876929
0.007294503 0.036473956 -0.13192949 -0.08875609 -0.12676354 -0.023150075 -0.04828487 -0.032505333
00000000: dda7 5bbd 02a6 6c3c 0ef1 08bc d79e 0a3e
00000010: 0862 b2bd 7740 35bb cb86 bbbc 33ad 253e
00000020: d222 0dbd 5021 043d 3293 903a f0a8 fdbb
00000030: f282 953c 4f15 f7bd 0f68 0b3e beaf 2fbd
00000040: 77d8 3ebe 9c7d 23bd 9829 2b3e f073 f5bd
00000050: 58a9 8dbd 033b c6bd b613 9e3d ee11 15be
00000060: e6bc febd 3cbe 0b3e c23b 28be 8601 6abd
00000070: 2b71 eb3d 0ae2 20bc 8aaf b4bc 8dcb 003e
00000080: 206c 4c3e 18b6 2e3c 58b4 c03c 7f40 3abd
00000090: 6fd5 bc3d 0ef8 fdbd b4a5 663d 9670 65bd
000000a0: 8d49 5cbd 52d7 4f3c 963b 983c e5db fc3c
000000b0: 8c15 fcbb bd49 c2bd 567c f1bd 6130 fa3d
000000c0: 263e ac3d a74f a1bd fbcd c7bd 1e34 a5bc
000000d0: 352e c43c d47c 27bd dcbc 5bbd c292 303e
000000e0: f882 d73d 04d3 0a3d d5fc 843d b6be 063a
000000f0: b8b4 553d 339c c5bd 2d52 00be d551 a13d
00000100: 881c dfbd 3caf b13d 4f1b 43bc 120f 843d
00000110: efcc 9b3d be95 193c d58f 173e a967 c73d
00000120: 4bba a23d f2a7 c83c bead 6b3e 33cf 12be
00000130: 5061 4abd bd9a a53d f2b4 2a3e d4c5 b63d
00000140: e986 f9bc 17f9 c23d ab15 87bc 4b93 debd
00000150: cdc4 b63d 84fe 35be 726a 84bd a236 e1bc
00000160: 4903 543d 8506 a83d 97a8 a33d 9fcc 013d
00000170: 4daa 033e d6cc c6bd 2493 20bd 3bb4 34be
00000180: cbd5 0d3e 50b3 45bc ebb7 d73c 3141 05be
00000190: ff59 b63c 8bc3 43bd f9d4 603d d33f 3a3d
000001a0: 01e5 063d 8835 413b da05 7b3d 9f08 52bc
000001b0: 1cd2 863d decc 4e3b dc7a 65bd c1f9 1dbd
000001c0: f792 483c 8e67 b6bc 35af 99bc abdc 6d3d
000001d0: ef98 3a3c d615 e0bc f4dd 17bc acbc 263e
000001e0: 9650 9fbd aeb1 eebc 46c6 153a 0950 363e
000001f0: 1330 4b3e 5b71 663d ea24 35bd ca5a 293e
00000200: 5d79 363c 9376 27be 45be 35be c38a d13d
00000210: 026c 7a3e b022 febd 169c 0ebe 145d 23be
00000220: 8ee5 96bd 85d7 3cbd 1d73 cf3c 69cd b5bd
00000230: e0ce af3c 381f 45be 9062 3a3d 9bbc 7bbd
00000240: a57d a13d 43ba 9bbd 1cfb 10bd 164c bfbd
00000250: b714 133e 841b 0a3d 550e c03d 6931 2d3e
00000260: 1e07 e73d 6729 a6bd dc74 debc 2c9e 99bd
00000270: 6d12 ccbc 7b9e 813d b235 773d 35df 30bb
00000280: ff10 18be 8f8d 5b3c ba62 35be 2a67 a03d
00000290: 3bc4 70be b096 ee3d b324 93bd bf04 773e
000002a0: d1d8 593e 49b0 2a3e 1f12 873e 3eb2 39be
000002b0: 74ea e6bd dab4 2c3d 0977 ff3d a4a3 a2bd
000002c0: 3ba1 abbb e91c febc 1e44 fd3d 1bbb c9bd
000002d0: d69c cabd 401a 1cbe 83f8 cbbc c45c 19be
000002e0: f57e 36bd a58c 6b3e 05ee 943b 76f3 af3d
000002f0: 92f6 a1bd be09 9d3d a038 c7bc 372e 8fbe
00000300: fb16 bc3d b38b 3f3d 7af6 0d3e 521c 86bc
00000310: 6036 a8bd 68ea a53c d771 e73d 283a efbd
00000320: 8135 fabd 736f b43d 9974 b0bd 584d a83d
00000330: d9f1 b93d 0fcf 6fbb be89 10bd ba48 533d
00000340: ac9b 34bc a9a9 213e 9fee a63d 584d 873c
00000350: bdf7 44be 1275 3a3e e588 033e f917 62be
00000360: cfb2 703c 71f0 ff3d 9501 21bd d410 ec3c
00000370: f648 53be a22a a2bd 44be d73d 5ee9 a0bc
00000380: 3e8c 61b9 8544 45bd d77c 95bd 8c96 073e
00000390: a2e9 9abd 6d60 1dbd dd21 823d 06b9 b2bc
000003a0: d483 92bd f62d 1c3e 0f33 a93d b1e8 5fbd
000003b0: 073c 613e 1306 cb3c 3074 6cbc 2a9c f7bd
000003c0: 90f3 c23c 331f 383d c869 7cbd 4a61 15be
000003d0: 2dd9 303d 6ef1 bb3d a960 da3d 7397 423c
000003e0: ba06 ef3b b765 153d 8618 07be c1c5 b5bd
000003f0: 4dce 01be 3aa5 bdbc 5bc6 45bd 5024 05bd
