small_scale_scenario/experiments/stgcn/KNOWAIR/-fewshot6/final_model_s2018.pt (torch, 955912 bytes, 36 tensors)

st_blocks.0.tmp_conv1.align.align_conv.weight f4 [64, 3, 1, 1]
000000 0b 80 e1 3e 54 e3 04 bf a3 d2 75 3e de c1 d1 bd
       0.44043002 -0.51909375 0.24006133 -0.10242055
000010 a6 ad b4 be d3 a6 06 3f 62 56 92 bd dd 60 28 be
       -0.35288733 0.52598304 -0.071453825 -0.164432
000020 1b ab 81 be 6e c7 99 3e 44 15 09 bf b5 09 62 3e
       -0.25325856 0.30034965 -0.53548074 0.22074015
000030 28 f6 6b be 3c 13 06 3f 82 f0 21 3e 11 c7 bc 3e
       -0.2304312 0.523731 0.15814403 0.36870626
000040 07 ca a5 3c 18 9c 10 3e 4d 63 7a bd ef 07 8f 3e
       0.020237936 0.14122045 -0.061129857 0.2793574
000050 c6 a2 ba 3e 62 e3 eb be b7 cf f5 3e b1 3a 62 be
       0.3645231 -0.46071917 0.48010036 -0.22092701
000060 b1 06 c8 3e cd 95 ba be af 01 ab be 88 4c c5 3e
       0.39067605 -0.36442414 -0.33399722 0.3853495
000070 ae 46 54 be 88 31 b6 3e f7 58 46 be c4 c3 07 be
       -0.20730087 0.35584664 -0.19369875 -0.13258272
000080 41 82 b0 be 37 01 d4 3e 06 fd 8d be 27 42 a6 3e
       -0.34474376 0.41407177 -0.27732104 0.32472345
000090 c7 07 b4 be 12 5b 0a 3f dc ab 09 be 66 6e 62 bd
       -0.35162184 0.5404521 -0.13444465 -0.055281065
0000a0 aa 2c 80 3e 05 15 17 3e 5e d9 0e 3f 35 0a 12 3f
       0.25034076 0.14754112 0.55800426 0.57046825
0000b0 8f f5 f5 be 99 cb 26 3e 28 cd 30 3d e5 11 2a be
       -0.4803891 0.16288604 0.043164402 -0.16608389
0000c0 b0 5d 09 bf 98 eb 0a bf f4 c8 e2 be 28 1d b1 bd
       -0.5365858 -0.5426574 -0.4429394 -0.08648139
0000d0 9c 8f 0b bf 26 d0 e8 be 48 5e 10 3d 76 9f c2 be
       -0.54516006 -0.45471305 0.035246164 -0.38012284
0000e0 49 d6 06 bf fb b0 12 3f a4 32 88 be c8 97 5b be
       -0.52670723 0.573013 -0.26601136 -0.21444619
0000f0 56 a8 35 3d 4d fb 8a 3e ba 5a 27 be 49 03 8d be
       0.04434999 0.27144852 -0.16343203 -0.2754157
000100 30 10 c3 be 33 61 06 be 5e a0 24 3e 6f 01 e0 3e
       -0.38098288 -0.13123016 0.160768 0.43751094
000110 d0 c8 f3 be 5e f5 cf 3e 01 9b db be 0a e2 22 3e
       -0.47614145 0.40616888 -0.42891696 0.1590654
000120 ca e3 ef 3e 64 b9 95 be 12 82 f6 3e b6 b1 d1 3e
       0.46853477 -0.29243004 0.4814611 0.40955895
000130 5a 76 5f 3e dd 37 e9 3d 37 a2 12 3e 95 98 00 3f
       0.21822491 0.11387608 0.14319693 0.5023282
000140 d0 05 03 3e 63 20 f1 be 8c d4 25 be ba 1d 59 3e
       0.12795186 -0.47095022 -0.16194361 0.21202746
000150 60 83 b3 3e 21 f6 af 3d ca 4a 06 3f c4 ca a2 bd
       0.3506117 0.08591867 0.5245787 -0.07948831
000160 06 bf a6 3e e4 13 94 be f3 1a 29 3d 8f fc b9 be
       0.32567614 -0.28921425 0.041285466 -0.363255
000170 1f b9 b2 3e ec 45 21 be 36 d6 c6 be db 92 3d 3e
       0.3490686 -0.1574933 -0.38835305 0.18513052
000180 ea 52 3f be 21 98 af 3e 06 d5 12 bf 7d 6d 3f 3b
       -0.18683973 0.34295753 -0.573563 0.0029209547
000190 f0 bb b4 3e b4 4a d8 bd 34 2f b8 be fe cc eb 3e
       0.35299635 -0.105611235 -0.35973513 0.46054834
0001a0 ff b7 c0 be 11 17 f1 bd 5d 99 68 3e c4 3a cb bc
       -0.37640378 -0.11771978 0.22714753 -0.024808295
0001b0 c1 49 48 3d d8 8e ea bd 40 5c fb be 78 bc ff 3e
       0.048898462 -0.114530265 -0.4909382 0.49948478
0001c0 74 24 0e bf 9e 66 90 3e 3a f3 cc be 4a 56 84 3e
       -0.55524373 0.2820329 -0.40029317 0.25847083
0001d0 8e 5f 0d bf e6 49 7a bd 7b 4e 95 be 67 b2 b5 bd
       -0.5522393 -0.06110563 -0.29161438 -0.08871918
0001e0 a2 cb 08 3e ef dc 08 3d bb 55 db be 06 da 33 3d
       0.1335893 0.033413824 -0.42838845 0.043909095
0001f0 4d 15 bf 3c 2e a7 fc 3e 3c 49 07 bf 15 32 16 3d
       0.023325587 0.49346298 -0.5284612 0.036668856
000200 be 23 66 be 32 80 f7 be b2 38 fb be b0 98 c3 be
       -0.22474572 -0.48339993 -0.49066693 -0.3820243
000210 63 ef 0e bf 1d c1 02 bf 41 a8 57 3e ea c1 ac be
       -0.55834025 -0.5107592 0.21060278 -0.33741695
000220 55 00 3a be ea d5 0c bf 6e 21 af be fe 62 91 bd
       -0.18164189 -0.55013907 -0.34205192 -0.070989594
000230 06 06 62 be bc 39 0e 3f 5f 7e 38 3e 7a 09 84 bd
       -0.2207261 0.55556846 0.18016957 -0.0644712
000240 28 b6 8e 3e 67 04 80 3e 86 57 00 be c8 2c 4c 3e
       0.2787335 0.2500336 -0.12533388 0.19938958
000250 7d 04 11 3f b3 10 b0 3e bf 12 66 bd 13 61 c7 be
       0.56647474 0.3438774 -0.05617022 -0.3894125
000260 00 e0 a3 3e fd 69 ef be 4d 27 0d 3f d8 92 4a 3e
       0.32006836 -0.4676055 0.55138093 0.19782579
000270 20 a3 ba be ec 0f 24 3e 31 d8 bd 3b fc d3 03 bf
       -0.3645258 0.16021699 0.0057935943 -0.5149534
000280 34 01 04 3f 52 ba 4a be fa dd b8 3e 7d 40 a0 3d
       0.51564336 -0.19797638 0.36106855 0.078248
000290 eb 33 74 3e f5 22 d6 be bc b5 10 be 0c 24 2f 3e
       0.2384793 -0.41823545 -0.14131826 0.17103595
0002a0 aa 02 2a 3e 9a d0 e3 bc 19 6a 25 be d5 3f b2 3e
       0.16602579 -0.02780943 -0.16153754 0.34814325
0002b0 54 f6 e3 3e 85 b9 56 3d 22 01 06 bf aa a6 8a 3d
       0.4452387 0.05242302 -0.5234548 0.0677007
0002c0 c1 30 df 3e 3e 57 c9 3e 86 5a a0 be d9 25 c3 be
       0.43591884 0.39324373 -0.31319064 -0.38114813
0002d0 0c 80 00 bd fc a2 fe 3e 19 9b 54 3c c5 49 46 be
       -0.031372115 0.49733722 0.012976431 -0.19364078
0002e0 48 dc b8 3d 22 43 15 be 1f 32 48 be fc 7b 0a bf
       0.0902639 -0.1457639 -0.1955037 -0.54095435
0002f0 7f e4 23 be 79 57 02 be 52 5c f9 3c 7b 26 f9 be
       -0.16005133 -0.1272868 0.03043953 -0.4866217

st_blocks.0.tmp_conv1.align.align_conv.bias f4 [64]
000000 99 af 98 be a0 ca 28 3d 63 b3 81 3e 9c f7 ca 3e
       -0.2982147 0.041208863 0.25332174 0.39642036
000010 3e 56 f2 3e e2 58 ba 3e 26 56 e2 3e df 55 6d 3e
       0.47331423 0.36395937 0.4420635 0.23177288
000020 ba 7e fb 3e a4 57 13 bf ab 39 84 be 69 d2 1d be
       0.49120122 -0.57555604 -0.25825247 -0.15412296
000030 27 d4 41 3e a0 3b e0 3e ee ae c0 bd ed c0 97 be
       0.18928586 0.4379549 -0.09408365 -0.29639378
000040 f7 80 7a be 2c 82 62 be a6 de fd be ad a9 96 3e
       -0.24463259 -0.22119969 -0.4958393 0.29426327
000050 27 d5 06 3f 08 f8 06 bf 99 bb 5c be 2d 64 01 3f
       0.52668995 -0.52722216 -0.21555938 0.5054348
000060 5a 1d a1 3e 2e 94 89 be 4d 11 95 bd dd 55 e4 bd
       0.31467706 -0.26870865 -0.072786905 -0.111491896
000070 8d 2c 09 bf 3c 08 ca be 4a 58 08 bf 93 c4 86 be
       -0.53583604 -0.39459407 -0.5325972 -0.2632185
000080 d7 1a 8c bd 17 5f 21 be 6f db 9f be 6a 8d 11 bf
       -0.06841057 -0.1575893 -0.31222102 -0.56856406
000090 46 70 62 3b 4e 86 4b 3e 79 a9 9b bd aa 48 22 3e
       0.0034551783 0.19875452 -0.07600684 0.15848032
0000a0 95 e2 e5 be 3f f1 9e 3e c2 58 8c be 0c 5a ca be
       -0.4489943 0.3104343 -0.27411467 -0.39521825
0000b0 94 86 e8 3e b6 be d4 3e ba fa 91 bc cf 6c a0 3e
       0.45415175 0.4155175 -0.017819751 0.31333014
0000c0 84 bb b3 3e 8e 0e eb be 62 62 14 be da 91 47 3e
       0.35104 -0.45909542 -0.14490655 0.19489232
0000d0 f4 0d 07 3f 7b 0f af bd 71 1e f7 be 0d 1a 48 bd
       0.52755666 -0.085478745 -0.48265412 -0.04885297
0000e0 ca ea 86 3e a3 84 59 bd 4e aa c3 3e 2a aa 24 3e
       0.26351005 -0.053105008 0.3821587 0.16080537
0000f0 b7 08 f1 3e 76 2b 01 bf db 9f 19 3e 7d 42 1e 3e
       0.4707696 -0.5045694 0.15002386 0.15455051

st_blocks.0.tmp_conv1.causal_conv.weight f4 [128, 3, 3, 1]
000000 e7 22 82 be 2e 5b 3b 3e 4d 30 ac 3e b9 d8 6e 3d
       -0.25417253 0.18296501 0.336306 0.05831215
000010 80 b1 01 be 79 fe a3 3e 05 72 38 be e4 c6 64 3e
       -0.12665367 0.32030085 -0.18012245 0.22341496
000020 45 b7 52 3e c8 6d 9c 3e 85 2c 2d 3e 6f 12 cb 3d
       0.20577724 0.30552506 0.16911514 0.09915625
000030 b2 90 26 3d 20 3d 25 bd 70 04 87 3e a7 f1 02 3e
       0.040665336 -0.040341496 0.26370573 0.12787496
000040 19 00 43 bd ec 04 ef 3d 89 65 86 be 12 cc 0c 3e
       -0.047607515 0.11670861 -0.2624934 0.13749722
000050 a8 01 a3 be 4a 5b a7 be 83 d0 00 3e 82 c3 84 3e
       -0.318372 -0.32686836 0.12579541 0.2593041
000060 7d c2 f1 3d 11 08 9d be ab 0b a6 bd d4 e7 63 3e
       0.11804674 -0.30670217 -0.08107694 0.22256404
000070 f6 d2 5d be ba 1c 80 3e 8d 27 ec 3c 2c 87 40 be
       -0.21662506 0.25021917 0.028827453 -0.18801564
000080 36 d6 a2 3e b2 3e 21 3e 43 8f da bd 09 12 1b be
       0.31804055 0.15746573 -0.10671856 -0.15143599
000090 19 a3 2e bd b8 b3 b0 bd aa 1a 0b bd 2a 66 48 bd
       -0.04263601 -0.08628029 -0.033960976 -0.048925556
0000a0 db 99 8e 3e 8b fb a5 3d 65 f5 95 3d a2 f1 a2 bd
       0.27851757 0.08104619 0.07322196 -0.07956244
0000b0 3c 1c 9d 3d 87 fe 82 3e 60 29 5e be 5e 05 0e 3d
       0.07671401 0.25584814 -0.21695471 0.034673087
0000c0 d2 be 06 39 64 aa 47 3e 1d 3a 6e be f4 4f 0f 3e
       0.00012850322 0.19498593 -0.23264356 0.13995343
0000d0 96 d6 15 3e a1 39 c5 3d 51 be f2 3d 8f 23 a5 bc
       0.1463264 0.096301325 0.11852706 -0.020158557
0000e0 2a e8 a1 be fe ca 71 3d 7c 93 8c be 6b 47 3d 3e
       -0.3162244 0.05903148 -0.27456272 0.18484275
0000f0 4b 14 2b be b4 71 ce bd 45 d8 51 3e be 93 07 be
       -0.1670696 -0.10080281 0.20492657 -0.13239953
000100 72 f6 1c be c5 f3 f5 3d 88 8a 2f be 24 6d 8b bd
       -0.15328386 0.12009386 -0.17142689 -0.06807926
000110 aa 2f a2 bc 62 55 a2 3e a3 c4 96 3e 80 82 c9 3d
       -0.019798119 0.31705767 0.29446897 0.09839344
000120 21 d7 92 be 9a 2d 99 bd d8 42 f2 3c aa bc 1f 3e
       -0.28679755 -0.07479401 0.02957289 0.15599313
000130 d9 94 03 be ec 2e 9d 3e 03 2f e9 3d b8 fd 9d be
       -0.1284975 0.3069986 0.1138592 -0.30857635
000140 0f 92 90 3d 08 53 6a be 29 fa d3 3d 43 57 a6 be
       0.070591085 -0.22883236 0.10350449 -0.3248845
000150 16 47 99 3d 9e bc 13 be 72 39 84 be 44 9d 36 be
       0.07484262 -0.1442742 -0.25825077 -0.1783343
000160 f6 a0 bd bd f5 07 97 be 7f aa 89 3d db 44 4e be
       -0.092592165 -0.29498258 0.06721973 -0.20143454
000170 11 71 dd bd 4c 00 31 3e e4 59 0f bd f7 05 ec bb
       -0.10812581 0.1728527 -0.034997836 -0.0072028595
000180 2b d9 3a 3e a7 9a a1 3e 32 c1 9a be 0d 94 04 3e
       0.18246906 0.31563303 -0.3022552 0.12947102
000190 ac 90 01 3e ac d2 ac be c7 cd 24 be af 42 90 be
       0.12652844 -0.3375448 -0.16094123 -0.28175876
0001a0 65 58 57 3e 95 71 90 3e 05 2d 8b 3e d1 1c 8a 3e
       0.21029814 0.28211656 0.27182785 0.2697511
0001b0 64 83 bf 3d 81 3c 6d be 15 3b ab be 22 c7 2a 3c
       0.09351233 -0.23167612 -0.33443514 0.0104234535
0001c0 4d 80 98 3e e7 8e 8b be 28 c5 07 3e 46 32 00 be
       0.29785386 -0.27257463 0.13258803 -0.12519178
0001d0 52 1b 06 be 85 55 e1 ba 79 ec 5d 3e d8 b9 98 3e
       -0.1309636 -0.0017191625 0.21672238 0.29829288
0001e0 2d 24 10 3e ff 0a 19 bd bf 55 26 3e db 51 86 3e
       0.140763 -0.037364002 0.16243647 0.26234326
0001f0 de 8e ff 3d ec 80 0c be ad 38 9f bd 6a 05 8a be
       0.12478422 -0.13721055 -0.07774482 -0.26957256
000200 42 c0 5f 3d af f7 93 3d 3b 17 99 3d 5b 88 bc 3d
       0.05462671 0.07224976 0.07475134 0.09205695
000210 27 6b 32 be 3e 05 53 3e 16 0c 8f 3e a2 22 dd bd
       -0.17423688 0.20607468 0.27938908 -0.10797621
000220 10 0f a0 be ad 62 aa 3e fa 53 86 be 3b 71 b5 3d
       -0.31261492 0.3327841 -0.26235944 0.088594876
000230 5e 69 91 be 73 02 ea 3d 77 7a 4f 3e 50 1e 89 be
       -0.284007 0.114262484 0.2026156 -0.2678094
000240 2e 69 1d 3d 3d 9b 7a be 86 8b 6d 3e 8d 23 89 be
       0.038430385 -0.24473281 0.23197755 -0.26784936
000250 c4 84 8d 3e 81 38 9e 3e bc 62 7a 3d 65 ff 94 be
       0.27640355 0.30902484 0.061129317 -0.291011
000260 a2 f5 78 3e df b6 61 3e 42 8b a5 3c 20 0c 76 3e
       0.24312451 0.22042416 0.020208005 0.24028063
000270 52 82 6a be c7 d1 08 3e 7b 21 49 3e 83 a0 e8 bd
       -0.22901276 0.13361274 0.19641678 -0.1135874
000280 cb 4b 5d 3e 87 ce 8f be a3 e3 41 3d b2 3a b0 bd
       0.21610944 -0.28087255 0.047336232 -0.08604945
000290 5e 80 97 3d c6 b9 02 bd f6 a5 28 3e f4 9e 8a 3e
       0.07397531 -0.03191545 0.16469559 0.27074397
0002a0 18 43 bc 3d dc 72 8e 3e c6 43 fc bc 07 59 9c 3e
       0.091924846 0.27822006 -0.030794036 0.30536672
0002b0 13 cf e9 3d 8f 13 7e be 67 a1 fb 3d 0c 61 82 3e
       0.114164494 -0.24812149 0.122866444 0.25464666
0002c0 36 ef a8 be 86 27 1c bd 48 f8 6c 3e 54 a9 70 3e
       -0.32995003 -0.03812363 0.23141587 0.23502094
0002d0 c8 ff 95 3e 1f 86 8c 3e 25 23 78 be 9d a9 8c 3e
       0.29296708 0.27446076 -0.24232157 0.27473155
0002e0 18 42 51 be dc d7 9f be 8e 80 b0 3d 5f 34 ef bd
       -0.20435369 -0.31219375 0.0861827 -0.11679911
0002f0 4e 42 85 3e 4f b7 9f bd 02 a7 7a be d9 65 8d 3e
       0.2602715 -0.07798635 -0.24477771 0.27616766
000300 b7 81 63 3e d7 c3 48 be 68 87 a3 be e1 2c b9 3d
       0.22217451 -0.19605957 -0.31939244 0.09041763
000310 e9 00 98 bd e1 38 85 be b9 4b 71 3e 46 bb 32 be
       -0.074220486 -0.26019958 0.23564042 -0.17454252
000320 5a dc b1 3c e1 da 30 be f1 4e b3 3c 4e d3 aa bc
       0.021711517 -0.17270996 0.021888228 -0.020852711
000330 e2 3a c9 3d d5 81 9a 3d de b1 b3 3d 73 0f e4 3c
       0.09825684 0.07544295 0.0877416 0.027839398
000340 89 2e 83 bc 08 e8 6d be d2 91 6c be 6d b2 ae bd
       -0.0160134 -0.23233044 -0.23102501 -0.08530126
000350 bf c3 05 be 28 ac a6 be 5a b6 08 be f8 9b 9f 3e
       -0.13062952 -0.3255322 -0.13350812 0.31173682
000360 7b 7c 94 3e ad 5b 59 be 36 60 35 3e 7a a0 92 3e
       0.2900122 -0.21226378 0.17712483 0.2863806
000370 f3 60 35 3d e1 2b 90 3d bd c2 1c bd 11 2d a8 be
       0.04428191 0.07039619 -0.038271654 -0.32846883
000380 d0 27 9d 3e ac d4 b6 be d7 28 74 3e ec ee 33 3e
       0.30694437 -0.3570913 0.23843704 0.1757161
000390 a3 62 8c 3e 1d 21 9d 3e 6a 54 90 3d 34 04 13 be
       0.27419004 0.30689326 0.07047351 -0.14357072
0003a0 30 a9 3d be b6 86 c6 3d af 13 99 be 99 c3 00 3e
       -0.18521571 0.09693663 -0.2989783 0.12574615
0003b0 68 ad aa be 41 88 fe 3c c3 41 52 bd 11 b8 28 be
       -0.33335423 0.03107083 -0.051332247 -0.16476466
0003c0 ca 9c 9d be 4f a8 0c be db c1 ed bc f5 5a 28 bd
       -0.30783683 -0.1373608 -0.029023102 -0.04110237
0003d0 b2 a6 80 bd 6f 50 93 bd 35 8b 34 bd 8c 45 72 bc
       -0.062817946 -0.07193076 -0.04407807 -0.014787089
0003e0 c3 1c 81 3e 8e 8e 9c 3e 23 a1 90 be ac fb 26 3c
       0.25217256 0.3057751 -0.28247938 0.010191839
0003f0 b3 d5 24 3d 79 bd 1f 3e ea 65 ef 3d c6 27 85 3d
       0.040242862 0.15599622 0.116893604 0.06501727

st_blocks.0.tmp_conv1.causal_conv.bias f4 [128]
000000 e4 69 9e bb 15 e6 67 3e e2 14 5f 3d 4a 58 3a be
       -0.0048344005 0.22646363 0.054463275 -0.18197742
000010 c7 7f a3 3e 80 80 9e bd e6 aa 57 be ee e0 dd 3d
       0.31933424 -0.07739353 -0.21061286 0.108339176
000020 13 8a d1 bd a9 08 95 be d6 1c 07 be 96 b3 93 3e
       -0.10231414 -0.2910817 -0.13194594 0.2884795
000030 14 b3 1c 3d 9e 99 1d be 33 1e 0d be 95 dc df bc
       0.03825672 -0.15390632 -0.13781051 -0.027326861
000040 f8 f9 9d bd ef 15 77 bb 60 b2 9f be 68 99 a2 3c
       -0.077136934 -0.0037702282 -0.31190777 0.01984854
000050 5c a8 4f 3e 9f 32 0f 3e 67 57 a7 be ac 7b ab bd
       0.20279068 0.13984154 -0.3268387 -0.08373198
000060 70 e8 6a 3e c5 d2 75 be 09 a6 03 3d 3c a9 86 be
       0.2294023 -0.24006183 0.032140765 -0.2630099
000070 e1 ba 82 bd 4d d5 34 be aa b1 58 be 3f f9 71 3e
       -0.063833006 -0.17659493 -0.21161523 0.23630236
000080 b2 15 98 3d 7d 30 98 3e 23 3b 45 3e ba 49 8f 3d
       0.07426013 0.29724494 0.1926084 0.06996484
000090 30 03 70 3e 24 43 9d bd 01 83 61 3e c6 18 a8 3e
       0.23438716 -0.07678822 0.2202263 0.328314
0000a0 b2 15 94 be b8 6c f6 bd a6 60 82 3e 40 c4 11 3e
       -0.28922802 -0.12032455 0.25464362 0.1423502
0000b0 c8 e4 92 3e 06 0c 94 be 0d 8e 81 3e 79 20 a1 bd
       0.2869017 -0.28915423 0.2530369 -0.07867522
0000c0 be a7 7e be d0 2c 0e bd 53 f6 31 bd e1 c7 12 3e
       -0.24868676 -0.034710705 -0.043447804 0.1433406
0000d0 8f bc 92 3d 46 91 c6 3d 21 30 80 bc 84 50 1c 3e
       0.07164871 0.096956775 -0.01564795 0.1526509
0000e0 67 87 88 be 4b 5e ec bd 60 a1 98 3e 2b b2 8b bd
       -0.26665804 -0.115414225 0.2981062 -0.06821092
0000f0 66 fe ce bd 34 00 1d be fc 6e 3a be 03 28 99 be
       -0.101071164 -0.15332109 -0.182064 -0.2991334
000100 4c 10 48 be 95 1e 93 3e 34 ef 24 bc 67 90 91 3e
       -0.19537467 0.2873427 -0.010066796 0.28430483
000110 d9 c4 cd 3b 5c 80 37 3e db f6 40 3e 6d d0 d4 3d
       0.0062795696 0.17920059 0.18844168 0.103913166
000120 6d e8 d7 3d 62 31 a7 be c9 f5 25 3e 45 32 4b 3e
       0.105423786 -0.32654864 0.16207041 0.19843395
000130 fb c2 a2 3e 19 65 d4 bd fe e2 7c 3e 85 a9 95 bc
       0.31789383 -0.10370845 0.24695966 -0.01826931
000140 04 b6 a1 3e 7d 5f ca bd 3e d0 8e 3e b6 ee 37 be
       0.3158418 -0.09881494 0.2789325 -0.17962155
000150 a8 a7 8c be cf 65 a1 3e 21 65 aa 3d 86 9c 70 be
       -0.27471662 0.31522986 0.0832007 -0.23497209
000160 da 9f 7d 3e a0 f9 47 3e 45 e0 5c 3d b8 2a 82 bd
       0.2476801 0.19528818 0.053924818 -0.06355804
000170 0f 97 1d be b2 6c 5c 3d 8a d0 84 be 5d 4a 98 bb
       -0.15389656 0.053814597 -0.25940353 -0.0046475367
000180 f3 38 30 be e7 4d 23 3e a7 30 8b 3e bd 21 90 be
       -0.17209224 0.15947686 0.27185556 -0.2815074
000190 7e 78 89 3d d6 ef 65 3d 59 bf 73 be 9d fc 87 3d
       0.06712435 0.05613693 -0.23803462 0.06639979
0001a0 9a 2f 9b be 30 54 7e 3e c1 8c 88 bd c7 97 82 be
       -0.30309755 0.24836802 -0.06667472 -0.25506422
0001b0 82 e7 8c 3e 3b df 5d 3e 94 2a 2a bd 38 13 38 3e
       0.27520376 0.21667187 -0.041544512 0.17976081
0001c0 cc dd ec 3d 16 4b f1 3c 04 1f 43 be 17 33 d9 3d
       0.11565742 0.02945475 -0.190548 0.10605448
0001d0 8a 13 56 be df 9a d9 bd 37 40 77 3d 2c 10 4f bd
       -0.20905891 -0.106252424 0.060363974 -0.050552532
0001e0 7b 17 17 be 9e 6f a0 be 20 ec e6 3a a3 6a 9d 3e
       -0.14755051 -0.31335157 0.0017617978 0.3074542
0001f0 18 6d c9 bd bd 97 3b bd f8 9e a8 3e 63 92 94 3e
       -0.09835261 -0.045799006 0.32933784 0.29017934

st_blocks.0.graph_conv.align.align_conv.bias f4 [16]
000000 56 33 a4 3d 51 fb c4 3d fb 51 00 3e f3 12 09 3c
       0.08017604 0.09618247 0.12531273 0.008366334
000010 be 76 ec 3c c0 4a 00 3d d1 33 c1 3d a2 65 89 3d
       0.028865214 0.031321287 0.09433711 0.06708838
000020 e7 5f 23 bd 8c de 8f bd c8 29 3d bd 2d c2 80 bd
       -0.03988638 -0.07024869 -0.046182424 -0.06287036
000030 2b 62 ae 3c 20 51 30 3d 2a 5c 9c bd 5e cb 53 3c
       0.021287045 0.043046117 -0.076347664 0.0129269045

st_blocks.0.graph_conv.cheb_graph_conv.weight f4 [3, 16, 16]
000000 e4 94 81 bd 62 51 61 bd d9 59 2c bb 81 6d 49 3d
       -0.06327227 -0.055009253 -0.002629867 0.049176697
000010 13 a6 34 3d 3a 41 49 3d dd fe 93 bc 83 f6 85 bd
       0.044103693 0.04913447 -0.018065864 -0.06541159
000020 81 ae 0c bd 01 35 73 bd a3 c1 41 bc 7c 46 1c be
       -0.034346107 -0.05937672 -0.011825952 -0.15261263
000030 4d 64 ef bc 3d c1 06 bd 36 9f 20 bd 1c ec b7 bc
       -0.029222632 -0.03289913 -0.039214335 -0.022451453
000040 28 49 89 3c bf b9 6a 3d fb 9f 7c 3c 49 3f 69 bd
       0.016758516 0.057306048 0.015419002 -0.05694512
000050 ac 93 3b bd 7b a5 08 3b 74 ce 9e 3c e1 7c 1e 3d
       -0.045795128 0.0020850587 0.019385554 0.038693313
000060 62 d2 9f bd 06 c0 e2 3c 2d 0a 4a bd 6f d7 40 3d
       -0.07803799 0.027679455 -0.04932611 0.047080453
000070 5a 4f 48 bd dd 8a 04 3b 3a d2 2e bd b4 89 61 3d
       -0.0489038 0.002022437 -0.042680956 0.055062965
000080 16 d3 fb 3c fa fc 73 3c 1b 60 68 bc b7 9e 47 bd
       0.030740302 0.014891857 -0.01418307 -0.048735347
000090 9f f2 25 3d 77 be a8 3d 5c 2b 3f bd 6a ee ec bb
       0.040514585 0.08239453 -0.04667221 -0.0072305696
0000a0 8f 6d 25 3d 85 fe be bb 68 9e 0f bd 31 0e af bd
       0.040387686 -0.005828681 -0.035063177 -0.08547629
0000b0 9f 03 4b 3d 0c 05 95 3d 53 99 38 3d 6a 7c e4 3c
       0.049564 0.07276353 0.045068096 0.027891356
0000c0 ad 63 af bc 45 fe 15 bd 1c 31 71 3c 45 21 60 bc
       -0.021409834 -0.036619443 0.014721181 -0.013679807
0000d0 c8 85 c0 bb b6 48 13 bd 08 3d df 3c 9f 47 aa bc
       -0.005875323 -0.035958014 0.027250782 -0.020786105
0000e0 50 26 30 3d bf 0b 90 3c f4 9d 10 3d 14 c5 9a 3d
       0.043005288 0.017583726 0.035306886 0.07557121
0000f0 02 a6 67 3d 85 8a 85 bd 7b 95 7f bd 37 f8 32 3d
       0.0565548 -0.06520561 -0.062398415 0.043693747
000100 e5 72 96 3d 0e 6c 08 3d 30 89 0e bc 7f f8 b8 bc
       0.07346133 0.033306174 -0.0086997 -0.02257943
000110 20 6e 5b bd c3 0e 2a 3d 6a 80 cb bc 47 0e 7a 3b
       -0.05357182 0.041517984 -0.024841506 0.0038155483
000120 c1 01 40 bd 6b 58 80 3d 40 07 73 bb e5 26 df bc
       -0.046876673 0.062668644 -0.0037083179 -0.027240226
000130 76 33 68 bd 28 bb 02 3d c6 c4 39 bd d9 7f 7b bd
       -0.056689702 0.031916767 -0.045353673 -0.061401222
000140 92 05 e4 bc ef f9 af 3c e2 9f 9a bc ee 0c 37 bd
       -0.027834687 0.021481482 -0.018875066 -0.044690065
000150 3e c3 01 bd 88 de 03 3d d4 ae 5b bd d0 7a be 3c
       -0.031680338 0.032194644 -0.053633526 0.023251921
000160 b2 56 c0 3c f6 a2 15 bd 94 15 18 bd 55 82 dc bd
       0.02347884 -0.036532365 -0.037129954 -0.10767046
000170 42 53 aa bd 92 9e 0f 3d b9 6e 31 bd 41 f7 27 3d
       -0.083166614 0.035063334 -0.043318484 0.041007284
000180 5b 24 d1 ba 4d 8d e8 3b 71 a1 ee bc dc 44 3d 3d
       -0.0015956269 0.0070969225 -0.029129716 0.046208248
000190 6f 63 94 bc 80 43 5d 3d a7 11 7c bc ab ca 42 3d
       -0.01811382 0.05401945 -0.015385068 0.04755656
0001a0 f2 d2 41 bd a1 1f 8a bb 3e 83 62 bd f7 9e 3c bd
       -0.047320314 -0.0042151962 -0.055300944 -0.04605004
0001b0 4d db a5 3c cd 3c 04 3d 67 45 04 bd f4 17 72 bd
       0.020246172 0.032284547 -0.03229275 -0.059104875
0001c0 35 20 03 bd 43 d0 39 bb 07 d8 d8 bd 6e f1 f9 bc
       -0.032013137 -0.0028352893 -0.10588079 -0.03051063
0001d0 96 28 71 bd f4 7c 21 bd 9a e3 82 3d 0b 17 28 bd
       -0.058876596 -0.039425805 0.06391068 -0.0410376
0001e0 3b db a8 bd da 17 8c 3d e2 fb 9c bb 7e fe 95 3d
       -0.0824494 0.06840487 -0.004790769 0.07323931
0001f0 7f 72 b3 bc 2b ac a4 3c 1f da 78 bd b5 52 29 bd
       -0.021905182 0.020101627 -0.06075489 -0.04133864
000200 fa 7f 2a 3b 83 4f 78 bc d6 5f 06 bd d4 e0 0d 3d
       0.0026016221 -0.015155676 -0.03280624 0.03463824
000210 74 83 89 bd d8 28 4a 3b c6 ad d8 bc 93 19 9f bc
       -0.06714526 0.0030847099 -0.02645005 -0.019421374
000220 01 da 13 3d aa d7 f5 bb 20 ab 6f 3d b3 26 46 bd
       0.036096577 -0.007502516 0.058512807 -0.04837675
000230 44 87 97 bc 4c 2a 5e 3a 70 b8 1e 3c 89 db 08 bd
       -0.018497117 0.00084749307 0.009687528 -0.03341249
000240 1d 21 08 3c 04 49 9b 3d c5 cc a0 bc 9d 4c 2a be
       0.008308676 0.07582286 -0.019628892 -0.16630788
000250 47 79 45 bd 0c 49 8c bd 57 2f 2c 3d 96 ef 26 3d
       -0.048211362 -0.0684987 0.042037334 0.04075583
000260 8d 9e cf bd 32 b9 7d 3d d4 ec 89 bd f9 ec 9a 3d
       -0.10137663 0.061944194 -0.067346245 0.0756473
000270 82 95 66 3d 55 d4 8c bd a3 f8 0b bd 8a 4f f8 bb
       0.056294926 -0.068764366 -0.034172665 -0.007577841
000280 b3 37 38 3c c6 77 72 bd 65 32 25 bc f4 4c b9 3b
       0.0112437485 -0.059196256 -0.010082816 0.0056549255
000290 d1 1d 4d 3d b5 a7 d0 3d 3f 69 49 bd d1 90 95 bd
       0.050077263 0.101882376 -0.049172636 -0.07303012
0002a0 12 ac bd 3d d5 73 e8 bc dd a0 fd 3a b5 2c 0b bd
       0.092613354 -0.028375546 0.0019350309 -0.033978183
0002b0 9e 5e 54 bc c1 a2 31 3c df 5f 03 3c fd 33 71 3d
       -0.012962012 0.010842026 0.008018463 0.05888747
0002c0 82 a2 97 bc d3 58 43 3d ab 8f 7b 3c e6 ed 3c 3d
       -0.018510107 0.04769213 0.015354077 0.046125315
0002d0 79 fb 81 3c e8 ea 9c bd ee 8b 04 bc 5b 40 13 3d
       0.015866982 -0.07661992 -0.008090002 0.035950046
0002e0 b4 3c 93 3c d9 9f 1d 3c f4 93 3b 3c a4 80 2c 3d
       0.017973281 0.00962063 0.011448849 0.04211487
0002f0 74 b2 da bc 5a a2 d3 3c 37 d2 82 bc d7 4d 6d bd
       -0.026696421 0.025834251 -0.015969379 -0.057935562
000300 e0 79 39 bc 3f 8f 98 3c f7 74 19 bc 91 96 09 bc
       -0.011320561 0.018622993 -0.0093662655 -0.008397714
000310 67 69 ad bc e3 16 4b 3d 2c 8b 1c bd c5 f1 1a 3b
       -0.021168424 0.049582373 -0.038218662 0.002364264
000320 c0 c8 5b bd 04 56 59 3d 05 5f 7a 3b ca 0e 82 bc
       -0.053658247 0.053060547 0.0038203609 -0.015876193
000330 89 00 c9 3c 8a 66 2d bd 77 8d 30 bd 3a 15 4e 3d
       0.024536388 -0.042334117 -0.04310366 0.050313212
000340 0d e0 14 3d a0 80 8a bd 34 a5 01 bc cf 6c 3c bd
       0.036346484 -0.067628145 -0.007912923 -0.046002205
000350 b7 11 07 3d 77 c1 81 bc 56 e1 c7 3c 31 7a b1 bd
       0.03297588 -0.015839322 0.02439944 -0.08665884
000360 19 fe 12 bd b7 d5 fc bc 09 8f 90 ba 7d 4f 1a bd
       -0.035886858 -0.030863626 -0.0011028956 -0.037673462
000370 67 57 a1 bc 5a 94 37 bd 44 94 09 bd eb ad ac b9
       -0.019694997 -0.044819213 -0.033588663 -0.00032935975
000380 d9 7d 2b bd 72 3a 9e 3c 27 8a 82 bc c5 99 a1 3d
       -0.041868065 0.019314978 -0.015935017 0.07890657
000390 a2 45 80 bd 68 22 16 3a bd 55 dc bb b1 f8 8a 3c
       -0.062632814 0.0005727173 -0.006724088 0.016964288
0003a0 36 90 d4 bc f0 1f 00 3d 1c f4 30 bd 3c 3e 81 bc
       -0.025947671 0.031280458 -0.04320155 -0.015776746
0003b0 48 b9 19 3c 81 51 ab 3c 45 22 49 bd 4c 09 94 bd
       0.009382553 0.020912888 -0.049104948 -0.07228336
0003c0 be 26 0a bd 2d 1a dc 3c 9d d8 10 bd f9 da 21 3d
       -0.033728354 0.02686795 -0.03536283 0.03951547
0003d0 5b 43 88 3d 2a ef 37 bd c8 98 4c bd 0d 6a b8 3c
       0.06653472 -0.04490582 -0.04995039 0.022511506
0003e0 7d 86 bf 3d c2 d4 98 bd 2b 03 87 3d a2 3d e1 bc
       0.093518235 -0.07462455 0.06592401 -0.02749521
0003f0 98 fc b4 3c c1 7e cb bc bb 98 14 3d 81 4f 63 3b
       0.022093102 -0.024840714 0.036278468 0.003468484

st_blocks.0.graph_conv.cheb_graph_conv.bias f4 [16]
000000 28 c7 e3 3c 21 e0 b8 3c 38 ed 91 bc c1 8e 9c bd
       0.027804926 0.02256781 -0.01781331 -0.07644416
000010 94 b8 17 3d c4 74 1c 3d 34 18 f3 bc 16 fd ef bb
       0.03704126 0.038197294 -0.029674627 -0.0073238714
000020 1b ca 20 3c b2 3c c7 bb 47 fe 4a 3d 1f a8 f0 bb
       0.009813811 -0.0060802335 0.049558904 -0.0073442603
000030 e4 f4 4e ba 85 a3 5b 3d 56 a1 88 bd c2 c3 c3 3b
       -0.0007894768 0.05362274 -0.066713974 0.005974264

st_blocks.0.tmp_conv2.align.align_conv.weight f4 [64, 16, 1, 1]
000000 ac 42 2a 3e 34 a8 22 be 9c d9 dc 3d d0 ef 8a bd
       0.16626996 -0.15884477 0.10783693 -0.06784022
000010 b6 72 0b be 1e fe 1e be be 07 46 3e 5c 13 84 bd
       -0.13617977 -0.15526626 0.19338891 -0.06449005
000020 80 df a8 3b f8 99 f9 bd e6 02 02 be dc 9f d9 bd
       0.0051535964 -0.1218757 -0.12696418 -0.10626194
000030 f8 40 0e 3d 70 b5 22 3e f8 2b d2 3d 4c 71 5e be
       0.034729928 0.15889525 0.102622926 -0.21722907
000040 b8 73 08 3d 24 cc c5 bd c8 38 43 3e 10 04 c6 3d
       0.033313483 -0.09658077 0.19064629 0.096687436
000050 70 6d 72 be ae 9f 77 be 38 ef 01 3d ec 48 28 3e
       -0.2367456 -0.24182007 0.031722277 0.16434067
000060 8c 04 20 be 72 45 56 3e fc 16 d1 3d e4 0b 3b 3e
       -0.15626734 0.20924929 0.10209462 0.18266255
000070 84 5e 04 3e d8 6f 7e 3e c0 47 7c be 08 95 fc bd
       0.1292668 0.24847353 -0.24636745 -0.12333113
000080 a0 70 f2 3d 68 70 0c 3e 7a 56 23 3e d0 32 fc 3d
       0.11837888 0.13714755 0.15950957 0.12314379
000090 80 01 1f bc 80 aa 00 bd 48 7d 1d bd b0 31 13 3e
       -0.0097049475 -0.0314126 -0.038449556 0.14374423
0000a0 f0 5f e7 3c 80 67 1d 3b 00 a3 e7 bd c0 61 3a 3e
       0.028243989 0.002401799 -0.11310387 0.18201351
0000b0 bc ff 91 bd cc 78 83 3d b8 66 e2 bd e4 5f 54 be
       -0.071288556 0.064195246 -0.11054748 -0.20739704
0000c0 ec 3d 36 3e c2 e8 7c 3e ec 2d d7 bd da dd 4a be
       0.17797059 0.24698165 -0.10506806 -0.19811192
0000d0 80 fd b1 bd 20 6b 7a 3c e0 b8 65 3c 3c 12 61 3e
       -0.086909294 0.01528433 0.014021128 0.21979612
0000e0 f0 6c 2a bd 34 d1 e1 bd f8 c4 64 3d 2c b1 82 bd
       -0.041607797 -0.110262305 0.055851907 -0.06381449
0000f0 34 eb 82 bd 1e 3a 2b be ea 89 2c 3e bc 27 a1 3d
       -0.06392518 -0.16721389 0.16849485 0.07868907
000100 78 3e 9d bd e8 9c 8e bd 4c c2 35 be 38 ca 76 bd
       -0.076779306 -0.06963521 -0.177499 -0.060251445
000110 9c 89 4f 3e a4 18 1e 3e 08 d5 a0 3d f0 af 0e 3d
       0.20267338 0.15439087 0.078531325 0.034835756
000120 2e d2 2c be c8 3e 3f 3d 04 28 8b bd 68 55 58 3d
       -0.16877052 0.046690732 -0.06794742 0.052815825
000130 b8 23 64 3d 2c 95 f9 3d 40 b0 3e 3d a0 70 42 bc
       0.055698127 0.121866554 0.046554804 -0.011867672
000140 f4 73 f0 bd e8 7f dd 3d 50 e6 54 3e 2c 2d 73 be
       -0.11740866 0.10815412 0.20790982 -0.237477
000150 6a cd 79 3e 40 88 c4 3d 30 c6 b4 3c 4a 6b 0c be
       0.24394765 0.095963 0.02206716 -0.13712803
000160 34 5a 4a 3e a8 a7 59 be 9c 57 4a be 80 fb d9 bb
       0.19760972 -0.21255362 -0.19759983 -0.0066522956
000170 c8 24 b5 bd f0 9c 1c bd e2 bd 7f be 38 9c e9 3d
       -0.08844906 -0.038235605 -0.24974778 0.114067495
000180 c0 80 2a 3d d8 9a e4 3d 00 60 95 b9 90 17 ff bc
       0.04162669 0.111623466 -0.0002849102 -0.031139165
000190 e2 0e 07 3e 72 a9 61 be 2e f6 45 3e 66 3b 10 be
       0.13189271 -0.22037295 0.19332191 -0.14085159
0001a0 6e ba 58 3e 9a 08 60 be aa 12 3e 3e 3c 36 7f 3e
       0.21164867 -0.21878281 0.18561807 0.24923033
0001b0 38 85 fd 3d 30 e8 cb 3c 9c 3c f6 bd b6 6d 6d be
       0.12378925 0.024890989 -0.12023279 -0.23186383
0001c0 0c f4 9e bd 50 f5 3b 3d f0 19 e4 3c 70 bd 0a bd
       -0.07761392 0.045888245 0.0278444 -0.033872068
0001d0 ca 6d 6d 3e 30 c6 d6 3d 62 cf 03 be 10 f7 42 bd
       0.23186412 0.1048702 -0.12872079 -0.0475989
0001e0 c8 52 2c be 54 4b 4f be 12 47 79 3e 9c 26 4a be
       -0.16828454 -0.20243579 0.24343517 -0.19741291
0001f0 18 e2 eb bd 70 e1 1a be 4c df 2f be 1e 83 3f 3e
       -0.11517733 -0.1512506 -0.17175025 0.18702361
000200 20 28 5d 3e c8 8a 62 3e 00 7c 17 3a a0 a6 c6 3d
       0.21597338 0.22123253 0.00057786703 0.0969975
000210 c2 0f 17 be a8 be c8 bd e8 32 2d bd f0 a5 4a bd
       -0.14752105 -0.0980199 -0.042284876 -0.049474657
000220 00 8d 4b bc 94 cc 9d bd 5a fb 34 3e 6c 62 4f be
       -0.012423754 -0.07705036 0.17674008 -0.20252389
000230 50 12 ba 3c 60 83 d2 bd 9e 74 09 be 8e 11 7c 3e
       0.02271381 -0.10278964 -0.13423392 0.24616072
000240 f8 15 30 be ac 4c e3 3d c2 b9 60 3e 3c d2 c2 bd
       -0.1719588 0.110986084 0.21945861 -0.09512755
000250 20 73 71 bd a8 53 57 3d c0 6f a0 bc 12 90 7f 3e
       -0.058947682 0.052570015 -0.019584537 0.24957302
000260 60 92 01 be 04 95 b4 3d e0 9b a7 bd 10 86 3a 3e
       -0.12653494 0.08817485 -0.08184028 0.18215203
000270 6c 09 3a be d0 dd 53 3e c0 02 db 3b a2 dd 6d be
       -0.18167657 0.20690084 0.0066836774 -0.23229077
000280 e0 b4 8e 3d 80 83 ff bd 22 d4 60 3e 04 55 b9 3d
       0.06968093 -0.124762535 0.21955922 0.090494186
000290 e4 ab cb 3d f0 6b 8f 3c 00 20 e8 bd 90 13 d9 3d
       0.09944895 0.017507523 -0.113342285 0.105994344
0002a0 e2 0f 6b be 1a c7 2d be 00 9c cd bb d0 f1 05 3e
       -0.22955278 -0.16970482 -0.0062747 0.13080525
0002b0 80 25 61 3e 64 d8 e6 bd 34 1f 33 be 70 08 37 bd
       0.21986961 -0.11271742 -0.17492372 -0.04468578
0002c0 50 15 24 3e 44 cd 01 3e 34 77 6b be 70 da c4 3d
       0.16023755 0.12675959 -0.22994691 0.09611976
0002d0 b4 19 fd bd fa a5 20 3e b0 a5 4e 3d d8 1d 02 bd
       -0.12358418 0.15688315 0.05045098 -0.031766742
0002e0 50 95 3d 3e d6 21 74 3e 40 9c c2 3b 28 c8 87 3d
       0.1851399 0.23841032 0.0059390366 0.06629974
0002f0 20 cf 2c bd a8 da 65 bd f0 b6 b3 bc b4 77 d4 3d
       -0.042189717 -0.05611673 -0.021937817 0.10374394
000300 d6 73 1b be d8 c2 3d be 70 d1 d9 3c 28 a9 03 be
       -0.15180907 -0.18531358 0.026589125 -0.12857497
000310 28 80 86 bd e0 94 62 3e c0 96 62 bc 40 49 c9 bd
       -0.065674126 0.22127104 -0.013829887 -0.098284245
000320 88 07 00 bd bc b3 ec 3d 40 53 be bd 90 27 e6 bc
       -0.031257182 0.11557719 -0.092932224 -0.028095037
000330 0e f6 59 3e d0 b3 5b 3d dc 44 20 be 3a fa 2c be
       0.21285269 0.05363828 -0.15651268 -0.16892329
000340 e0 dc 54 bc 6e ac 0c 3e 22 3a 3c be ba 98 4e 3e
       -0.012992114 0.13737652 -0.18381551 0.20175448
000350 80 4f f1 bd 58 70 10 bd c8 39 0d 3d c2 b9 48 3e
       -0.117827415 -0.03526339 0.034478933 0.19602111
000360 6c 1b e4 3d 24 71 6c be 00 3c 77 ba 50 d8 dd bc
       0.11138043 -0.23090035 -0.0009431243 -0.027080685
000370 30 56 00 be d6 74 51 3e 40 c5 bc bb 38 63 4f be
       -0.12532878 0.20454726 -0.0057608187 -0.20252693
000380 0c 65 a5 bd bc ae e0 bd 26 94 36 3e f8 b7 12 be
       -0.08075914 -0.10970828 0.17829952 -0.14327991
000390 1a d9 26 be 80 55 1b bd 00 a3 e0 bb 4c b9 82 3d
       -0.16293755 -0.037923336 -0.0068553686 0.06382999
0003a0 58 e2 c5 bd d4 1d 7d 3e 10 34 d9 bc fc e7 84 bd
       -0.09662312 0.2471841 -0.026514083 -0.0648956
0003b0 18 d1 4d bd 80 ed 28 bc 34 d7 f3 3d fe 14 18 be
       -0.050248235 -0.010310531 0.11906281 -0.14851758
0003c0 30 3f 60 3e 78 7a 6c be 10 af 44 be 72 00 6e be
       0.21899104 -0.23093593 -0.19207406 -0.23242357
0003d0 24 c4 b1 bd 60 7d 9a bc ea 8a 71 be 30 8b 53 be
       -0.08679989 -0.018858612 -0.23588148 -0.20658565
0003e0 b4 21 9d bd 18 49 7c 3d 80 b2 23 3c a0 9c e9 bd
       -0.07672444 0.061593145 0.009991288 -0.11406827
0003f0 d8 6a 05 3d 10 aa 4e 3e e0 9c a2 bc 2c c3 4a be
       0.032572597 0.20182061 -0.019850194 -0.19801015

st_blocks.0.tmp_conv2.align.align_conv.bias f4 [64]
000000 a4 c3 41 3e 52 43 41 3e fa a3 17 3e c0 f6 07 3e
       0.18922287 0.18873337 0.14808646 0.13277721
000010 0e f5 63 be a4 e0 19 be d8 94 14 3e 40 5a 90 bb
       -0.2226145 -0.150271 0.14509904 -0.00440529
000020 a8 8d 23 3d 00 04 89 bd 2a cf 27 be 38 25 23 3d
       0.039930016 -0.06690216 -0.1638762 0.039830416
000030 96 2c 0c be c4 96 b6 3d 04 fc 5c be 7c 10 83 bd
       -0.13688883 0.08915475 -0.21580511 -0.063996285
000040 e0 18 94 bd 30 34 c0 bd b0 b1 0c be 0a b5 6f 3e
       -0.07231307 -0.09384954 -0.13739657 0.23408905
000050 c0 ae 91 3d 7c a6 5c be 14 35 8f bd a0 36 c3 bc
       0.07113409 -0.21547884 -0.06992546 -0.023829758
000060 78 9d b2 bd f2 d5 7c be 30 fa 57 be 1c 4e 1e 3e
       -0.08721441 -0.24690989 -0.21091533 0.15459484
000070 d8 c3 00 3d a0 a4 81 bc 38 d2 32 bd 1c 4f b5 3d
       0.03143677 -0.01582557 -0.04365751 0.088529795
000080 2a 52 2d 3e ca de 66 be 7e 8e 16 3e 94 8f e2 3d
       0.16925874 -0.22545925 0.14702794 0.110625416
000090 5c a6 fb bd e0 d4 32 3d 76 f6 26 3e 1a 63 01 3e
       -0.1228759 0.043660045 0.16304955 0.1263546
0000a0 e6 46 57 be e8 06 aa 3d 60 7e d2 3c ae 23 76 3e
       -0.2102314 0.083020985 0.025695026 0.24037048
0000b0 e8 37 a4 3d 10 ee 28 be 70 dc 33 3e c0 4e 7f be
       0.08018476 -0.16497064 0.17564559 -0.24932384
0000c0 0c 76 95 3d 72 f3 71 be fa 4b 72 3e 58 93 26 3e
       0.07297906 -0.23628023 0.23661795 0.16267145
0000d0 ea 83 50 3e f4 35 bb 3d 10 d8 aa bd 68 a2 16 3d
       0.20362821 0.0914115 -0.08341992 0.036775976
0000e0 20 ed cb 3d 00 81 94 bc 76 32 2d be d8 19 34 3d
       0.099573374 -0.018127918 -0.1691378 0.04396996
0000f0 74 b8 7b be 22 af 61 3e b8 c5 09 be 60 7d 00 be
       -0.24582082 0.22039464 -0.1345433 -0.12547827

st_blocks.0.tmp_conv2.causal_conv.weight f4 [128, 16, 3, 1]
000000 84 3b 06 bd db 6c 72 3d 29 bb ce bd 09 05 8c bd
       -0.032771602 0.059185844 -0.10094292 -0.06836898
000010 e9 2f 98 3d 0d cc 7c bd 81 c4 04 be 7c 2a b4 3d
       0.07431013 -0.061718035 -0.12965585 0.08797166
000020 d8 aa d3 3c 3e 24 c1 bd 12 cf 84 3c 54 43 e1 bd
       0.0258383 -0.09430741 0.01621202 -0.1099917
000030 d1 5e ee bd bf 98 e1 bd 8d ee 3b bd 29 a4 dd bd
       -0.116391785 -0.11015462 -0.045881797 -0.10822327
000040 e8 3d 21 3d 69 82 40 bd 70 95 9f 3d dd 1b d6 bb
       0.03936568 -0.04699937 0.07792175 -0.0065340833
000050 b6 54 05 be 35 06 ae bc c6 c7 07 bd 75 8a 8f 3d
       -0.13020596 -0.021243194 -0.033149503 0.070088305
000060 ca e1 ef 3d 92 b4 d3 3d e4 b4 a8 bd 18 c4 dd bd
       0.11712988 0.103371754 -0.08237627 -0.108284175
000070 be a5 05 be 40 47 8c bd ae b2 b0 3c 34 5a 12 bd
       -0.13051507 -0.06849527 0.021569576 -0.035730556
000080 8a 33 a7 3d 9b 3d bd bd b5 ca 4d bd c7 43 22 bd
       0.08164127 -0.09240266 -0.050242145 -0.03961542
000090 e9 d8 4f 3d d6 bc f5 bd c6 92 ef bd c5 0f 1a be
       0.05074397 -0.11998908 -0.11697917 -0.15045078
0000a0 ba 76 09 be ec 24 57 bd 3a 45 0c bd 79 e3 9c bc
       -0.13424197 -0.052525446 -0.034245707 -0.019151436
0000b0 4d 9d 9e 3d 26 f1 10 be 08 d0 22 be f6 80 63 3b
       0.077448465 -0.14154491 -0.1589967 0.0034714318
0000c0 9c ef 68 bd db 41 70 bd c6 a7 b4 3d 7c 20 9d bd
       -0.056869134 -0.058656555 0.08821063 -0.076722115
0000d0 8c f0 9e bd a0 94 6d bd 18 62 56 3d e1 57 02 bd
       -0.077607244 -0.058003068 0.052339643 -0.03182209
0000e0 0c a9 99 bc ad c2 04 3e 9d 01 4d 3c 99 37 97 3d
       -0.018757366 0.12964888 0.012512592 0.07383651
0000f0 ca df 4e bd c2 dc d0 3d 78 7d 0a be 93 fd 23 be
       -0.05050639 0.10198356 -0.13524425 -0.160147
000100 1d 2a dd bd 0f d8 85 3d 82 72 f0 3c da 94 ec 3d
       -0.10799048 0.065353505 0.029351477 0.11551829
000110 1d ad 70 3d 3f 9b fe bd 8e 5e 54 bd fa b2 cc 3d
       0.058758844 -0.124319546 -0.051847987 0.099950746
000120 d5 53 fe bd 66 5b 15 3e 0d 41 3b 3c 39 e0 81 3d
       -0.124183334 0.14585647 0.0114290835 0.06341595
000130 fa 98 17 be 6b 50 b6 bd 1a f9 b7 bd 0d cf f1 bb
       -0.1480445 -0.08902057 -0.08983059 -0.0073794187
000140 c8 9d 1f 3d 94 2b 39 3d 72 d0 2e bd fb 27 d6 bd
       0.03896883 0.045207575 -0.042679258 -0.104568444
000150 56 17 39 be aa 3b 43 be 67 db 6c 3d 0d 96 71 3d
       -0.18075308 -0.19065729 0.057826426 0.05898099
000160 04 7d b8 3d 71 c7 2c 3d 1f 34 ef bc 62 3e 22 3d
       0.0900822 0.04218239 -0.029199658 0.039610274
000170 cc ff 8f bd 11 a0 ab bb 64 cd 2a be f1 b0 8c bd
       -0.07031211 -0.0052375873 -0.16679913 -0.068696864
000180 a2 83 91 bd 28 d1 7d 3d e3 e6 d2 3c 41 f2 24 bd
       -0.07105185 0.061967045 0.025744861 -0.040270094
000190 d0 fb e6 3d 06 51 ed bd 26 e1 84 bd 8c af bf 3d
       0.11278498 -0.115877196 -0.06488256 0.09359655
0001a0 02 b2 77 bd 0c f0 46 3d 5c ea b2 3d ae 30 18 be
       -0.060472496 0.04856877 0.08736107 -0.1486232
0001b0 66 01 ee bd cc 4a a2 bd 75 e7 81 3d 2a 98 03 bc
       -0.116213605 -0.079244226 0.06342975 -0.008031884
0001c0 aa 1a 07 3d 70 00 c0 3d 4c 2e b1 3d 9f d3 91 3d
       0.032984413 0.093750834 0.086514086 0.07120442
0001d0 4c fd 2d bd 3e 6b 32 3d c4 50 8a bd d6 76 07 be
       -0.04247789 0.043559305 -0.06753686 -0.13228926
0001e0 4a ba 15 be 68 23 2e 3c 7c 8d ef bd 02 62 07 3e
       -0.14621845 0.010628559 -0.11696908 0.13220981
0001f0 0f a0 92 bd d2 c1 11 be d1 af e3 bd c4 64 d3 bd
       -0.07159435 -0.14234093 -0.11117519 -0.10321954
000200 90 70 2f bc 22 a7 1a 3e 72 e0 88 bd 46 75 86 bd
       -0.010707989 0.15102819 -0.066834345 -0.06565337
000210 22 d1 1c be af d9 f5 3d de db 8e 3d 64 d2 31 bc
       -0.15314153 0.120044105 0.0697553 -0.010853384
000220 82 14 12 3d 2a dc f8 bd 65 f9 e9 bd 64 5b 6e bd
       0.03566409 -0.12151368 -0.11424521 -0.058192626
000230 59 73 9a 3d cc b9 4b bd 8a 0a 83 bc f7 6f 02 bd
       0.07541532 -0.049737737 -0.015996236 -0.03184506
000240 ba 26 be 3d d2 4f 95 bd de ac a4 3d 1a 80 ae bc
       0.0928473 -0.07290615 0.08040784 -0.021301318
000250 a2 9a b3 bd 29 8d f4 bd 6b 67 8e 3d 4d 03 06 3e
       -0.08769728 -0.11940987 0.06953319 0.13087197
000260 94 61 8b 3d 11 37 ca bc 70 83 af b9 78 c7 8d b9
       0.06805721 -0.02468446 -0.0003347653 -0.00027042232
000270 d2 1f 15 3d 8a ae a5 3b e3 1f b7 bc cb 54 b3 3d
       0.0364073 0.005056207 -0.022354072 0.08756407
000280 f1 b1 82 bd 82 90 9c bd 35 ed 5a 3d fd 76 6b bd
       -0.06381596 -0.0764475 0.053448875 -0.057486523
000290 19 0a 30 3d 3e 65 b7 bd 63 96 61 bc 93 ba 8c 3b
       0.04297838 -0.08954857 -0.013768765 0.0042947023
0002a0 fb d6 66 3d d8 a8 a4 bd cb 7b d6 3a 12 df a9 3d
       0.056357365 -0.08040017 0.0016363797 0.082945004
0002b0 d1 d6 e3 bd a6 32 ba bd 95 d5 0d be 0c ad 2f 3c
       -0.11124957 -0.09091692 -0.13851006 0.01072241
0002c0 49 3a b9 3d 37 17 0e 3e bd 1b 1a 3e d1 d4 34 3e
       0.0904432 0.13876043 0.15049644 0.17659308
0002d0 7a 86 cc bd 81 4b f0 3d 74 d6 9b 3d 1b ff 54 3d
       -0.09986587 0.11733151 0.07609263 0.0520011
0002e0 fd df ba bc 0e 2d f1 bc dd d0 20 3d b6 ed d4 bd
       -0.022811884 -0.029440429 0.039261688 -0.10396902
0002f0 21 48 82 3d 94 fd 86 bd 80 b7 ca bc 05 3e 89 3d
       0.06361414 -0.06591335 -0.024745703 0.067012824
000300 94 f9 44 3d e7 4d b9 3c ef 9b 03 3e ed 73 9b 3d
       0.04808958 0.022620155 0.12852453 0.075904705
000310 d1 e3 a5 3c 9b e9 81 3d 76 38 2c bd 73 0a 7e bd
       0.020250233 0.06343385 -0.042046033 -0.062021684
000320 b6 9f 03 3e 28 2d 73 3d 52 c9 89 3a eb 40 f8 bd
       0.12853894 0.059369236 0.0010512269 -0.12121757
000330 48 c5 b0 3d 20 67 d1 3a e2 e2 bf bd 8a 6f 79 3d
       0.086313784 0.0015976168 -0.09369446 0.060897388
000340 74 32 1f bd e1 64 60 bd 71 0f 08 be ce ae 4c bd
       -0.038866475 -0.054783706 -0.1328714 -0.049971394
000350 f0 db b6 bd 0b 2b 85 bd 82 60 09 be bf 3a c9 bc
       -0.089286685 -0.065023504 -0.13415721 -0.024564145
000360 7e 23 bb 3d 77 9e 01 be 40 24 e8 bd e3 bc 7e bd
       0.09137629 -0.12658106 -0.11335039 -0.062191855
000370 19 48 db bd 1f 9e 42 be 97 18 b5 bc bb 5a 2d 3d
       -0.10707111 -0.19005631 -0.022106452 0.042322855
000380 a8 64 b0 bd 6a fd f0 3b 2e b1 de 3c a2 af 2b be
       -0.08612949 0.007354428 0.027184095 -0.16766217
000390 11 fc 4d bd d8 01 ba bc 9c 56 14 bd 50 83 10 be
       -0.050289217 -0.022705957 -0.03621541 -0.14112592
0003a0 ad 08 b5 3d 36 fe 9b 3c 3a 51 74 3c 4f 29 16 3d
       0.088395454 0.019042116 0.014911944 0.03666049
0003b0 a5 b2 d3 3d c4 76 ee 3d d1 f3 f2 bd 74 41 d5 bd
       0.10336808 0.116437465 -0.118629105 -0.10412875
0003c0 90 79 90 bc b2 d5 59 bd db b0 09 ba c5 6c c6 bd
       -0.01763609 -0.05318231 -0.0005252489 -0.09688715
0003d0 26 46 38 bd 9a 48 96 3d 12 86 f9 3d 03 25 35 bc
       -0.044988774 0.073380664 0.12183775 -0.011056188
0003e0 c2 db 7e bd dc 6f 6f 3c 21 28 ea 3d 6f 4f a0 bd
       -0.062221296 0.014614072 0.11433435 -0.07827651
0003f0 fd 85 1e be 07 cf 0e be c3 b8 6a 3d a6 79 d5 3d
       -0.154808 -0.13946162 0.05730511 0.10423593

st_blocks.0.tmp_conv2.causal_conv.bias f4 [128]
000000 2f 9b f5 3d 19 df 4a 3d 82 29 82 3d 0e 3f b1 bc
       0.119924895 0.04952917 0.06355573 -0.021636512
000010 0c 48 d7 bc a9 75 bc bc 47 49 4c 3c f6 d9 14 3d
       -0.026279472 -0.023005323 0.012468643 0.036340676
000020 08 4c 02 bd 1f 40 dd bd 0e 42 d3 bd 2c b1 e9 3d
       -0.03181079 -0.10803246 -0.10315333 0.11410746
000030 ce 1d 55 3d 54 8b 4f bd 6f 4b 00 be 94 7e c9 3c
       0.052030377 -0.050669983 -0.12528776 0.02459649
000040 2e ed d1 3d 1c 59 a9 3d dc fb 09 bd 9e 91 7e 3d
       0.102503166 0.082689494 -0.033687457 0.06215059
000050 94 b8 01 be 37 8b 0e bd 92 67 da 3d 41 93 0a 3d
       -0.12668067 -0.034800734 0.10664286 0.03383184
000060 cf 57 c5 3d 06 0b 0e 3d ec be 0f 3e b3 78 a7 bd
       0.09635889 0.03467848 0.14037675 -0.081773184
000070 52 c0 95 3d a6 b8 9b 3d 0a 40 c5 3d b6 2a 08 bd
       0.07312073 0.07603578 0.09631355 -0.033243857
000080 56 dc cb bd 8e 8b b5 3d 11 53 46 bd 7a ce 5e 3d
       -0.09954135 0.088645086 -0.048419062 0.05439613
000090 7e 9b 0a 3e 29 37 e5 ba 84 15 c2 3d c7 38 2c bd
       0.13535878 -0.0017487752 0.0947676 -0.042046335
0000a0 f1 a2 07 bd 85 3f 3a bd 4f ee 98 3d 17 35 96 3d
       -0.033114377 -0.045470733 0.07467329 0.07334345
0000b0 0f 4e a8 bd 8e a6 71 3d 8f dc a8 3d 1f c1 63 3c
       -0.082180135 0.05899673 0.08245193 0.013901024
0000c0 17 06 f4 bd 44 b4 9b bc 0d 88 ee 3d 65 6e 03 3e
       -0.11915224 -0.019006856 0.116470434 0.12835081
0000d0 1c fa 8e 3d 63 71 9b 3d 4c 40 e9 3d 5f 68 a9 bd
       0.06981298 0.07589986 0.11389217 -0.0827186
0000e0 38 e5 99 bc a2 3a c3 bd f6 c3 cc 3d 37 e5 a1 bd
       -0.018786058 -0.09532668 0.09998314 -0.079050474
0000f0 da 13 02 3e 4f b1 78 3a 2e ee 52 bd 45 8c 87 3d
       0.12702885 0.000948687 -0.051496677 0.06618551
000100 1f 6f b9 bc f5 19 4f 3d 83 af 24 3c e5 76 b3 3d
       -0.022635994 0.050561864 0.010051611 0.08762912
000110 bc 22 71 bd ed e0 c3 3d bf 69 af 3d bb 31 2f 3d
       -0.058871016 0.095643856 0.08565091 0.042772036
000120 ac 87 98 3d 8d b0 89 3d 42 f7 0c 3e 4b 10 f0 3c
       0.07447752 0.067231275 0.13766196 0.029304644
000130 a8 a4 14 bd de 11 05 3e 1c 0d fe 3d 22 ad 5e 3d
       -0.03628984 0.12995097 0.12404844 0.05436433
000140 6f b2 e5 3d 6d cf 29 bd e6 31 a9 bd b1 b9 cc 3d
       0.11215674 -0.041457582 -0.082614705 0.09996355
000150 15 3c 98 3d d8 b3 c9 bc 80 03 c2 3d f8 ff a1 bd
       0.07433335 -0.024621889 0.09473324 -0.0791015
000160 15 3a 04 3d 7a fc 1c be d5 31 d5 bd 9d 7e 9a 3d
       0.032281954 -0.15330687 -0.10409895 0.07543681
000170 e6 6f 87 3d 5e 3d ee 3d 2a ef 13 3e 3d 3c 21 bd
       0.0661314 0.116327986 0.14446703 -0.03936409
000180 50 6f d4 3d 1a d4 30 3d 60 e0 7f bd fb 1a be bd
       0.10372794 0.043171026 -0.06246984 -0.0928249
000190 6d e7 05 3e f0 e5 25 3e cf f6 d2 bc b3 88 3e 3b
       0.13076563 0.16200995 -0.025752453 0.0029073178
0001a0 9a 0d 0c 3e fe ed d5 bc d3 54 b5 3b 1e ec b1 3d
       0.13677064 -0.02611446 0.0055337935 0.08687614
0001b0 ba 87 07 3d ea 16 04 3e d7 ea 03 be 3e 56 98 3d
       0.033088423 0.12899366 -0.12882553 0.074383244
0001c0 17 f7 8b 3d d8 d3 62 bd 7a ae e7 3c a3 47 dd 3d
       0.06834238 -0.05537781 0.02828144 0.10804679
0001d0 f3 af db bc 0c 35 d8 3d 54 0e a3 bd 99 b7 fc 3d
       -0.026817298 0.10556993 -0.07961717 0.12339706
0001e0 b7 65 e0 bd 16 fe 5f 3d f9 30 af bd e3 99 86 bd
       -0.109569006 0.054685675 -0.08554263 -0.0657232
0001f0 0f 29 93 bd da f7 0f be 71 ea c1 3c 68 44 c7 bc
       -0.07185566 -0.14059392 0.02367136 -0.02432461
