small_scale_scenario/experiments/stid/METRLA/-fewshot5/final_model_s2021.pt (torch, 478531 bytes, 19 tensors)

node_emb f4 [207, 32]
000000 18 6e 08 bd a6 0d f3 bd ce f0 f1 bc 90 c9 ba 3d
       -0.03330812 -0.118678376 -0.02953377 0.09120476
000010 c7 a6 bf 3d 99 be df bd ea b8 14 bd 7e 00 b5 3d
       0.09357982 -0.109250255 -0.03630916 0.088379845
000020 57 07 a7 bd 25 89 99 bd c8 fe 37 3e 87 b7 95 bd
       -0.08155697 -0.07496861 0.17968285 -0.07310396
000030 21 0d fa 3d f9 14 ba 3c 30 fa 71 3c 8b a1 04 be
       0.122095354 0.022715079 0.014769122 -0.12952249
000040 29 ba 0c be a2 35 d7 bd 74 4e a3 3c 5b 4b aa 3d
       -0.1374289 -0.105082765 0.01993487 0.08315154
000050 92 a6 d3 3d cc 07 8d 3c 0f 6a e1 bd d9 55 74 3d
       0.10334505 0.017215632 -0.11006557 0.059652183
000060 e8 61 ad bc 90 ed bc bd 13 13 3d 3d 33 97 3a bc
       -0.02116485 -0.09224999 0.04616077 -0.011388588
000070 29 e8 d4 bd dd 0d 37 bd cf de 33 3e 52 92 cb bb
       -0.103958435 -0.044690955 0.17565463 -0.006212511
000080 fb 10 c1 3d b8 ba 55 3d 5e 05 3a 3d d9 ac b1 bc
       0.09427067 0.052180022 0.045415275 -0.021688865
000090 0c e7 71 bc 11 25 29 be 44 1a 2b be bc f2 2b bc
       -0.0147645585 -0.16518046 -0.16709238 -0.010494884
0000a0 b5 c6 90 3d 4f d1 34 3d bf 4f 0c 3d 10 14 b0 bd
       0.0706915 0.044144925 0.03425574 -0.085975766
0000b0 2b da 00 3e ee 47 b9 bc ba 1c 08 3e 98 31 e9 bd
       0.12583224 -0.022617307 0.13292208 -0.113864124
0000c0 2b 87 11 3d 48 8d d4 3c 26 6e 0a 3e 57 9b 04 3e
       0.035529297 0.025946274 0.13518581 0.12949882
0000d0 19 45 84 3d da d3 89 3c db 98 b7 bc 30 1a 10 bc
       0.06458492 0.016824652 -0.022411754 -0.008795306
0000e0 8f 76 49 3d a1 d1 a7 3d a8 22 1d bd 17 e4 42 3d
       0.049185332 0.081942804 -0.03836313 0.047580805
0000f0 d4 bb be bc 84 bb d3 3b a4 66 50 3e e4 df 8e 3d
       -0.023282923 0.0064615626 0.20351654 0.069762975
000100 fc ea 97 3d 55 81 3c be c2 30 a2 3c 5b 92 89 bc
       0.074178666 -0.18408711 0.01979864 -0.01679342
000110 92 16 b8 bd 2f 2d 00 be 1b 0c 9e bd fb 22 b9 bc
       -0.0898868 -0.12517236 -0.07717153 -0.022599688
000120 af 07 e7 bd 7c 80 95 3d d5 97 4a be a5 0e c4 bd
       -0.112807624 0.07299897 -0.19784482 -0.09573106
000130 6d dc 2a 3e 33 c1 2d 3e 4e 18 e0 bd ae c4 6f 3d
       0.16685648 0.16968231 -0.10942136 0.058537178
000140 30 ef 66 bd 18 5d 2c 3d 4a b4 ef ba 0c d9 2c be
       -0.05638045 0.04208097 -0.0018287983 -0.16879672
000150 42 86 2f bd d6 a5 9b 3c 99 9f bd 3d 73 d8 30 bd
       -0.042852648 0.018999975 0.092589565 -0.043175172
000160 68 d4 d3 3d af 0a ba 3c 20 4c ba 3d 4a e7 95 3c
       0.10343248 0.022710172 0.09096551 0.018298764
000170 ab 19 81 bd 98 8d 27 bd d1 45 55 3c db a9 c0 3d
       -0.06303724 -0.04090652 0.013017134 0.09407397
000180 01 33 71 be 98 24 ff 3d fa ed 43 3e c0 b9 28 bc
       -0.23554613 0.124581516 0.1913375 -0.0102981925
000190 23 07 c7 3d 9b 2c bc 3d 6b fd 52 bd 02 49 98 3d
       0.09718158 0.09188195 -0.05151121 0.074358
0001a0 f0 57 3e 3d 00 4b 90 bd 7c b3 d7 bc d6 03 e6 3d
       0.046470582 -0.07045555 -0.026330702 0.112312004
0001b0 71 fd a6 3d 65 88 76 be 2c 29 b6 3d d7 9d 0c 3e
       0.08153809 -0.24075468 0.08894572 0.13732086
0001c0 5f 4c 76 3e 71 16 6a bc 17 5b e7 bc e5 24 18 bd
       0.24052571 -0.014287577 -0.028241677 -0.03714456
0001d0 d7 9f 36 3b 37 b0 a0 bd be 38 0d 3d 17 f7 dd 3b
       0.0027866268 -0.0784611 0.03447794 0.00677384
0001e0 66 95 bc bd ce c5 ab bd e6 41 e5 3a 82 e2 31 3b
       -0.09208183 -0.083873376 0.0017490953 0.0027143066
0001f0 1e 4b a7 bd 39 be 5a 3e 55 e1 f3 bc d6 b9 6e 3d
       -0.08168624 0.21361627 -0.029770533 0.058282696
000200 eb cf 07 be af 79 39 bd 40 d3 46 bc ec ab 23 3e
       -0.13262908 -0.045282062 -0.012135327 0.15983552
000210 d3 18 d8 bd 8a 91 37 bd 8a f1 41 3e 5d c5 48 3e
       -0.1055161 -0.04481653 0.18939796 0.19606538
000220 95 d4 52 3e bf 97 45 3e 78 6e 7d bd 01 1c b1 bc
       0.20588906 0.19296168 -0.06187293 -0.021619799
000230 3d bc 64 be 91 08 0e 3d 3d ad 44 be d8 1c d1 bd
       -0.22337432 0.03467614 -0.1920671 -0.1021058
000240 74 1e 4b 3e f8 c9 21 3e 9a 50 65 bd 0c 91 28 3d
       0.19835836 0.15799701 -0.05598507 0.041153952
000250 9b 03 52 3e 4f 20 af bd 2b 7b 0f bc 5b f3 85 bd
       0.20509188 -0.08551084 -0.008757393 -0.06540557
000260 ba 48 0f 3e ea e2 81 bc 67 33 46 bc 7d 95 04 be
       0.13992587 -0.015855271 -0.012097216 -0.1294765
000270 c9 e7 1e 3e 47 26 91 bd 57 11 48 bd 72 a1 b7 bd
       0.15518107 -0.07087379 -0.04884466 -0.0896634
000280 6b 5e 10 be 6f 6e 1a 3e 34 47 9a 3d 99 bc f9 3c
       -0.14098518 0.1508119 0.07533112 0.030485438
000290 09 a0 3a 3d dc e3 8a 3d 45 c6 02 bc 78 8b d1 3d
       0.045562778 0.06781742 -0.007981841 0.1023168
0002a0 9e 4d da bc 8f e3 bd bd 78 72 7b 3b f8 37 04 3e
       -0.026648339 -0.09271919 0.003836779 0.12911975
0002b0 8d 64 48 bc ec 0e 77 be a6 f3 21 3d 0f fc 3f 3e
       -0.012231004 -0.24126786 0.039539002 0.18748496
0002c0 76 84 01 3e 1c 1a f7 3d aa e2 b4 bd fe c3 8f 3c
       0.12648186 0.12065527 -0.08832295 0.017549511
0002d0 b0 1a 0d 3e 54 5b ff 3c 93 ab 06 be 28 d0 d3 ba
       0.13779712 0.031171478 -0.13151388 -0.0016160058
0002e0 2e 7a 05 3e 98 57 1e be 18 ab 80 bd 2a c2 58 be
       0.13034889 -0.15463102 -0.062826335 -0.21167818
0002f0 29 73 f1 3d 6e 3d d0 3d f8 ae 2c 3c 51 fd 2c 3d
       0.11789543 0.10167967 0.010539763 0.04223377
000300 ac c8 26 be 4e 64 94 3d c9 7c a2 3d 4d 6e 6b 3d
       -0.16287488 0.07245694 0.07933957 0.057478238
000310 20 12 d8 bd 22 9b a0 bd 11 cb 90 3d 5a 01 b4 3d
       -0.10550332 -0.07842089 0.07069982 0.0878932
000320 0a 3c e7 bb 3f a8 9b 3d ee 66 c3 3d bd 35 d4 3c
       -0.0070567178 0.0760045 0.09541117 0.02590453
000330 09 6e 64 bb 3b 08 65 bd 81 e5 ad bc 9c 61 21 3d
       -0.0034855625 -0.055916052 -0.0212276 0.03939973
000340 7f 7f a2 3d e5 c2 34 be 2b 98 ff 3d 7b 03 8a 3e
       0.07934474 -0.17652471 0.124801956 0.2695578
000350 c8 9d 6b bd 11 50 d6 bd 93 ad 80 3d 59 10 a1 3b
       -0.05752352 -0.1046449 0.06283107 0.004915279
000360 db 3d cd 3d 99 22 8a bb d5 75 10 bc f4 04 f3 bd
       0.100215636 -0.00421555 -0.008817156 -0.11866179
000370 3e 4d cc 3d ba 03 6a bd 95 41 80 bd 74 86 c3 3d
       0.0997567 -0.05713246 -0.06262509 0.09547129
000380 99 a9 50 3d fd f0 b4 bc 94 6e b3 3d 3c 52 34 bd
       0.05094299 -0.022087568 0.087613255 -0.044023737
000390 82 54 26 3d ea 7a 9a 3b 32 c7 82 3d a1 7c ca 3d
       0.040607937 0.0047143595 0.0638565 0.09887052
0003a0 4e ed ca 3d 8d bd 47 3c 1b e8 07 bd df 67 d5 bd
       0.099085435 0.0121911885 -0.033180337 -0.104202025
0003b0 6b 53 1d 3e d7 99 8b 38 98 62 21 3e df 36 5d bd
       0.15363853 6.6566914e-05 0.15760267 -0.054007407
0003c0 6d 87 27 3e 08 c2 11 3e a7 c7 30 3e ae c8 ff 3d
       0.16360255 0.14234173 0.17263661 0.124894485
0003d0 47 59 f1 3d a4 fa cf 3d a5 63 73 bd ff 3f 9a bd
       0.117846064 0.10155228 -0.0594212 -0.075317375
0003e0 64 11 a8 3d bf 7c cf 3d a2 72 09 be 44 26 b4 3c
       0.08206442 0.10131215 -0.13422635 0.021990903
0003f0 30 99 03 be 67 78 a1 3c 7a 57 02 3d 7e ff ce ba
       -0.12851405 0.019710733 0.031821705 -0.0015792695

time_in_day_emb f4 [288, 32]
000000 5a 59 6c 3d 29 d7 b8 ba 41 e4 6c bd f5 5f 4f 3d
       0.0577024 -0.0014102209 -0.057834867 0.05062862
000010 59 98 9b 3d 54 ef 81 3c bd 2e c9 3d f1 d6 d9 bd
       0.075974174 0.01586119 0.09823368 -0.106367
000020 f2 18 84 3d 16 47 8c be 32 70 c9 bb 11 70 39 be
       0.064500704 -0.27397984 -0.006147408 -0.18109156
000030 59 f3 89 bc 52 51 8d 3b ec d1 e4 3c 94 c6 7e 3b
       -0.01683967 0.0043126727 0.02793213 0.0038875686
000040 4c 1f 2b bd 45 01 8c 3c 01 a8 c6 3d a1 0b b4 3c
       -0.041777894 0.01709045 0.09700013 0.021978201
000050 fa 10 96 bd 94 cd a6 bd 0e 37 8d 3c 25 6f bf bc
       -0.07327457 -0.0814468 0.017238166 -0.023368428
000060 cc 13 8c 3d fd 6d 1b be f5 23 be 3d 08 19 e4 3d
       0.068397135 -0.15178676 0.09284202 0.11137587
000070 02 17 6d be 01 6e d9 bd eb 4a 07 3e 74 27 d3 3d
       -0.23153308 -0.10616685 0.13212173 0.103102595
000080 a0 07 2b bd ea 65 88 bd 9e b2 e0 3c f6 0b 22 3d
       -0.04175532 -0.066600636 0.027428921 0.039562188
000090 c0 f7 11 bd 02 7e 3d be a2 13 10 3e de ee 05 bd
       -0.035636663 -0.185051 0.1406999 -0.032698505
0000a0 88 07 79 3d 11 d1 62 be 92 39 a3 bd d2 09 20 bc
       0.060798198 -0.22150065 -0.07969965 -0.009767966
0000b0 ea 5c 3e 3d f4 44 22 be 3a 30 0a 3d 1e de cb 3d
       0.04647533 -0.15846616 0.0337374 0.09954475
0000c0 1d 03 18 3d 62 fb 8c 3d 17 0e 59 3d 2b b7 8c 3d
       0.037112344 0.06883885 0.052991953 0.06870874
0000d0 ca 57 e4 3c b7 36 4f bd f9 5a 09 3d 7a 32 19 3e
       0.027873892 -0.05058929 0.033534024 0.14960662
0000e0 dc e4 8e bd 2d 54 04 bd 1b 59 d0 3c 32 f6 22 3e
       -0.06977245 -0.03230684 0.025433114 0.15914229
0000f0 a3 74 89 bd a7 28 8b bc 79 91 2d 3e 4c 97 d2 3d
       -0.067117 -0.016987158 0.16950025 0.10282764
000100 bb de 75 bc 21 59 97 3c 7d 68 27 3d e5 75 f8 3d
       -0.015006716 0.018475117 0.040871132 0.121318616
000110 1e 44 25 3d 41 36 4c be ac cb e7 3d 3a 27 d8 3b
       0.040348165 -0.19942571 0.11318144 0.006596473
000120 76 4a a3 bd ae ae 2c be 4a 5d 98 3c 6c f4 db 3d
       -0.07973187 -0.1686351 0.018599171 0.10739979
000130 7b 86 db bc b6 c9 47 be 0a 19 fe 3c 1d a3 05 3e
       -0.026797524 -0.1951054 0.031017799 0.13050504
000140 35 14 12 bd b8 e1 aa bc 3f 77 6f 3b bb 50 82 3d
       -0.035663802 -0.020859584 0.0036539582 0.06363054
000150 29 00 c7 3d d6 24 28 be e5 56 9c 3c cd e7 bc 3d
       0.097168274 -0.16420302 0.019084403 0.092239
000160 c6 91 9f 3d a6 42 fd 3c a0 4a 2d bd 95 b1 26 3e
       0.07791476 0.03091557 -0.042307496 0.1627868
000170 c1 49 8f bb 00 4c 72 3d 14 d4 06 3d 56 27 42 3d
       -0.004372806 0.05915451 0.032917097 0.047400795
000180 b2 b6 c3 3c 76 22 a0 bd c9 e6 59 bc a4 85 97 3d
       0.023890827 -0.07819073 -0.013299652 0.07398537
000190 58 80 9d 3b 5e af 29 bc 7d 47 0d 3e 43 a3 2a 3e
       0.0048065595 -0.010356752 0.13796802 0.16663842
0001a0 5a df fd bd 19 0c 04 be c4 cf ee 3d b2 f8 93 3c
       -0.123961166 -0.1289524 0.11660722 0.018062923
0001b0 59 92 84 3d 7b 56 7d 3c 65 40 66 3d f2 d6 4e bd
       0.06473226 0.015462513 0.056213755 -0.050497957
0001c0 a2 ef 51 bc 28 87 30 bc 87 c9 f6 3d 8c f1 47 be
       -0.012813481 -0.010774411 0.12050157 -0.19525737
0001d0 21 b4 76 3d ae f1 52 3d 09 09 67 bd ef e9 12 3e
       0.060230378 0.051500015 -0.0564051 0.14347051
0001e0 d5 04 13 be 21 a9 27 be 8e c7 c9 bd 3a e5 a8 3d
       -0.14357312 -0.16373111 -0.09852515 0.082468465
0001f0 66 e1 e5 bd 99 bb 36 3e 11 32 3b bd dd e0 8d bd
       -0.11224632 0.17845 -0.045702044 -0.06927655
000200 7b 55 36 bc a5 90 0c be 62 89 2b 3d c1 79 01 3e
       -0.011128779 -0.13727053 0.041879065 0.12644102
000210 78 a3 c9 3d cd 09 ea bc 18 28 ed 3d ff 9e 98 bd
       0.09845632 -0.028569127 0.11579913 -0.07452201
000220 54 8c a0 3c 6d e9 f2 bd 34 79 87 bc 7c 34 1a 3d
       0.019598164 -0.11860929 -0.016537286 0.03764771
000230 1c 9d c8 bc 03 49 7d bd b0 03 9f 3c 0e 4b a3 3d
       -0.024488978 -0.061837208 0.019410938 0.079733
000240 56 93 e6 bd 99 a6 91 bd 64 21 b9 3d 7d 61 9d bd
       -0.11258571 -0.07111854 0.09039572 -0.0768461
000250 37 e7 da 3d 56 c4 c7 3d 89 fd cb 3d 25 a3 1b 3b
       0.10688632 0.09754245 0.09960467 0.0023748365
000260 20 80 8a bd fc 12 b9 3c 0e d3 99 3d 1c 81 7f bd
       -0.06762719 0.02259206 0.075109586 -0.062378988
000270 7a a2 f7 3c 84 16 8c 3b fb b7 0a bd 4f 6f 8d 3d
       0.030228842 0.004275145 -0.033866864 0.06905996
000280 58 dd b9 3d ff fc b1 3c 54 3d f2 bc f0 ae 0a be
       0.09075421 0.021727083 -0.02957026 -0.13543296
000290 b5 7f b5 3d e4 ca 27 bd 93 38 00 bc 3d f7 0c bd
       0.08862249 -0.040964976 -0.007825988 -0.034415472
0002a0 39 0f df bd f7 17 21 3c 9b ad 69 3d 62 1d 56 bd
       -0.10891575 0.009832374 0.05705033 -0.052274115
0002b0 1e 12 05 3d 1e 3d 9d bd ae 2f 3e bd e5 09 02 3e
       0.03248798 -0.07677673 -0.04643219 0.12699087
0002c0 05 8b b6 3d a4 88 fa 3c b6 be b5 bd 57 e8 e5 bc
       0.089132346 0.030582733 -0.08874266 -0.02806489
0002d0 ca 07 c8 3c 50 d1 06 3d 66 e6 e3 3d a9 48 3e bd
       0.024417777 0.03291446 0.111279294 -0.046456013
0002e0 e0 ae bd 3d 5a 15 14 be 3a 55 71 bc 29 0d 44 3c
       0.092618704 -0.1446127 -0.014729792 0.011966028
0002f0 3d 40 26 3d 1a a9 59 bd a1 5d 9e bd a1 dd 29 be
       0.040588606 -0.053139783 -0.07732702 -0.16588451
000300 b3 57 e6 3c f8 10 08 be 59 25 43 3d e9 32 70 bd
       0.02811799 -0.13287723 0.04764304 -0.0586423
000310 aa 9f 4d 3c 27 d6 fb 3d bc 82 33 3d 85 f1 57 bd
       0.012550274 0.12296706 0.04382585 -0.052720565
000320 e1 d2 cd bd f2 8e ab bd bf 96 24 3c 1a 49 61 bb
       -0.100499876 -0.08376874 0.010045706 -0.0034375847
000330 92 fb dd bc aa 88 26 bd 89 07 2c be b6 c1 7b 3d
       -0.027097497 -0.040657677 -0.1679975 0.061464034
000340 1c 54 7b 3d 69 87 a4 3c cd 3f cb bd f1 b5 ba 3d
       0.06135951 0.0200841 -0.099242784 0.09116734
000350 a1 aa 12 3d a9 50 a1 3d 97 2e 98 bb 21 9c fb bd
       0.035807256 0.07876713 -0.004644226 -0.122856386
000360 4b db 07 ba 40 76 47 3d 87 f9 0f 3b 28 e4 21 be
       -0.00051825185 0.048696756 0.0021968798 -0.15809691
000370 72 27 0c bd be f8 cc 3c 34 dc ec 3b a8 62 c0 3c
       -0.034217305 0.025020953 0.0072283987 0.023484543
000380 b5 e8 fb bc 73 b1 e5 3a 41 a6 7e bd a9 88 9d bc
       -0.030750612 0.0017524197 -0.06217027 -0.019230204
000390 a4 a6 b4 bc 02 f2 9f 3d 18 f2 7f 3d 91 02 87 3c
       -0.022052117 0.07809831 0.062486738 0.016480716
0003a0 71 45 8d bc a0 f6 a3 bd 38 d9 13 bc 8b ec 57 3c
       -0.017245026 -0.08006024 -0.009023957 0.013178955
0003b0 37 60 c0 bd 1b c0 a2 bd 1a 16 3b bd f5 6a 63 3d
       -0.093933515 -0.079467975 -0.045675375 0.055521924
0003c0 49 1c 60 3d 45 6e 91 bd e1 ec 27 3d 95 00 e7 3d
       0.054714475 -0.0710111 0.04099739 0.11279408
0003d0 44 96 3d bd c7 fe 0f 3d a3 dc 66 bd 4c 6a e2 bd
       -0.046285883 0.035155084 -0.05636276 -0.11055431
0003e0 02 38 44 3d a5 ca 77 bc 7d 07 18 bd a2 8d 15 bd
       0.047904976 -0.015123998 -0.037116516 -0.036512025
0003f0 04 5e fe bd d2 77 40 bd 29 10 cf bc 16 e7 ad 3d
       -0.12420276 -0.04698927 -0.02527626 0.08491342

day_in_week_emb f4 [7, 32]
000000 c5 08 62 3d a3 c9 28 be 38 df 89 be 03 30 b5 be
       0.055184145 -0.16483168 -0.26928115 -0.35388193
000010 a1 9d 65 bd 63 e2 60 be 65 ff 6b 3e 8d a9 90 3c
       -0.05605853 -0.2196136 0.23046644 0.017658973
000020 98 be 72 be 40 87 d7 3d 87 06 81 3e 88 bb 8e 3e
       -0.23705518 0.10523844 0.25200292 0.2787745
000030 61 68 98 3e 91 25 7a 3e 46 49 9a 3d c9 7e 88 3e
       0.29767135 0.24428393 0.07533507 0.2665923
000040 ae fc 85 bd 53 42 4e be d4 50 2c 3e b0 b7 88 be
       -0.065423355 -0.20142488 0.16827708 -0.26702642
000050 5c 8b ae bd 90 03 bc 3e d2 af cb 3e 60 a1 f1 bd
       -0.085226744 0.36721468 0.39782578 -0.11798358
000060 b5 50 27 3c 42 2d cf 3d 39 ed 28 3e 01 bf 35 be
       0.010212113 0.10116054 0.16496743 -0.17748643
000070 fd 6d 7e 3e f1 8b b0 3d 12 6e 83 be 4c aa e8 ba
       0.24846645 0.08620442 -0.25669914 -0.0017750948
000080 d2 88 84 3d 69 1a 7a be e8 40 8d be 42 1e b3 be
       0.06471409 -0.24424137 -0.27588582 -0.34984022
000090 9e f8 48 3e 36 9a 05 be 2a 82 69 bd f1 a1 26 be
       0.1962609 -0.13047108 -0.0570089 -0.16272713
0000a0 6d 32 57 be c8 0c 41 be 0b 36 5c 3d b4 de d7 bd
       -0.2101533 -0.18852532 0.053762477 -0.10540524
0000b0 89 53 91 3e 77 4e 41 bd 40 98 d1 3d b8 64 49 be
       0.28384045 -0.04719397 0.102341175 -0.19667327
0000c0 c4 99 98 be 0d 82 a1 bd 51 e4 9a bc 96 d5 29 be
       -0.29804814 -0.07886133 -0.018907698 -0.16585383
0000d0 95 2e ac 3e 30 20 28 be 1f d3 d5 3c a0 41 93 be
       0.3362929 -0.16418529 0.026101647 -0.28761005
0000e0 e1 91 b3 3e 01 05 b1 bd ef fa 9a 3e 0b 10 85 3e
       0.35072234 -0.086435325 0.30269572 0.25988802
0000f0 7a be e7 3d c8 0d ec bd 8e 05 48 be 76 0e 66 3d
       0.113156274 -0.11526066 -0.19533369 0.056166135
000100 27 7c 6d a4 79 f2 91 3b 11 55 45 a8 9c a2 b0 b8
       -5.1496344e-17 0.004453954 -1.0954143e-14 -8.422622e-05
000110 40 79 80 2e ce c5 5b 2a 12 a2 94 3c 1e 9f a5 bc
       5.8423044e-11 1.9519735e-13 0.018143687 -0.020217475
000120 18 dd c8 ba 52 95 60 2f 76 a4 96 bc a0 1c cb 3a
       -0.001532468 2.042573e-10 -0.018388968 0.0015496202
000130 c6 74 09 bb 66 36 1a bc 38 16 78 bb 36 d0 0c 38
       -0.0020974143 -0.009412384 -0.003785504 3.3572513e-05
000140 f2 49 55 bb 38 93 d6 20 23 d4 a8 3a b4 e8 01 24
       -0.0032545296 3.6350431e-19 0.0012880604 2.8169523e-17
000150 ae aa 2c bb fe 2d 28 a3 5d 06 a3 2b 64 70 0f 28
       -0.002634685 -9.1170375e-18 1.1583613e-12 7.9624655e-15
000160 ce 74 07 a8 d1 a0 6c a9 64 9a b9 bb 97 87 37 35
       -7.519333e-15 -5.2542013e-14 -0.0056641567 6.837012e-07
000170 14 a6 b8 bc 2a ea 76 bc b9 bf 64 2a 24 e6 7f aa
       -0.02254013 -0.0150704775 2.0316985e-13 -2.2728396e-13
000180 bd 64 19 bd 93 e8 83 3e ad c9 ca 3e 27 73 51 be
       -0.037449587 0.25763378 0.3960699 -0.20454083
000190 6a 2e 32 3e 19 36 a3 be 8b ba 05 be b7 be 7c 3d
       0.17400518 -0.3187721 -0.13059442 0.061705317
0001a0 86 a6 a3 be dd 3f 10 3e 96 a6 a2 be 10 5f 72 3e
       -0.31962985 0.14086862 -0.3176772 0.23669076
0001b0 ad 57 32 3e 52 a5 f7 3d cf a9 df 3d e9 9e 75 3e
       0.17416258 0.12092079 0.1092106 0.239864
0001c0 21 47 0c be 6c b5 0d be 0a 4c e2 3d 8c 32 9a bd
       -0.13699009 -0.13838738 0.110496596 -0.07529172
0001d0 71 00 eb 39 ed af 8e bd 46 d4 13 3e 23 2d 51 be
       0.00044823022 -0.06967149 0.14436445 -0.20427375
0001e0 5e 1b 8c be a8 9c 19 3e cc 2a 0a 3d ca 6e 9f bd
       -0.2736463 0.15001166 0.03373222 -0.07784803
0001f0 0b 2c 9d 3d 87 35 d0 bd fc fc 6f bd 7f f1 0f be
       0.07674416 -0.101664595 -0.058590874 -0.14056967
000200 7d 45 88 be 88 3e 9f be 65 8e 01 3e 88 9a 98 bd
       -0.26615515 -0.31102395 0.12651975 -0.074513495
000210 c0 3c 10 3d 3d 41 f8 3c a0 18 67 3e 97 fa 4b 3e
       0.035214186 0.030304546 0.22567987 0.19919811
000220 58 6e c2 bd a5 f1 30 3e 3b 20 8d bb 80 a0 28 be
       -0.09493703 0.1727968 -0.0043068207 -0.16467476
000230 89 c3 21 3e 71 b7 a9 3e d3 4a 6f be c7 6e 76 3e
       0.15797247 0.33147767 -0.23368387 0.24065696
000240 2a 7f 55 be b7 34 2b be ca a1 1e 3e 51 1b f7 bd
       -0.2084929 -0.16719328 0.15491405 -0.12065757
000250 eb 36 99 3e 54 ed e9 3d 74 2d 88 be 92 fe 8d 3e
       0.29924712 0.1142222 -0.26597178 0.27733284
000260 31 9a 99 3e fd 23 82 3e 31 6d 90 3e 42 1e c3 3d
       0.3000045 0.25418082 0.28208306 0.095272556
000270 8c 33 58 3e 51 da 6e be ab 69 42 bd 15 23 9b be
       0.21113414 -0.23325469 -0.047464054 -0.30300203
000280 08 11 a2 3e 0f 57 c8 bd 0d 1f 91 3d c0 0d 35 be
       0.3165362 -0.0978223 0.070860006 -0.17681026
000290 16 92 69 be 78 27 b1 bd a6 f5 71 3e 5c e3 62 bc
       -0.22809634 -0.08650106 0.23628864 -0.013848152
0002a0 25 53 b6 be 8c c3 b3 3e 5b a6 ae be c4 ba 4f be
       -0.3561031 0.35110128 -0.34111294 -0.20286089
0002b0 f2 0a 4f bd f6 ff c5 3d c2 a5 99 3e 60 a1 fa bd
       -0.050547548 0.09667961 0.30009276 -0.12237811
0002c0 fd 94 9d 3e 75 c5 d9 bd 4f 1d 99 3d 0b 28 3d be
       0.30777732 -0.10633365 0.07476293 -0.18472306
0002d0 80 7e 8a bd c9 08 91 be 1c 1d 1a 3e 96 84 a2 be
       -0.06762409 -0.28327015 0.15050167 -0.3174178
0002e0 b0 f0 7e 3e d1 aa 6a be d0 a2 c4 3d 98 78 8c 3c
       0.24896502 -0.22916724 0.096013665 0.017147347
0002f0 47 d5 a0 3d 62 85 94 3c 4d 3c e8 bc 9d ba 8d 3e
       0.078531794 0.018130008 -0.028349066 0.27681437
000300 cd 70 e0 3d 97 43 8b 3e 30 ba e3 3d b3 e2 92 bd
       0.10959015 0.27200004 0.11119497 -0.07172146
000310 fc f7 80 3e d2 e3 a8 3e dd 52 dc 3d a4 50 13 bd
       0.25189197 0.32986313 0.107579924 -0.035965577
000320 25 e7 19 be 71 6a b9 be 8e a4 1a be 4c 05 20 be
       -0.15029581 -0.3621402 -0.15101835 -0.1562702
000330 de 72 ae be 0a 99 a5 3e a8 99 f5 3d ae 5e 84 3e
       -0.34072012 0.32343322 0.11992198 0.25853485
000340 ae d9 60 be 7a 7d b3 be 5b 65 02 be d9 69 57 bd
       -0.21958038 -0.3505667 -0.12733977 -0.05259118
000350 a9 04 34 3e da 76 04 bd a6 67 ab 3b 1e 35 aa 3e
       0.17579903 -0.03233991 0.0052308617 0.3324365
000360 97 03 17 be d1 c8 c5 bd 12 aa c3 bd 22 bc 5a 3e
       -0.14747463 -0.09657443 -0.09553923 0.2136083
000370 42 84 03 3e 7f ec a9 be 7a 4a 6f 3e ae dd 93 bd
       0.12843421 -0.33188245 0.23368254 -0.072200164

time_series_emb_layer.weight f4 [32, 36, 1, 1]
000000 67 42 ea bd 3a 66 fd 3d 2f 17 5f 3c 2c bb f2 bc
       -0.114384465 0.12373014 0.013616367 -0.029630266
000010 68 1f 6a 3b 78 12 33 3d 78 61 03 bd 78 98 c7 bc
       0.0035724286 0.043718785 -0.032075375 -0.024364695
000020 e7 a7 ce 3d cf a7 a4 bc 90 cf f8 3d 4e 88 a4 3c
       0.100906186 -0.020099549 0.121489644 0.020084526
000030 92 4d ed 3c 69 98 14 3e 77 62 95 3d 66 ac 0b 3d
       0.028967652 0.14511265 0.07294171 0.03409996
000040 ee 70 10 3e 84 2f 91 3d 70 96 27 3d be 2b 1c be
       0.1410558 0.07089141 0.040914953 -0.15251061
000050 78 62 f1 bd 70 28 cd bd 23 88 77 bd 12 3c 7e bd
       -0.117863595 -0.100174785 -0.060432564 -0.062069006
000060 0b 58 6e 3d 46 b8 87 bc b1 fd 6e bd c3 6b 85 bb
       0.058189433 -0.01656736 -0.058347408 -0.004071684
000070 68 6f b6 bd 97 ab b6 3d 96 3e 3e ba 0e 09 5d bd
       -0.08907968 0.08919447 -0.0007257251 -0.053963713
000080 d5 82 70 3c 05 4c 1d 3e ca 7c a5 bd 1b 06 ae 3c
       0.01467963 0.1536103 -0.08080442 0.021243146
000090 52 d9 d7 bc 9e 35 61 3c 7e a7 d8 3d 2c ba 8e 3c
       -0.026348744 0.0137456935 0.105788216 0.017422758
0000a0 61 e7 09 be 37 09 5c bd d4 80 bf bc 1d 45 e7 3d
       -0.1346717 -0.053719725 -0.02337686 0.11292479
0000b0 41 16 5e bc 1d 8d b0 3d 3a 4a 69 bd 6d d6 15 3e
       -0.01355511 0.08620665 -0.056955554 0.14632578
0000c0 28 f4 c5 bd 3e d7 01 3e cb 1a 12 be 9c 17 13 be
       -0.0966571 0.12679765 -0.14268033 -0.14364475
0000d0 85 b2 e4 bb c4 ab 01 3e 82 9e 23 3d 5d 7c ce bd
       -0.006979289 0.1266318 0.039946087 -0.10082314
0000e0 71 b9 aa 3d 29 bf 90 3d 63 9d 86 bd d8 f8 ea 3d
       0.083361514 0.07067711 -0.06572988 0.114732444
0000f0 18 94 74 3d 20 83 d0 bd 05 7f 0e be 06 5d 80 bc
       0.059711546 -0.1018126 -0.13915642 -0.015669357
000100 68 1d 13 be 85 e6 cd bc c0 6a 4a bd cd a8 62 bc
       -0.14366686 -0.025134334 -0.04941821 -0.013834191
000110 77 8b 41 bd 16 9b 70 be 7b 1c f3 bc fe 91 6e 3d
       -0.047252145 -0.2349666 -0.029676666 0.058244698
000120 f2 28 50 3d 0f 2b 0f be 6b b8 20 be ac 03 fd bd
       0.0508203 -0.1398127 -0.1569535 -0.12354216
000130 7f 09 0b be 1d 87 0b 3e 1b 7e 63 bd 99 d5 9c 3c
       -0.13577841 0.1362576 -0.055540185 0.01914482
000140 bc f7 9b 3b 9d 59 f2 3d 01 72 23 3e ac 18 6b bd
       0.004759757 0.118334986 0.15961458 -0.057396576
000150 8e d3 9c bd 9b 0f 82 bd 54 38 99 3d 46 b6 90 3d
       -0.07657538 -0.06350633 0.07481447 0.07066016
000160 91 54 2d 3d a9 b0 01 3d ca 7f 48 3d 74 73 c2 3d
       0.042316977 0.031662617 0.048949994 0.09494677
000170 02 42 2e 3d 70 89 e5 3d 95 fe 28 be f2 bf 23 3d
       0.04254342 0.11207855 -0.16503365 0.039977975
000180 71 bb bc 3d 8d 61 15 be 87 5c b4 3d fd 9e ed bd
       0.09215439 -0.14587994 0.08806711 -0.1160259
000190 b9 aa 2c be 27 a3 c3 bd b0 47 06 be e6 14 12 3e
       -0.16862 -0.09552603 -0.13113284 0.14265785
0001a0 81 52 62 bd 54 5d 9a bd 3b 46 7a bd 67 96 20 be
       -0.055254463 -0.07537332 -0.061102133 -0.15682374
0001b0 3e 18 52 3d da 9f ec bc 87 03 7e 3b 9d f9 11 be
       0.05129265 -0.028884817 0.0038759427 -0.14255376
0001c0 14 cb 16 3e 5a 15 c1 3d 28 dc 04 3c 62 37 ab 3d
       0.14725906 0.094279006 0.00810913 0.08360173
0001d0 3d a4 40 3d f1 e2 4e bd 14 19 26 be c8 4c d7 3d
       0.04703163 -0.050509397 -0.16220504 0.10512692
0001e0 46 b8 96 3d 79 dc 21 3e 5e 28 db bd 1e cf 09 3e
       0.07359366 0.1580676 -0.10701059 0.13457915
0001f0 30 3c af 3d df 00 c8 3d 39 af 0b 3e 34 bb 03 be
       0.08556402 0.09765791 0.13641061 -0.12864381
000200 d4 3d e4 3d 74 ea 97 3d 93 12 f2 3d 38 2f e7 bc
       0.11144605 0.07417765 0.11819949 -0.028220758
000210 1c 14 4c 3d 4b 65 06 be 32 b3 03 3e 13 0f 2f 3e
       0.049823865 -0.13124578 0.12861326 0.17095594
000220 12 31 79 3d 97 f5 b9 bd 7f 2c 5b 3d 98 08 e8 3d
       0.060837813 -0.09080046 0.05350923 0.11329764
000230 9d 73 ba bd d0 b5 f3 3d 8a c6 1e 3e 2f d2 2f bd
       -0.09104083 0.11899912 0.15505424 -0.042925056
000240 b8 d9 b1 bd 7d 16 05 3e 55 fb 2a be 90 07 76 3d
       -0.08684105 0.1299686 -0.16697438 0.060065806
000250 ed e0 fd bd e4 22 4a bc 77 7c aa bd 08 08 67 bc
       -0.12396417 -0.01233742 -0.08324521 -0.014101036
000260 bd 41 54 bd 8b c7 02 3e c1 31 5f bd 36 09 1f 3e
       -0.051820505 0.12771432 -0.05449081 0.15530857
000270 e0 6d 11 be 33 7a cd 3c a8 0f 4b 3d 5b 6a f8 bd
       -0.1420207 0.025082683 0.049575478 -0.12129661
000280 eb 0a 19 3e f8 70 51 3d 98 42 0c 3e f6 6c 00 be
       0.14945571 0.051133126 0.13697278 -0.12541565
000290 d9 18 a7 3c 1d f0 9d bd c0 a0 90 3d 5c 49 02 3e
       0.02039759 -0.077118136 0.07061911 0.12723297
0002a0 a1 17 55 3d 20 01 5d bd 1d ff 02 be da 01 40 bd
       0.052024487 -0.05395615 -0.1279263 -0.046876766
0002b0 77 43 da bc 1d 49 d6 3d 23 67 03 3e eb 1f e9 3c
       -0.026643498 0.10463164 0.12832312 0.028457602
0002c0 9b 79 a0 bc ff 40 27 bd 37 ad 0a bb 34 ab 63 3d
       -0.019589236 -0.04083347 -0.0021160373 0.055583194
0002d0 89 c7 b6 3c 99 80 39 3d 65 00 89 3d d5 84 eb bd
       0.022311943 0.045288656 0.066895284 -0.11499945
0002e0 5c 95 8b 3d fa 52 4f 3d 61 1f ff bc 1c 5a 99 3d
       0.068155974 0.050616242 -0.031142892 0.0748789
0002f0 e3 a2 d0 3c 52 57 7d 3d b5 ca da bd 73 ef fa 3d
       0.025468295 0.061850853 -0.106831945 0.122527026
000300 ef d6 0c 3e 47 3d 11 be 2a f3 69 bd 57 09 e6 3d
       0.13753866 -0.14183532 -0.057116665 0.1123225
000310 02 a8 2b 3c e7 cf ff 3d a1 bb dd 3d e4 e1 0a be
       0.010477068 0.12490826 0.10826803 -0.13562733
000320 1f 91 b8 bb ba 09 05 3e 38 f7 25 be 4c 81 14 be
       -0.005632534 0.12991992 -0.16207588 -0.14502448
000330 2d f3 79 bd 15 fa e0 3b 00 74 95 3d 95 02 c8 bd
       -0.061022926 0.0068657496 0.07297516 -0.097661175
000340 ca 88 0c bd 56 a3 0d 3d 39 84 08 3d 9b ed 13 3e
       -0.03431014 0.034579597 0.033329222 0.14446108
000350 94 0c 9d bd 27 83 1e be 93 0f 02 bd 7f bb 18 bd
       -0.07668415 -0.15479718 -0.031753134 -0.037288185
000360 d1 54 9d bd 21 80 16 3d 6b 40 c8 3c 6b 27 0b be
       -0.07682193 0.036743287 0.02444478 -0.13589256
000370 92 0d fc bd 35 fe c4 3d 39 12 f8 3d 5e 3a f8 bd
       -0.12307276 0.09618799 0.12112851 -0.12120508
000380 70 9d ca 3c 0c 67 e3 bd a8 49 f5 3d db 05 1b 3e
       0.024733275 -0.11103639 0.119769394 0.15138952
000390 a1 b4 2b bd d9 74 22 be 78 63 fb 3c 6f 5c 23 3e
       -0.041920308 -0.15864886 0.030687079 0.1595323
0003a0 89 e0 aa 3d 55 2e 26 3e 35 ac 04 3d 3b d8 8e bd
       0.08343608 0.16228612 0.032390792 -0.069748364
0003b0 e9 7f ce bd 97 68 08 bd d0 39 e4 3d 79 2f 8f bd
       -0.10082991 -0.03330287 0.11143839 -0.069914766
0003c0 e4 27 1f 3e f1 14 bc 3d 07 f5 ec bd 4c 0f 83 3d
       0.15542561 0.09183682 -0.11570173 0.06399402
0003d0 65 a4 01 3e 06 26 17 be 2b f4 4b 3e e5 e2 0e 3e
       0.12660368 -0.14760599 0.19917361 0.13953741
0003e0 dc a7 be bd 0d 52 d3 bc c8 7f 07 3e 7f d4 1a 3e
       -0.093093604 -0.02579596 0.13232338 0.15120123
0003f0 7a b1 7a bd 87 b7 16 be 8d 09 a2 bd 62 17 7a bd
       -0.06120441 -0.14718448 -0.07911978 -0.061057456

time_series_emb_layer.bias f4 [32]
000000 e4 94 cd 3d 16 bb 9e 3d 2f 43 ac bd bd 59 19 be
       0.10038164 0.077505276 -0.08411252 -0.14975639
000010 f2 b8 f2 3d e7 34 ff 3d 44 f0 3e 3d ff a3 27 be
       0.11851682 0.12461262 0.046615854 -0.16371153
000020 c1 90 1b be ad ac ed 3d b4 05 02 3e 90 82 dd 3d
       -0.15191938 0.11605201 0.12697488 0.108159184
000030 48 37 de bd e0 71 a6 3d dc da 04 3e 7b 03 4e bd
       -0.10850388 0.08127189 0.12974113 -0.050296288
000040 7e 6b 75 bd 71 a4 d2 3d 74 3a 24 bd 62 bb a5 bd
       -0.059916966 0.10285271 -0.040094808 -0.08092381
000050 2f d7 6f 3d 23 72 bd bd 64 05 a1 bd c8 6e 15 bd
       0.058554824 -0.092502855 -0.07862356 -0.036482602
000060 96 9d e6 bd b9 22 c1 bd 01 48 29 3d e4 21 10 be
       -0.11260526 -0.09430451 0.041328434 -0.14075428
000070 17 db ee bd 73 84 2e 3d 43 aa 0d 3e b4 f0 83 3d
       -0.11662882 0.042606782 0.13834481 0.06442395

encoder.0.fc1.weight f4 [128, 128, 1, 1]
000000 bb 0c 79 3d f7 a6 5e 3d 14 60 9b bc f9 2c b8 3c
       0.060803156 0.05435845 -0.018966712 0.022482382
000010 e7 5c 03 3d 67 25 05 3d d7 48 6b 3d 5f e4 ab bc
       0.03207102 0.032506373 0.057442512 -0.02098292
000020 c2 5d e9 3c e2 a3 6f 3b 8e 77 98 bd 27 80 84 3d
       0.02848709 0.0036566188 -0.07444678 0.064697556
000030 c9 8b 87 bd 75 9d 27 3d ba cb 11 bd ea 87 2b 3d
       -0.06618459 0.040921647 -0.03559468 0.041877665
000040 f0 13 51 bd 48 35 e1 3c 2f a4 a3 3c 7f a0 c5 3c
       -0.051044405 0.027491227 0.01997575 0.024124382
000050 26 97 8c bc 6b c1 b9 3b 59 df 42 3d 1a cc 08 3d
       -0.017161917 0.005668809 0.047576282 0.03339777
000060 cc 98 32 bd 97 dc 6e 3d 50 82 4d 3d aa bf 34 bd
       -0.04360275 0.05831584 0.050173104 -0.044128098
000070 3b 17 91 3d 93 12 7b bd 3b f8 08 3d 2f f2 8d 3b
       0.07084509 -0.06129701 0.033439856 0.004331849
000080 90 7d b5 3d b1 d7 00 3e 0c 09 4f 3e 64 7a 26 3e
       0.0886184 0.1258228 0.20218295 0.16257626
000090 42 83 cc bc a8 60 1c 3e 4f 28 a8 3d c0 67 86 3c
       -0.024964932 0.15271246 0.08210813 0.016406894
0000a0 fe d5 52 3e 4f 2b 08 be 77 48 1b 3e ac 67 f2 3c
       0.20589444 -0.13297771 0.15164362 0.02959045
0000b0 72 5a 00 bd 43 fd 27 be 5d 9e 92 3d 52 ea 52 3e
       -0.031336255 -0.16405205 0.07159112 0.20597199
0000c0 07 90 b7 bd 73 b0 bc bd 49 37 3b bd 67 94 11 be
       -0.08963018 -0.092133425 -0.04570702 -0.14216767
0000d0 3a 85 a6 3d aa 88 ab bd 3e e1 31 3e cf 64 07 be
       0.0813088 -0.08375676 0.1737108 -0.13222049
0000e0 67 84 76 be 1a 5e 93 3c 58 f6 5f bd 5e 1a 04 be
       -0.24073945 0.017989207 -0.05467829 -0.12900683
0000f0 3c d5 3e bd 0d fb 96 3e 71 d9 dc bd 50 80 3d be
       -0.046590075 0.29488412 -0.10783661 -0.18505979
000100 08 89 39 3c 62 51 af 3d 7f 47 5c 3c 69 8b c7 3d
       0.011324175 0.085604444 0.01344478 0.09743387
000110 0d dd d7 bb 1e fd 2b bd 3d f4 91 3c 7e bf e6 3c
       -0.0065876306 -0.04198944 0.017816657 0.028167482
000120 a1 ba 51 3c 90 04 08 be 0a 93 70 bd db 0d 2d 3d
       0.012800843 -0.1328299 -0.058733977 0.04224954
000130 09 bd bc bc 0b d8 4f 3b 85 c1 d9 bc 43 9f 4d bd
       -0.023039358 0.0031714465 -0.026581535 -0.050200712
000140 48 1a 89 3d d3 43 e4 3d 82 4f fe 3b 51 5d 9a bd
       0.06694466 0.11145749 0.007760943 -0.0753733
000150 ec 7e 21 bd e5 91 08 bd cf 22 92 bb d0 49 05 be
       -0.039427683 -0.03334226 -0.004459716 -0.13016438
000160 29 06 17 bd f8 a5 99 bc 06 b6 8c 3c d7 c7 22 bd
       -0.03687111 -0.018755898 0.01717664 -0.039741363
000170 2b 98 f4 bd f0 5e 24 bd f5 73 b0 3c cd 44 f8 3c
       -0.11943086 -0.040129602 0.021539668 0.030306244
000180 cc b0 53 bd b5 cb df bc 13 bb ec 3d 89 13 6a bd
       -0.05168228 -0.027318815 0.11559119 -0.057147536
000190 f1 58 be bc 0e fc 08 3b 39 d6 99 3c b1 81 9b 3b
       -0.02323577 0.002090219 0.018778907 0.004745685
0001a0 a0 6d 61 bd d5 6c 39 bd 81 bd fa 3c 62 e7 85 bc
       -0.055036187 -0.045269806 0.03060794 -0.016345683
0001b0 cf 94 55 bd ae 77 73 bd 70 ee bd bd c4 d6 c9 bc
       -0.052143868 -0.059440307 -0.09273994 -0.024638541
0001c0 85 02 af bc 99 c9 60 3d f2 36 75 3d 20 52 5c bd
       -0.021363506 0.05487976 0.059866853 -0.053789258
0001d0 03 6a 2b bc 59 94 91 3c e2 8c 46 bc 0b 37 2e bd
       -0.010462287 0.017770933 -0.01211855 -0.04253296
0001e0 26 48 b3 bc 8e e5 dc 3c 5a 6f 3e bd 66 79 7b 3a
       -0.021884989 0.026964929 -0.046492912 0.000959298
0001f0 83 1f b2 bd 71 f9 c0 bc f9 a4 92 3d 1c ec a7 bc
       -0.08697417 -0.023556443 0.07160372 -0.020498328
000200 c7 a7 3d 3c 98 cc b6 bc 80 fe 57 bd 68 ac e5 3c
       0.011575646 -0.022314355 -0.052732944 0.028036311
000210 ba c7 4b 3d 06 c5 16 bd a6 7b 3c 3d 61 d7 80 bb
       0.04975102 -0.03680899 0.046016358 -0.003931925
000220 82 b9 2a 3d e0 d0 67 3d dc 55 c8 bc 3c 00 06 bd
       0.04168082 0.056595683 -0.024455003 -0.032715067
000230 81 fa 1f bd 14 0a 44 bd 17 f3 66 3c a2 87 bb bc
       -0.03905726 -0.047861174 0.014096043 -0.022891823
000240 8b 36 29 3c ea 9a af 3c 3a e4 86 3d e6 51 97 bc
       0.010327945 0.021436173 0.065864995 -0.01847167
000250 fe eb 39 3d 93 3c 52 3d 53 ca 62 bd ef 34 c6 3d
       0.045391075 0.0513273 -0.055368733 0.09678065
000260 e1 fb 49 bd b5 e6 ec 3c 04 33 b7 3d 79 38 46 bd
       -0.049312476 0.028918603 0.08945277 -0.0483937
000270 f9 c2 56 3c 1b fe 05 3c a6 e2 6b bb 0d a5 84 3d
       0.013108009 0.008178259 -0.0035993247 0.064767934
000280 f1 5c de bd 21 c1 0f be 5f e7 27 3d 7b a5 07 3e
       -0.10857571 -0.14038517 0.040992137 0.1324672
000290 49 87 cb 3d a3 5b bb 3d d9 7e 2f 3e c7 3b 64 be
       0.09937913 0.09148338 0.17138232 -0.22288428
0002a0 e6 85 40 3d 8a 58 ee bd dd 75 6b 3e d8 7c b9 3d
       0.047002696 -0.11637981 0.2299418 0.09057015
0002b0 ac bf 17 be 19 a6 00 3e 1c 15 9d be 20 46 3c 3e
       -0.14819211 0.12563361 -0.30680168 0.18386126
0002c0 a2 a3 87 be 4d 1d f5 bc a3 00 f0 bd fc 21 f0 bb
       -0.2649203 -0.029921198 -0.117188714 -0.00732827
0002d0 80 dd 06 bd b3 f3 da 3b e1 f7 68 bd a1 2b 56 3d
       -0.032926083 0.0066818832 -0.05687702 0.0522877
0002e0 1e cd 9c 3c 45 32 6e 3e c7 02 59 3d 5a 02 9b 3c
       0.019140776 0.23261364 0.052981164 0.01892202
0002f0 a3 6f db 3d ce a4 01 3d 77 f8 32 3e 69 08 ff 3d
       0.107146524 0.03165131 0.17477594 0.12452776
000300 04 b4 a2 bd fc ce 89 3e 8e b7 41 bd 3e 04 ce bc
       -0.079444915 0.2691573 -0.047294192 -0.025148507
000310 c8 cd b7 bc e1 d7 b2 bd 4e b5 a6 3b 42 27 d8 3d
       -0.022436991 -0.08732582 0.005087531 0.10554363
000320 22 bb b0 bc 82 12 1e 3e 1b d6 b7 bd f2 9b 9d 3c
       -0.021573607 0.15436748 -0.08976384 0.0192394
000330 59 cd ec 3d 85 07 98 3d ee d4 0c 3d eb f2 a1 bd
       0.115626045 0.07423309 0.034382753 -0.07907661
000340 3f 54 8e bb a7 a5 b6 3d fe 51 8c bd 90 4c 39 be
       -0.004343539 0.089183144 -0.06851576 -0.18095613
000350 92 95 4c be 57 8d c6 3d 31 94 69 bd 00 d0 1b be
       -0.19978932 0.09694927 -0.057026092 -0.15216064
000360 b3 41 19 3d 77 c4 38 3e 17 3b a4 3d 00 8b 7a be
       0.03741617 0.18043695 0.08019083 -0.24467087
000370 02 91 c9 3d 83 5a c0 bd 8e 23 bd 3d 99 96 a4 3b
       0.09842111 -0.09392264 0.09235297 0.0050228355
000380 1f 6a 09 bd 27 1d d3 bc bb 0e b7 3d 1e 1d 9e 3c
       -0.03354847 -0.025770737 0.089383565 0.019300994
000390 97 28 63 bd d4 ab 50 bc 9a 7b 12 bd 2c ef 22 bd
       -0.05545863 -0.0127362795 -0.035762407 -0.039778873
0003a0 cc ed 00 bd 45 08 c9 3d 6c 41 09 bc af 36 31 3d
       -0.03147678 0.098160304 -0.008377414 0.04326504
0003b0 8b 38 1c 3c 2f 0a 07 be fd 21 e1 bd bf f1 b2 bd
       0.009534965 -0.13187478 -0.10992811 -0.08737516
0003c0 86 8e 0a 3d 78 e6 32 3c 83 48 61 bb 1d b8 0c 3e
       0.033827327 0.010919206 -0.0034375496 0.13742109
0003d0 94 6c 74 3d 71 4f 5b bd 6b 31 1c be d3 3b 0f 3c
       0.05967386 -0.053542558 -0.15253226 0.008742291
0003e0 96 95 d5 bc d4 09 35 3d 75 d5 b1 bd 4f 51 41 bd
       -0.026072305 0.044198826 -0.08683292 -0.047196683
0003f0 21 4a 56 bd 35 1b 47 bd ed b3 a1 bd 14 d7 7e bd
       -0.05231679 -0.04860993 -0.07895646 -0.062216833

encoder.0.fc1.bias f4 [128]
000000 f2 83 44 3d 00 f4 82 bd 3a fd 45 bd 1c 0c 1d bc
       0.047977395 -0.063941956 -0.0483372 -0.009585407
000010 60 34 06 be 48 cc 7e 3d 63 37 fb bc 3c 62 22 3d
       -0.13105917 0.062206537 -0.030666059 0.039644465
000020 55 08 69 bd 58 4c 38 3d 9e 2c 1f bd 45 f4 75 bd
       -0.05689271 0.044994682 -0.03886091 -0.060047407
000030 a1 4d 8e 3c 42 b9 c0 bb bd 21 f9 3c 98 f9 93 bd
       0.017371 -0.0058814595 0.030411595 -0.072253406
000040 05 c5 ce 3b c3 08 a7 bd 38 24 49 bd e7 de b8 bd
       0.0063101077 -0.08155968 -0.049106807 -0.0902689
000050 c2 63 e7 bd fc dd 82 3d 05 f8 90 3c 08 36 f3 bc
       -0.11298324 0.063899964 0.01769639 -0.02968885
000060 c6 65 27 bc 40 b2 42 bd 7b 2f d4 3b 6f 70 cb bd
       -0.010217136 -0.047533274 0.0064753867 -0.099335544
000070 eb 05 90 bd 9e bb 8f 3d 91 15 56 bd 82 a4 8d bd
       -0.07032379 0.07018207 -0.05226666 -0.06916143
000080 ee f8 b2 bb 6b e5 d2 bc d7 40 65 3d fa b3 c7 bd
       -0.0054618036 -0.02574416 0.05597004 -0.09751125
000090 23 5e b1 bc 2d 93 a8 3c 0b d7 5e bc a1 ba 01 bb
       -0.021651333 0.020577991 -0.013601075 -0.0019795077
0000a0 1c 4a 8b bd b7 e0 17 3c 5d 03 b6 3c 43 35 04 be
       -0.068012446 0.009269885 0.0222184 -0.12910943
0000b0 d3 c5 8b bd 14 b4 a6 bd c5 ac 30 bd 94 d1 b5 bd
       -0.06824841 -0.08139816 -0.043133516 -0.088778645
0000c0 fc 9f 82 3c 06 0b 1b 3d b5 b4 e8 3b a7 63 89 3d
       0.015945427 0.03785231 0.00710162 0.0670846
0000d0 cb 46 0b 3d 20 55 5c 3d f7 d2 97 bd 25 08 ef bb
       0.03400306 0.05379212 -0.07413285 -0.007294672
0000e0 66 c2 36 bc ba 14 6d 3c b8 39 fa 3c f4 65 36 bd
       -0.011154747 0.014470274 0.0305451 -0.044530824
0000f0 e4 87 ba 3a 4e d3 40 3c 97 e5 ef 3c 13 43 b0 bd
       0.0014231172 0.011769129 0.029284282 -0.086065434
000100 15 96 ee 3b 5a e9 76 3d e7 35 43 3d 98 5c 74 3d
       0.0072810748 0.060281135 0.047658827 0.059658617
000110 a8 a4 99 bc f3 fe db bd ec 01 b6 bd a3 f1 f4 bc
       -0.018755272 -0.10741987 -0.08887085 -0.029900378
000120 19 6a b6 bd 16 3b 1c 3d 50 15 76 bd c3 25 85 3d
       -0.08906955 0.038142286 -0.06007892 0.06501343
000130 c9 c6 1c bd 67 08 98 bd e2 09 69 bd d2 75 95 bd
       -0.038275514 -0.074234776 -0.05689419 -0.07297863
000140 86 58 55 bb 54 c8 c4 bd a6 97 7f bc 5f e3 d1 bc
       -0.0032553985 -0.09608522 -0.015600121 -0.025621114
000150 96 d5 3f 3d 07 f6 e1 bd be 9d 16 3d fe 9b 8c bd
       0.04683455 -0.11033254 0.03677153 -0.06865691
000160 f2 d2 a8 bc 7a 0c ed bd af 06 37 3d 41 11 92 bd
       -0.020608399 -0.11574645 0.04468411 -0.07132197
000170 45 4e 91 bc 58 7b 24 3d e0 da d8 bc c1 2e b6 3c
       -0.017737517 0.040156692 -0.026471555 0.02223909
000180 3c c9 28 bc b7 ea cf bc 40 5f f6 bc 26 9a 8e 3c
       -0.010301884 -0.025380475 -0.030074716 0.017407488
000190 e3 6c 0b 3c f8 97 c5 3b cd 4b 97 bc 95 94 cb bd
       0.008509847 0.006030079 -0.018468762 -0.09940449
0001a0 2b 6e 7d 3d 84 90 e6 3c 72 97 9e bd cf d6 2f bd
       0.061872642 0.028145082 -0.0774373 -0.042929467
0001b0 3f 70 a3 bd e2 63 a5 3d a5 76 76 bd 55 44 92 bd
       -0.079803936 0.08075692 -0.060171742 -0.071419396
0001c0 69 d1 c8 3c f2 72 7e bc 3f ef 5b 3d 40 44 5d 3d
       0.024513917 -0.015530335 0.05369496 0.054020166
0001d0 03 e1 71 bd d1 52 fb 3c 11 04 7a bd f8 9b 73 3d
       -0.05905248 0.030679138 -0.061039034 0.059474915
0001e0 6c c3 99 bd 44 bd 98 bd 27 9c 7b 3c bd 32 1e 3b
       -0.07507977 -0.074579746 0.015357054 0.002413913
0001f0 4e f4 9e 3b 8e 30 7b ba 0e 0c 8b 3d e1 97 b0 bd
       0.0048509007 -0.00095821253 0.067894086 -0.086227186

encoder.0.fc2.weight f4 [128, 128, 1, 1]
000000 e7 d6 a9 bd 3c 02 64 bd 89 c2 62 bd 46 ac 13 3c
       -0.082929425 -0.055666193 -0.055361304 0.009013241
000010 54 3e 3d 3d 9c 5c e4 bc 87 8f 52 3c a9 09 a3 3c
       0.04620202 -0.02787619 0.012851602 0.019902067
000020 bb 31 93 bd 52 51 7f 3c e5 cb c6 3d 6f 63 8d bd
       -0.0718722 0.015583353 0.097068585 -0.06903731
000030 4b b4 d8 bd f6 d7 d0 bb 5b b0 86 bd 52 f1 ba 3c
       -0.10581263 -0.006373401 -0.06576606 0.022820149
000040 d8 94 f8 bc ce e3 a4 3d 50 0a 8a bc 9c 4e 42 3b
       -0.030344412 0.08051263 -0.01685062 0.0029648906
000050 9e b3 26 be 3a fc 86 3d bf 04 43 3d 7a 45 6d 3d
       -0.16279456 0.06591077 0.047611948 0.057927586
000060 70 79 09 3d 33 e6 79 bd 9b 9f 2a 3d 87 40 12 be
       0.033563077 -0.06101055 0.041656118 -0.14282428
000070 38 d0 65 bd 49 21 20 3d 55 37 ab bd a8 b8 09 bd
       -0.056106776 0.039094243 -0.08360163 -0.033623368
000080 61 91 fe bd 94 6b 95 3c 34 5d 3a bc 92 59 f2 3c
       -0.124300726 0.018239774 -0.01137476 0.029583726
000090 af 25 34 bd d8 3e ef ba 7e ac 6a 3d 1f 06 d2 bc
       -0.04398125 -0.0018252982 0.057293408 -0.025637684
0000a0 a1 00 c5 3c 97 fa f0 3c d5 2d 24 3c 65 b6 f1 3c
       0.024048151 0.029416366 0.010020693 0.029505918
0000b0 17 d7 d2 bd 84 58 0b bd f6 7b ed bd 10 27 db bd
       -0.102949314 -0.034019962 -0.11595909 -0.1070081
0000c0 e7 6c 64 3d 56 e8 86 bd 22 0d 93 3d f5 67 d8 39
       0.05576792 -0.06587283 0.07180239 0.00041276184
0000d0 6b e2 94 bc 7b cd f4 3c 06 5b 33 bb 60 a7 89 bb
       -0.01817437 0.029883137 -0.0027367487 -0.004200861
0000e0 a7 95 9c 3d 9e d5 b8 bb d6 f1 08 3d 06 3b 35 bd
       0.076457314 -0.0056406995 0.033433758 -0.044245742
0000f0 30 76 a7 3d f3 f4 29 3d f4 ea 92 ba 27 e9 8a 3c
       0.08176839 0.041493367 -0.0011208938 0.016956879
000100 8b e2 bd bc 17 86 81 3d c8 80 5a 3c 88 fa 86 bd
       -0.023179313 0.06324404 0.013336368 -0.06590754
000110 7a 88 37 bd 10 28 7c bc f2 00 7b bd 91 9d cd 3c
       -0.04480789 -0.015390411 -0.0612802 0.025099548
000120 49 7a bf 3a 37 2c ee 3a db b9 11 bd 94 d7 91 3c
       0.0014608587 0.0018171136 -0.035577636 0.017802991
000130 41 2c 4e 3d 03 81 6e bd f3 9a 93 bd 60 12 2f be
       0.050335173 -0.058228504 -0.072072886 -0.17096853
000140 da b2 50 bd 10 8d c7 3d f0 af 6a 3d f5 c6 f5 bc
       -0.050951816 0.097437024 0.057296693 -0.030002097
000150 bd 86 9c bd 48 a2 e4 bc 22 d1 06 bd 2d cd e0 3d
       -0.07642887 -0.027909413 -0.03291429 0.10976634
000160 d4 63 92 bd 6e f3 cc 3c 19 1b 37 bd 64 6f 8d 3d
       -0.07147947 0.02501842 -0.044703577 0.06906012
000170 d7 11 35 3d 44 02 1a bd ee 0a 71 bc 06 01 7e 3d
       0.044206467 -0.037599817 -0.0147120785 0.062012695
000180 af 6a 0f bd 21 69 b1 3d 73 bc 1b 3d 85 6b 9d 3d
       -0.03501385 0.0866263 0.038021516 0.07686523
000190 be 9a 70 bd d6 dd 6c bd 47 a2 87 3d de cb 07 3d
       -0.058741324 -0.057828747 0.06622749 0.033153407
0001a0 39 a1 92 3a 9e 13 2f 3d 97 af 32 3b da 4b aa 3b
       0.0011186964 0.042743318 0.0027265304 0.0051970305
0001b0 d2 93 b5 3d 05 78 16 bc 33 e2 b7 bc 01 46 25 3d
       0.08866085 -0.009183888 -0.022446727 0.040349964
0001c0 4e 8e 87 bd 62 b7 19 3c 0b b9 92 3d 4e 02 d7 3c
       -0.06618939 0.009382101 0.071642004 0.026246216
0001d0 ad 15 9d 3c 09 fe b7 bd 82 2c d0 bc 9b 18 b1 3c
       0.019175375 -0.08984 -0.025411848 0.021618178
0001e0 16 2a 9d bd e8 4f a0 3a 2b f7 fa bc ad 2a 84 3d
       -0.07674043 0.0012230845 -0.030635437 0.06453452
0001f0 42 cf 29 bc e9 01 90 3c 42 ba 46 3c b3 74 67 bd
       -0.0103643555 0.017579036 0.012129368 -0.056507777
000200 d7 98 37 bd a2 20 a6 3b b8 73 ab bd db 65 c8 bd
       -0.044823494 0.005069808 -0.08371681 -0.097850524
000210 92 e1 80 bd ce 4b 6c bd b1 2b e4 bd d9 8a a0 3d
       -0.06293024 -0.05768948 -0.11141146 0.07838983
000220 99 d9 62 3d 74 62 97 bd 3e 13 07 bd d6 97 89 bd
       0.0553833 -0.07391825 -0.032977335 -0.067184135
000230 a5 f6 c1 3c 27 21 a6 bd cf 48 8c bd 05 fc a0 bc
       0.02367718 -0.08111792 -0.06849825 -0.019651422
000240 1d b4 a8 bd 75 25 de bc 14 e0 a5 bd 4f 7f 3a 3e
       -0.08237479 -0.02711747 -0.0809938 0.18212627
000250 fa cd 0e 3d c4 f4 54 bd ab e6 24 bc ed f1 3a bd
       0.034864403 -0.05199124 -0.010064761 -0.045640875
000260 dc af 5d bd 3c 45 c1 3b 41 be 25 3b 98 16 a8 bd
       -0.05412279 0.005898146 0.0025290402 -0.082074344
000270 55 31 93 bd 23 d9 cd 3b 16 25 ac bd 34 6e c2 bd
       -0.07187144 0.006281988 -0.08405511 -0.09493676
000280 2b 66 b6 bd 67 42 08 bd 32 32 10 bc a9 99 76 3d
       -0.08906206 -0.03326645 -0.00880103 0.060205135
000290 e4 d2 67 bd d9 30 b8 bd ca f7 66 bd cd ff 83 3d
       -0.056597605 -0.08993692 -0.056388654 0.064452745
0002a0 32 7d 16 be e7 36 26 bd 29 1a 1e 3d 63 bc 5a bc
       -0.14696196 -0.040579703 0.038599167 -0.013350579
0002b0 ac 2a ae bd a1 d2 4c be 0c 2a 9f bd bd e4 4c 3d
       -0.08504233 -0.20002224 -0.07771692 0.05002283
0002c0 71 90 22 bc ff 06 fa bd d6 2a 0b bd 1d 69 92 3c
       -0.009922133 -0.12208366 -0.0339764 0.017872388
0002d0 9e f6 e6 3c a4 4b 95 bc aa 61 27 bd 03 ae 86 bd
       0.028193768 -0.018224545 -0.040864624 -0.06576159
0002e0 df 13 80 bd 33 ca b6 bd a7 62 19 bd b3 72 83 3d
       -0.0625379 -0.08925285 -0.037447598 0.064183615
0002f0 96 d8 35 bc 4a ce aa bc bd 33 d0 bd 5c 0c cd bd
       -0.011099001 -0.02085032 -0.10166118 -0.10012123
000300 78 93 75 3d f7 df db 3c db 20 5c 3c 1e 34 48 3d
       0.05995509 0.026840193 0.013435568 0.048877828
000310 5e 8d f7 3c 1d b7 64 3c c5 f0 6a bc 2e 0a e5 ba
       0.030218776 0.013959673 -0.0143396305 -0.0017474347
000320 4b 66 6a 3c 4c c3 53 3c bd 6f ef bc ca 93 b0 3c
       0.014306615 0.01292498 -0.029228086 0.021554846
000330 52 b0 e2 3b bf 4c 19 bb 78 b5 ff 3b 2b 3a b7 bc
       0.0069179917 -0.0023391692 0.007803615 -0.022366604
000340 34 6f 91 bd 27 66 d2 bd 6b dc 99 bc ee 39 91 bd
       -0.071012884 -0.1027339 -0.018781861 -0.07091127
000350 5c 81 cd bd 95 5e 47 3d 0b c5 17 bc 2d 13 84 bd
       -0.10034439 0.048674185 -0.009263287 -0.0644897
000360 a1 19 4c bd f8 d8 ea bd dd f3 90 3c b8 f4 ab bd
       -0.04982913 -0.11467165 0.017694408 -0.08396286
000370 a7 ad d5 bd 58 ec 99 bd 8e 1b 92 bd a5 9f 76 3c
       -0.10433512 -0.07515782 -0.07134162 0.015052711
000380 fc a5 a6 bd ec 4c 72 3b 61 cc 4c 3d 84 6d c7 bd
       -0.08137128 0.0036972119 0.0499996 -0.09737685
000390 ca f4 e1 3d de e3 d2 bd 82 4a f9 3c 5f c9 86 bd
       0.11033018 -0.102973685 0.030431036 -0.06581377
0003a0 5d 88 00 3d 52 b9 4e bd f6 d0 3e bd 97 bb 29 bc
       0.031380046 -0.050469704 -0.046586 -0.010359666
0003b0 0b f2 d5 bd 0e 5f aa bc 99 30 25 3d d5 3f 70 3d
       -0.10446557 -0.020797279 0.04032955 0.058654625
0003c0 58 d7 3d 3d c2 10 dc 3c 76 b9 f2 3c 97 bd cc bc
       0.046347946 0.02686346 0.02962945 -0.024992747
0003d0 6e 61 3d 3d 30 c2 23 bd 3b bb ac bd 4d 44 31 bb
       0.046235494 -0.039980114 -0.08434149 -0.0027048767
0003e0 8c 4d ad bc eb 95 1b 3d 06 e3 60 bd 42 96 93 3d
       -0.021155141 0.03798477 -0.054904006 0.07206394
0003f0 31 08 98 bd 61 bb c4 bd 35 86 30 bb 14 aa 69 3d
       -0.074234374 -0.09606052 -0.0026935462 0.057046965

encoder.0.fc2.bias f4 [128]
000000 dc 5a 38 bd 39 53 02 bd d8 60 5d bd 85 1e b3 3d
       -0.045008525 -0.03181765 -0.054047436 0.087460555
000010 76 cf 66 bd 76 82 ef bc 0d e9 50 3a 36 a8 92 3d
       -0.056350194 -0.029237013 0.00079692976 0.0716099
000020 02 0f c3 bd 8a cc a9 bb ed bf ab 3d 9d 45 78 3d
       -0.09524347 -0.0051818537 0.08386216 0.060613263
000030 a4 81 79 bd 33 e9 c5 bd b9 d7 67 bd 01 3f b5 bd
       -0.06091465 -0.0966362 -0.056602214 -0.08849908
000040 a2 b1 79 bd 45 da 55 bd 42 f7 61 bd f5 20 9b bc
       -0.06096042 -0.05221011 -0.055167444 -0.018936614
000050 86 a9 99 bc 40 8c 5d 3d 68 85 4b 3d 14 01 5b 3a
       -0.018757593 0.05408883 0.049687773 0.00083543477
000060 1d f0 ef 3c ba 57 60 bd 22 d9 a2 ba cf a5 6d bc
       0.0292893 -0.054771163 -0.001242433 -0.014504864
000070 16 f7 13 3b 14 97 c2 bd 9c 46 50 3d 65 3f 14 bd
       0.0022577695 -0.09501472 0.05084859 -0.03619327
000080 a6 72 4b bd 18 d5 49 3d 9f e2 92 3c 4e a6 ca bd
       -0.049669884 0.049275488 0.017930327 -0.09895001
000090 26 25 93 bd 8c b7 96 bc f8 27 12 bb 69 61 ad 3c
       -0.0718482 -0.018398069 -0.0022301655 0.021164613
0000a0 ed 85 b9 bd 4e 13 ad bc da af a8 bd 3b 59 b9 3b
       -0.090587474 -0.02112737 -0.08236666 0.005656389
0000b0 7e 26 16 bd cb d1 3e 3d e8 45 8f 3d 9f 34 9e 3d
       -0.036657803 0.046586793 0.069957554 0.077248804
0000c0 ad 56 ab bd a2 86 19 3d ba ab e0 3b 4d 77 b8 3b
       -0.083661415 0.03748191 0.006856409 0.005629456
0000d0 2e 55 32 bd c3 f9 d0 3c a6 45 33 3d 80 38 6e bd
       -0.043538265 0.02550972 0.043767594 -0.05815935
0000e0 8b c5 25 bd 1d 3f c1 bd ad 65 b0 bd 91 26 e8 3c
       -0.040471595 -0.09435866 -0.08613143 0.028338702
0000f0 39 df 1c bd 87 07 8e 3c f9 cc 79 3d cc 56 b3 bd
       -0.03829882 0.017337574 0.060986493 -0.087567896
000100 e4 1e 68 3d 18 77 62 3d d6 91 a6 3d 7d 7a 4d 3b
       0.056670085 0.055289358 0.08133285 0.0031353526
000110 48 b5 23 3d c1 10 81 bd 42 38 1b 3d 0e f3 61 bd
       0.039967805 -0.06302024 0.03789545 -0.055163436
000120 77 fb 08 3d df ae 3d 3c 54 18 53 bc f5 fb 14 3d
       0.03344294 0.011577337 -0.012884218 0.036373097
000130 74 cd a4 bd 20 a6 ce bd 0d 14 08 bd 24 0b 1e 3d
       -0.080469996 -0.100902796 -0.033222247 0.038584843
000140 3a fa 4f bd b4 8d a2 bd 46 57 2d 3d e2 c2 7f bd
       -0.050775744 -0.07937184 0.04231956 -0.062441714
000150 13 b4 28 bd 57 c2 26 3d 56 d4 14 ba bc 85 11 3d
       -0.041187357 0.04071268 -0.00056773925 0.03552793
000160 0d a3 6e bd 24 1e b4 bd 9d da 85 bd 93 19 45 3c
       -0.058260966 -0.08794811 -0.06535838 0.012030023
000170 a6 32 78 bd 84 b5 58 bd e5 cd 80 3d 86 32 22 3d
       -0.060595177 -0.05290748 0.06289271 0.039598964
000180 4e 68 52 bd 32 f1 cb 3c d8 31 7d bd 0e 53 9b 3d
       -0.051369004 0.024895284 -0.061815113 0.07584201
000190 77 25 61 3c b7 ec 88 bd aa 42 14 3d 59 6d 78 bd
       0.0137418425 -0.06685775 0.03619639 -0.060651157
0001a0 2b 18 9d 3d 34 99 7d 3d f4 19 92 bc fb 33 b9 bb
       0.07670625 0.061913684 -0.017834641 -0.0056519485
0001b0 32 3f a0 3c 77 c2 8d bd 49 8b 84 bd 52 bd b2 bd
       0.019561384 -0.06921857 -0.06471879 -0.08727516
0001c0 9e 4d 1c 3c de f1 c7 3d 9a 31 24 3d 12 16 fe bc
       0.00953999 0.097629294 0.040086366 -0.031016383
0001d0 ce 0d dc bc 80 0c 9b bd aa d2 24 bd e7 97 d9 bd
       -0.026862051 -0.075707436 -0.040239967 -0.10624676
0001e0 cd f1 47 bd b6 58 3d 3b 58 89 bc 3c 9b 40 99 3d
       -0.048814584 0.0028891987 0.02301471 0.07483026
0001f0 f2 cf 27 3c b0 a8 ba 3d d6 56 0f 3d d1 d1 16 bd
       0.010242449 0.09114206 0.034994923 -0.03682119
