small_scale_scenario/experiments/stid/METRLA/-fewshot5/final_model_s2019.pt (torch, 478531 bytes, 19 tensors)

node_emb f4 [207, 32]
0	0xbc1db5e5	-0.009625887
1	0x3ca2c999	0.01987152
2	0x3d886ff9	0.06661982
3	0xbd898351	-0.067145
4	0x3d3e2ed5	0.04643138
5	0x3d6fca33	0.05854244
6	0xbdbce352	-0.092230454
7	0x3e26f708	0.16305172
8	0xbd5b1000	-0.053482056
9	0xbe0cb398	-0.13740385
10	0xbd00ea77	-0.031473603
11	0xbb6b9362	-0.0035946001
12	0x3e17d405	0.14826973
13	0xbe146c36	-0.14494404
14	0xbd8b9faf	-0.068175666
15	0xbc7c8c7b	-0.0154143525
16	0xba4eb7bd	-0.00078856555
17	0xbe1842b1	-0.14869191
18	0x3d902766	0.07038765
19	0xbdbd8967	-0.09254723
20	0x3d860452	0.06543793
21	0x3b2460a8	0.0025082026
22	0xbd09f5af	-0.033681568
23	0x3de3a8cd	0.111161806
24	0xbd51d8ae	-0.051232032
25	0xbd42744d	-0.047474194
26	0x3bddbb87	0.0067667398
27	0xbe033f86	-0.12817201
28	0xbd79e0f5	-0.06100555
29	0xbde5c847	-0.112198405
30	0x3d485a2c	0.04891412
31	0x3c49ace5	0.012309288
32	0xbcb7ff15	-0.0224605
33	0xbdd1707c	-0.10226533
34	0x3d71a0d5	0.058991272
35	0xbe472d15	-0.19450791
36	0xbbdfc53b	-0.0068289316
37	0x3dc30d09	0.09523971
38	0x3dbbdbd2	0.09172787
39	0xbd7433cc	-0.05961971
40	0x3b876737	0.004132177
41	0xbdbc2f6c	-0.091887325
42	0xbdd3a7b8	-0.10334724
43	0xbe2d4d33	-0.1692398
44	0x3d600e44	0.054701105
45	0xbda97577	-0.08274358
46	0xbb8ebf15	-0.004356275
47	0x3d82e6ee	0.063917026
48	0x3c1cd0f2	0.009571301
49	0x3def5ee8	0.11688024
50	0x3e189cdb	0.14903586
51	0x3dc89d8a	0.09795673
52	0x3d2ac850	0.04169494
53	0x3dbe2096	0.09283559
54	0x3e12231c	0.14271206
55	0xbca64365	-0.020295808
56	0x3c9ca07b	0.019119492
57	0xbd61eb61	-0.055156115
58	0xbc91d466	-0.017801475
59	0x3d350211	0.044191424
60	0x3cf7f809	0.03026964
61	0x3d88d407	0.06681066
62	0x3cfa71e3	0.030571884
63	0xbd57a150	-0.052644074
64	0xbe18df8b	-0.14929025
65	0xbaa463be	-0.0012541933
66	0xbdc985bc	-0.09839961
67	0x3ddc985f	0.1077125
68	0xbd186a78	-0.03721091
69	0x3c87d817	0.016582532
70	0x3dc58ca3	0.09645965
71	0x39de30f0	0.000423796
72	0x3dd4ea03	0.10396197
73	0x3bb52f00	0.0055292845
74	0x3deee464	0.11664656
75	0x3e0dda7c	0.13852876
76	0x3e4bc9f3	0.19901256
77	0xbdaa3ffb	-0.083129846
78	0xbd6ada98	-0.057337373
79	0xbdd4026e	-0.10352026
80	0x3d664bb9	0.05622456
81	0x3c22ea9a	0.009943629
82	0x3d948445	0.07251791
83	0x3d5bb914	0.0536433
84	0x3e048c0d	0.1294405
85	0x3e4f95fd	0.2027206
86	0xbe3c783e	-0.18405244
87	0x3df4acaf	0.11946999
88	0x3e2b4aea	0.16727796
89	0x3caaf564	0.020868964
90	0x3d18273c	0.03714679
91	0xbd995fe6	-0.07488994
92	0x3d4d352f	0.050099548
93	0xbd12b440	-0.03581643
94	0xbd630d61	-0.05543268
95	0x3d3b7606	0.045766853
96	0x3de5c302	0.112188354
97	0x3ce2634e	0.027635243
98	0x3e1c2b3c	0.15250868
99	0x3d17dea3	0.037077557
100	0xbdb548f6	-0.08851807
101	0xbcdf6eee	-0.027274575
102	0xbd94c807	-0.07264715
103	0xbe0c3057	-0.13690315
104	0xbe294373	-0.16529636
105	0x3df9c111	0.121950276
106	0xbcc47929	-0.023983555
107	0x3e259cc5	0.16173084
108	0xbe907afe	-0.28218836
109	0x3de3f0bc	0.11129901
110	0x3d9abb21	0.07555223
111	0x3da36471	0.07978142
112	0x3de1e9a3	0.11030891
113	0xbd4444b9	-0.0479171
114	0x3de836d1	0.113385804
115	0xbdd5c050	-0.10437071
116	0xbd8c9347	-0.068640284
117	0xbe50677c	-0.20351976
118	0x3d951707	0.07279783
119	0xbe3fc111	-0.18725993
120	0x3d906102	0.07049753
121	0xbdb84119	-0.089967914
122	0x3e1fa4d3	0.15590219
123	0x3afb490f	0.0019171553
124	0x3d008fec	0.031387255
125	0xbd9d84f2	-0.07691373
126	0xbe07b31b	-0.13251917
127	0xbc8d4da3	-0.017248934
128	0xbddcc734	-0.107801825
129	0xbd70004b	-0.05859403
130	0xbd9d9193	-0.07693782
131	0xbe327066	-0.17425689
132	0xbd0081f5	-0.031373937
133	0xbdac4c52	-0.084129944
134	0x3dada65f	0.084789984
135	0xbd69890f	-0.057015475
136	0xbe0d77c8	-0.13815224
137	0xbd76c849	-0.0602496
138	0x3dcf2410	0.101143
139	0xbca6437b	-0.02029585
140	0xbdf0e13a	-0.117617086
141	0x3dbb5c8f	0.091485135
142	0xbcb86c8e	-0.0225127
143	0x3e21cc17	0.1580051
144	0xbe23481b	-0.15945475
145	0x3c67d565	0.014149998
146	0xbe5c0d44	-0.21489435
147	0xbdd89739	-0.105757184
148	0xbd804c59	-0.06264562
149	0xbe3599d8	-0.17734468
150	0xbd83f6c3	-0.064435504
151	0x3c5d6fd4	0.013515431
152	0x3d1e4a6a	0.038645186
153	0xbd8f6906	-0.070024535
154	0x3e6f7268	0.23383486
155	0xbe275a93	-0.16343145
156	0x3c160500	0.0091564655
157	0x3d45663c	0.0481932
158	0xbc30ec76	-0.010798564
159	0xbe2a4de1	-0.16631271
160	0x3dad99df	0.08476614
161	0x3cbccc26	0.023046564
162	0x3e601908	0.21884549
163	0xbe5b6105	-0.21423729
164	0xbd8dfe77	-0.06933301
165	0xbd0145e4	-0.031560794
166	0xbd8ff992	-0.07030024
167	0xbd54c9d1	-0.05195028
168	0xbd67f950	-0.056634247
169	0x3e201100	0.15631485
170	0x3dbd16ca	0.09232862
171	0xbc423d1e	-0.011855392
172	0xbce52fa3	-0.027976817
173	0x3e04ced3	0.12969522
174	0x3d583fa1	0.052795056
175	0x3dd97f73	0.10620012
176	0x3e11cfeb	0.1423947
177	0x3dfff85d	0.124985434
178	0xbd36cda8	-0.044629723
179	0xbcdacd3a	-0.026709188
180	0xbd3a183c	-0.045433268
181	0x3d95fbf4	0.07323447
182	0xbddf3b6b	-0.10900005
183	0xbdb96093	-0.09051623
184	0xbd8baec7	-0.068204455
185	0xbc8b90d5	-0.017036835
186	0x3e670a6d	0.22562571
187	0x3c81d9bc	0.015850894
188	0x3b51edfb	0.0032032717
189	0xbd4b06b6	-0.049566947
190	0xbd6dc5a0	-0.058049798
191	0x3de425d2	0.11140026
192	0xbca36364	-0.019944854
193	0xbd94fccb	-0.07274779
194	0xbd04cf74	-0.032424405
195	0x3c8e14a8	0.017343834
196	0xbc4b0c93	-0.012393135
197	0xbe3ad078	-0.18243587
198	0x3c144d2c	0.009051602
199	0xbda282e1	-0.079351194
200	0xbdb2863d	-0.0871701
201	0xbc803110	-0.015648395
202	0xbd2cae3d	-0.042158354
203	0xbbffb5ae	-0.0078036403
204	0xbcd9972e	-0.026561346
205	0x3deb14a1	0.11478544
206	0x3d22a40b	0.039707225
207	0x3e458810	0.19290185
208	0xbbd366b8	-0.006451454
209	0x3db1468f	0.08656036
210	0x3d600903	0.054696094
211	0xbe5f4d87	-0.21806918
212	0x3ccddc2a	0.025129396
213	0xbe0d9bf6	-0.13829026
214	0x3c4c99d8	0.012487851
215	0x3d7d1fb5	0.061797816
216	0xbc2286a7	-0.009919799
217	0xbcc7572b	-0.024333557
218	0x3d38f7cb	0.04515819
219	0x3ceabcc8	0.028654471
220	0x3d7f8c3a	0.06238959
221	0x3c818bb5	0.015813688
222	0x3d564583	0.052312385
223	0xbdc111c4	-0.09427217
224	0x3dfc72d8	0.12326592
225	0xbd59ac5e	-0.053142898
226	0xbde9daa7	-0.11418658
227	0xbd1f136c	-0.03883688
228	0xbdb845bc	-0.08997676
229	0x3c9a3781	0.018825294
230	0xbc1c57e4	-0.009542439
231	0xbe684ae3	-0.22684817
232	0x3d9efc97	0.077630214
233	0xbd80cfb7	-0.062896185
234	0xbe146b97	-0.14494167
235	0xbc98ad1b	-0.01863723
236	0xbe013759	-0.1261877
237	0xbcaa40fd	-0.020782942
238	0x3b647d58	0.003486475
239	0x3da4b6ec	0.08042702
240	0xbdfe4c42	-0.12416889
241	0xbd287f05	-0.04113676
242	0x3e233e47	0.15941726
243	0xbd263467	-0.04057732
244	0x3b23bbcf	0.0024983769
245	0xbdc5b0fe	-0.09652899
246	0x3e07e174	0.13269597
247	0xbdb600a4	-0.08886841
248	0xbcdf48c4	-0.027256377
249	0xbd6fd96a	-0.05855695
250	0xbd50fad2	-0.05102045
251	0x3d282301	0.041049007
252	0x3dbeaa60	0.0930984
253	0x3b1c77e4	0.0023875171
254	0x3de70307	0.11279874
255	0x3d9972ba	0.074925855

time_in_day_emb f4 [288, 32]
0	0xbdd45574	-0.103678614
1	0xbdb70f92	-0.08938517
2	0xbe056f6f	-0.1303079
3	0x3daae50f	0.08344471
4	0xbdfc904a	-0.123322085
5	0xbd9eb4b3	-0.077493094
6	0x3db79726	0.08964376
7	0x3e426a88	0.18985951
8	0x3d592f18	0.053023428
9	0x3e1dfbfb	0.15428154
10	0x3d937d6a	0.07201655
11	0x3cf4f161	0.029900255
12	0xbda7685b	-0.08174201
13	0xbe080c17	-0.13285862
14	0x3d389010	0.045059264
15	0x3da18de7	0.07888394
16	0x3dd66cec	0.10469994
17	0x3cce0268	0.025147632
18	0xbd74bf38	-0.059752673
19	0xbdfa1256	-0.122105286
20	0xbc957365	-0.018243501
21	0x3c11d9ea	0.008902052
22	0xbda1bca7	-0.07897311
23	0x3deeb08d	0.11654768
24	0x3d38d62c	0.045126125
25	0xbe09d479	-0.13459958
26	0x3d9dea08	0.077106535
27	0xbe115f7a	-0.14196578
28	0xbe25c6e0	-0.16189146
29	0xbcb4c736	-0.022067647
30	0xbe01f423	-0.12690787
31	0x3d698f1d	0.05702125
32	0xbdf6910d	-0.12039385
33	0x3d712d55	0.058881123
34	0xbd960ab5	-0.07326261
35	0x3d4bd97e	0.049767964
36	0x3ccbe1fe	0.024888035
37	0xbd2886ee	-0.041144304
38	0xbdc5b11d	-0.09652922
39	0x3e40d0ee	0.188297
40	0x3d80a9c9	0.06282384
41	0x3e3104a0	0.1728692
42	0x3d1d8ca4	0.038464203
43	0x3e1e9f4e	0.15490457
44	0xb9b0c7da	-0.00033718237
45	0xbe3a6be1	-0.18205215
46	0xbdcd45d7	-0.100230865
47	0x3d1f766b	0.03893129
48	0xbd89c9f6	-0.06727974
49	0x3d81b605	0.063335456
50	0xbdb6fe27	-0.089351945
51	0xbd5caa74	-0.053873494
52	0x3d6a8b5d	0.057261813
53	0xbe197fc5	-0.14990146
54	0xbd7a5f7d	-0.06112622
55	0x3dbeeff8	0.09323114
56	0x3d451773	0.048118066
57	0xbcab475b	-0.020908048
58	0x3c8104fd	0.015749449
59	0xbd80c0e3	-0.0628679
60	0xbdc66e83	-0.09689047
61	0x3d585b05	0.052821178
62	0xbde03b36	-0.109487936
63	0x3e104fc9	0.14092936
64	0xbdd1cd57	-0.102442436
65	0xbba6fbd5	-0.0050959387
66	0x3c83df7e	0.01609778
67	0x3d9036d2	0.07041706
68	0xbcb9f9de	-0.022702154
69	0xbd5b327a	-0.053514935
70	0xbd246512	-0.04013545
71	0x3de28332	0.1106018
72	0x3db1e294	0.086857945
73	0x3da709aa	0.0815614
74	0x3daa3771	0.08311356
75	0x3e19714b	0.14984624
76	0x3d55b750	0.052176774
77	0xbe41d903	-0.1893044
78	0x3b859317	0.0040763724
79	0x3ddfadd0	0.10921824
80	0x3a165a0b	0.00057354633
81	0xba43e696	-0.00074730197
82	0xbe413343	-0.18867211
83	0xbda2fb04	-0.07958034
84	0xbc80f971	-0.015743943
85	0xbe48a886	-0.19595537
86	0xbd3cfee7	-0.04614153
87	0x3dc732d1	0.09726489
88	0x3cc6f753	0.024287855
89	0xbdda82fb	-0.10669514
90	0x3d36971b	0.0445777
91	0xbdcc6c39	-0.09981579
92	0xbdd20471	-0.102547534
93	0xbc333b14	-0.010939378
94	0x3d43131c	0.047625646
95	0x3d8aa772	0.06770219
96	0xbd7b3fea	-0.06134025
97	0x3de1cd89	0.11025531
98	0xbd7a392b	-0.061089676
99	0x3cbaae91	0.022788318
100	0x3c0df7bd	0.008665022
101	0xbe3871df	-0.18012188
102	0x3c8f2bde	0.017476972
103	0x3e085fc1	0.13317777
104	0xbdbfac7d	-0.093590714
105	0xbc360e7d	-0.011111853
106	0xbc9849c9	-0.018589871
107	0x3dd3bb2f	0.10338437
108	0xbdbd63eb	-0.092475735
109	0xbe491cfe	-0.19639966
110	0xbdf4aa22	-0.11946513
111	0x3dc68301	0.09692956
112	0xbd557f7a	-0.052123524
113	0x3dd27c96	0.10277669
114	0xbe160c3c	-0.14653105
115	0xbe248d2e	-0.16069481
116	0xbcd3a425	-0.025835106
117	0xbd99baeb	-0.07506355
118	0xbd4d4e92	-0.05012376
119	0xbd97615f	-0.07391619
120	0xbbe96b22	-0.007123367
121	0x3dd7f160	0.105440855
122	0xbc5c28c2	-0.013437452
123	0xbdc2c12c	-0.09509501
124	0xbe2a3d5e	-0.16624972
125	0xbc385450	-0.01125057
126	0x3d927c65	0.071526326
127	0x3d328019	0.043579195
128	0x3b10319e	0.002200223
129	0xbc1240fa	-0.008926624
130	0x3c42e230	0.011894748
131	0xbdd35c24	-0.10320309
132	0xbdf4ff22	-0.11962725
133	0x3c908f6b	0.017646512
134	0xbc213b7d	-0.009840843
135	0x3e0f0d51	0.13969924
136	0xbdafc3c1	-0.08582259
137	0x3cbebfca	0.023284812
138	0x3e56b9f8	0.20969379
139	0xbd7a75d1	-0.061147515
140	0xbdc478d7	-0.09593361
141	0xbe0f7e77	-0.14013086
142	0x3dc275a6	0.09495096
143	0x3df032f9	0.11728472
144	0xbbb4192f	-0.005496166
145	0xbe3760a3	-0.17907958
146	0xbe047b83	-0.12937741
147	0xbd26dd8f	-0.04073864
148	0xbd0f527c	-0.034990773
149	0xbda5684d	-0.080765344
150	0x3cc81d09	0.024427908
151	0x3c8dd194	0.017311849
152	0x3d8a4192	0.06750788
153	0xbe27e8f6	-0.16397461
154	0xbb13128f	-0.0022441482
155	0xbd220177	-0.03955218
156	0xbd3d65b9	-0.04623959
157	0x3ca9497b	0.020664921
158	0xbda116bd	-0.07865665
159	0x3d249568	0.040181547
160	0x3cd4e7bc	0.025989406
161	0x3ca168e1	0.01970333
162	0xbc8e2f94	-0.017356671
163	0x3b91904b	0.00444225
164	0xbd3882c2	-0.045046575
165	0xbdea736b	-0.114477955
166	0x3d2c028a	0.04199461
167	0x3e231caf	0.1592891
168	0x3d64cca4	0.055859223
169	0x3d299daf	0.041410144
170	0x3e703327	0.23457013
171	0xbd39b28f	-0.045336302
172	0xbda03461	-0.078224905
173	0xbd22c770	-0.03974098
174	0x3d36b6be	0.04460787
175	0xbdf6cf13	-0.12051215
176	0xbdda6a98	-0.106648624
177	0x3ce20247	0.027588977
178	0x3d7975f6	0.060903512
179	0xbdabe0a3	-0.083924554
180	0xbc135ea7	-0.008994735
181	0xbde50d76	-0.11184208
182	0xbc1f1cbb	-0.00971144
183	0x3c057945	0.008146589
184	0x3d35f023	0.044418465
185	0xbd19a1b4	-0.037507728
186	0x3d906147	0.07049804
187	0xbd516f8f	-0.05113178
188	0xbda49352	-0.080359116
189	0xbc11723d	-0.008877334
190	0xbd914e28	-0.07094985
191	0xbd7db21f	-0.061937448
192	0x3e06d5af	0.13167451
193	0xbd418290	-0.047243655
194	0x3c0cbacb	0.008589457
195	0x3d6f5f4f	0.058440503
196	0xbccd9025	-0.025093148
197	0xbc9e2f66	-0.01930971
198	0x3de899c9	0.11357457
199	0x3da9fb00	0.082998276
200	0x3dc102a0	0.09424329
201	0x3e2f6187	0.17127047
202	0x3e01159d	0.12605901
203	0x3d548833	0.051887702
204	0xbba5a40a	-0.0050549554
205	0xbe3253aa	-0.17414728
206	0x3d6c6e06	0.057722114
207	0xbdc3c676	-0.09559338
208	0xbd042089	-0.03225759
209	0x3d957ad7	0.072988205
210	0xba96ce75	-0.0011505621
211	0xbe4655c1	-0.1936865
212	0x3b4ed659	0.0031560867
213	0xbd7bca19	-0.061472032
214	0x3d4d88b5	0.050179202
215	0x3dcb09ee	0.09914003
216	0x3d3c9878	0.046043843
217	0xbd7b658c	-0.06137614
218	0x3d6fc311	0.05853564
219	0x3d0eda9a	0.034876443
220	0xbd4f2cdb	-0.050579887
221	0x3cffa5d2	0.031206999
222	0xbdb687fd	-0.089126565
223	0x3b08aac5	0.002085374
224	0x3d9d2121	0.076723345
225	0x3bd1b05e	0.0063991984
226	0xbd961551	-0.073282845
227	0x3d97b4ec	0.07407555
228	0xbd90ee9a	-0.0707676
229	0x3db5772e	0.08860622
230	0x3dfcfdce	0.12353097
231	0x3d57b387	0.052661445
232	0x3d54246b	0.051792543
233	0x3e0dc796	0.13845667
234	0x3e0f3459	0.13984813
235	0xbcdcbb0e	-0.026944663
236	0x3cbed143	0.023293143
237	0xbe10f4fe	-0.14155957
238	0x3d1243c0	0.035709143
239	0xbc339ecd	-0.010963154
240	0x3c248e0c	0.010043632
241	0xbd6feff7	-0.058578458
242	0xbdb863bf	-0.090034
243	0xbe3c028b	-0.18360345
244	0x3dc03311	0.0938474
245	0xbdf2cd74	-0.11855593
246	0x3dda2a4b	0.10652598
247	0x3d5ded67	0.054181483
248	0xbdc1104e	-0.09426938
249	0xbdb45710	-0.08805668
250	0xbd2bb8fe	-0.04192447
251	0xbdbc6b87	-0.09200197
252	0x3d5e11c9	0.05421618
253	0x3c467ceb	0.012114744
254	0x3d1cf910	0.038323462
255	0xbc424e28	-0.011859454

day_in_week_emb f4 [7, 32]
0	0xbe98e394	-0.29861128
1	0x3ea20f6b	0.31652388
2	0x3e87cba6	0.2652256
3	0x3e82626c	0.25465715
4	0xbe8e7e4b	-0.2783073
5	0x3c502f9f	0.012706666
6	0x3d7b1f57	0.061309185
7	0xbe8f61bb	-0.2800425
8	0xbe876485	-0.26443878
9	0x3ea3fcd5	0.32028833
10	0x3e3525aa	0.17690149
11	0xbe9e5de6	-0.30931014
12	0x3d85f252	0.065403596
13	0x3e78a229	0.24280609
14	0xbe8a6437	-0.27029583
15	0x3adf1995	0.0017021174
16	0x3e52d73f	0.20589922
17	0x3d417ec8	0.04724005
18	0xbd98b1f5	-0.074558176
19	0x3ea38295	0.31935564
20	0x3e0fedf4	0.14055616
21	0x3e516abd	0.20450874
22	0x3d3c9afe	0.04604625
23	0x3b280e86	0.0025643422
24	0x3e8995e4	0.2687217
25	0xbe7b598d	-0.2454588
26	0x3e00d46b	0.12581031
27	0x3e8e533d	0.2779788
28	0x3eb6bdf7	0.35691807
29	0x3dde0a1c	0.10841772
30	0x3dea1cc9	0.114312716
31	0x3e331f18	0.1749233
32	0xbe3a6c3c	-0.1820535
33	0x3e7dfc0c	0.2480318
34	0xbd858eae	-0.065213546
35	0xbe1d55b9	-0.15364732
36	0x3d1d1623	0.03835119
37	0xbe972f4a	-0.29528266
38	0xbe8564d3	-0.26053485
39	0x3e049646	0.1294795
40	0xbd9df933	-0.077135466
41	0x3d81f7f3	0.06346121
42	0x3d6940dc	0.05694662
43	0x3de71282	0.11282827
44	0xbea3b51a	-0.31974107
45	0x3e588aae	0.21146652
46	0xbd5a8267	-0.053347018
47	0xbcb414e7	-0.021982623
48	0xbcd3455f	-0.025789915
49	0x3e848463	0.25882253
50	0xbe4cd162	-0.20001748
51	0x3e235677	0.15950952
52	0xbe92b8ad	-0.2865652
53	0xbe551e7a	-0.20812407
54	0x3e7ec703	0.24880604
55	0x3e893bcf	0.26803443
56	0x3da236d7	0.07920616
57	0xbe877d3c	-0.26462734
58	0xbe0718ec	-0.131931
59	0x3d9ab622	0.0755427
60	0x3c9cf3a1	0.01915914
61	0x3db5366e	0.08848272
62	0x3e2780ca	0.16357723
63	0xbe3a5ec8	-0.18200219
64	0x3d1a1e54	0.03762658
65	0x3d485626	0.048910283
66	0x3b19134b	0.0023357447
67	0xbd1a0a2a	-0.03760735
68	0x3d18e5c5	0.0373285
69	0x360e5d86	2.1214087e-06
70	0x2890300b	1.6008047e-14
71	0xbb2d1fbe	-0.0026416625
72	0x35e9f5fe	1.7431446e-06
73	0x2d9ff8c6	1.8186685e-11
74	0xb8c77cf7	-9.512336e-05
75	0x3bd93084	0.006628098
76	0xbd34eae4	-0.04416932
77	0xbd30ff13	-0.043212008
78	0x3634f6d7	2.696577e-06
79	0xa9ca7b4b	-8.99199e-14
80	0x28b3452a	1.9902987e-14
81	0x3b004a0b	0.0019575383
82	0xbc117b87	-0.008879549
83	0xa69b1538	-1.0761037e-15
84	0x3cca677a	0.024707545
85	0x3cac5c3f	0.02104008
86	0xabfdc8bb	-1.8032445e-12
87	0xaac43fcf	-3.486087e-13
88	0x3bcc7cd7	0.006240468
89	0xba50cc18	-0.00079649827
90	0xa99fcfc8	-7.097063e-14
91	0x3cb85033	0.02249918
92	0x2aa170bd	2.8677573e-13
93	0x3c2ff705	0.010740046
94	0xbd533bb4	-0.05157061
95	0xa77574ff	-3.4064004e-15
96	0x3d59c1b6	0.053163253
97	0xbd829917	-0.06376856
98	0x3c130761	0.008973927
99	0x3e23bca8	0.15989935
100	0x3e9fb71d	0.31194392
101	0x3c113597	0.0088628745
102	0x3c704bf7	0.014666549
103	0x3de45b2a	0.11150201
104	0x3e8109f3	0.25202903
105	0x3d8b0819	0.06788654
106	0xbe8e2445	-0.27762046
107	0xbd405b77	-0.046962228
108	0x3d69dbd7	0.05709442
109	0xbd6650c6	-0.056229375
110	0xbd4183e8	-0.047244936
111	0x3e674810	0.22586083
112	0xbde715b0	-0.112834334
113	0xbd88eae6	-0.06685428
114	0x3e982c5f	0.29721352
115	0xbe0c26d4	-0.13686687
116	0xbe21ccb1	-0.1580074
117	0xbd03e97e	-0.032205097
118	0x3e28a610	0.16469598
119	0x3d270404	0.040775314
120	0x3d992632	0.07477988
121	0xbeaf6268	-0.34254766
122	0x3dde04d4	0.10840765
123	0x3ec9645d	0.39334384
124	0x3e62bf92	0.22143391
125	0xbe743242	-0.23847297
126	0x3d38035d	0.044925082
127	0xbe7d9805	-0.24765022
128	0x3e976067	0.29565737
129	0xbded5f4e	-0.115904436
130	0xbe670a37	-0.2256249
131	0xbbe96d7f	-0.0071236487
132	0x3e827b27	0.25484583
133	0x3e1753b3	0.14778022
134	0xbeab8f23	-0.33507642
135	0x3d0e76a2	0.034781106
136	0x3e56a096	0.20959696
137	0x3e8e07a6	0.2774021
138	0xbeb13f1a	-0.34618455
139	0xbe91c0e4	-0.28467476
140	0x3e629d34	0.2213028
141	0x3cf26ddf	0.029593406
142	0xbe4584b1	-0.19288899
143	0x3e50af54	0.20379382
144	0x3d7ad7d0	0.06124097
145	0xbe32b76a	-0.1745278
146	0x3e54da2f	0.20786355
147	0xbe96f2c0	-0.2948208
148	0xbe36b09d	-0.1784081
149	0x3e89af0d	0.26891366
150	0x3dd5ac47	0.1043325
151	0xbdb8f599	-0.09031219
152	0x3e82dbba	0.25558263
153	0x3b63c5e5	0.0034755406
154	0x3d947931	0.07249678
155	0x3e4fce79	0.20293607
156	0x3e652578	0.22377574
157	0xbd37e828	-0.044899136
158	0x3e2f9369	0.17146076
159	0x3e6f4ec9	0.23369898
160	0x3e9ae369	0.30251625
161	0xbe321395	-0.17390282
162	0x3e70df0c	0.23522586
163	0xbe695474	-0.22786123
164	0xbdc98780	-0.09840298
165	0x3cb9c529	0.022677021
166	0xbe991e18	-0.29905772
167	0xbe242676	-0.16030297
168	0xbe55187f	-0.20810126
169	0xbdb1fca2	-0.08690764
170	0xbecc00cd	-0.3984436
171	0x3e12b872	0.14328173
172	0xbec59594	-0.38590682
173	0xbe0b349e	-0.1359429
174	0x3b0995ad	0.0020993755
175	0x3df104f1	0.117685206
176	0xbe4f345b	-0.20234816
177	0x3e1c98b1	0.15292622
178	0x3dca49fd	0.098773934
179	0xbe22902c	-0.1587531
180	0x3da097df	0.07841467
181	0x3ec2c47f	0.3804054
182	0x3e90eaa4	0.28304017
183	0xbe1295d6	-0.1431497
184	0x3dcf90df	0.10135054
185	0x3e115b8a	0.14195076
186	0xbe12814f	-0.1430714
187	0x3d99e030	0.075134635
188	0x3ed23a91	0.41060308
189	0xbea31f12	-0.31859642
190	0x3ea05302	0.3131333
191	0x3dcca673	0.09992685
192	0xbe948f21	-0.2901545
193	0x3e90c861	0.28277877
194	0x3e423922	0.18967107
195	0x3e81c24c	0.2534355
196	0x3e3190cb	0.1734039
197	0x3dc6e657	0.097119026
198	0xbea52557	-0.3225505
199	0x3e286a37	0.16446768
200	0xbe3d9ed7	-0.18517624
201	0xbea3cedf	-0.31993768
202	0xbd8d61d1	-0.069034226
203	0x3e747fa9	0.23876823
204	0x3d5a15e9	0.05324355
205	0x3e49efe8	0.19720423
206	0xbe339b6f	-0.17539762
207	0xbe9b69dd	-0.30354205
208	0x3e86601f	0.2624521
209	0x3eb04035	0.34423986
210	0x3e83686e	0.2566561
211	0xbe73c839	-0.23806848
212	0xbda2199f	-0.07915043
213	0x3e131768	0.14364398
214	0xbd173203	-0.03691293
215	0x3e2f8e1c	0.17144054
216	0xbe9697ac	-0.2941259
217	0x3e3c8603	0.18410496
218	0xbe6c9c87	-0.23106585
219	0xbe538c64	-0.20659024
220	0x3e6c0756	0.23049673
221	0xbe4f324a	-0.20234028
222	0xbd45f78e	-0.04833179
223	0x3e866357	0.26247665

time_series_emb_layer.weight f4 [32, 36, 1, 1]
0	0xbda86a7c	-0.08223435
1	0x3ce542c9	0.027985947
2	0x3ddfc297	0.10925787
3	0x3dbaf859	0.091294
4	0x3dcff7d8	0.10154694
5	0xbe24b3a3	-0.16084151
6	0xbd707800	-0.05870819
7	0x3de687c5	0.11256365
8	0x3de248e6	0.110490605
9	0xbdbe6067	-0.09295731
10	0xbe05f2fd	-0.13080974
11	0xbccf001d	-0.025268609
12	0xbdb30a32	-0.08742179
13	0x3d8a3f81	0.06750394
14	0x3dfdb5b2	0.12388171
15	0x3dc22601	0.09479905
16	0xbe24cb28	-0.16093123
17	0x3d5650f6	0.052323304
18	0xbd572bd9	-0.05253205
19	0x3dd3bb4c	0.103384584
20	0xbe1d0e3b	-0.1533746
21	0x3e14b749	0.14523043
22	0xbd2f54f3	-0.042805623
23	0xbe245255	-0.16047032
24	0xbd3904ac	-0.04517047
25	0x3e22dbdf	0.15904187
26	0x3deb1d48	0.11480194
27	0x3e213199	0.15741576
28	0x3e290457	0.16505562
29	0x3de5d5b5	0.11222402
30	0x3d02e860	0.03195989
31	0x3de3378d	0.1109458
32	0x3c89cbb3	0.016820764
33	0x3e257496	0.16157755
34	0xbe04b821	-0.12960865
35	0x3e2a2734	0.16616517
36	0x3d9ef494	0.07761493
37	0xbdc3b7d9	-0.095565505
38	0x3e0046ec	0.12527055
39	0x3d680505	0.056645412
40	0x3c2adf4a	0.010429213
41	0xbdff4fdb	-0.12466403
42	0xbd16f533	-0.036854934
43	0x3c88af9a	0.016685296
44	0xbdcab17d	-0.098971345
45	0xbd55e3b3	-0.052219104
46	0xbe1386e2	-0.14406922
47	0xbcd9fd92	-0.02661017
48	0x3d50c65f	0.05097043
49	0x3e1e7889	0.15475668
50	0x3d81a248	0.06329781
51	0x3d31214c	0.043244645
52	0xbd28130f	-0.0410338
53	0xbe1fa644	-0.15590769
54	0x3dc7d65d	0.097576834
55	0x3e1fe48d	0.15614529
56	0x3d990b03	0.074728034
57	0x3dd773e1	0.10520149
58	0xbdd4b927	-0.103868775
59	0x3e0bda89	0.13657583
60	0x3dce043a	0.100594
61	0x3df539b6	0.11973898
62	0xbd841d76	-0.06450932
63	0xbaa167ff	-0.0012314318
64	0x3c5118ba	0.012762243
65	0xbe1965ff	-0.14980315
66	0x3db1e0f1	0.08685482
67	0x3c85796a	0.016293246
68	0xbd42b009	-0.04753116
69	0x3c8c845d	0.01715296
70	0xbc4de28a	-0.012566218
71	0xbd3eab76	-0.046550237
72	0x3ca56ede	0.020194467
73	0xbe10afc6	-0.14129552
74	0xbd93086d	-0.071793415
75	0xbe236a3b	-0.15958492
76	0x3dcdfe6e	0.10058294
77	0xbdb95cf8	-0.090509355
78	0xb9d4b885	-0.0004057327
79	0x3da92743	0.08259442
80	0xbd03dcd4	-0.03219302
81	0x3d900362	0.07031895
82	0x3da1fc23	0.079094194
83	0x3d50e161	0.050996188
84	0x3cc92139	0.024551975
85	0xbd8b4810	-0.06800854
86	0xbdae27a2	-0.08503653
87	0xbdefbd58	-0.11706036
88	0x3e289615	0.16463502
89	0xbd4e83ee	-0.050418787
90	0x3e107fb0	0.14111209
91	0x3d229eeb	0.039702337
92	0xbdb34b33	-0.087545775
93	0x3dfb5945	0.12272886
94	0xbd8aefd3	-0.06784024
95	0x3d8a34bf	0.06748342
96	0xbd87d5aa	-0.0663255
97	0x3ddcaba7	0.107749276
98	0x3dace2a1	0.084416635
99	0x3d9bf852	0.07615723
100	0x3c9147d8	0.017734453
101	0x3d1480b7	0.036255565
102	0x3ccf0367	0.025270177
103	0xbd91f72b	-0.07127222
104	0xbe063176	-0.13104805
105	0x3e08282a	0.13296571
106	0x3dcb4696	0.099255726
107	0xbc0fea61	-0.008783908
108	0x3d4efc9a	0.05053387
109	0xbe0c5656	-0.1370481
110	0xbcc1a290	-0.023637086
111	0xbca9e148	-0.020737305
112	0x3e1fcf9a	0.15606537
113	0xbdee8182	-0.116457954
114	0xbde7ea81	-0.11324025
115	0xbe083fad	-0.1330554
116	0xbdfa1690	-0.12211335
117	0x3cde25d4	0.027117647
118	0x3cef57e6	0.029216718
119	0x3e14e099	0.14538802
120	0x3e31518c	0.17316264
121	0xbe019a42	-0.12656501
122	0xbd12a9af	-0.035806354
123	0x3c5aa70e	0.013345493
124	0x3dc0eb72	0.09419908
125	0x3e17764c	0.1479122
126	0x3dccc6b2	0.099988356
127	0xbc20f26c	-0.009823423
128	0x3b3dd15d	0.0028963902
129	0x3cc7ac13	0.024374044
130	0x3e245bc6	0.16050634
131	0x3e129a8d	0.14316769
132	0xbd60e069	-0.054901514
133	0xbe0fec18	-0.14054906
134	0xbe28e27e	-0.1649265
135	0x3dfb58b3	0.122727774
136	0x3d97027f	0.07373523
137	0x3ce249e4	0.027623124
138	0xbd2c9673	-0.042135667
139	0x3db84b52	0.08998741
140	0xbd4d4ed1	-0.050123993
141	0x3ddcfe2e	0.107906684
142	0x3dfbb4f7	0.12290376
143	0x3dbbf32d	0.091772415
144	0xbdaf5a4b	-0.08562144
145	0xbdd34468	-0.10315782
146	0xbe2aaf82	-0.16668513
147	0x3d2a7a4a	0.04162053
148	0x3d4b53d6	0.0496405
149	0xbdaa536e	-0.08316694
150	0x3e0957b6	0.13412365
151	0x3dcd942a	0.10038026
152	0xbd0e8181	-0.034791473
153	0x3df0eab7	0.11763518
154	0xbd14edd1	-0.036359612
155	0xbcdf1b97	-0.027234836
156	0xbdc50ee6	-0.09621982
157	0x3e1c7e59	0.15282573
158	0xbdafe559	-0.085886665
159	0xbdc28739	-0.09498448
160	0x3de1e985	0.110308684
161	0x3df246a3	0.11829879
162	0xbdefd67a	-0.1171083
163	0x3e17a130	0.14807582
164	0x3dd71d40	0.10503626
165	0x3e1426a3	0.14467864
166	0x3e10dc0d	0.14146443
167	0x3d408bc1	0.04700828
168	0x3e200c11	0.15629603
169	0xbe0d7716	-0.13814959
170	0x3dcc08eb	0.099626385
171	0xbdf8d92f	-0.121507995
172	0xbc75a46f	-0.014992817
173	0x3cafd4dc	0.021463804
174	0x3cee1396	0.029062074
175	0x3dad51f1	0.08462895
176	0xbd83bf17	-0.06432932
177	0x3e4c69fd	0.19962306
178	0x3dc14347	0.0943666
179	0xbda0b540	-0.07847071
180	0xbd5028d7	-0.050820198
181	0x3dce88f6	0.10084717
182	0x3dd5b5a0	0.10435033
183	0x3de26212	0.11053862
184	0x3e0d0d46	0.13774595
185	0xbda0ba77	-0.07848065
186	0xbdadaddf	-0.08480429
187	0xbcf3947a	-0.029733885
188	0x3df0d8a1	0.11760069
189	0x3c41c4c1	0.011826695
190	0xbe0a3775	-0.13497718
191	0x3da5d758	0.08097714
192	0x3d9fd68f	0.07804596
193	0x3e0d27c8	0.13784707
194	0x3e0fe896	0.14053568
195	0x3dd405e2	0.103526846
196	0xbdb0c820	-0.08631921
197	0xbdd274bd	-0.10276172
198	0x3e11fb16	0.14255938
199	0xbdd01a4d	-0.101612665
200	0x3e24a69f	0.16079186
201	0xbd500304	-0.050784126
202	0x3c121f14	0.008918542
203	0xbd5b9c47	-0.053615835
204	0xbad54427	-0.0016270921
205	0x3e2d36f9	0.16915502
206	0xbe29cdc0	-0.16582394
207	0x3dc5c96d	0.096575595
208	0xbce059d3	-0.027386582
209	0x3dda1229	0.10647995
210	0x3da63327	0.08115225
211	0x3e037175	0.12836249
212	0xbbc79c35	-0.0060916194
213	0xbdbb4f94	-0.09146038
214	0xbda3b51d	-0.07993529
215	0xbcb98848	-0.022647992
216	0xbe03d03e	-0.12872407
217	0xbd3811af	-0.04493874
218	0x3ca1066b	0.01965638
219	0x3b25c811	0.002529625
220	0x3d0b88ff	0.034066197
221	0x3d7e2458	0.06204638
222	0xbe1c39c6	-0.15256414
223	0x3dceb7c4	0.10093644
224	0x3d650ab5	0.055918414
225	0xbe3d842e	-0.18507454
226	0x3b078cdd	0.0020683326
227	0xbddb1bd6	-0.10698669
228	0x3d2a1440	0.04152322
229	0xbe1bb6f0	-0.15206504
230	0xbdf75f66	-0.12078743
231	0x3cd57149	0.026054995
232	0x3d845c8b	0.06462964
233	0xbde7c9f9	-0.1131782
234	0x3cf1a987	0.029499782
235	0xbd25d89f	-0.04048979
236	0x3d7f448d	0.062321234
237	0xbe151b39	-0.14561166
238	0x3d5105f3	0.051031064
239	0x3e149bad	0.1451251
240	0x3d8fb937	0.07017749
241	0xbde3caa3	-0.11122634
242	0x3e27c1a0	0.16382456
243	0x3cbfdea0	0.023421586
244	0xbda35076	-0.07974331
245	0x3d3496ec	0.044089243
246	0x3c245d95	0.010032077
247	0x3e19acbc	0.15007299
248	0xbe091a40	-0.1338892
249	0x3ddd590f	0.10808002
250	0xbcabcb88	-0.020971075
251	0x3d5c23b3	0.053744983
252	0xbdee50a6	-0.11636476
253	0x3d657bc0	0.05602622
254	0x3e1a49ba	0.15067187
255	0xbd5bcd0f	-0.053662356

time_series_emb_layer.bias f4 [32]
0	0xbdf6ee9b	-0.12057229
1	0xbddd6723	-0.108106874
2	0xbd237e2b	-0.039915245
3	0x3d626278	0.05526969
4	0x3e004e9a	0.12529984
5	0x3d623327	0.055224564
6	0xbdd9f365	-0.10642127
7	0xbe20d49b	-0.15706103
8	0x3e17987b	0.1480426
9	0x3cc919eb	0.024548491
10	0xbd5d58ef	-0.05403989
11	0xbde61718	-0.112348735
12	0x3e01250c	0.12611789
13	0x3d24cfc5	0.040237207
14	0x3df99983	0.12187483
15	0xbbe9b1ec	-0.0071318056
16	0x3dd8a875	0.10579006
17	0xbd08609f	-0.03329527
18	0xbdf573d9	-0.11984987
19	0x3d1efc5f	0.0388149
20	0x3ddddd7f	0.10833263
21	0x3ccdb4df	0.02511066
22	0x3d706ba9	0.058696423
23	0xbe21b430	-0.15791392
24	0xbded8d91	-0.11599267
25	0x3c928487	0.01788546
26	0x3c2bf4d0	0.01049538
27	0xbcf9b7b3	-0.030483102
28	0xbe026df5	-0.12737258
29	0x3db28b03	0.08717921
30	0xbdad176e	-0.084517345
31	0xbe13e55e	-0.14442965

encoder.0.fc1.weight f4 [128, 128, 1, 1]
0	0xbe20a6ba	-0.15688601
1	0x3d7f0051	0.06225616
2	0xbd8a4446	-0.067513034
3	0xba9384db	-0.0011254804
4	0xbd814e81	-0.063138016
5	0x3d351d54	0.044217423
6	0xbaa5cc4b	-0.0012649385
7	0x3dfafa06	0.122547194
8	0xbd347f6a	-0.044066824
9	0xbd24c73f	-0.04022908
10	0xbca33cc4	-0.019926436
11	0xbcfad43c	-0.03061878
12	0x3d09d7e5	0.03365316
13	0xbcc19ef3	-0.023635363
14	0xbd502362	-0.050814994
15	0xbdb6b7e1	-0.08921791
16	0x3d95772a	0.07298119
17	0x3d273b75	0.040828187
18	0x3da50e52	0.08059372
19	0xbde4e1c0	-0.11175871
20	0xbc75b270	-0.014996156
21	0x3c000eca	0.007816026
22	0x3c21a461	0.009865851
23	0x3d269794	0.0406719
24	0x3e036101	0.12829973
25	0xbd69d349	-0.057086263
26	0xbb5fb11a	-0.003413266
27	0x3de7ce4a	0.113186434
28	0x3db30141	0.087404735
29	0x3d32683f	0.043556448
30	0xbc846ec8	-0.016166106
31	0xbd4c3cf1	-0.049862806
32	0x385af6a1	5.220494e-05
33	0xbdd28a5d	-0.10280297
34	0xbe065636	-0.13118824
35	0xbe0d640f	-0.138077
36	0x3ca6ff64	0.020385452
37	0xbdfdd7f5	-0.12394706
38	0x3e1ada49	0.15122332
39	0xbdc5c36e	-0.09656416
40	0xbe3ea4a0	-0.18617487
41	0xbd27b516	-0.04094418
42	0x3e24bd78	0.16087902
43	0xbd909175	-0.07058994
44	0xbd372ac6	-0.044718526
45	0x3cb3d789	0.021953361
46	0xbd45478d	-0.04816394
47	0x3de8e2f9	0.113714166
48	0xbd61892d	-0.05506246
49	0x3cdeb936	0.027187925
50	0xbdf54773	-0.119765185
51	0xbce8cf28	-0.028419092
52	0xbd832c49	-0.06404931
53	0xbe5ce03b	-0.21569912
54	0x3d2090d6	0.039200626
55	0x3c803732	0.01565132
56	0x3bd4c83c	0.0064935964
57	0xbd19666e	-0.0374512
58	0x3ccd5c0e	0.02506831
59	0xbd7b613e	-0.061372034
60	0xbc21cc87	-0.009875423
61	0x3db92860	0.09040904
62	0xbd438b1d	-0.04774009
63	0xba4e454e	-0.00078686036
64	0xbd52f136	-0.051499568
65	0xbd0bd1af	-0.034135517
66	0xbc8f19b1	-0.017468305
67	0x3d3de7cb	0.046363633
68	0xbde550b5	-0.11197034
69	0xbd30797d	-0.04308461
70	0xbda5313c	-0.08066031
71	0x3d1cfe0c	0.038328215
72	0x3bb7ffde	0.0056152185
73	0x3cd4fbae	0.025998916
74	0x3ca9f8c4	0.020748504
75	0x3cdecc21	0.027196946
76	0x3dc60b71	0.09670151
77	0xbde8636e	-0.1134709
78	0xbda86bd5	-0.08223692
79	0x3d9078d2	0.07054295
80	0xbd9fa5ae	-0.07795273
81	0x3d6d6f5e	0.057967536
82	0xbd82368e	-0.06358062
83	0xbd27c9eb	-0.04096405
84	0xbd0ac615	-0.033880312
85	0x3d716a87	0.058939483
86	0x3c32d891	0.010915891
87	0x3cc4d15c	0.024025612
88	0x3c93fbeb	0.01806446
89	0x3ac19b3b	0.0014770994
90	0xbcfbbfa5	-0.030731032
91	0x3d18a02b	0.037262123
92	0xbe5a193d	-0.2129869
93	0x3c73039c	0.0148324035
94	0x3e2615e3	0.16219287
95	0x3df0b5af	0.117534034
96	0xbc8f7f83	-0.017516857
97	0x3cece7f4	0.028919198
98	0x3cd9806d	0.026550496
99	0xbddba2e0	-0.10724425
100	0x3c7b482b	0.01533703
101	0xbd1981da	-0.03747735
102	0x3debb4d0	0.115090966
103	0xbd680c8d	-0.056652594
104	0x3d83fce0	0.064447165
105	0x3dc73f05	0.09728817
106	0x3d5a3e1d	0.053281892
107	0x3d1782fc	0.03699015
108	0x3cf37fd3	0.029724037
109	0xbcd68284	-0.026185282
110	0x3bc16300	0.0059016943
111	0xbbf43bad	-0.007453403
112	0xbdfa3898	-0.12217826
113	0xbc1e1503	-0.009648564
114	0xbd96e618	-0.07368106
115	0xbd759ca8	-0.059963852
116	0x3d819fbe	0.063292965
117	0xbdd2a744	-0.1028581
118	0xbd971639	-0.073772855
119	0xbda53fad	-0.08068786
120	0xbca7cb47	-0.020482672
121	0x3cb84e44	0.022498257
122	0xbc643062	-0.013927551
123	0x3ce323b7	0.027726991
124	0x3c92dc95	0.017927447
125	0xbc915911	-0.017742665
126	0x3d074eac	0.03303401
127	0x3d3eb6b4	0.046560958
128	0x3d5f5764	0.0545267
129	0xbd9d73de	-0.076881155
130	0x3c285019	0.010273003
131	0x3cc670c5	0.024223695
132	0xbd66c5a9	-0.056340847
133	0x3d9377db	0.07200595
134	0x3c5579d5	0.013029535
135	0x3c1489e4	0.009066079
136	0x3cb7e564	0.02244825
137	0x3d958a52	0.07301773
138	0xbccd8af3	-0.02509067
139	0xba82bb4b	-0.000997403
140	0x3cb25f2b	0.021773895
141	0xbd8996ff	-0.06718253
142	0x3d5aedac	0.053449318
143	0x3d9a5e33	0.07537498
144	0x3c6743cd	0.014115286
145	0xbd86045b	-0.065437995
146	0xbd138a91	-0.03602082
147	0x3d857d00	0.065179825
148	0xbd914fc0	-0.07095289
149	0x3cd2756b	0.025690755
150	0xbdef561b	-0.11686345
151	0xbd73d5e7	-0.059530165
152	0x3da38aa4	0.07985428
153	0xbc2cc800	-0.010545731
154	0x3da0cf69	0.0785206
155	0x3d4703c5	0.04858758
156	0x3d63e94a	0.055642404
157	0xbd921394	-0.071326405
158	0x3cc2f361	0.023797693
159	0x3da317c6	0.07963519
160	0xbd7ed697	-0.062216368
161	0xbe0f64ac	-0.14003247
162	0xbd5e437c	-0.054263577
163	0xbd98c76a	-0.0745991
164	0x3ce3ade6	0.027792882
165	0xbcc05e32	-0.023482416
166	0x3e1cda9d	0.1531777
167	0xbe0c3cbc	-0.13695043
168	0xbe2b1b86	-0.16709718
169	0xbd8e8a5f	-0.06959986
170	0x3daa7cdb	0.083245955
171	0xbd9d91e5	-0.07693843
172	0x3ba0417c	0.004890619
173	0x3d9311cc	0.07181129
174	0x3d780d8d	0.060559798
175	0x3cb5ca94	0.022191323
176	0xbcab67a0	-0.020923436
177	0x3e5da8ec	0.2164647
178	0xbd086168	-0.03329602
179	0xbcf03f8c	-0.029327177
180	0x3d5489e2	0.051889308
181	0xbdf93585	-0.12168411
182	0x3ca0d140	0.019631028
183	0x3ce2766d	0.02764436
184	0x3e2f0da1	0.17095043
185	0xbdaa8524	-0.08326176
186	0xbbe642b9	-0.007026997
187	0x3c0c5280	0.008564591
188	0xbc4c81d1	-0.0124821225
189	0xbd4450e8	-0.04792872
190	0xbe7782c4	-0.24170977
191	0x3df4e54b	0.11957797
192	0x3d65763a	0.056020953
193	0xbc89fa36	-0.016842943
194	0x3b8e37db	0.0043401546
195	0x3dbf9c9a	0.09356041
196	0xbbbeffc9	-0.005828832
197	0x3d3ae3f5	0.045627553
198	0x3d35ab85	0.044353027
199	0x3d1b27df	0.03787982
200	0x3dc021f8	0.09381479
201	0x3c9a2697	0.01881723
202	0x3ce539b4	0.027981617
203	0x3d89f4df	0.067361586
204	0x3d20802c	0.039184734
205	0xbdc58b72	-0.09645738
206	0xbdca58df	-0.09880232
207	0xbcfeaf4f	-0.031089453
208	0x3d229216	0.0396901
209	0xbca5f9d1	-0.020260723
210	0xbdab88db	-0.083757125
211	0xbc67246b	-0.014107804
212	0x3cee2835	0.029071907
213	0xbccc139d	-0.024911696
214	0xbd91bff3	-0.071166895
215	0xbceab4d6	-0.028650682
216	0xbc396453	-0.011315423
217	0xbd3bacfe	-0.045819275
218	0xbdff6b28	-0.1247161
219	0x3d4d829e	0.050173394
220	0xbe39b71e	-0.1813626
221	0x3c89d3a0	0.016824543
222	0xbc0d8d54	-0.008639652
223	0x3dcc9327	0.099890046
224	0x3dca1657	0.09867542
225	0xbd5e9fcb	-0.05435161
226	0x3d95c131	0.07312239
227	0xbdd894a6	-0.105752274
228	0x3d734b61	0.05939806
229	0x3d95790e	0.0729848
230	0x3d23456c	0.039861128
231	0x3b1144b4	0.0022166194
232	0x3d5724b0	0.052525222
233	0xbd19279d	-0.037391294
234	0xbcbbd4a4	-0.022928543
235	0xbd6b07b1	-0.057380382
236	0x3b4e00a8	0.0031433497
237	0xbdc7a601	-0.097484596
238	0x3ce8e196	0.02842788
239	0x3c68381b	0.014173533
240	0xbd7dca0f	-0.061960276
241	0xbd5433f2	-0.05180735
242	0x3bdb6b71	0.0066961576
243	0x3dbde790	0.09272683
244	0x3d986998	0.074420154
245	0x3d79f295	0.06102236
246	0xbd98c532	-0.07459487
247	0x3d21ea25	0.03952994
248	0xbda71bb5	-0.081595816
249	0x3d7c2216	0.061555944
250	0xbd94ca55	-0.07265154
251	0xbd68cf57	-0.05683836
252	0x3d620a02	0.055185325
253	0x3dae12f4	0.08499709
254	0xbd16e456	-0.036838852
255	0xbc031db2	-0.008002685

encoder.0.fc1.bias f4 [128]
0	0xbde8d9a2	-0.11369635
1	0xbded6b19	-0.11592693
2	0xbcc93f40	-0.024566293
3	0xbdca4c24	-0.09877804
4	0x3ba4f809	0.005034451
5	0x3c6bdd3d	0.014396009
6	0x3d502a15	0.050821383
7	0x3d238e7b	0.0399308
8	0xbd27e447	-0.040989187
9	0x3c1f55c7	0.009725041
10	0xbdd274f9	-0.10276217
11	0xbd9b42b5	-0.07581083
12	0x3bd812e6	0.0065940497
13	0x3cdf31ac	0.027245365
14	0x3ca21080	0.019783258
15	0x3c864346	0.0163895
16	0xbd07a3e4	-0.033115283
17	0x3d1bc744	0.03803183
18	0x3cdf1c76	0.02723525
19	0xbcd05fe4	-0.02543635
20	0xbd8797d8	-0.06620759
21	0x3d1e742e	0.038685016
22	0x3d01d4ee	0.031697206
23	0x3d31ee5b	0.043440204
24	0x3c2a0a76	0.010378471
25	0xbd6e50f4	-0.05818267
26	0x3d24376d	0.04009192
27	0xbcf5adfb	-0.029990187
28	0xbc916b47	-0.01775135
29	0x3d76130f	0.06007677
30	0xbd273f34	-0.04083176
31	0xbd67c087	-0.056580093
32	0xbce61bbb	-0.028089395
33	0x3d9c018a	0.07617481
34	0xbd0d35e9	-0.03447524
35	0xba109a7a	-0.0005516183
36	0xbba950a5	-0.0051670843
37	0xbc656b92	-0.014002698
38	0xbccd256d	-0.02504226
39	0x3d1169b7	0.03550121
40	0xbce2141f	-0.027597485
41	0x3d83c6c5	0.06434397
42	0x3ce107bd	0.02746951
43	0xbd7cfb17	-0.061762895
44	0xbde7b78c	-0.11314306
45	0xbdb70de5	-0.08938197
46	0xbbcd31a8	-0.006262023
47	0xbdb14b18	-0.08656901
48	0x3d123957	0.035699215
49	0xbc1c9fcf	-0.009559586
50	0xbbb3a5d2	-0.005482414
51	0xbba0cbb3	-0.0049070953
52	0xbd0b2766	-0.03397312
53	0xbdb2c510	-0.08728993
54	0xbd574b00	-0.05256176
55	0xbd164eec	-0.03669636
56	0xbcd3643e	-0.025804635
57	0xbd032b71	-0.03202385
58	0xbd85e242	-0.06537296
59	0x3d7e7dea	0.0621318
60	0xbc9af6e1	-0.01891655
61	0x3c3e6e5d	0.011622992
62	0x3d5fa60c	0.054601714
63	0xbd3a4673	-0.04547734
64	0xbd72c02a	-0.059265293
65	0xbdcbf102	-0.09958078
66	0x3cc69a9d	0.024243647
67	0xbdc9d4c4	-0.09855035
68	0x3d4bdc2d	0.049770523
69	0x3d5f2c54	0.054485634
70	0xbb9b8806	-0.00474644
71	0xbda941b3	-0.08264484
72	0xbd48f8da	-0.04906545
73	0xbbf643e4	-0.0075154174
74	0x3c65801d	0.014007595
75	0xbd4e0527	-0.050297882
76	0x3bce1e66	0.006290245
77	0x3c3d098b	0.01153792
78	0x3bac7660	0.005263135
79	0xbcf3a4fb	-0.029741755
80	0x3d4b893b	0.04969142
81	0xbdcd20b0	-0.10016
82	0xbd252ed6	-0.04032787
83	0xbd1bf1d9	-0.03807244
84	0x3bb9ceac	0.005670389
85	0xbda871ea	-0.082248524
86	0x39a1e388	0.00030877837
87	0x3c503f7a	0.0127104465
88	0x3aba31b4	0.0014205487
89	0x3d62c34c	0.05536203
90	0xbd765019	-0.06013498
91	0xbca50293	-0.020142829
92	0x3bc84a8a	0.0061124014
93	0x3bc8041c	0.0061040055
94	0xbc73dd54	-0.014884312
95	0xbd918289	-0.07104976
96	0x3d7e4258	0.06207499
97	0xbd82e0cf	-0.06390535
98	0xbd83a996	-0.0642883
99	0xbcac5ca2	-0.021040265
100	0x3d9ad281	0.07559682
101	0xbd7e8538	-0.062138766
102	0xbd80863c	-0.06275603
103	0xbe1efa34	-0.15525132
104	0xbdd98f89	-0.1062308
105	0xbc8d88e5	-0.01727719
106	0xbe03de4f	-0.12877773
107	0xbd058d27	-0.032605316
108	0x3d133188	0.03593591
109	0xbdb28bce	-0.08718072
110	0x3cd63cc7	0.026152028
111	0x3d516ebf	0.051131006
112	0xbd9b0fd4	-0.07571378
113	0xbce28f87	-0.02765633
114	0x3c31c9d7	0.010851345
115	0x3cc0c677	0.023532135
116	0xbd9be87f	-0.076127045
117	0x3d81fb90	0.0634681
118	0xbc597770	-0.013273105
119	0x3b1779ce	0.0023113373
120	0x3d2f4514	0.042790487
121	0x3c5ae5da	0.013360465
122	0xbdab5424	-0.08365658
123	0x3d295c2f	0.04134768
124	0xbd95646b	-0.07294544
125	0xbb0c8794	-0.0021443116
126	0xbd6fe2c0	-0.058565855
127	0xbcadbc0b	-0.02120783

encoder.0.fc2.weight f4 [128, 128, 1, 1]
0	0xb9e5a414	-0.0004380053
1	0xbd2a1760	-0.0415262
2	0x3d697c78	0.05700347
3	0x3d816711	0.063184865
4	0xbd844603	-0.06458666
5	0xbd894518	-0.06702632
6	0x3cd42a9e	0.025899228
7	0xbd7efa4f	-0.06225043
8	0xbd349e81	-0.044096474
9	0xbd3a73d7	-0.04552063
10	0x3d05fdb2	0.032712646
11	0x3e01c052	0.1267102
12	0x3d1f4b86	0.038890384
13	0x3d9a74da	0.07541819
14	0xbb911f11	-0.004428752
15	0xbc1a0b44	-0.0094021
16	0x3dd78bcc	0.10524711
17	0xbc3dea92	-0.01159157
18	0xbd0d1355	-0.034442265
19	0x3c34127f	0.010990738
20	0xbcff6624	-0.031176634
21	0x3c246625	0.010034119
22	0x3d0c23ff	0.034214016
23	0xbdbf152d	-0.09330211
24	0x3cec4954	0.02884356
25	0x3d402e27	0.046919014
26	0x3d5ccaf6	0.053904496
27	0x3daa39ec	0.08311829
28	0x3ca4813a	0.020081151
29	0xbce5ee59	-0.028067755
30	0x3da088c8	0.07838589
31	0xbd8137f9	-0.06309504
32	0x3d9ded79	0.0771131
33	0xbd51c393	-0.051211905
34	0xbd830b98	-0.06398696
35	0x3d1bf74d	0.03807764
36	0x3d45fe59	0.048338268
37	0xbd9f2fd9	-0.07772798
38	0xbd3881b8	-0.045045584
39	0xbd2f8ffd	-0.042861927
40	0xbd1aac98	-0.037762254
41	0xbd07504d	-0.033035565
42	0x3ca3fbce	0.02001753
43	0xbd314c4e	-0.04328566
44	0x3e060497	0.13087688
45	0xbd9450db	-0.072419845
46	0x3c3a7a58	0.011381708
47	0x3d01bc43	0.03167368
48	0x3d806c90	0.06270707
49	0xbd0910c0	-0.03346324
50	0xbc016b99	-0.007899188
51	0xbbeb852f	-0.0071875076
52	0x3940eef6	0.00018399567
53	0x3d2b97cb	0.041892808
54	0x3d3bf08a	0.045883693
55	0xbceefa5f	-0.02917212
56	0xbd72c920	-0.05927384
57	0x3db6f53d	0.08933494
58	0xbc20ef95	-0.009822746
59	0x3c840435	0.016115287
60	0x3db7df65	0.08978156
61	0x3d64637c	0.05575894
62	0xbd304857	-0.04303774
63	0x3db65355	0.08902613
64	0x3d841d46	0.06450896
65	0x3da9098f	0.08253776
66	0xbd55f3c8	-0.05223444
67	0xbde1c914	-0.11024681
68	0xbd7899ec	-0.060693666
69	0xbd5cdb2f	-0.053919967
70	0x3dd62727	0.104566865
71	0xbd3c31d1	-0.045945946
72	0xbd7c7b9d	-0.061641324
73	0xbda206f5	-0.07911483
74	0x3da08b72	0.07839097
75	0x3d9b6d0f	0.07589161
76	0x3d806f13	0.06271186
77	0xbd2db8f2	-0.042412706
78	0x3d12c90a	0.035836257
79	0x3dd58e50	0.104275346
80	0xbd7e7366	-0.06212177
81	0xbbe3e47c	-0.0069547277
82	0xbd3d2e75	-0.046186883
83	0xbd352b70	-0.04423088
84	0x3d67dc28	0.05660644
85	0xbb66d853	-0.0035224154
86	0x3c3c3447	0.011487073
87	0xbd14ab52	-0.036296196
88	0x3d1326b9	0.0359256
89	0xbd6b9870	-0.057518423
90	0xbb07f651	-0.0020746181
91	0x3d234f95	0.039870817
92	0xbcdf8f48	-0.027290002
93	0xbd501eb0	-0.050810516
94	0x3d6187ef	0.055061277
95	0x3dffece4	0.12496355
96	0xbcc24c3a	-0.023717988
97	0x3d4465a4	0.047948495
98	0x3c9fe0f4	0.019516446
99	0xbc85a0c4	-0.01631201
100	0xbb4d9af1	-0.003137287
101	0x3cc9a022	0.02461249
102	0x3d77efd0	0.060531437
103	0x3df11668	0.11771852
104	0x3d7cc2e9	0.06170932
105	0x3d05ea54	0.032694176
106	0x3db1b750	0.08677542
107	0x3d25cca1	0.040478352
108	0xbcd236ff	-0.02566099
109	0x3d41b41d	0.04729091
110	0xbd694ff4	-0.056961015
111	0x3c9e2326	0.01930387
112	0x3cbdfadd	0.02319091
113	0xbc491c4b	-0.012274812
114	0x3cffa413	0.031206166
115	0xbda94e96	-0.08266942
116	0xba77261d	-0.00094279816
117	0x3d020797	0.03174552
118	0xbcd7d3d7	-0.02634613
119	0x3d133372	0.035937734
120	0x3c6c9470	0.014439687
121	0x3ba12e28	0.0049188323
122	0x3d81c640	0.06336641
123	0xbc53c717	-0.012925885
124	0x3e1e9d86	0.15489778
125	0xbc5b5504	-0.0133869685
126	0xbcb99b9f	-0.022657214
127	0x3d44a9af	0.048013385
128	0x3debe50e	0.11518298
129	0x3c9d4479	0.01919769
130	0x3dc48cee	0.09597193
131	0x3cf9a7b1	0.03047547
132	0xbd9f9b59	-0.07793302
133	0xbcf83c62	-0.03030223
134	0xbd83aff8	-0.06430048
135	0xbd3aa018	-0.045562834
136	0xbc8c5b27	-0.017133309
137	0xbd9e625f	-0.077336065
138	0xbd50a692	-0.050940104
139	0x3d98325e	0.07431482
140	0x3d83b7b2	0.064315215
141	0xbd2301b2	-0.03979654
142	0xbda17975	-0.07884494
143	0xbd106d1c	-0.035260305
144	0x3d5440d9	0.051819656
145	0x3ce2be37	0.027678592
146	0xbd6fed8d	-0.058576155
147	0x3d8bf57d	0.068339325
148	0xbd6ba2a3	-0.05752815
149	0xbdfc5adf	-0.1232202
150	0xbd9a729a	-0.0754139
151	0xbd99e191	-0.075137265
152	0xbd744ad8	-0.05964169
153	0xbd541b36	-0.051783763
154	0xbd973f13	-0.07385077
155	0x3d7d9164	0.061906233
156	0xbd9baf03	-0.0760174
157	0xbd2fa233	-0.042879295
158	0xbaf6d86d	-0.001883281
159	0x3d026d1b	0.031842332
160	0xbdb2312b	-0.08700784
161	0x3cf5abba	0.029989112
162	0xbdb9ac5d	-0.09066079
163	0x3d145c11	0.036220614
164	0x3da54dd8	0.08071488
165	0x3bb41b03	0.005496384
166	0xbc1be91c	-0.009516027
167	0x3d69aa5f	0.057047244
168	0x3c41f8fb	0.011839147
169	0xbd1ead19	-0.038739298
170	0xbd8c78e6	-0.06858997
171	0x3d98c424	0.07459286
172	0xbc09699a	-0.008386994
173	0xbbc2f228	-0.0059492774
174	0x3d988617	0.074474506
175	0xbd28af2d	-0.041182686
176	0xbd8385d8	-0.06422013
177	0x3c1e69ce	0.0096687805
178	0x3c1132e1	0.008862228
179	0x3bbb8600	0.005722761
180	0xbdadf477	-0.084938936
181	0x3d11ba95	0.03557833
182	0x3db40b93	0.0879127
183	0xbd436692	-0.04770524
184	0xbcbaf95e	-0.022823986
185	0xbd928619	-0.07154483
186	0xbc957c30	-0.018247694
187	0x3da7232e	0.08161007
188	0x3d87e295	0.06635014
189	0x3cd9baf2	0.0265784
190	0x3a20f137	0.00061394594
191	0x3d08cff4	0.033401445
192	0x3d5ca4e9	0.053868208
193	0xbdb525ff	-0.08845138
194	0x3d0ca6dc	0.034338817
195	0xbe5726c9	-0.21010889
196	0x3d1cda09	0.038293872
197	0xbb920088	-0.0044556297
198	0x3d915cde	0.07097791
199	0x3d1f58e1	0.03890312
200	0x3d0ca850	0.034340203
201	0x3d7daad0	0.061930478
202	0x3d52028d	0.051271964
203	0x3db2f94d	0.087389566
204	0xbd5ddd29	-0.054165993
205	0xbd8835de	-0.06650899
206	0xbdb95955	-0.09050242
207	0xbdc31a75	-0.09526531
208	0xbd0943aa	-0.033511795
209	0x3d4e391d	0.050347436
210	0x3c0358f9	0.008016818
211	0x3c628cdc	0.013827529
212	0x3d5eaafc	0.054362282
213	0xbd177528	-0.036976963
214	0x3d2816c0	0.04103732
215	0x3c84f4f2	0.01623008
216	0xbd93ba20	-0.07213235
217	0xbcf8e0d8	-0.030380651
218	0xbd598184	-0.05310203
219	0x3d0790e4	0.033097163
220	0xbd8dbdf4	-0.06920996
221	0xbd052561	-0.03250635
222	0xbbbd2930	-0.005772732
223	0x3d8584e7	0.0651949
224	0xbdba11cc	-0.09085426
225	0xbd5cf63f	-0.053945776
226	0x3b230245	0.002487318
227	0x3cf1d54b	0.029520651
228	0xbdf1c844	-0.11805776
229	0x3d85a001	0.06524659
230	0x3cbec9f0	0.02328965
231	0x3dce09c3	0.10060456
232	0x3df25797	0.11833113
233	0x3d272d4b	0.04081468
234	0xbcbc0d4d	-0.022955561
235	0xbcf11488	-0.029428735
236	0x3d8eff31	0.06982268
237	0x3dd38a87	0.10329156
238	0xbcddadbb	-0.02706038
239	0xbda77a46	-0.08177619
240	0x3a80ec85	0.0009836113
241	0x3d328fa7	0.04359403
242	0xbd46f3cc	-0.048572347
243	0x3c8bfc45	0.017088065
244	0x3cd8d7ec	0.026470147
245	0xbc8fb51e	-0.017542418
246	0xbd7fd71e	-0.06246101
247	0x3cb1adf8	0.0216894
248	0x3d9571fe	0.07297133
249	0x3d129436	0.035785876
250	0xbd8038b9	-0.06260819
251	0x3d0468de	0.03232657
252	0x3d241d27	0.040066864
253	0xbcf17451	-0.02947441
254	0xbd9399b4	-0.07207051
255	0xbd10637c	-0.035251126

encoder.0.fc2.bias f4 [128]
0	0xbd2ca956	-0.04215368
1	0xbda473ff	-0.08029937
2	0xbd2ec85d	-0.04267155
3	0x3d2a2c13	0.04154594
4	0xbd0312df	-0.03200042
5	0x3cf9e51f	0.030504761
6	0x3c4e567a	0.01259386
7	0x3d63d8a7	0.055626538
8	0x3da2de1f	0.079525225
9	0x3d71944f	0.05897933
10	0x3da32cfd	0.07967565
11	0xbd3ee911	-0.04660899
12	0x3d697386	0.056994937
13	0xbc888859	-0.016666578
14	0xbdb4c360	-0.08826327
15	0xbd009ae7	-0.031397726
16	0x3d419523	0.04726137
17	0x3cc5e855	0.024158636
18	0x3d0086c8	0.031378537
19	0x3c7946aa	0.0152146015
20	0xbd8cb94c	-0.0687128
21	0x3d9688fd	0.07350347
22	0xbce3449e	-0.02774268
23	0xbd885f60	-0.06658816
24	0xbc3fcc00	-0.011706352
25	0x3afedd9e	0.0019444709
26	0x3d0a7ed7	0.03381237
27	0x3cfcae6c	0.03084489
28	0xbc17e0cf	-0.009269907
29	0xbd4c16e7	-0.04982653
30	0x3d869e4c	0.065731615
31	0xbd3a97db	-0.045554977
32	0x3d4dd3b3	0.05025072
33	0xbd193ef5	-0.037413556
34	0xba51c0f6	-0.00080014707
35	0xbd8d6182	-0.06903364
36	0xbce17dfe	-0.027525898
37	0xbd763e94	-0.060118273
38	0x3d948ebb	0.07253786
39	0xbdab0bfa	-0.08351894
40	0x3c0b466c	0.008500677
41	0x3d2fc17b	0.042909127
42	0x3d706c9d	0.05869733
43	0x3d071216	0.032976232
44	0x3c44f22e	0.012020631
45	0x3d6c0e88	0.057631046
46	0x3c19ed15	0.009394904
47	0x3d112f13	0.035445284
48	0x3ccf9e80	0.025344133
49	0x3bfd0b12	0.007722267
50	0x3d126b7a	0.03574703
51	0x3b003dc9	0.0019568077
52	0x3b4ea1aa	0.0031529465
53	0x3db17114	0.08664146
54	0x3ca15371	0.019693108
55	0x3a73ca0b	0.0009299821
56	0x3d3ed076	0.046585523
57	0x3d1cb944	0.03826262
58	0x3d9aa2b7	0.07550567
59	0xbdac8264	-0.084233075
60	0xbd8a480a	-0.067520216
61	0x3d5c759f	0.05382311
62	0x38cf12bf	9.874021e-05
63	0xbcd6df0e	-0.026229408
64	0xbdb9cf3f	-0.09072732
65	0x3d870eac	0.06594595
66	0xbd7c69c0	-0.06162429
67	0x3d18945f	0.037250873
68	0xbd35a9b1	-0.044351283
69	0xbd4519e6	-0.0481204
70	0xbd8e5b07	-0.06950956
71	0x3d9a6f92	0.075408116
72	0xbd547402	-0.051868446
73	0xbc38c5d2	-0.011277633
74	0x3c0f2208	0.008736141
75	0xbc00f272	-0.0078703035
76	0x3d6973bd	0.056995142
77	0x3d53ac4a	0.05167798
78	0xbd9a11bf	-0.07522916
79	0xbda2eed4	-0.07955709
80	0x3c975668	0.018473819
81	0xbdb4df84	-0.08831695
82	0x3da7f3c7	0.08200794
83	0x3d7d89dd	0.061899055
84	0x3d45f558	0.04832968
85	0xbdac8a8f	-0.084248655
86	0xbd2e3612	-0.042532034
87	0x3db9ad09	0.09066207
88	0x3d292d07	0.041302707
89	0x3d4db2bc	0.050219283
90	0x3bf1a222	0.007374064
91	0xbcb3b009	-0.021934526
92	0x3d2a895b	0.0416349
93	0xbd5dafa9	-0.0541226
94	0x3d0d34db	0.034474235
95	0xbd6b436f	-0.057437357
96	0xbc80699e	-0.015675362
97	0xbcd9896e	-0.02655479
98	0x3d7e024c	0.06201391
99	0xbcac7e83	-0.02105642
100	0xbd740bbd	-0.059581507
101	0xbdce9d2d	-0.10088573
102	0x3d902fb3	0.07040348
103	0x3d6852c1	0.056719545
104	0x3d9efc6c	0.077629894
105	0xbc710363	-0.01471028
106	0x3da618f1	0.08110226
107	0x3c40f85a	0.011777962
108	0x3d30835d	0.043094028
109	0xbabd1fe6	-0.0014429062
110	0x3d01c6ba	0.03168366
111	0x3d38984b	0.045067113
112	0xbd63d362	-0.055621512
113	0x3bdcc109	0.006736879
114	0xbd391208	-0.04518321
115	0x3a9811f9	0.0011602036
116	0x3dac338f	0.084082715
117	0xbd1b74ef	-0.037953313
118	0xbdab9c2a	-0.08379395
119	0x3d815666	0.06315307
120	0xbcfd9e39	-0.030959236
121	0x3d08b996	0.033380114
122	0x3db49ed8	0.088193595
123	0xbc3a3131	-0.011364267
124	0xbb5c7862	-0.003364109
125	0x3c0c3a63	0.008558842
126	0xbddb6909	-0.10713393
127	0xbd90c9f8	-0.070697725
