small_scale_scenario/experiments/stgcn/KNOWAIR/-fulltrain/final_model_s2017.pt (torch, 955912 bytes, 36 tensors)

st_blocks.0.tmp_conv1.align.align_conv.weight f4 [64, 3, 1, 1]
00000000: aea8 1ebe d947 f3be 7ac2 19be 194d 03be
00000010: 1c04 463e 7182 123f c509 d43e 17fe 32be
00000020: ec51 83be 713c 073f d154 7ebe e20c 173e
00000030: e550 10bf 5e1d 12bf ba7e 7abe e090 2b3e
00000040: b433 0d3f 60ad c9be 8026 af3d 2d93 083c
00000050: 5cb3 e93e d10f 8cbe a43a 9e3e 23c2 823e
00000060: c866 cebe 6361 44be 5ea5 073f 5143 633e
00000070: 9533 173c 4bf4 0e3f a0ef a3bd e6ca 003f
00000080: 9ecd e33e 0f53 d7bd aded ba3e ed65 e13e
00000090: 3710 5eba 63af cb3e 62da b0be 2f31 673e
000000a0: 3038 023f 587c 89be 2eaf f03d 9c7c 0b3e
000000b0: 41e3 123f 92ba 123e 46e0 8bbe e39c 3fbe
000000c0: 1f0c 08bf e912 e73d 0b30 5ebe 619c a03e
000000d0: b87a b7be 7800 fa3d c67f af3d 0dd3 0cbe
000000e0: 3260 f63c 6c7b 913c 99e6 e5be ec3c e83e
000000f0: 56d4 86be c521 443e bedd c13e 7ede 5e3e
00000100: b5cd ad3e 14cb ab3e 5995 db3e a971 f7be
00000110: 5810 05bf e22e c0be 5664 ffbd 22c6 84be
00000120: 93c3 163c 0806 0c3f 01f3 c13e c35a ca3e
00000130: fc0a c3be 8888 eabc 578e 53be c146 25be
00000140: 1199 ad3d 2c3c e7be de5a c73e e927 80be
00000150: 1f8f 0bbf f1d1 81bd b9f8 b2be afdd c73d
00000160: be92 0a3f 8edf 293e a1f8 223e 975b 8b3d
00000170: 92b0 05bf 6684 393e bbad 8d3e 24c8 0dbf
00000180: 288d a8be e1da 0dbf 9e50 213e dcc8 11bd
00000190: d60a b2be 4b5e 05bf 2218 72be f8e2 48be
000001a0: 653c 063e 505b e53e efa5 ed3e 77ee 05bf
000001b0: 8110 11be 4af6 c1be 8cf1 043f e2b4 cb3e
000001c0: 187d 873e c668 073f 4760 03bf b400 a3be
000001d0: a566 f63e b5f9 9ebe ecdd 1cbe ebdb b2bc
000001e0: fc15 bdbd bcad bb3e 8d2a 573e d2a5 de3e
000001f0: 9a18 56be d3ff f83e d936 cc3e 2cf6 6c3e
00000200: 2d40 153e d218 823e ca0d c53e 6dde d83e
00000210: f221 cb3e c504 e1be d297 043f d284 023f
00000220: 2cac 833e d306 a9be 6073 293e e7ae d7be
00000230: def6 e03e f704 c33e 4a7e cd3e 60e3 22be
00000240: 5144 d83d eff5 c03e 7015 4f3e c1b3 d53e
00000250: 02dd d8be 1980 46be 35f1 8a3e 108b cebe
00000260: b028 d03e c3ff d03e 8f86 e33c 3d99 213d
00000270: d3b9 02bf 4e33 f53e 2b2c 9abd 92b6 003f
00000280: bfc2 cbbe 779d 743e a418 d13e 1016 143e
00000290: 2ee0 3b3e 7b0b 0c3f 32e2 01bf b56b ab3d
000002a0: b9b8 fc3e 0713 5abe b3c2 b83e c6c0 0dbd
000002b0: 2b56 b03e 544f eabe 5d37 703e 97e2 8a3e
000002c0: 78b2 77be 667e 0ebf 38d2 af3e de53 d4be
000002d0: d98d 4c3e 0b1d c53e 4dce fb3e 11bc 413e
000002e0: 343a 493e c232 eb3e 29fe e23c d564 11bf
000002f0: 63f1 fe3e c161 cebe 5dde 0cbf 948a c3b9
-0.15494034 -0.47515753 -0.15015593 -0.12822379 0.19337505 0.5723029 0.41413704 -0.1747974
-0.2564844 0.528266 -0.24837042 0.14751008 -0.56373435 -0.5707606 -0.24462405 0.16754484
0.5515702 -0.39390087 0.08552265 0.008335871 0.45644653 -0.27355817 0.30904114 0.2553874
-0.4031279 -0.19177775 0.52986705 0.22193648 0.009228607 0.5584151 -0.08004689 0.503096
0.4449281 -0.10513889 0.36509457 0.44023076 -0.0008471044 0.39782247 -0.34541613 0.22577356
0.50866985 -0.2685268 0.11752163 0.13621753 0.5737801 0.14328983 -0.27319545 -0.18712191
-0.53143495 0.11282904 -0.21698014 0.31369308 -0.35835814 0.12207121 0.08569293 -0.13752384
0.030075166 0.017759047 -0.44902495 0.4535898 -0.26333874 0.19153507 0.37864488 0.21764562
0.33946005 0.33553374 0.4288738 -0.48328903 -0.51978064 -0.3753577 -0.124703094 -0.25932413
0.009201902 0.546967 0.3788071 0.3952237 -0.38094318 -0.028629556 -0.20659767 -0.16140272
0.08476461 -0.45163095 0.38936514 -0.2503045 -0.5451526 -0.06338871 -0.34955385 0.0975908
0.5413016 0.16589186 0.15915157 0.06804579 -0.5222255 0.18116912 0.27671608 -0.55383515
-0.32920194 -0.5541211 0.1575341 -0.035591945 -0.34773892 -0.52097005 -0.23642018 -0.19617832
0.13108976 0.44796228 0.4641566 -0.52316993 -0.14166452 -0.37883216 0.5193107 0.3978644
0.26462626 0.52894247 -0.5131878 -0.31836474 0.48125187 -0.31049886 -0.15319031 -0.02183338
-0.09232709 0.36655986 0.21012326 0.43485886 -0.20907822 0.48632678 0.39885595 0.23140782
0.14575262 0.2540956 0.38487083 0.42357197 0.39674336 -0.4394895 0.5179416 0.5098392
0.25717294 -0.3301302 0.16547918 -0.42125627 0.43938345 0.38089725 0.40135413 -0.15907049
0.10559905 0.37687632 0.20223022 0.41738704 -0.42356116 -0.19384803 0.2713715 -0.4034047
0.40656042 0.4082013 0.027774123 0.03945278 -0.51064795 0.47890705 -0.075279556 0.5027858
-0.39797017 0.23888193 0.40839112 0.14461541 0.18347237 0.5470502 -0.5073577 0.08370153
0.49359682 -0.21296321 0.36086044 -0.03460767 0.3444074 -0.45763648 0.2345862 0.27126
-0.24189174 -0.5566162 0.34340072 -0.41470236 0.19975986 0.3849872 0.49180833 0.18919398
0.19651109 0.45937163 0.027709084 -0.5679448 0.49793538 -0.40308955 -0.550268 -0.00037296547

st_blocks.0.tmp_conv1.align.align_conv.bias f4 [64]
00000000: 63bc 70be 3a46 22bd 3a5e d73e 2a1b f03e
00000010: 969d a0bd c355 fabe 5a5e 813e 944b 09bf
00000020: b0fc 6b3e a7e9 d23d 667f f43e 82b3 c4be
00000030: f757 3d3e 365c f83e 66ac 08bf bd2f 11bf
00000040: 7aea 813e 61a5 673d 5802 883e 97f4 bd3e
00000050: 71cf 8d3e d8b0 10be 2dc6 be3e 4b1a d33e
00000060: 27fe 8fbe 16e3 ebbc 4619 103e 7ad1 06bf
00000070: 234d c83e 6c72 2fbe c555 78be b6eb 0fbf
00000080: 9c25 01bf d540 f7be f399 2c3e 88d7 bf3e
00000090: f54b d83e 8bd9 983e 2d00 f8bd 9a70 e23e
000000a0: 39e4 523e 237e 06be f42e a43e 04b9 41bd
000000b0: 892f c23e 4ff9 b4be 9d1c 7cbd 408f 0d3f
000000c0: a759 f2be c78f 953d 412b 13bf c2b0 2fbe
000000d0: 9da0 1c3d 1ccf 843e 0c09 a3be 8798 4a3c
000000e0: a875 33be 10ee 113f 663c d93e 3db2 95bd
000000f0: 6ef4 10bf f29e 0f3f fa48 aa3c fdb8 03be
-0.23509364 -0.039617755 0.42064077 0.46895725 -0.07842557 -0.48893556 0.25267297 -0.5363095
0.23045611 0.10298472 0.47753447 -0.38418204 0.18490587 0.4850785 -0.5338806 -0.5671347
0.25374204 0.056554202 0.26564288 0.3710067 0.27697328 -0.1412996 0.3726057 0.41230997
-0.2812359 -0.028794806 0.14072141 -0.52663386 0.3912135 -0.17133492 -0.24251468 -0.5621904
-0.5044801 -0.4829165 0.16855602 0.37469125 0.4224545 0.29853472 -0.121094085 0.44226533
0.20594873 -0.13134055 0.32067072 -0.047295585 0.3792689 -0.35346457 -0.061550725 0.5529671
-0.47334024 0.07302814 -0.57487875 -0.17157272 0.03823911 0.25939262 -0.3184284 0.012365467
-0.17525351 0.5700388 0.42428893 -0.07309387 -0.5662297 0.56101906 0.020786751 -0.12863536

st_blocks.0.tmp_conv1.causal_conv.weight f4 [128, 3, 3, 1]
00000000: 5ec8 a93c 95a1 6bbd dfcb 933d ce3b 67be
00000010: 4249 8abe 7788 c83d 37d3 9cbe c621 13bd
00000020: 1e9c bb3c ecc2 c5be bc94 afbe 40b2 d9bd
00000030: 0ec4 563d 0953 b33c 77b4 8bbe c55f a23d
00000040: 0e91 2f3e 4bbc aabe b7b0 383d 4edd 283e
00000050: 3f2d 3d3e 5ccc ae3d 2299 8a3e d95d 703e
00000060: 3020 0fbe 8cd0 923d d22f 48bd e929 6d3e
00000070: 1149 cabd 5a00 eebe bd58 373e d06f 69be
00000080: 062f 233e 0bba 87be e3c1 2ebe 48ab 14bc
00000090: 7eeb 80be 6c88 3b3d 2bb2 9cbe 270e 08bc
000000a0: 77a3 b4bd 0e4f a7be f9d5 b6bc 80d2 753e
000000b0: 7920 8c3e 71f4 b63e 5519 73be 7734 49be
000000c0: cfed 0e3d 964a f13c 24a2 8a3b b5ec 0a3e
000000d0: d0d9 a1be 72c8 bebd 78b4 643e 4a32 8dbd
000000e0: 0cb2 f23c 67ce a53e f228 a33e 420f c8bd
000000f0: 0ca4 0bbe 763f 89be b434 6d3c f5ed dd3c
00000100: b8d3 7e3e 8555 433e 7df0 a7bd ea8b f03d
00000110: c61b d8bd 96d4 193d c4d6 f03d bf3b 51be
00000120: a9ff b43d 82af 913e 1cdd 333e 7906 90be
00000130: 49ef 873e 8db7 433e f15b 133e a88d 953d
00000140: d3a7 b4bd 391d b93e 68e1 b03e 76a1 4e3e
00000150: c6bf 7dbd e3c4 673e c3a7 c6bd 34f1 9c3e
00000160: 34e6 11be 17af c6bd 3b9c 743e df99 92be
00000170: 7c5d 233c 1179 61be 25e5 f7bd c946 85bc
00000180: e8ed 72be afd3 8c3e 6cc9 283e d84a 5b3d
00000190: 54cc 443d eec6 e9bd cc14 17bb bfca 8abe
000001a0: f8c6 753d b4b6 463e a665 393e 224d 1f3e
000001b0: d108 0bbe 75ec 943d ddcb afbd cdb2 82bd
000001c0: e1e3 68be c752 dabd 3bf0 8fbd a8b5 1fbe
000001d0: c531 043d a499 613e 4407 073e 978b 68be
000001e0: 3b2d 16be 211a ee3d 70cc 633e 4b18 a0be
000001f0: 96b0 d33c a8f6 0ebe 8220 44bd 1d38 86be
00000200: f704 89bc 9377 823e 847f 333b 9584 35be
00000210: 7cfd 8abe 1a19 a4be 8504 963e cb18 78bd
00000220: a741 bf3e 6178 adbe f027 45be 5338 e9bd
00000230: b128 aabd 30d1 49be c027 92be 2de7 5ebe
00000240: 50d5 f9bd bd60 8a3d a5b3 6bbe 1d0e 033e
00000250: 2d51 323e 8632 0cbe a3b7 1f3e 1fd7 913e
00000260: 6287 9e3e 407e 6e3e c94a 8bbe 1e74 9dbe
00000270: 40f8 b4be 3847 913e 093e 85be 53f1 883e
00000280: 331e 1cbe edda 1e3e a064 d4bd 68be 8bbe
00000290: b420 283e 9f5d f5bc 9bca 96be 92da 9d3c
000002a0: 0625 84be 9f27 8fbe c9df 983e 6e9d 5d3e
000002b0: 63dd cd3c 1679 613c f44a 263e 59bf 8bbd
000002c0: 49d8 5d3d 4153 3abe 3a9a 233b 22b1 543e
000002d0: 0f9e 5c3e 53ab c83c cb3c 12bc 9eee 703e
000002e0: 616c 7dbe 37e4 2ebe 1208 2f3e 7f40 5e3e
000002f0: 2a6c 773e 1e41 743d f6f4 463e 7e41 89bd
00000300: abae 47be 3a72 08bd 487c 1a3e 3119 043e
00000310: 3f87 003e b479 603e b955 2abe 8f18 333e
00000320: f49c a73e e8da 8bbc 3c3a babb 2c04 94be
00000330: 30bc 153e c51a 53be 9094 1cbe 1881 ecbb
00000340: 813f a13e c04b 7dbd 2d74 963e b73a bcbb
00000350: 2c2a 803e 8493 5abe bae2 58be 69d4 ba3d
00000360: 2f47 2abe ede5 9cbc 6aac d73d d8a8 0d3d
00000370: ea03 8abe b6bc 1bbe 2a50 06be 61c1 88be
00000380: e7be f23d 7263 3fbe 063e f33d a758 b73e
00000390: 10dd 6e3e 4e14 b5bd 3bc0 323e 9c8a 873d
000003a0: 7292 58be eddd fb3d 7c99 973d 99e5 72be
000003b0: ce33 803e 2532 a0be f243 b83d 9e88 723e
000003c0: 3174 8bbe 5772 863e 705d ddbd a0d4 5cbe
000003d0: 3a9f 9a3d 6ba6 413d 3694 7c3d 1c22 603e
000003e0: fc9c a13e 5b83 18be efcf 3abd fc54 8e3e
000003f0: c51f f3bd 7aee 5bbd 9cb1 923d 4d8c 0b3e
0.020725425 -0.057527144 0.0721662 -0.22581407 -0.27009016 0.097916536 -0.30629894 -0.03592088
0.02290159 -0.38625276 -0.34293163 -0.106297016 0.052433066 0.02189018 -0.2728612 0.07928423
0.17145178 -0.3334678 0.045090403 0.16490671 0.18474291 0.08535072 0.27069956 0.234733
-0.13977122 0.071686834 -0.04887373 0.23160519 -0.098772176 -0.46484643 0.17904945 -0.2279656
0.15935907 -0.26509127 -0.1706615 -0.00907404 -0.25179666 0.0457844 -0.3060468 -0.008304155
-0.08820241 -0.326775 -0.022318827 0.2400608 0.27368525 0.3573337 -0.23740132 -0.1964892
0.03489476 0.02945451 0.0042307544 0.13566859 -0.3161149 -0.09315576 0.22334468 -0.068943575
0.029625915 0.32384035 0.31867176 -0.09768535 -0.13636798 -0.2680623 0.014477897 0.027091006
0.24885452 0.19075592 -0.082001664 0.117454365 -0.10552172 0.037556253 0.11759713 -0.20432948
0.08837826 0.28454214 0.17564815 -0.28129938 0.26549748 0.19112988 0.14390542 0.073024094
-0.088210724 0.36155108 0.3454697 0.2017878 -0.061950468 0.226337 -0.09699967 0.30652773
-0.14247972 -0.097013645 0.23887722 -0.2863302 0.009971019 -0.2201884 -0.12104253 -0.016269105
-0.23723567 0.27505252 0.16483086 0.053538173 0.048046425 -0.11414896 -0.0023053167 -0.27107808
0.060004205 0.19405633 0.18105182 0.15556768 -0.13577582 0.07271663 -0.08583806 -0.0638176
-0.22743179 -0.1066032 -0.07028242 -0.1559664 0.032274026 0.22031265 0.13186365 -0.227095
-0.14665692 0.116260774 0.22245955 -0.31268534 0.025841039 -0.1396128 -0.047882564 -0.26214686
-0.016726 0.25481853 0.0027389238 -0.17726357 -0.27146518 -0.320504 0.29300323 -0.06057052
0.37354776 -0.33880904 -0.19253516 -0.11387696 -0.083085425 -0.19708705 -0.28545952 -0.21767874
-0.12198889 0.067567326 -0.23017748 0.12798353 0.17413779 -0.13691148 0.15597396 0.28484437
0.30962664 0.23290348 -0.27205494 -0.30752653 -0.3534565 0.28374648 -0.26023892 0.26746616
-0.15245895 0.15513201 -0.10370755 -0.27293706 0.16418725 -0.029951869 -0.2945145 0.019269262
-0.25809497 -0.27959916 0.29858235 0.21642086 0.02512998 0.013761779 0.1623953 -0.06823606
0.054161344 -0.18195821 0.0024963752 0.20770696 0.2154467 0.024495756 -0.008925627 0.23528525
-0.24748375 -0.17079245 0.17092922 0.21704291 0.24162355 0.059632413 0.19429383 -0.06701945
-0.19500224 -0.03331206 0.15086472 0.12900235 0.12551592 0.21921426 -0.16634263 0.17489837
0.32736933 -0.017072156 -0.0056832116 -0.28909433 0.14622569 -0.2061568 -0.15291047 -0.0072175376
0.31493762 -0.06183982 0.2938551 -0.005744304 0.25032175 -0.21345335 -0.2118024 0.09122545
-0.16628717 -0.019152606 0.10530932 0.03458485 -0.2695611 -0.15208706 -0.13116518 -0.26710036
0.11852818 -0.18690279 0.118770644 0.35809824 0.23326516 -0.088417634 0.17456143 0.066182345
-0.21149614 0.12298188 0.07402322 -0.23720397 0.25039524 -0.31288257 0.089973345 0.23684928
-0.27237085 0.2625911 -0.108088374 -0.21565485 0.07549901 0.04727785 0.061664782 0.21888012
0.31565082 -0.14893858 -0.045608457 0.27799213 -0.11871294 -0.053694226 0.071627825 0.13627739

st_blocks.0.tmp_conv1.causal_conv.bias f4 [128]
00000000: 1d4f a63e 091c eb3d c0cc 4abe a4bf 713d
00000010: 3e94 54be 4d46 7cbe 515e 97be 33ea 483e
00000020: b343 24be 6c00 983d 217d 14be 36a6 953e
00000030: 21ab 723d b7c6 aa3d f448 863e 324d 42be
00000040: 38de d5bd 34ec a43d ef73 0bbe b05f 9dbe
00000050: c697 7abe a3b7 093d 939b 8a3e a82b c53d
00000060: a73b 03be 5cf5 c93d 3691 ae3e 3649 1c3e
00000070: 870f dcbd 9789 563d 2e14 e0bd dd43 ae3d
00000080: d457 5abe 8fa0 9ebe a325 88be afa0 04be
00000090: 7691 9d3e b72f bc3c 6e58 64bd abb9 61be
000000a0: 55e9 64be b1f5 3d3e dba9 4c3e 8234 363e
000000b0: 67cf 583e 605f 9b3e fde2 403e cf26 f13d
000000c0: 4087 2bbe 8d6d a3be 1980 2c3e 0479 88be
000000d0: cdf6 7f3e 4831 adbd 53ac 673e 1468 a43d
000000e0: 952c 46bd 54b1 9b3e 46e9 48bd 7d32 633e
000000f0: f9a6 7e3e d4db a53e 7a3e 2dbe d550 8c3e
00000100: 51e8 04be 385f d33d 55fe 843e b19c 1fbd
00000110: 5ae7 1a3e 3f87 f2bb e6f2 cbbc 31d4 e73d
00000120: 2d3c 1d3e 7375 553e 6b60 a73a 85a5 a0be
00000130: 92f6 bcbc ec7b 57bc 68ff 28bd 861b 003e
00000140: 0bab 883e 15cd c43d 8e3a 563e 7d34 063e
00000150: 6da9 8ebe 664e 24be 93b7 f2bc 5246 48bc
00000160: 33d9 a33d cec8 e2bd f61f a13d e1aa 373e
00000170: 31a1 57be f8a2 dd3d 99fe c83c d7b5 acbd
00000180: 8f76 5b3e f133 9cbe 14eb fabd 2538 113e
00000190: 68e0 86bd 16e1 66be db44 a4be a7c8 423e
000001a0: f6ec 58bd eb00 953e 61a1 4c3e 062e 7a3e
000001b0: 292d 6cbe 039e 773e bd0e 34bd 8111 963e
000001c0: f445 3fbe 0fd4 4f3e f73f 1abe 971f 913e
000001d0: b1eb fa3d 9cdf d7bd 3653 013e 17be 8dbe
000001e0: b166 b1bc 70b4 513e c345 14bd c952 8cba
000001f0: 0f45 593e 7dc2 3e3d 76d6 60be d693 903c
0.32482234 0.11479957 -0.19804668 0.059020653 -0.20759675 -0.24636193 -0.29564145 0.1962059
-0.1604145 0.074219555 -0.14500858 0.2922837 0.059245232 0.08338683 0.26227534 -0.1897476
-0.104427755 0.08052865 -0.13618444 -0.30737066 -0.2447196 0.033622395 0.2707182 0.096274674
-0.12815724 0.09861252 0.34095162 0.15262303 -0.10745149 0.05237731 -0.10941349 0.08509038
-0.21322566 -0.3098187 -0.26591215 -0.12951921 0.3077504 0.022971971 -0.055748396 -0.22043483
-0.22354634 0.18550755 0.1998667 0.17793468 0.21172868 0.30346203 0.18836589 0.1177498
-0.16750813 -0.31919518 0.1684574 -0.26654828 0.24996491 -0.08456665 0.2262433 0.08027664
-0.04838236 0.30408728 -0.049050592 0.22187229 0.24868383 0.32394278 -0.16918364 0.2740542
-0.12979247 0.10320896 0.2597529 -0.038967792 0.15127316 -0.0074013765 -0.024896096 0.11319769
0.15354986 0.20845585 0.0012769824 -0.3137628 -0.023066793 -0.013152104 -0.0412592 0.125105
0.26692995 0.09609429 0.20920774 0.1310596 -0.27863637 -0.16045532 -0.02962855 -0.012223797
0.08000412 -0.11073457 0.07867424 0.17936279 -0.21057583 0.108220994 0.024535464 -0.08433121
0.21431945 -0.30508378 -0.12251869 0.14181574 -0.06585771 -0.22546801 -0.32083783 0.19021855
-0.05296036 0.29102263 0.19983436 0.24431619 -0.23064102 0.2418137 -0.043959368 0.2931023
-0.18679029 0.20295738 -0.15063463 0.28344414 0.12251986 -0.10540697 0.12629399 -0.2768409
-0.021655412 0.20478988 -0.036199342 -0.0010705824 0.2121775 0.046572197 -0.2195681 0.017648619

st_blocks.0.graph_conv.align.align_conv.bias f4 [16]
00000000: 75f0 273d ff95 dcbd 3834 c03d eea8 c4bd
00000010: 019b 0d3d 7201 5fbd 43f7 a63b 765e 583c
00000020: f96d 2ebd 5c66 26bc 6494 c7bd 0ef6 4f3d
00000030: bc0b c5bd dd8c 993d ad9c a8bc e9d1 033e
0.041000802 -0.10770797 0.0938496 -0.09602533 0.03457165 -0.054444738 0.005095394 0.013206115
-0.042585347 -0.01015624 -0.097451 0.050771765 -0.09621379 0.07497571 -0.020582521 0.12873043

st_blocks.0.graph_conv.cheb_graph_conv.weight f4 [3, 16, 16]
00000000: 65b9 c4bd 86d6 4bbd 01d6 003d 76e2 553d
00000010: c1b9 0cbd 7b68 4fbd 0a2a 29bc 55a4 233d
00000020: b729 75b9 3d0c 36bc b069 0c3d 3365 5b3d
00000030: 6018 0f3d 171a c1bb 0648 b5bc fd56 2a3d
00000040: 8731 34be 89c9 aeba 6d96 3fbe e6f5 373d
00000050: 3104 23be 8ba3 9ebb 2b85 e53d 9eeb 8cbb
00000060: 44e4 6a3d 8882 443d e57d 1ebd 503d 90bd
00000070: 5105 68be 68a0 cebd d72f 93bd c719 94bc
00000080: c06c 653d 3bc7 2fbb cebf cd3d 886f 843d
00000090: 4f55 903d 5884 9abb 18f0 e8bd 2103 1d3d
000000a0: 193c c93c d9f2 843c 27b9 a93c 181f c7bc
000000b0: b469 3a3d 8d72 453c ca43 343a 323e 8b3d
000000c0: 1a3d c73d b987 933d 4306 8c3d ad89 8b3c
000000d0: bfcd 803d d084 293d 2826 113d 49b0 74bc
000000e0: 7bb9 3e3d ed0f 4bbd 9468 6dbc c6f8 f73c
000000f0: cb12 6b3d e44e 88bd 3e67 063d d6f4 3bbd
00000100: 37a5 203e dd57 113c 4ca3 2c3e 37eb 2f3d
00000110: 549b d33d 9313 bfbd 32a3 d33d ebb2 753d
00000120: 2b9d 5abc 5dfa c1bd 8c3a f5bc 7814 923d
00000130: 6da2 853c e30d 1ebd 0e0e 5e3c 1484 d63c
00000140: 2941 b3bd 9db3 063d 843b 10be f372 323d
00000150: 0289 10be 065b 91bc d72f c6bd 346e 7e3c
00000160: 17aa 413d 003a 64bc 82c1 2b3d 2395 013d
00000170: 7d72 9abd a77b ecbc 9a32 29bd 93f2 703d
00000180: 430a 973d 385d 29bd a034 663d f500 883a
00000190: ac41 943d 92e6 3cbd 2ca9 c23d bede eb3d
000001a0: a0ff 88bd 9dc8 a2bd af50 06bd 919d 993d
000001b0: 2781 c73d 7940 683d cb8d f9bb 7fa5 83bc
000001c0: b3e3 ac3d 1a48 29bd 4dcf bd3d 5a70 03bc
000001d0: 2095 803b 59d1 a5bd b581 1bbd 08fa 823d
000001e0: 8ba2 23bd ce35 b4bc c8ac 713d fc8a d23d
000001f0: 705f b4bb aedd 923d c81c fb3c dd29 3e3c
00000200: ddb3 cfbc c5b7 9abb b186 92bd 0ef8 45bc
00000210: 403b 84bd 6793 a7bc f615 f93c 6f7d cdbc
00000220: b8fd 5e3d 5228 7e3d 31a3 0f3d eb14 a83c
00000230: 0a96 8ebd 3bae 46bd 4a5d d53c d0a3 78bd
00000240: 1e83 45bd 7273 373d f239 e6bd d7ff b83c
00000250: a107 bdbd 4847 d33c 8573 5bbd 431d 0dbd
00000260: 41c2 5f3d 332f 6b3d f3be 803d dd49 fa3c
00000270: 518d c03c 856a 443d c000 a03c d12f 0fbd
00000280: 13b2 183e f1ce debd 639d 183b 333e 99bd
00000290: b2cc 6a3d 6d50 3cbd 03fe 0bbd 1503 be3c
000002a0: 8178 1cbd fce9 ea3c ee78 833d 6de3 2a3c
000002b0: cda9 31bb 9b18 433d 8a86 523d 4aec acbb
000002c0: 7506 f73d 183c 8e3b 7a42 953d 9414 c2bc
000002d0: c6bc 94bc 46e0 f4bd 7dd4 89bc 861c 283d
000002e0: 87dd 03be 9be0 d63c cfc7 083e 780e 213d
000002f0: d102 133e 2cd6 ea3c 0404 15bc 7afd 873d
00000300: 7eca bf3d a28a 9abd 5eab 9c3d 486a b93c
00000310: 03c9 1ebd 9292 a9bc 0728 43bd 73a9 163c
00000320: 5a84 6fbd 44e9 25bd 5177 873d 4ca6 803c
00000330: 49ba 323e 225f 153d 4d4b d0bc 8765 7abd
00000340: 4a67 063e 974f d5bd 0247 a43d 4ba5 fe3b
00000350: cc37 c93c 0c7f 9abd 843b b33c 0d34 8b3d
00000360: 9a8b 9abd 65e2 2e3d f2d8 853c 2019 f3bc
00000370: 258c c63d 39eb 363c 4b34 c33c 1bef 4c3d
00000380: 6f77 e03b fc42 d1bc 7d6d e73c 412d eabb
00000390: 9232 35bd 02aa 4ebd d1fd 993c 7dad 2b3d
000003a0: af40 bbbd b2de 1a3d 02a9 ab3d c630 e5bc
000003b0: a228 123e cbcc 673d b045 743d 77d3 d5bb
000003c0: 72fc afbd 005e c1bd 45eb c73b 04c6 54bd
000003d0: 8321 803d b485 69bd db22 8cbd 1c87 fbbb
000003e0: 6b6b 9f3c 2fd4 97bc 41f2 3b3d ffc7 17bc
000003f0: 5264 07bd 252c 8ebd 780f 903b 6e70 32bd
-0.09605674 -0.049765132 0.03145409 0.052217923 -0.034356836 -0.05063675 -0.010324964 0.03995164
-0.00023380561 -0.011111316 0.03428048 0.053563308 0.034935355 -0.0058930027 -0.02212907 0.041586865
-0.17597018 -0.0013335209 -0.18709727 0.04491224 -0.15919568 -0.004841273 0.112070404 -0.0043005487
0.057346597 0.047976047 -0.03869428 -0.070429444 -0.22658278 -0.10089189 -0.07186859 -0.018078698
0.056011915 -0.0026821631 0.100463495 0.064665854 0.07047521 -0.0047154836 -0.11373919 0.038333062
0.02456479 0.01622908 0.02071817 -0.024306819 0.045510963 0.012051237 0.00068765564 0.06798972
0.09728451 0.072036214 0.06837132 0.017033422 0.06289243 0.041386425 0.03543678 -0.014934608
0.046563607 -0.049575735 -0.014490265 0.030269992 0.05739097 -0.06655672 0.032813303 -0.04588779
0.15688024 0.008871046 0.16859168 0.042948928 0.10332361 -0.09329905 0.103338614 0.059985083
-0.013343136 -0.09471581 -0.029935144 0.0713281 0.016312802 -0.038587462 0.013553156 0.026186027
-0.08752663 0.032886136 -0.14085203 0.043566655 -0.14114764 -0.017743599 -0.096770935 0.015529204
0.04728135 -0.013929844 0.04193259 0.03163637 -0.07541368 -0.028867556 -0.041308023 0.058825087
0.07375004 -0.041348666 0.05620253 0.0010376262 0.072390884 -0.046118326 0.09504923 0.11517094
-0.066893816 -0.0794842 -0.03279179 0.075007565 0.09741431 0.05670211 -0.00761578 -0.016070126
0.08441868 -0.041328527 0.09268055 -0.008022392 0.003924027 -0.080965705 -0.037965495 0.06395346
-0.039949935 -0.021998312 0.059002668 0.102804154 -0.005504541 0.07171188 0.030653372 0.011606661
-0.02535432 -0.004721614 -0.071545966 -0.012083067 -0.064566135 -0.02045603 0.03040598 -0.025084225
0.054441184 0.06205017 0.03506774 0.020517787 -0.069622114 -0.048506003 0.02604546 -0.0607031
-0.048220746 0.04478783 -0.11241521 0.022582931 -0.09229971 0.025790825 -0.053576965 -0.034451734
0.054628614 0.05741806 0.06286421 0.030552799 0.023504885 0.047953147 0.019531608 -0.03495771
0.1491168 -0.10879315 0.002328717 -0.07482567 0.05732412 -0.045975138 -0.03417779 0.023194829
-0.03820086 0.028676026 0.0641955 0.010430199 -0.0027109266 0.047630887 0.051397838 -0.0052771913
0.120617785 0.00434066 0.0728807 -0.023691453 -0.01815642 -0.11956839 -0.016824955 0.041042827
-0.12877475 0.026230147 0.13357471 0.03932044 0.14356543 0.028666578 -0.009095196 0.06640144
0.09364794 -0.07545973 0.07649873 0.022633687 -0.03876592 -0.020699773 -0.047645595 0.009195673
-0.05847583 -0.040505663 0.06614555 0.015704297 0.17453875 0.03646768 -0.025426531 -0.06113198
0.13125339 -0.10415571 0.08021356 0.0077711693 0.024562739 -0.075437635 0.021878965 0.06797037
-0.07546158 0.042696375 0.0163388 -0.029675066 0.09694699 0.01116448 0.023828646 0.050032716
0.006850175 -0.025544636 0.02825045 -0.007146508 -0.04423768 -0.0504551 0.018797787 0.0419135
-0.09143197 0.037810035 0.08381845 -0.027977359 0.14273313 0.05659179 0.05963677 -0.0065254527
-0.08593072 -0.09441757 0.0061010444 -0.051946655 0.06256392 -0.057012275 -0.06842586 -0.0076760184
0.0194604 -0.018533794 0.04588533 -0.009263991 -0.033054657 -0.06942014 0.0043963753 -0.043564253

st_blocks.0.graph_conv.cheb_graph_conv.bias f4 [16]
00000000: 3727 e1b7 6fcf 2d3d f80f bdbb 7820 9a3c
00000010: e67f 8f3c b8c0 7abb 6927 04bd 8746 843d
00000020: f609 033d 866b 273d 213f 2d3d a951 ff3c
00000030: 2a18 ae3c f348 dcbc 79d1 85bd 446f 013d
-2.6840351e-05 0.042434152 -0.005769726 0.01881431 0.017517041 -0.0038261842 -0.032264147 0.064587645
0.03199192 0.040874027 0.042296533 0.031166868 0.021251757 -0.026890254 -0.06534094 0.03160025

st_blocks.0.tmp_conv2.align.align_conv.weight f4 [64, 16, 1, 1]
00000000: 98ae 103d 1c7d 9bbd 98f4 b73d 6087 70be
00000010: f0c4 75be 1092 2ebd 9a08 15be 70fe c23c
00000020: e036 323d b6dd 2b3e 60b2 7fbe 26ac 423e
00000030: 785d dbbd 4c08 8abd e86d 95bd baa7 6d3e
00000040: b012 42bd a8c3 9e3d f060 4d3e 4cf8 193e
00000050: 743f fdbd ec12 cebd dc6e 9a3d 040f 583e
00000060: 001f feba 0ebc 043e da09 6fbe bc11 3abe
00000070: b8bc abbd 004f b93c 3e7b 2abe 4074 d93c
00000080: 20ae 183d ba38 38be b635 7dbe 708e df3c
00000090: 0a63 2e3e d069 e2bd 1050 f5bd ca78 47be
000000a0: 0e42 2fbe 8ce8 b5bd 6857 293d 5681 24be
000000b0: 74e5 d33d a8b5 403e 886d 613d 78e3 af3d
000000c0: 982b 74bd 3219 4fbe 2ac0 2bbe b072 033d
000000d0: 386a 41bd d0b0 bc3c 400c a53d 80fe 333b
000000e0: 6e07 6fbe 2ef4 67be f046 a13d dad1 6abe
000000f0: 7037 fc3d f427 7a3e e4d1 79be 3018 7a3e
00000100: 2053 7c3d 94b0 223e c089 b8bb 2825 503e
00000110: 6016 0a3d b400 60be 6826 653e 0037 c83a
00000120: 208f 203d acf3 bf3d 006c c5bd 7e26 01be
00000130: be51 0d3e 8085 32bb 6400 3f3e d082 f7bd
00000140: 0089 2bbb 4c79 cd3d 1262 33be d6c5 0dbe
00000150: 2814 7dbe c8dc d43d 5827 49be a405 1e3e
00000160: 5c41 d9bd 80c5 f0bd b839 0bbd 0e85 113e
00000170: 3c32 43be b478 523e 30be df3d c215 4d3e
00000180: e099 2abe 0c2a 02be d67b 273e c486 b4bd
00000190: 6270 3bbe 6caf e43d d281 7b3e dcc2 37be
000001a0: 46aa 033e 0092 eb3b 7841 c8bd bc0a ec3d
000001b0: f811 173e e674 58be 40bc 6fbe 6841 30be
000001c0: 00ba 893d a8b1 96bd c06a 743c 440c aa3d
000001d0: 30da 1c3d a253 33be 60a6 5c3d 98b6 febd
000001e0: 0e58 543e 1271 14be 3c52 afbd e803 7fbe
000001f0: c68a 25be 1a68 68be 10e8 8f3d 6436 873d
00000200: 70db 53be aa0f 703e 780a 5abd 608e 3ebc
00000210: 7816 373e e403 b93d 8cc9 ffbd 3861 663d
00000220: d692 6abe 8054 2c3b 20c6 db3c fc83 13be
00000230: c021 43be 02d5 3c3e 0416 ae3d 9a04 533e
00000240: 3efa 1fbe 18cd 50bd 7876 753d 809f 8abc
00000250: 8087 9b3b b446 883d 9459 26be 1cdb 73be
00000260: 3220 29be 8022 24be 0864 993d c8fb 92bd
00000270: d027 143e a062 ffbc 520f 2bbe 9007 b53d
00000280: 6650 513e a04a 7dbd d80f 70bd e000 6e3e
00000290: 3023 f33d f8f5 163e 4813 13bd 02fb 63be
000002a0: a0c5 55bc e069 21bd a45b 2cbe 545e 78be
000002b0: 10a9 8c3d 5c98 76be 246c 513e 6c65 06be
000002c0: e270 633e 8e3f 583e e00f c7bd 8208 7a3e
000002d0: bc0b 4fbe 08ed 733e ecbf 933d 5482 ebbd
000002e0: e0c2 b9bc 54f7 fdbd 2892 cfbd 58f8 51bd
000002f0: 0c9c 1c3e 565c 193e 3846 793e bc15 c43d
00000300: 5a19 26be d0dd 3f3e 58c5 fdbd 9075 e13c
00000310: 7c82 3e3e 92d7 06be 805c b93c e436 e6bd
00000320: ca7c 1a3e d439 bf3d 6615 203e 3874 64bd
00000330: 08d7 73bd 587c 153e 20ca 073c 42c0 59be
00000340: c06d 833b c07e babd 8825 3dbd 5677 0e3e
00000350: 12da 673e 1070 4a3e 20f1 0b3e 626c 76be
00000360: 0478 fabd a050 f23c e04d 4d3c 7cdb 363e
00000370: 6035 293e 28a0 c2bd dc33 823d 1c3b 103e
00000380: c81d 253e d82f 70bd 927c 3abe e80b 613e
00000390: 8075 e4bd 10a2 38bd 169c 2f3e ace8 37be
000003a0: 94e5 c4bd bcbc f83d 6c66 17be 320e 0c3e
000003b0: 5c8e e7bd 3cea f4bd 50f6 a73c 2c04 cfbd
000003c0: 808d f7bb aad6 41be 50f1 49be 900e 8cbc
000003d0: c240 62be 26d3 693e 76c5 61be 3c5d af3d
000003e0: 900e 33bd fc75 d33d 6086 ee3c 388b 683d
000003f0: 9e5c 453e 2a43 3ebe 869d 6ebe 0477 5e3e
0.035322756 -0.07592222 0.089821994 -0.23489141 -0.24000907 -0.042619765 -0.14554062 0.023802966
0.043509364 0.16783795 -0.24970388 0.19010982 -0.10711187 -0.06739864 -0.072963536 0.23208514
-0.047381103 0.07752162 0.2005651 0.15036124 -0.12365618 -0.10062203 0.07540676 0.21099478
-0.0019387901 0.12962362 -0.23343602 -0.18170828 -0.083856046 0.022620678 -0.16648576 0.02654469
0.037275434 -0.1799039 -0.2472752 0.0272896 0.17029968 -0.110553384 -0.11978161 -0.19479671
-0.17115042 -0.088822454 0.041343123 -0.16064963 0.10346499 0.18819296 0.055036098 0.08588308
-0.059611887 -0.20224455 -0.16772524 0.032091796 -0.04722044 0.02303353 0.08058977 0.0027464926
-0.23342678 -0.22651741 0.078748584 -0.22931615 0.12315261 0.24429303 -0.24396473 0.2442329
0.06160271 0.15887672 -0.0056316555 0.20326674 0.033712745 -0.21875268 0.22377932 0.001527518
0.039198995 0.093726486 -0.0963974 -0.1261234 0.13800713 -0.0027240217 0.18652493 -0.120854974
-0.0026174188 0.10032901 -0.1751788 -0.13845 -0.2471472 0.10393673 -0.19643915 0.15431839
-0.106081694 -0.1175642 -0.03399059 0.14210913 -0.19062132 0.20553857 0.10924947 0.20027831
-0.16660261 -0.12711352 0.16355833 -0.08814767 -0.1830459 0.111662716 0.24561241 -0.17945427
0.12857923 0.0071890354 -0.09778112 0.11525485 0.14752948 -0.21138343 -0.23411655 -0.1721245
0.0672493 -0.07358104 0.014918029 0.08303121 0.038294017 -0.17512372 0.053869605 -0.12437171
0.20736715 -0.14496258 -0.08560607 -0.24903834 -0.16166219 -0.22695962 0.07026684 0.06602171
-0.20689178 0.23443475 -0.05323264 -0.0116306245 0.17879665 0.09033945 -0.12489614 0.05624506
-0.22907576 0.0026295483 0.026827872 -0.14405817 -0.19055843 0.18440631 0.08500293 0.20607224
-0.15622804 -0.050976843 0.059927434 -0.016921759 0.0047463775 0.066541106 -0.16245109 -0.23814052
-0.16516188 -0.16028786 0.074897826 -0.0717693 0.14468312 -0.031174958 -0.16705063 0.08839333
0.20440826 -0.061838746 -0.05860886 0.23242521 0.11871946 0.14742267 -0.03590706 -0.2226372
-0.013047606 -0.03940761 -0.16831833 -0.24254733 0.068681836 -0.24081558 0.20451409 -0.13124627
0.2221103 0.21117994 -0.09719825 0.24417308 -0.2021932 0.23820889 0.072143406 -0.114994675
-0.022675931 -0.1240069 -0.10135299 -0.05126223 0.15293902 0.1497663 0.24343193 0.09574458
-0.16220608 0.18736959 -0.12391156 0.027521878 0.18604463 -0.13168171 0.022627115 -0.11240938
0.15086666 0.09337202 0.15633163 -0.055774897 -0.05953124 0.14598215 0.008287936 -0.21264747
0.004010886 -0.09106207 -0.04617837 0.1391271 0.22641781 0.19769311 0.136662 -0.24064782
-0.122299224 0.02957946 0.012530774 0.17857164 0.16524267 -0.09503204 0.06357548 0.14085048
0.16124642 -0.058639377 -0.18211582 0.21977198 -0.11155224 -0.04507643 0.17149386 -0.17959851
-0.09614101 0.12145373 -0.14785165 0.1367729 -0.1130645 -0.11958739 0.020503193 -0.101082176
-0.00755471 -0.18929544 -0.1972096 -0.017096788 -0.22095016 0.22834453 -0.22047982 0.08562705
-0.04371506 0.10325238 0.02911681 0.056773394 0.19273612 -0.18580309 -0.23302278 0.21725088

st_blocks.0.tmp_conv2.align.align_conv.bias f4 [64]
00000000: 3036 2fbd b4d3 703e d055 cc3c 40b8 f9bb
00000010: ccc7 9b3d a8bb 5d3d 7832 e23d 8ee8 3b3e
00000020: 4002 7f3c 6e68 71be b02f c9bc b053 7f3d
00000030: 6058 d63d 6406 433e 126d 4a3e 34b7 203e
00000040: 60cc 6dbc 401f 94bc 3cc3 463e 9c1d 503e
00000050: 50d1 bebd 70a8 febc 2835 343d fc13 a7bd
00000060: a073 8fbc a82b 99bd 4077 bfbd 308a e5bc
00000070: fa74 29be 2ef8 7f3e a031 4bbc d86b 003e
00000080: 08e5 27be f428 47be 6434 fdbd 20ed 613d
00000090: d035 623d 74af fbbd 8a41 06be 408d 5bbd
000000a0: 1271 62be 46cc 58be 6e14 173e 601e 203d
000000b0: ce8f 2bbe 868c 183e 6ea5 333e 7cb7 103e
000000c0: 6c50 a53d ccb5 0d3e 803a 83bd e85b 013d
000000d0: d0d9 6b3d bc8c 1bbe f01c ca3d 68ae fc3d
000000e0: 4cf5 f1bd 4826 cd3d c0fc 64be 40f0 18bd
000000f0: f01e 82bd 9052 2f3d 00ac 1cbb a03c 4ebe
-0.042776287 0.23518258 0.024943262 -0.0076208413 0.076064676 0.05413404 0.110447824 0.18350431
0.015564501 -0.23574993 -0.024558872 0.06233567 0.10466075 0.19045407 0.1976817 0.15694886
-0.014514059 -0.018081307 0.19410414 0.20323795 -0.09317267 -0.031086177 0.043996006 -0.081581086
-0.017511189 -0.0747903 -0.09348917 -0.028019994 -0.1654853 0.24997017 -0.012401968 0.12541139
-0.16395962 -0.19449216 -0.12363508 0.05515778 0.0552271 -0.122893244 -0.13110939 -0.053601503
-0.22113445 -0.21171674 0.14753887 0.039091468 -0.16754076 0.14897355 0.17543575 0.14132494
0.0807198 0.13838881 -0.06407642 0.03158179 0.05758077 -0.15190405 0.09868801 0.12337953
-0.11814365 0.10017067 -0.22362041 -0.037338495 -0.06353557 0.042803347 -0.002390623 -0.20140314

st_blocks.0.tmp_conv2.causal_conv.weight f4 [128, 16, 3, 1]
00000000: 9c87 193c 9118 cdbc 5164 8dbd 0aa2 0c3d
00000010: b8ac 17bd 74d7 cb3c 1709 d13d 7ad2 8b3d
00000020: d4bb f23d 72ca 833b bd8a 293d ec78 c93d
00000030: 70d0 c9ba bc4e b139 bf4b 223e 4881 d0bd
00000040: 7b71 0f3d b48e f8bd 1c79 073e 065e 2ebd
00000050: fbc8 293e b1ae d2bd b104 ac3d d61e b9bd
00000060: dbcc 27bd a0e1 293e d56b f9bd ec47 903d
00000070: 41b8 efbd 6778 693d 44d6 973d ab27 9e3b
00000080: 083a 133e 8b5e 46bd 8b0e bdbd a0fc b5bd
00000090: 272d e83b cb25 7ebc 193e 6fbd 0120 3ebc
000000a0: a019 4bbd 64bd 3d3e 8522 04be c5d9 623d
000000b0: 7c82 be3c 1423 66bb b887 ecba f1c6 af3d
000000c0: 5175 393d 7358 bf3d 3827 f33d 107e c9bd
000000d0: 609c 953d 8d9f 493d fc6a a8bd 2db5 2a3e
000000e0: fb72 113d 5586 883d 3025 0bbe a1bc d43d
000000f0: c3fc 243d 0db1 85bd fe0f b0bd c616 c53d
00000100: 2be0 e9bc db25 8b3d 6506 70bd 9eb1 b0bd
00000110: ed71 a73c b1bf 033c cc13 153e eed5 1dbe
00000120: a330 573d e7c5 a9bd 6c15 20bc bc8d 363c
00000130: ef90 493c e920 21bd 1350 a4bd d0ab 093d
00000140: f2f0 d9bd 8a75 033e 7e63 fa3d f859 22be
00000150: cfca 03bb 67cb 4ebc 11a9 403d e1e6 b63d
00000160: a7dc 86bd 1fa2 9bbd 4ffa 97bd 4961 99bd
00000170: 4057 20bd 71eb 94bd a46f 803d 4efe b8bd
00000180: 3b05 0c3d 6a74 0abc 4c3a 9bbd d6dd 6cbd
00000190: ae7a 163e 2935 96bc 5da4 f03c 7f1b de3c
000001a0: 4018 ecbd e7a2 a03c 529c 28bc b357 e1bb
000001b0: e20b d6bd 8f1a eabd 5a84 de3d 560c c0bd
000001c0: fa0e 97bd bf59 12be 142f 2ebe 7be5 e93d
000001d0: cf93 ffbd e7d5 1abe 0822 f8bd 0b4f 47bc
000001e0: 4c26 853d 9a64 c0bd be53 99bd bce8 8c3d
000001f0: 9156 b0bb c6d6 aa3b 68a8 f83d c40b a43c
00000200: add0 1abd bfd2 e23d d22e 8cbd b1d4 f63d
00000210: a106 0c3e 8c52 b83d 36fc b63d 2980 fdbc
00000220: f888 05be 0980 51bc 2887 123d 7662 05bd
00000230: ca79 f63d 2d10 1e3b d16f a3bc 65fe 76bc
00000240: 2104 113e 9923 98bd 9093 2d3d ea08 8a3d
00000250: 6476 a33d e663 873d 2b80 0c3e 37ad ae3a
00000260: 673a ac3d f38e 10be 0284 0cbe 8ff9 ddbd
00000270: a130 dabd 4679 c5bc b7cb c33d 741e 263d
00000280: 8b11 4f3d 3ad6 9c3c 9361 053e 89f5 253e
00000290: b3d5 59bd 6f14 e5bc f8f8 2cbd 9878 b5bd
000002a0: 6a81 853d 7b57 0bbe b7da 013d 6744 713d
000002b0: daf1 fabd 23dc 0f3e f984 49bd 7154 5a3b
000002c0: caf3 fe3c dd95 553d f479 623d 933d abbd
000002d0: 67b0 2f3d ef4e adbc dd63 673d 2487 d1bd
000002e0: 417e 7c3d 0867 27bd ce81 7bbd 0b84 15bd
000002f0: a6a8 e2bd aac9 63bd 7154 b03a d638 4f3d
00000300: 932e 3dbe 5cae 1dbd 4069 30bb 78c0 593d
00000310: f5b7 cd3d 8ff5 1ebd 6973 45bc d4f4 c0bc
00000320: da5b 4e3c 6ae2 d13d c4f7 503c 0306 60bc
00000330: 0d61 2a3c e8dc ff3d e912 58bd 8bbd 873d
00000340: 4135 b4bc 5d27 19be d177 06be 4d2b 9dbc
00000350: b0a7 a9bd a8c8 25be c1af 723d 57cd 083d
00000360: a767 443d 004f 7dbd f9f7 88bd 07f8 293d
00000370: f077 1ebd 8490 8b3d 5e0b 603d 3e5b fd3c
00000380: 9bd9 10be 7d4a cc3c 981b 193d 799e ad3d
00000390: fe73 33bc 51a7 cf3d 6835 64bd d1cb d3bd
000003a0: 445d 1abe f171 98bd 644a febc c4df 44be
000003b0: 2553 85bc f29b 54bd ccc3 173d a60d 5d3d
000003c0: 5cb7 823c c981 163e 4fe3 3bbc 079f 47bd
000003d0: 5a9f 0f3d c086 72bd a2cc 35bd c74e 58bd
000003e0: c9cb 21bd 565d fbbc e725 cdbd 36b1 033d
000003f0: 7dbd e73d b9a9 ccbd caaa 19be cece cfbd
0.009370711 -0.025036128 -0.069038995 0.03433422 -0.03702995 0.02488301 0.10206812 0.068272546
0.118522316 0.004021936 0.041392077 0.09837517 -0.0015397202 0.00033818732 0.15849207 -0.101809084
0.035020333 -0.121365935 0.13229793 -0.042570136 0.16580574 -0.10287226 0.08399332 -0.090390846
-0.04096685 0.16589975 -0.121787705 0.07044968 -0.117050655 0.05699959 0.07413915 0.004826506
0.14377606 -0.048430007 -0.092312895 -0.08886075 0.0070854607 -0.01551194 -0.05840883 -0.01160431
-0.049584985 0.18529278 -0.12903793 0.055383462 0.02325558 -0.0035116123 -0.0018045818 0.08582867
0.045277897 0.09343042 0.11872715 -0.09838498 0.07305217 0.049224425 -0.08223531 0.16670676
0.035510045 0.06666247 -0.13588405 0.103875406 0.040280115 -0.065279104 -0.085968 0.09623484
-0.028549274 0.0679433 -0.05859985 -0.08627628 0.020440066 0.008041308 0.14558333 -0.15413639
0.052536618 -0.082897 -0.009770732 0.011142191 0.012302621 -0.039338026 -0.080230854 0.03361112
-0.1064166 0.12837806 0.12226008 -0.15854633 -0.0020109897 -0.012621737 0.047036234 0.089307554
-0.06585055 -0.075992815 -0.074207895 -0.07489259 -0.039145708 -0.072714694 0.06271294 -0.0903288
0.034184676 -0.008450607 -0.075794786 -0.057828747 0.14695236 -0.018335896 0.02937525 0.02711272
-0.11528063 0.019608928 -0.010291176 -0.0068769096 -0.10451485 -0.11430847 0.10865088 -0.09377353
-0.073759034 -0.14292048 -0.17010146 0.11420723 -0.12479364 -0.1512066 -0.12115866 -0.012164841
0.06501445 -0.09394188 -0.07486676 0.06880328 -0.0053814133 0.0052135913 0.12141496 0.020025142
-0.037796665 0.11075353 -0.06844868 0.120522864 0.13674404 0.090001196 0.08934824 -0.0309449
-0.1304053 -0.012786874 0.035773426 -0.032564603 0.12034948 0.0024118528 -0.01995078 -0.015075301
0.14161731 -0.07428665 0.042377055 0.067399815 0.079815656 0.06610851 0.13720767 0.0013326769
0.08409577 -0.14117031 -0.13722232 -0.10838615 -0.106538065 -0.02410568 0.0956034 0.040556386
0.05055384 0.01914512 0.13025503 0.16206945 -0.053182315 -0.027963845 -0.042229623 -0.08860892
0.065188244 -0.1360759 0.031702723 0.058903124 -0.12253161 0.14048819 -0.04919908 0.003331449
0.031122107 0.052144874 0.055292085 -0.08361354 0.04289284 -0.021155803 0.05649172 -0.10230854
0.061643843 -0.040869743 -0.06140309 -0.03650288 -0.110673234 -0.055612244 0.00134529 0.050591312
-0.18474798 -0.03849636 -0.0026918203 0.053162068 0.10044853 -0.0388084 -0.012051442 -0.023554243
0.012595141 0.10248263 0.012754384 -0.013673308 0.010399115 0.124933064 -0.05275241 0.06627949
-0.02199805 -0.14956422 -0.13131644 -0.019185686 -0.08283937 -0.16189826 0.059249643 0.033398952
0.047950413 -0.06184292 -0.06687922 0.041496303 -0.0386886 0.068146735 0.05469834 0.030927297
-0.1414551 0.024937863 0.03737983 0.08477492 -0.010952948 0.10139335 -0.055714995 -0.10341609
-0.1507464 -0.074436076 -0.031041332 -0.19225985 -0.016274998 -0.051906534 0.03705196 0.053968094
0.015956573 0.14697947 -0.011467769 -0.048735645 0.03506408 -0.05921054 -0.044384606 -0.052809503
-0.039500985 -0.030684154 -0.10016995 0.032151423 0.11315439 -0.099933095 -0.15006557 -0.10146867

st_blocks.0.tmp_conv2.causal_conv.bias f4 [128]
00000000: c474 f1bd d322 e1bd d8cd 3f3d 7b0d 01be
00000010: 7ef5 2abc e86e 77bd b9df 0b3d cef0 f7bd
00000020: eff6 edbd b6dd 6b3c f0e4 bd3c 95b8 92bd
00000030: bbaf 9eba eeb9 8dbd c8db a9bd e6b3 b03d
00000040: f4d4 0e3e 5cec 733c 8924 41bd b01d 7f3c
00000050: 2437 413d bddc 75bd d7e7 a5bd 1779 8bbd
00000060: 6366 88bd e1cc 9abd 721a 98bb 6708 6fbc
00000070: f1cc c9bd 93df cf3d 6553 b93a 4a51 8abc
00000080: c231 d7bd da3d 79bd 180c 093d d218 b03d
00000090: 6433 ff3d 7806 f0bd 2c7a efbd 1903 ab3d
000000a0: 271d fd3d 6612 d8bd e6d4 87bd 8190 07be
000000b0: aaff 003e 0df8 5f3d b695 0a3c 01fa 253c
000000c0: a1fe 0abe 0e02 cebd c3c2 b9bd 5736 8e3d
000000d0: c587 52bd b7aa 03bd 2654 bd3d c6be 9b3d
000000e0: 1cef 06be b5c8 62bc 8300 61bd dd22 813c
000000f0: 7215 ec3d d4f5 b3bc 359b e03d 5472 e93c
00000100: 9cda 82bd bd6a 0fbe 5b9f 37be 8b01 49be
00000110: 582a b7bd 7555 febd ca8c 153d 1ac9 763c
00000120: 9a90 6fbc 5f94 3abd 3055 dabd 963f 00bc
00000130: 6bc9 013c 24be 8fbd a9be 533c c384 183e
00000140: 97d4 c73d 409c eebb ca08 a93d e578 6abc
00000150: 7f57 06bd a357 613e 9050 d8bd 916c b0bc
00000160: 8dfd 24bd 15ae babd 2f90 a73c be74 a43d
00000170: 4366 a6bb 39b3 323d 3591 943b a648 b13c
00000180: af15 af3d f43f e53d 95dd be3c 775f 463d
00000190: d441 fb3d afa4 44bd 7a69 d43b 2c0a c83d
000001a0: d23f 583d 8476 123d a907 af39 4d1c 1d3e
000001b0: e8aa 1b3e bb4a a4bd 50dd a43b f5d8 9b3d
000001c0: 9455 f93d c840 fe3c f757 d13c 8f31 7fbd
000001d0: f021 a9bc b6b6 e83c c0d9 d0bc 15b3 eb3d
000001e0: 975d 85bd 7edc f43d 5a9a ebbc e121 bd3d
000001f0: 0afc 8e3c 61e3 c13d 8b91 193e a102 733d
-0.117898494 -0.1099297 0.046827167 -0.12602799 -0.010434506 -0.060408503 0.034148905 -0.12106477
-0.116193645 0.014396122 0.023180455 -0.071641125 -0.0012106815 -0.06920229 -0.08293873 0.08628063
0.13948423 0.014887895 -0.047153983 0.015571043 0.047171727 -0.060024966 -0.081008606 -0.068102054
-0.06660154 -0.07558609 -0.0046418244 -0.014589406 -0.098535426 0.10150065 0.0014139233 -0.016884465
-0.105075374 -0.060850002 0.0334588 0.08598484 0.12460974 -0.11719984 -0.11693224 0.083502
0.12359076 -0.10550384 -0.06632404 -0.13238718 0.12597528 0.05467992 0.008458545 0.010130406
-0.13573696 -0.10058986 -0.09070351 0.06943958 -0.05139901 -0.03214523 0.09244566 0.076047465
-0.1317715 -0.013841798 -0.05493213 0.015763694 0.11527528 -0.021967806 0.109671034 0.028496899
-0.06389353 -0.14005561 -0.17931883 -0.19629495 -0.08943623 -0.124186434 0.03651122 0.015062595
-0.014621878 -0.045551654 -0.106607795 -0.00782766 0.007921557 -0.07018688 0.012923875 0.14894395
0.09757345 -0.00728181 0.082536295 -0.01431105 -0.032798287 0.22006087 -0.10562241 -0.021536143
-0.040280867 -0.09115235 0.020454494 0.08030079 -0.0050781085 0.04362795 0.0045339116 0.021641087
0.08549058 0.11193839 0.023299018 0.048430886 0.12268415 -0.048008617 0.0064823003 0.09767565
0.05279524 0.035757557 0.00033384308 0.15342827 0.15201914 -0.08022066 0.0050312653 0.07609741
0.12174526 0.03103675 0.02555464 -0.062303122 -0.020646065 0.028407436 -0.025494456 0.115087666
-0.065119915 0.11956118 -0.028760124 0.092349775 0.017454166 0.09467197 0.14996926 0.05932868

st_blocks.0.tc2_ln.weight f4 [184, 64]
00000000: 3fad 223f 6ae7 f23e 07b0 283f e8d0 d23e
00000010: d29b 913e add8 843e 0bf8 023f 640d c73e
00000020: 847f 023e 5e7d a83e 21e1 db3e a310 dd3e
00000030: 8428 e63e 744e f83d 639a 3f3f 1012 8c3e
00000040: bc63 333f 0208 083f d557 c03e c453 913e
00000050: f4f1 b9bc de25 f0bc 5856 193e 1c1a 363e
00000060: b8d9 d93e 321a 0b3f d1b5 d83e 0ee7 083f
00000070: 4f8f ab3e 0cca d83e f948 2e3f 630b 6dbe
00000080: 5533 1b3e 1a7e cabc 6a2d 0d3c f22c 863e
00000090: e9fd 8b3e 1cb3 93bd 40d0 5a3d fced 103f
000000a0: 8f46 803d 5f01 803e cc8e d63e 45a8 5b3e
000000b0: ee1f e93e 9e7d b33e 2539 3d3e 973a e23d
000000c0: 9ca0 d53e 142f 5c3f 16b9 733e 0a7e 3c3e
000000d0: 9e25 213e 1052 053d 67e4 693e 7f8d 563e
000000e0: 6f76 243e 66bb f93e 9423 d53e afaa 383f
000000f0: b719 9e3e bcab e8bc 1c20 4c3e 8318 343f
00000100: 1bbe 393e c56c 883e ca9a 0a3f 89cc 203e
00000110: 6e30 0abe d20d a03e 9878 983d 7d70 f63d
00000120: 33e6 b33e 5579 6b3e a8ab b63e d786 b53e
00000130: 983e b93e 95cd cc3d 282e 023f 1c70 be3e
00000140: d446 dc3e bb45 f43e 8ec0 ebbc e63b d83d
00000150: a386 4d3c 829d 9a3e 7103 26be c759 d83c
00000160: 10db 113e 0240 233e c59b 893e 78bc 3d3e
00000170: a437 143e da39 993e 7955 0d3f ac14 2a3e
00000180: f75a 013e 54ec 5a3e 6873 e43e 177e 54bc
00000190: 8f41 5c3e 6f73 fa3c 9d15 6f3e da9f 0e3f
000001a0: 2673 5e3e e9ad 543d fd7d 9d3d d701 853e
000001b0: e472 fe3e 22a6 3a3e 4115 263e c805 d33d
000001c0: 385f 113e 8bd0 2c3f fdc6 1c3b 289d 5abd
000001d0: 2b50 21be 2cee 2abd 3435 993e df90 c73e
000001e0: d53c e93e 7f9d 803d f60a 883e afc4 1e3f
000001f0: 594b 483f 7adf da3d c81d 443e fa62 eb3e
00000200: 7336 a13e 4de7 bd3e 019c b33e fbc4 cc3e
00000210: 67f7 903e 099c f93e 81b3 c33d 15a7 1e3f
00000220: b775 8d3e 62f3 043f 2e61 013f 348f db3e
00000230: 4012 083e dc57 973e b0e2 a03e a97f 833d
00000240: 5dab b53e 6956 cd3e 814a 9e3e 2713 733d
00000250: 02c3 263e 4c81 7e3e 3f92 393f 4bc6 913e
00000260: f89b ca3e cf1d 063e 88f4 9b3e 76e9 e23e
00000270: 1055 7d3e 4aa7 883e 107f c83e 6a64 be3e
00000280: 4caf 563e 6a80 cf3d 0ece 4abe 149d 9b3c
00000290: 2ecb 453e 4755 2cbd c9fd c0bc b844 cf3e
000002a0: ab65 6b3e 6beb ad3d a4ca d33e dc5b af3e
000002b0: 2c83 443e fc10 833e e544 903e d9bd 9a3e
000002c0: 6732 a93e a65a b23e 4224 f33d 269a f13d
000002d0: a801 8f3e 68a1 143e 9fd4 8d3b 6156 c13e
000002e0: 9511 f43e e3f1 813d 75b7 5b3e 1d01 b93e
000002f0: 1db1 ee3e 4325 463e d8c3 7c3e 70fa 103f
00000300: b64d ea3e 6628 453e 491d 263f 401a 873e
00000310: 4dff df3e 5f7d 573e 449a 353e 3d8e b23e
00000320: 64ec b13e 04f1 043f 7b42 533e 32d2 d53e
00000330: 991b fc3e 36e1 633e 68b2 e03e 40e8 b63d
00000340: 850a 083e 1d15 e43e e76c 323e 37e7 933e
00000350: d52b b33e e711 093d 1202 113f e6c6 e2bd
00000360: 00ab 5a3e c8b5 3c3e 15e3 6b3e 040f c13e
00000370: cc2e 713e c571 643e e316 023f 7e1b e73e
00000380: 791f 2ebd b74f e63d 56ea 863e c869 373e
00000390: 514b d73d 49c3 d73c 30a3 003e 50ff a23e
000003a0: e35b 293e 1068 903c ee4f 503e b6ac 633e
000003b0: c3ef 543e cf23 693e abc5 583e de45 5a3d
000003c0: 32bf 4f3e 2ecd f03e f43c ca3d 654f 1f3d
000003d0: c721 4f3e 0556 823b d55e a33e bab9 2f3e
000003e0: 984b a2be a531 8b3e 536e 533e 9245 0a3f
000003f0: 19a7 bf3e db68 6d3d 9423 003e cc68 1d3f
0.635456 0.4744218 0.65893596 0.41175008 0.28439194 0.2594656 0.51159734 0.38877404
0.12743956 0.32908148 0.42945197 0.43176755 0.44952786 0.12124339 0.7484495 0.2735753
0.7007406 0.5313722 0.3756701 0.2838422 -0.02269838 -0.029314931 0.14974344 0.17783397
0.4254892 0.54336846 0.42326215 0.5347756 0.33507773 0.4234165 0.680801 -0.23148875
0.151563 -0.024718333 0.008616785 0.26206166 0.27342156 -0.07211897 0.05342126 0.56613135
0.06263458 0.25001046 0.4190582 0.21450908 0.45532173 0.35056776 0.1847883 0.110463314
0.41724098 0.86009336 0.23801073 0.18407455 0.15737006 0.032548964 0.22841035 0.20952414
0.16060804 0.48775786 0.41628706 0.7213544 0.30878994 -0.028402202 0.19934124 0.703499
0.18138926 0.26645485 0.5414244 0.15703024 -0.13495037 0.31260544 0.074448764 0.12033174
0.35136566 0.22995503 0.35677838 0.35454437 0.36180568 0.10000149 0.5085168 0.37194908
0.43022788 0.4770945 -0.02877834 0.105583 0.012544307 0.30198294 -0.1621225 0.026409997
0.14243722 0.15942386 0.26876655 0.18528926 0.1447435 0.2992695 0.55208546 0.16609448
0.12632357 0.21379215 0.44619298 -0.012969515 0.21509384 0.030572621 0.23348089 0.55712664
0.21723613 0.051923666 0.07690046 0.25977966 0.4969703 0.18227437 0.16219045 0.10303837
0.1419648 0.6750571 0.0023922317 -0.053372532 -0.15753238 -0.041731045 0.29923403 0.38977715
0.45554224 0.0628004 0.26570863 0.62018865 0.7823997 0.10687156 0.19151986 0.4597395
0.31486854 0.3709053 0.3507996 0.39994034 0.28313753 0.48751858 0.09555722 0.61973697
0.27628872 0.5193387 0.5053891 0.42882693 0.13288212 0.2955922 0.3142295 0.064208336
0.35482302 0.40104988 0.30916217 0.059344437 0.16285327 0.2485401 0.7248878 0.28471598
0.3957212 0.13097309 0.3046 0.44318742 0.2473948 0.2669013 0.3915944 0.37185985
0.20965308 0.10131915 -0.19805166 0.0189958 0.19315788 -0.042073514 -0.023558514 0.40482116
0.22988002 0.08492168 0.4136554 0.3424977 0.19190663 0.25598896 0.28177562 0.30222967
0.33046266 0.34834784 0.1187215 0.117969796 0.2793095 0.14514697 0.004328325 0.37761214
0.47669664 0.06344964 0.21456702 0.36133662 0.46619502 0.19350152 0.24684083 0.5663214
0.45762414 0.19253692 0.64888436 0.26387215 0.43749467 0.21043919 0.17734629 0.34874144
0.34750664 0.5193026 0.20630829 0.4176193 0.49239805 0.2225388 0.43886113 0.08931017
0.13285263 0.44547358 0.17424355 0.2888734 0.3499438 0.03346434 0.56643784 -0.11073093
0.21354294 0.18428719 0.23035844 0.3770677 0.23553008 0.22309025 0.5081617 0.45138162
-0.042510483 0.11245673 0.2635066 0.17911446 0.10512412 0.026338236 0.12562251 0.31835413
0.16538958 0.017627746 0.20342991 0.22233853 0.20794587 0.22767566 0.21169154 0.053289287
0.20287779 0.4703154 0.09874907 0.038894076 0.20227729 0.0039775395 0.3190829 0.17160693
-0.31698298 0.27186313 0.20647554 0.54012406 0.37432173 0.057961326 0.12513572 0.6148803
