small_scale_scenario/experiments/sttn/KNOWAIR/-fewshot6/final_model_s2019.pt (torch, 343202 bytes, 56 tensors)

t_modules.0.pos_embedding f4 [1, 12, 32]
0	0x3e228ce3	0.15874057
1	0x3f585aa2	0.84513295
2	0xbf12f9ae	-0.5741223
3	0x3e0066b2	0.12539175
4	0xbe7ef800	-0.24899292
5	0xbe5ce494	-0.2157157
6	0xbfe85148	-1.8149805
7	0xbee2d6da	-0.44304544
8	0x3ea70dfc	0.32627857
9	0x3d46410e	0.048401885
10	0x3da6e314	0.081487805
11	0x3e8d04fa	0.2754286
12	0x3e84023d	0.25782958
13	0xbf89467f	-1.0724639
14	0x3e979012	0.29602104
15	0xbf03e0fa	-0.5151516
16	0x3ae0b646	0.0017144165
17	0xbeeeedfa	-0.46665937
18	0x3eb40ded	0.35166875
19	0x3f388c67	0.72089237
20	0xbf45b8e8	-0.7723527
21	0xbf1366f5	-0.57578975
22	0x3f90ceb4	1.1313081
23	0x3f5b2651	0.8560534
24	0xbd9d012c	-0.07666239
25	0x3e485f0a	0.19567505
26	0xbcd770f0	-0.02629897
27	0x3ecdbd48	0.40183473
28	0x3e8b13d9	0.2716358
29	0xbec9bf03	-0.39403543
30	0xbea1f4da	-0.3163212
31	0x3e400b99	0.18754424
32	0xbfa5a619	-1.2941314
33	0x3f82424d	1.0176483
34	0x402c126e	2.6886249
35	0xbda5115d	-0.080599524
36	0xbdf5ca77	-0.12001508
37	0xbe9e952c	-0.30973184
38	0x3f1c93c3	0.61162966
39	0xbf27fbf9	-0.65618855
40	0x3f81f3bd	1.0152508
41	0xbf81f24c	-1.0152068
42	0xc01b9325	-2.430856
43	0xbde683cd	-0.11255608
44	0x3eaa0b73	0.3321186
45	0xbf304ae8	-0.688643
46	0xbf38063a	-0.718845
47	0xbf1e2a14	-0.61782956
48	0xc000e755	-2.0141194
49	0x3efa5c52	0.4889856
50	0x3ede601f	0.4343271
51	0xbd839e3b	-0.064266644
52	0x3dcabfc0	0.09899855
53	0x3ff29b8d	1.895372
54	0xbe9053ee	-0.28189033
55	0x3f6b8bbc	0.9201009
56	0x402c27d6	2.6899314
57	0x3fab66cb	1.3390745
58	0x3b39db2b	0.0028359394
59	0xbfa2151c	-1.2662692
60	0xbf41c213	-0.7568676
61	0x3f3b348f	0.73127073
62	0xbdabe283	-0.08392813
63	0xbee32f94	-0.44372237
64	0x3ee8b5c6	0.45451182
65	0x3eff206b	0.4982942
66	0xbf8275d8	-1.0192213
67	0xbf0f6fd4	-0.5603001
68	0xbf3f21fe	-0.7466124
69	0x3efd387e	0.49457163
70	0xbf84aa02	-1.0364382
71	0xbfe25b3b	-1.7684091
72	0x3f2429f1	0.641265
73	0x3f1b2127	0.6059746
74	0x3f1b1fa1	0.60595137
75	0x4025db33	2.5915039
76	0x3e28c7d9	0.16482486
77	0xbd8732f4	-0.066015154
78	0xbead67d1	-0.33868268
79	0x3f2d8815	0.6778577
80	0x3f9b31a1	1.212452
81	0x3e6abe27	0.229241
82	0x3faa7dfe	1.33197
83	0x3e8feb3a	0.2810915
84	0xc02c8f7f	-2.6962583
85	0xbefa2f39	-0.48864153
86	0xbfc9e24d	-1.5772187
87	0x3e199ce5	0.15001257
88	0x3f52dd40	0.8236885
89	0xbf4f0a3d	-0.80875
90	0x3f4c4862	0.7979795
91	0xbf38fbbf	-0.72259134
92	0x3f7ffcab	0.99994916
93	0x3e0a361e	0.13497207
94	0xbf2374f7	-0.6385035
95	0x3f5b7b8d	0.857354
96	0x40018872	2.023953
97	0xbd863dd9	-0.06554765
98	0x3f0aa882	0.5416337
99	0xc008c77e	-2.137176
100	0x3f1a1c1b	0.60199136
101	0xbf7b7b1e	-0.98234737
102	0xbf7fd43c	-0.9993322
103	0xbe0041ea	-0.12525144
104	0xbff3dc34	-1.9051576
105	0x3fbcfbbf	1.4764327
106	0x3e159193	0.14606313
107	0xbfb0de63	-1.3817867
108	0x3e6d1125	0.23151071
109	0x3f3827d1	0.71935755
110	0x3d23342b	0.039844673
111	0xbec67c29	-0.38766602
112	0x3c9f3716	0.019435447
113	0x3f0002b8	0.5000415
114	0xbf3832d8	-0.7195258
115	0x3f575864	0.8411925
116	0xbf690055	-0.9101613
117	0xbe9f1e93	-0.31078014
118	0xbdf85c87	-0.12127023
119	0xbf17655c	-0.5913904
120	0x3eb257d3	0.3483263
121	0x3e832810	0.25616503
122	0x3f985c62	1.1903193
123	0xbf481560	-0.78157616
124	0xbf117746	-0.5682262
125	0x3f4015d9	0.75033337
126	0xbfafac3f	-1.372444
127	0xbf5aee2d	-0.8551968
128	0x3f5b6591	0.85701853
129	0xbf359adc	-0.7093942
130	0xbf6134c2	-0.8797113
131	0x3f5a9e43	0.8539774
132	0x3d9764da	0.07392283
133	0xbec93447	-0.39297697
134	0x3f72b349	0.9480482
135	0xbf4d798d	-0.80263597
136	0xbf94d3f9	-1.1627189
137	0xbfba500d	-1.455568
138	0xbece0aef	-0.40242717
139	0x3eeabf61	0.45849136
140	0xbf37fae8	-0.7186723
141	0x3ed80e35	0.4219834
142	0x401a7508	2.413393
143	0xbe980934	-0.2969452
144	0xbee6a0f9	-0.45044687
145	0xc00b7248	-2.1788502
146	0x3f284236	0.6572603
147	0x3d7195f8	0.058980912
148	0xbf08dd1d	-0.5346239
149	0x3ff403ae	1.9063623
150	0xbf569951	-0.8382769
151	0x400be661	2.1859362
152	0x3f207e00	0.6269226
153	0xbe48c8a0	-0.19607782
154	0xbf2f9834	-0.6859162
155	0x3db9efbc	0.09078929
156	0xbfa46db2	-1.2845976
157	0x3f5b468c	0.8565452
158	0x3e844e95	0.25841203
159	0xbded3a66	-0.11583404
160	0xc000c7e5	-2.0122006
161	0x3f5c8e74	0.86154866
162	0x3fe58ffe	1.7934568
163	0xbe6ddd52	-0.23228958
164	0x3e642d5f	0.22282933
165	0x3f58b048	0.84643984
166	0xbe20a7df	-0.15689038
167	0x3f3b63de	0.7319926
168	0xbe06505a	-0.13116589
169	0x3fa7c7ef	1.310789
170	0x3eff64cf	0.49881598
171	0xbf54c2d6	-0.83109796
172	0x3f75a060	0.9594784
173	0xbf88b133	-1.0679077
174	0x3e8cb917	0.27484962
175	0x3f4447a9	0.76671845
176	0xbee0a106	-0.4387285
177	0x3f6631ef	0.8991994
178	0x3ec319dc	0.38105667
179	0x3eac130b	0.3360828
180	0xbf283624	-0.6570761
181	0xbfa73fac	-1.3066306
182	0x3e41f826	0.18942317
183	0x3e10daa5	0.14145906
184	0xbdba3f25	-0.09094075
185	0x3f24ac8e	0.643258
186	0xbf0caf1c	-0.54954696
187	0xbe540c51	-0.20707823
188	0x3fab0466	1.3360717
189	0xbf01a100	-0.5063629
190	0x3fa6fdd2	1.304621
191	0x3efc7612	0.4930883
192	0x3fd4ab5d	1.6614796
193	0xbf0ab512	-0.5418254
194	0x3fdc56c7	1.7213982
195	0x3f95dc03	1.1707767
196	0x3eedeef7	0.46471378
197	0x3f80a46d	1.0050179
198	0xbda9f071	-0.08297814
199	0x3ebd92b9	0.37026003
200	0x3f65400b	0.89550847
201	0x3d9e5183	0.07730391
202	0xbeff4e65	-0.49864498
203	0xbfbea2e5	-1.4893461
204	0xbf199af0	-0.6000204
205	0xbf829b83	-1.0203708
206	0xbec74f79	-0.3892782
207	0xbfd1cc14	-1.6390405
208	0xbe057505	-0.1303292
209	0x3feedbe1	1.8660852
210	0x3ef5cf65	0.48009792
211	0x3f30a134	0.68995976
212	0x3fc7c00f	1.5605487
213	0xbfd367e4	-1.651608
214	0xbeeb0fa5	-0.45910373
215	0xbfdd987f	-1.7312163
216	0xbf55bb44	-0.8348887
217	0x3f68e9fb	0.90982026
218	0xbd2b588c	-0.04183249
219	0xbf8ed10e	-1.1157548
220	0xbf303900	-0.68836975
221	0xbed4ac29	-0.41537598
222	0x3f0aca03	0.54214495
223	0xbfa6fadf	-1.304531
224	0xbf5d0a74	-0.86344075
225	0xbd9bfb25	-0.076162614
226	0xbe8933f3	-0.26797447
227	0xbf5990ae	-0.8498639
228	0x3fe18ac5	1.7620474
229	0x3e93d1e1	0.28871062
230	0x3f34236d	0.70366555
231	0xbe84e460	-0.25955486
232	0x3db0d077	0.086335115
233	0x3f0ad14c	0.5422561
234	0xbf941467	-1.1568726
235	0xbf5c8600	-0.8614197
236	0xbe9bedee	-0.30454963
237	0x3fbd1165	1.4770933
238	0xbf472836	-0.7779573
239	0x3e9b2387	0.30300543
240	0x3db7ba6e	0.089711055
241	0x3ea62878	0.3245275
242	0x3eeb0bc0	0.45907402
243	0x3dc774b9	0.0973906
244	0xbf7175f2	-0.94320595
245	0x3f8b49cf	1.08819
246	0x3fdc15f7	1.7194203
247	0x3f23bb2c	0.63957477
248	0xc04579df	-3.0855634
249	0xbf368387	-0.71294445
250	0xbf1d95ba	-0.6155659
251	0x3f61e39e	0.8823794
252	0x3f404af2	0.7511436
253	0x3e2f42aa	0.17115274
254	0x3f49d0c2	0.78834164
255	0x3d971da9	0.07378704

t_modules.0.layers.0.0.qkv.weight f4 [96, 32]
0	0xbe38e9d4	-0.18057948
1	0xbe42fd16	-0.19041857
2	0xbe3233f9	-0.17402638
3	0xbc1f628c	-0.009728085
4	0x3d172ac9	0.036906037
5	0x3d139ea7	0.036039975
6	0x3da82a10	0.08211148
7	0xbbf23ccd	-0.007392502
8	0x3cd17f94	0.02557353
9	0xbc4ce8b2	-0.012506651
10	0xbe2b672b	-0.16738574
11	0x3dbe144d	0.09281216
12	0xbc91f1fe	-0.017815586
13	0x3e67a9eb	0.22623412
14	0xbc3ed9e8	-0.011648633
15	0x3d80e283	0.06293204
16	0x3e4a8744	0.19778162
17	0x3d084700	0.033270836
18	0x3dae130d	0.084997274
19	0xbe5e92cc	-0.21735686
20	0x3d8974fc	0.06711766
21	0x3e494b10	0.1965754
22	0xbd93e070	-0.072205424
23	0x3e1c5ae1	0.15269043
24	0xbd7fc1bb	-0.062440615
25	0x3dd49fa9	0.10382015
26	0x3e040021	0.12890674
27	0xbdd4f5b5	-0.103984274
28	0x3da6ba5d	0.08141015
29	0x3dfb6516	0.1227514
30	0x3c19a2a4	0.009377155
31	0xbe40af92	-0.18816975
32	0xbc10e602	-0.008843901
33	0x3e252260	0.16126394
34	0xbd061ef3	-0.03274436
35	0xbdbc4262	-0.09192349
36	0x3cc5be42	0.024138574
37	0x3d9bcf5e	0.076079115
38	0x3d5d3c07	0.054012325
39	0xbe289e0e	-0.16466543
40	0xbc45535e	-0.012043802
41	0x3dd1ffe7	0.102538876
42	0xbd4df794	-0.050284937
43	0xbd801b26	-0.06255178
44	0xbde81023	-0.11331203
45	0xbe1f9d39	-0.1558732
46	0xbe07b6c5	-0.13253315
47	0x3c118295	0.008881231
48	0xbb84438b	-0.004036372
49	0xbddb5f3e	-0.107115254
50	0x3cda16e4	0.026622243
51	0x3de5f0cd	0.1122757
52	0xbd7a8f01	-0.061171535
53	0x3d453d5b	0.048154216
54	0x3dfd5b7e	0.123709664
55	0x3dcad44f	0.09903776
56	0x3d99d379	0.07511038
57	0xbd33d1dd	-0.043901313
58	0x3dd962f4	0.10614577
59	0x3dfbac0a	0.12288673
60	0xbda618e2	-0.08110215
61	0xbcf68a7e	-0.030095335
62	0xbdf8fa20	-0.121570826
63	0xbd596b57	-0.053080883
64	0xbde762fd	-0.112981774
65	0xbb8ec191	-0.004356571
66	0xbde1b122	-0.110201135
67	0x3d2066cd	0.03916054
68	0xbe329fef	-0.17443822
69	0xbd15ce49	-0.036573682
70	0xbdc15410	-0.09439862
71	0x3c77a906	0.015115982
72	0xbd9e1df2	-0.07720555
73	0xbe241d99	-0.16026916
74	0x3e23b37b	0.15986435
75	0xbd3f6adc	-0.04673277
76	0xbc92cbe9	-0.017919498
77	0x3d83135d	0.06400178
78	0xbe178ef0	-0.1480062
79	0x3e0dcaa8	0.13846838
80	0x3d50b36e	0.050952367
81	0xbd6ce942	-0.05783964
82	0x3d7dd461	0.06197012
83	0x3d7f4ffe	0.062332146
84	0x3d96a2b3	0.07355251
85	0x3dbcb0bb	0.09213396
86	0x3e3cd8f0	0.1844213
87	0x3dba5425	0.090980805
88	0xbdf7d6d8	-0.12101525
89	0x3e277742	0.16354087
90	0x3e2db2c2	0.16962722
91	0xbdcc6dc1	-0.099818714
92	0xbe0fae0b	-0.14031236
93	0xbddf7f78	-0.109129846
94	0x3da3ee0a	0.08004387
95	0xbe10a8af	-0.14126848
96	0x3e18585a	0.14877453
97	0xbe497773	-0.19674473
98	0xbdb1cb85	-0.086813964
99	0x3d2fd41a	0.042926885
100	0xbc0f4bd7	-0.008746109
101	0xbdac8390	-0.08423531
102	0xbd8e59fe	-0.069507584
103	0x3e02bb10	0.12766671
104	0xbd0231f0	-0.031785905
105	0x3dcbc52a	0.099497154
106	0xbe010ca3	-0.12602477
107	0x3cd737fe	0.026271816
108	0x3d51ff52	0.051268883
109	0x3e721113	0.23639326
110	0xbc8a1372	-0.016854975
111	0xbdef271b	-0.11677381
112	0x3e0da68d	0.13833065
113	0x3d217cb1	0.039425556
114	0xbe0f57fb	-0.13998406
115	0xbdaf2065	-0.08551101
116	0x3de8ba62	0.11363675
117	0x3e5f08d6	0.21780714
118	0xbd0ff444	-0.03514506
119	0xbe2f35fd	-0.17110439
120	0xbd41cdaf	-0.047315296
121	0xbe298fe9	-0.16558804
122	0x3dc5689a	0.09639092
123	0xbda6dfea	-0.08148177
124	0x3da3da32	0.08000602
125	0x3d3c9de3	0.04604901
126	0x3e48af7a	0.19598189
127	0xbe112689	-0.14174856
128	0xbde807ee	-0.113296375
129	0x3ded3eaa	0.11584218
130	0x3ce7f5b1	0.028315397
131	0x3be18821	0.006882683
132	0xbb2f6517	-0.0026763135
133	0xbd0372f8	-0.032092065
134	0x3d5003ec	0.05078499
135	0x3de2bacb	0.11070784
136	0x3de89fc0	0.11358595
137	0xbd1f9829	-0.03896347
138	0x3dfcc5d8	0.12342423
139	0xbdd8543b	-0.10562941
140	0xbe06a738	-0.13149726
141	0x3d170a94	0.036875322
142	0x3e1af9fa	0.15134421
143	0xbde9da92	-0.11418642
144	0x3e1601fd	0.14649196
145	0x3dfb3530	0.12266004
146	0xbdf345ae	-0.11878525
147	0xbd2da1cd	-0.042390633
148	0x3cb452ad	0.02201208
149	0xbbb32223	-0.005466716
150	0xbcd87b09	-0.026425855
151	0x3e251930	0.1612289
152	0xbd1636bb	-0.03667329
153	0x3e10beef	0.14135335
154	0x3e1d0831	0.15335156
155	0xbd9bc2d9	-0.076055236
156	0xbd8e17d0	-0.069381356
157	0xbda80851	-0.08204711
158	0x3da14d47	0.078760676
159	0xbe0b9ecb	-0.13634793
160	0x3e1e76af	0.15474962
161	0x3d40b0b5	0.04704352
162	0x3cae435b	0.021272352
163	0xbb0b2f29	-0.0021237826
164	0xbdd92f9c	-0.10604784
165	0x3d83b65f	0.06431269
166	0xbdd62779	-0.104567476
167	0xbd044996	-0.03229674
168	0xbda6e499	-0.0814907
169	0xbd9df8c3	-0.07713463
170	0x3cf53a34	0.02993498
171	0x3dc3d591	0.09562219
172	0xbdfe5788	-0.12419039
173	0xbe35e6c2	-0.17763808
174	0x3c9efbd6	0.019407194
175	0xbd17a02f	-0.037017997
176	0xbd9b9cbd	-0.07598255
177	0xbdb4504c	-0.08804378
178	0x3d53990d	0.051659632
179	0xbdd8ab07	-0.10579496
180	0x3e160183	0.14649014
181	0x39993f52	0.0002922961
182	0x3ceb8bb3	0.028753137
183	0xbd703f5e	-0.05865418
184	0xbdfd1308	-0.123571455
185	0x3e1d60ab	0.15368907
186	0x3df34a96	0.118794605
187	0x3e37c91c	0.17947811
188	0xbcbfc797	-0.023410602
189	0xbc727b59	-0.014799916
190	0xbde6d370	-0.11270797
191	0x3da136d1	0.078717835
192	0x3e088a42	0.13333991
193	0x3e04e707	0.12978755
194	0x3e7f6738	0.24941719
195	0x3d26ad34	0.040692523
196	0x3d83d1dd	0.064365126
197	0x3cead148	0.028664246
198	0x3e572379	0.21009625
199	0xbe6635f5	-0.2248152
200	0xbda0ed47	-0.07857757
201	0xbc6c9e88	-0.014442094
202	0x3d84bea6	0.06481676
203	0x3d72305a	0.059128143
204	0xbe138d7a	-0.14409438
205	0xbd6e6957	-0.05820593
206	0x3cb81eb3	0.022475576
207	0xbca7efef	-0.020500151
208	0x3bfbc2ab	0.0076831183
209	0x3e414657	0.18874489
210	0xbd835077	-0.06411832
211	0x3dd18622	0.10230662
212	0xbd3fbacf	-0.046809014
213	0xbe094ab9	-0.1340741
214	0xbdd6ff80	-0.104979515
215	0x3d6a154d	0.05714922
216	0x3db22da3	0.08700111
217	0xbd6bc93a	-0.05756495
218	0xbe379a3c	-0.1792993
219	0xbdd55f3f	-0.104185574
220	0x3d592b02	0.05301953
221	0x3daf5811	0.08561719
222	0x3d11ef4c	0.035628602
223	0x3d730d3b	0.05933879
224	0x3de3603c	0.111023396
225	0x3cdc9783	0.026927715
226	0x3de4cd2c	0.11171946
227	0xbe128ed7	-0.14312302
228	0xbcc49165	-0.02399511
229	0xbacfcae1	-0.0015853309
230	0xbdb6807a	-0.08911224
231	0x3d063812	0.032768317
232	0x3e192bf5	0.14958175
233	0x3d9fb844	0.07798818
234	0x3c0dd11a	0.008655811
235	0xbe336632	-0.17519453
236	0xbe1256aa	-0.14290872
237	0x3dc9736e	0.098364696
238	0x3dbfe461	0.09369732
239	0x3db2bebd	0.08727787
240	0xbc9e3f42	-0.019317273
241	0xbdd31390	-0.103064656
242	0xbcd0158d	-0.025400901
243	0x3e09dece	0.134639
244	0xbd2e9021	-0.04261792
245	0x3e0615c3	0.13094239
246	0xbd26197c	-0.040551648
247	0xbde3b240	-0.11117983
248	0xbc01fc7f	-0.007933735
249	0xbd51785d	-0.051140178
250	0x3cf33c3c	0.029691808
251	0x3dd26689	0.10273463
252	0xbdac0eac	-0.08401236
253	0x3e450507	0.19240199
254	0x3e397100	0.18109512
255	0xbe026917	-0.12735401

t_modules.0.layers.0.0.proj.weight f4 [32, 32]
0	0x3e46ee77	0.19426905
1	0x3e1fd87f	0.1560993
2	0x3c8e30cd	0.017357254
3	0x3dd1c511	0.102426656
4	0xbbd13cb9	-0.0063854125
5	0xbdd106eb	-0.102063976
6	0x3c73c822	0.014879258
7	0xbd8e2f0f	-0.069425695
8	0x3d10aad0	0.03531915
9	0xbdafc4e8	-0.08582479
10	0xbd93f171	-0.07223786
11	0xbd6ba80b	-0.057533305
12	0xbce4f71d	-0.027949864
13	0x3e3bf7ec	0.18356293
14	0x3dfc57ae	0.12321411
15	0x3d2be02b	0.04196183
16	0x3dd397e8	0.10331708
17	0xbd632bde	-0.055461757
18	0x3dad9b2b	0.084768616
19	0x3c301267	0.010746575
20	0x3e1843b8	0.14869583
21	0x3c1d5cfd	0.00960469
22	0x3debf24b	0.11520823
23	0x3e1a5b8b	0.15073983
24	0xbd69f4be	-0.05711817
25	0x3e0cdc2e	0.13755867
26	0xbd2b48ec	-0.04181759
27	0x3da16dfc	0.07882306
28	0xbe03f559	-0.12886561
29	0x3bc135ac	0.0058962908
30	0x3db2a771	0.08723343
31	0x38c79ea2	9.518607e-05
32	0x3bb659cc	0.005564904
33	0x3d926b23	0.07149341
34	0xbd35f240	-0.04442048
35	0xbd628f11	-0.05531222
36	0xbe2b8671	-0.16750504
37	0x3d9db277	0.07700055
38	0xbe0f6ae1	-0.14005615
39	0xbde25be3	-0.11052682
40	0xbe3af5c5	-0.18257816
41	0xbde6fca8	-0.11278659
42	0xbd0c5d8b	-0.034268897
43	0xbd2da7fb	-0.042396527
44	0x3d9b977d	0.075972535
45	0x3be3a2d5	0.0069469013
46	0x3ddeacb6	0.10872786
47	0x3def2151	0.116762765
48	0x3df41ebf	0.11919927
49	0x3c456770	0.012048587
50	0xbd9df664	-0.07713011
51	0xbd49ea6a	-0.04929582
52	0x3d7fe641	0.062475447
53	0x3e29a82d	0.1656806
54	0x3d7502ef	0.05981725
55	0xbdffca57	-0.12489765
56	0xbd3a07fb	-0.045417767
57	0x3d1dc3bb	0.03851674
58	0xbe0c47aa	-0.13699213
59	0x3dc217d4	0.09477201
60	0xbe0266a6	-0.1273447
61	0x3d6c1418	0.05763635
62	0xbdaa3199	-0.08310241
63	0xbd28bcdb	-0.04119573
64	0x3e2b326c	0.16718453
65	0x3cbb6da2	0.022879425
66	0xbc281adc	-0.01026031
67	0x3d8cee47	0.06881385
68	0xbdc3ed05	-0.09566692
69	0x3d88aa2c	0.06673083
70	0x3e2185b2	0.15773657
71	0x3bfa3058	0.0076351576
72	0xbd08305b	-0.03324924
73	0xbced75f6	-0.028986912
74	0xbe20305f	-0.15643452
75	0xbd04480d	-0.032295275
76	0x3ab402da	0.001373376
77	0x3e09a883	0.13443188
78	0xbde6bb5f	-0.11266207
79	0xbdffd232	-0.124912634
80	0xbcbfab4f	-0.023397116
81	0xbd90ae59	-0.07064504
82	0xbe0e2976	-0.13883004
83	0x3d114a73	0.03547139
84	0xbe3f5069	-0.18683018
85	0xbd69480a	-0.056953467
86	0x3d94d7eb	0.072677456
87	0x3dba112c	0.090853065
88	0x3e4132be	0.18867013
89	0x3b930d02	0.0044876346
90	0x3dc7a8ef	0.097490184
91	0xbe16d5ce	-0.14729998
92	0x3e2349d4	0.15946132
93	0xbd27cc30	-0.040966213
94	0xbd8af2eb	-0.06784614
95	0xbc9d25f8	-0.019183144
96	0xbe0671e2	-0.1312938
97	0x3dc4aa56	0.096028015
98	0x3dfbe6e9	0.12299902
99	0x3e0e4a69	0.13895573
100	0x3bcd7344	0.0062698442
101	0x3d7f8fb5	0.06239291
102	0xbdb468f0	-0.08809078
103	0xbdf44298	-0.11926764
104	0xbe3c1953	-0.18369035
105	0xbd9e05c6	-0.07715945
106	0xbe2cdb62	-0.16880563
107	0x3dc9374a	0.09824999
108	0x3d3f19ef	0.04665559
109	0xbde3319c	-0.110934466
110	0xbc3b780e	-0.0114421975
111	0xbdd4d560	-0.103922606
112	0x3cc20d23	0.023687905
113	0x3e177d21	0.14793827
114	0x3d17f1a2	0.037095673
115	0xbdd17c6f	-0.10228812
116	0xbdd3a39e	-0.10333942
117	0x3dafce25	0.08584241
118	0xbe1c40ae	-0.15259048
119	0x3ca25eff	0.019820688
120	0x3dbdb7a1	0.0926354
121	0xbd9d70dc	-0.07687542
122	0x3dd9d7b5	0.10636846
123	0xbe3717f8	-0.17880237
124	0xbddb2dd7	-0.10702103
125	0xbdcf6752	-0.10127129
126	0xbe1146fb	-0.14187233
127	0xbdb509c9	-0.08839757
128	0xbe1cb017	-0.15301548
129	0xbda107f8	-0.07862848
130	0x3e15ff46	0.1464816
131	0xbe31a4a5	-0.17347963
132	0x3bae2a4c	0.005315101
133	0xbd40f8e7	-0.04711237
134	0x3e2115b1	0.15730931
135	0x3d6296c4	0.055319563
136	0xbe525fe2	-0.20544389
137	0xbd8d0116	-0.06884973
138	0xbe3079e5	-0.17233999
139	0x3e0aeee3	0.1356769
140	0xbda2ef76	-0.0795583
141	0x3c0c032e	0.00854568
142	0x3e22a30c	0.1588251
143	0x3c7aa059	0.015297019
144	0x3e151d54	0.14561969
145	0xbd41e0f4	-0.047333673
146	0xbd90d529	-0.07071907
147	0xbdf3014e	-0.11865483
148	0xbe142ac2	-0.14469436
149	0x3e034f90	0.1282332
150	0xbdd03b37	-0.10167544
151	0xbd6c9f7a	-0.057769276
152	0xbe35af01	-0.1774254
153	0x3e31efca	0.17376629
154	0xbdd50f27	-0.10403281
155	0xbe1a706a	-0.15081945
156	0x3d6021de	0.0547198
157	0x3d4a4c67	0.04938927
158	0x3e1a5234	0.1507042
159	0x3d0c8f5b	0.034316402
160	0x3e2c9016	0.1685184
161	0x3cb17853	0.02166382
162	0x3cb04fdd	0.021522457
163	0x3e177319	0.1479
164	0x3df66ffe	0.120330796
165	0x3dfab6ad	0.12241874
166	0xbe15ff6e	-0.1464822
167	0xbcf98ecf	-0.030463604
168	0x3e2b54f6	0.16731629
169	0xbdc0cd5a	-0.09414168
170	0xbe276949	-0.16348757
171	0x3d86fb1c	0.06590864
172	0x3d9048d6	0.07045142
173	0xbe0912c8	-0.1338607
174	0xbdb0cb59	-0.086325355
175	0xbcf8bc15	-0.030363122
176	0xbdfba1d4	-0.12286726
177	0xbce8b42b	-0.028406223
178	0xbdda3041	-0.10653735
179	0x3debb00d	0.115081884
180	0x3c877662	0.016535942
181	0xbd59ba4c	-0.053156182
182	0xbe249796	-0.1607345
183	0x3e1128f8	0.14175785
184	0x3dbc984e	0.09208737
185	0x3db768b8	0.089555204
186	0xbe2c3841	-0.16818334
187	0x3d87a166	0.06622581
188	0x3db4e6d8	0.088330925
189	0x3d16ffa8	0.036864907
190	0xbd8260ca	-0.06366117
191	0x3de16f10	0.110075116
192	0xbd2fc312	-0.042910643
193	0x3dfdafe0	0.12387061
194	0xbdb99d33	-0.090631865
195	0x3d59a946	0.053139947
196	0xbd9b8d78	-0.075953424
197	0x3e18ff46	0.14941129
198	0xbdeecae8	-0.11659795
199	0x3c982ac1	0.018575074
200	0xbe1318c9	-0.14364924
201	0x3e05a956	0.13052878
202	0xbe18c52b	-0.14918964
203	0xbe18a296	-0.14905772
204	0x3cc3dcb2	0.023908947
205	0x3b86d371	0.0041145612
206	0xbdf73b13	-0.120718144
207	0xbdec76f9	-0.1154613
208	0xbda9e5bd	-0.08295772
209	0x3e3ef2b5	0.18647273
210	0x3d5b55ca	0.05354861
211	0xbc076e01	-0.008265973
212	0xbbc1367b	-0.005896387
213	0x3d33ac98	0.04386577
214	0xbdeeac27	-0.11653929
215	0x3d5b47f1	0.053535406
216	0xbe1e7c42	-0.15477088
217	0x3e2631d0	0.1622994
218	0xbdaf4128	-0.085573494
219	0x3e0e586b	0.13900916
220	0x3bf5be48	0.00749949
221	0x3e02dfa5	0.12780626
222	0xbe279195	-0.16364129
223	0x3c46ca0f	0.012133135
224	0xbdc530a8	-0.09628421
225	0xbd4fff44	-0.05078055
226	0xbd8056d3	-0.062665604
227	0x3dc540ab	0.09631475
228	0x3e330f65	0.17486341
229	0x3e400abc	0.18754095
230	0x3b22b0ed	0.0024824694
231	0x3d217bfc	0.03942488
232	0xbd253703	-0.040335666
233	0xbd8ba3aa	-0.06818326
234	0xbd4ffe94	-0.050779894
235	0x3d5c6fd7	0.053817596
236	0x3dd6f1a2	0.104953066
237	0xba7c21f9	-0.00096180994
238	0x3d738b9f	0.059459325
239	0x3c06da3b	0.008230741
240	0x3c95459a	0.018221665
241	0x3c32ed2c	0.010920804
242	0xbe0cf002	-0.1376343
243	0x3d09e1b5	0.033662517
244	0x3e286d88	0.16448033
245	0x3d18e149	0.037324224
246	0x3d41edc5	0.047345895
247	0x3e120a82	0.14261821
248	0x3e016334	0.12635499
249	0xbdbbb019	-0.09164447
250	0x3d93c1ed	0.07214723
251	0x3e2b3835	0.1672066
252	0xbe22f2c6	-0.15912923
253	0x3d935cd9	0.07195444
254	0x3c70de71	0.014701472
255	0xbcac4164	-0.021027274

t_modules.0.layers.0.0.proj.bias f4 [32]
0	0x3e0892db	0.13337271
1	0x3d852fdc	0.06503269
2	0x3dbe29f0	0.09285343
3	0xbe4c0cd6	-0.19926772
4	0x3dad2476	0.0845422
5	0xbdd09723	-0.10185077
6	0x3db3f696	0.08787267
7	0x3c931fae	0.017959442
8	0x3de05ab5	0.10954801
9	0xbdd53507	-0.10410505
10	0x3d7c518f	0.061601218
11	0x3dd12164	0.10211447
12	0xbd2f5513	-0.042805742
13	0xbddd653e	-0.10810326
14	0xbc726936	-0.014795592
15	0xbd9a2e55	-0.075283684
16	0x3ddfa3c7	0.1091991
17	0x3d2edef3	0.04269309
18	0x3d7863d7	0.06064209
19	0xbdc9b52c	-0.09849009
20	0xbd9f7bb2	-0.07787265
21	0x3e14650b	0.1449167
22	0x3b2430a1	0.00250534
23	0xbc1e84b2	-0.009675192
24	0xbd158f05	-0.036513347
25	0xbdd12d36	-0.102137014
26	0x3dbc0a13	0.09181609
27	0xbd8212df	-0.063512556
28	0x3e04213f	0.12903307
29	0x3da1831a	0.07886334
30	0xbc43b7f5	-0.011945714
31	0x3d282f57	0.04106077

t_modules.0.layers.0.1.norm.weight f4 [32]
0	0x3f8130c4	1.0093007
1	0x3f80a457	1.0050153
2	0x3f7dc5d3	0.9912998
3	0x3f81c2cd	1.0137573
4	0x3f7e7e77	0.9941172
5	0x3f7c545c	0.9856622
6	0x3f7fad7a	0.9987408
7	0x3f7ab2d6	0.9792913
8	0x3f80fc86	1.0077064
9	0x3f7d7b31	0.990161
10	0x3f80f764	1.0075498
11	0x3f80c0cd	1.0058838
12	0x3f79fbb7	0.9764971
13	0x3f7908a9	0.9727884
14	0x3f83590a	1.0261548
15	0x3f7ead49	0.9948316
16	0x3f81a9e5	1.0129973
17	0x3f81deb4	1.0146089
18	0x3f7c68ee	0.9859761
19	0x3f80dbcb	1.0067075
20	0x3f7a6551	0.97810847
21	0x3f815711	1.0104696
22	0x3f80e7ba	1.0070717
23	0x3f830316	1.0235317
24	0x3f81bbcf	1.013544
25	0x3f80fe74	1.0077653
26	0x3f81cd15	1.0140711
27	0x3f841004	1.0317388
28	0x3f8185c2	1.0118945
29	0x3f795181	0.9738999
30	0x3f7a5160	0.9778042
31	0x3f7fca67	0.99918216

t_modules.0.layers.0.1.norm.bias f4 [32]
0	0x3cb76315	0.022386113
1	0xbbd185d1	-0.006394126
2	0xbaa2105a	-0.0012364492
3	0xbc8ad7e8	-0.016948655
4	0xbba726eb	-0.005101075
5	0xbce58709	-0.028018491
6	0xbba0003e	-0.0048828414
7	0x3be90448	0.007111106
8	0xbd049861	-0.032371882
9	0x3a8fe6c7	0.0010978811
10	0xbc3f9f87	-0.011695749
11	0x3bb9e64f	0.005673207
12	0x3ba92b8f	0.0051626633
13	0xbc09a293	-0.008400577
14	0x3c768aac	0.01504771
15	0x3c137631	0.009000347
16	0xbc40ee17	-0.011775515
17	0xbc28d2e8	-0.01030419
18	0xbb9b076d	-0.00473111
19	0x3c79c30b	0.015244256
20	0x3b6998de	0.0035644094
21	0xbbe46220	-0.006969705
22	0x3cbe2d0e	0.023214843
23	0x3b8dfbf9	0.004333016
24	0x3c6f390c	0.014601003
25	0xbc9a35b9	-0.018824445
26	0xbbeb93d1	-0.007189252
27	0x3b319d86	0.0027101948
28	0xbc9f2a64	-0.019429393
29	0xbc944563	-0.018099492
30	0x3ce28197	0.027649684
31	0xbb0953bd	-0.0020954453

t_modules.0.layers.0.1.fn.net.0.weight f4 [64, 32]
0	0xbd4e32e3	-0.050341498
1	0xbcebcd08	-0.02878429
2	0xbde234a4	-0.11045197
3	0xbd96447e	-0.073372826
4	0x3d579f8e	0.052642398
5	0xbb6e81ec	-0.0036393357
6	0x3d8c6934	0.068560034
7	0xbc276dea	-0.010219077
8	0x3e1996c4	0.14998919
9	0xbdd0ba07	-0.10191732
10	0xbdd61e44	-0.104549915
11	0x3b913a9a	0.0044320347
12	0xbb036b95	-0.0020053138
13	0x3e010fc5	0.12603672
14	0xbde247ff	-0.110488884
15	0x3e2c9e35	0.16857226
16	0x3cc565e1	0.024096431
17	0xbb60c07d	-0.003429442
18	0xbde7fdd4	-0.11327711
19	0xbe03a1ff	-0.12854765
20	0x3db4d8a0	0.088303804
21	0x3e070d67	0.13188706
22	0x3d28347c	0.041065678
23	0xbe355f68	-0.17712176
24	0xbd1ba925	-0.038003106
25	0xbe2e5c32	-0.17027357
26	0xbe0d2a39	-0.13785638
27	0x3d95b738	0.07310337
28	0x3d835f5c	0.06414673
29	0x3d95e123	0.07318332
30	0xbcdfadcc	-0.027304552
31	0x3d545c99	0.05184612
32	0x3e122502	0.1427193
33	0x3d1f300e	0.038864188
34	0xbcbbd9d4	-0.022931017
35	0x3e22899f	0.15872811
36	0xbcf1cf24	-0.029517718
37	0x3da84c38	0.082176626
38	0x3de9ea8c	0.114216894
39	0xbc6d7975	-0.01449429
40	0x3c7f753f	0.0155919185
41	0xbe1d90f3	-0.15387325
42	0xbdbe4a98	-0.092915714
43	0x3d0f8e12	0.0350476
44	0x3d97beb2	0.07409419
45	0xbdad564d	-0.08463726
46	0xbe35103e	-0.17681977
47	0xbc891272	-0.016732428
48	0xbd3166a5	-0.04331078
49	0x3dce2267	0.100651555
50	0xbc9f4be1	-0.019445362
51	0x3ddfa3bf	0.10919904
52	0xbdd12472	-0.102120295
53	0x3dcf7cde	0.101312384
54	0xbd8c6bbd	-0.06856487
55	0x3e0d493a	0.13797465
56	0x3c8ded52	0.017325077
57	0xbe08724e	-0.13324854
58	0xbca5f998	-0.020260617
59	0xbe24d968	-0.16098559
60	0x3d8a50c4	0.06753686
61	0x3e35f2bc	0.17768377
62	0x3e0dec07	0.13859569
63	0xbcf6521e	-0.030068453
64	0xbe1ddd1a	-0.15416375
65	0xbda750e4	-0.081697255
66	0xbe130fd4	-0.14361507
67	0x3d4b53e9	0.04964057
68	0x3de9be93	0.11413302
69	0x3e013fa8	0.12621939
70	0x3d69112a	0.056901135
71	0x3dd5e207	0.10443502
72	0xbbbc46b3	-0.0057457327
73	0x3dcf9966	0.1013668
74	0x3cf2e6bc	0.029651038
75	0xbe2707a6	-0.16311511
76	0xbded7923	-0.115953706
77	0x3db41cfd	0.087945916
78	0xbca31cfd	-0.019911284
79	0x3e2df5d7	0.16988312
80	0xbd8359f3	-0.06413641
81	0x3d73134c	0.059344575
82	0x3d42b3b4	0.04753466
83	0x3e13d9e7	0.14438592
84	0xbc5f8bd7	-0.01364418
85	0x3d7f4e54	0.06233056
86	0xbe081251	-0.13288237
87	0x3d7e6283	0.062105667
88	0xbd3ddffd	-0.04635619
89	0x3e189114	0.14899093
90	0x3db80ca7	0.08986788
91	0x3e1f02fe	0.15528485
92	0x3ccff607	0.02538587
93	0x3d25940f	0.040424403
94	0xbc12339b	-0.0089234365
95	0xba89d4de	-0.001051571
96	0xbb26aa09	-0.0025430939
97	0xbdf61427	-0.120155625
98	0x3c6dc63f	0.014512598
99	0xbd2bd58b	-0.041951697
100	0x3c2c34cd	0.010510636
101	0xbde8e1ba	-0.11371179
102	0x3e09a748	0.13442719
103	0xbcf88c52	-0.030340347
104	0xbdee36e8	-0.11631566
105	0xbdbd3337	-0.09238284
106	0xbda343ee	-0.07971941
107	0x3d2c3d16	0.042050444
108	0x3df6e6a1	0.12055708
109	0x3e00cbec	0.1257779
110	0x3e0de5f3	0.1385725
111	0x3dc78f3b	0.09744116
112	0xbc8b21cc	-0.016983889
113	0xbde3e850	-0.111282945
114	0xbd0da642	-0.034582384
115	0xbd5e0a3b	-0.054208975
116	0x3da0858d	0.07837973
117	0x3d3bfb10	0.04589373
118	0xbe24b93a	-0.16086283
119	0x3de4f99d	0.111804225
120	0x3dff0b2f	0.12453305
121	0x3ddca3ed	0.10773454
122	0x3da9494d	0.08265934
123	0x3b81d6c7	0.003962371
124	0x3df7aa1a	0.12092991
125	0xbe18ae54	-0.14910251
126	0xbdcbc459	-0.0994956
127	0x3da142e1	0.07874084
128	0xbca07afb	-0.019589892
129	0x3dc4ff76	0.09619038
130	0xbdc3ac25	-0.09554318
131	0xbcd59781	-0.02607322
132	0x3cc27064	0.023735233
133	0x3d8d3769	0.06895334
134	0xbe253f22	-0.16137365
135	0xbe31c084	-0.17358595
136	0x3dce8e8f	0.10085785
137	0xbd51aebb	-0.051192027
138	0x3d42fca2	0.04760421
139	0x3d8387d0	0.064223886
140	0xbd070596	-0.03296431
141	0x3dbc9cb5	0.09209577
142	0xbe21d283	-0.1580296
143	0x3d00e4ab	0.031468075
144	0xbdfdbbb3	-0.123893164
145	0xbd8b39af	-0.06798112
146	0x3c88b79c	0.016689114
147	0xbd63dc0f	-0.055629786
148	0xbe087785	-0.13326843
149	0x3e215a76	0.15757164
150	0xbe1e7ffa	-0.15478507
151	0x3e386491	0.18007113
152	0xbdee5cdb	-0.116388045
153	0xbd0e9c34	-0.034816936
154	0x3dd1538a	0.10221012
155	0xbce45d85	-0.027876625
156	0xbdf78d77	-0.12087529
157	0x3e25756d	0.16158076
158	0x3d7c8bfd	0.06165694
159	0x3e301f03	0.1719933
160	0xbde44c02	-0.1114731
161	0xbca157e3	-0.019695228
162	0x3de57621	0.11204172
163	0x3d3fc9e6	0.046823405
164	0xbd5fb70d	-0.05461793
165	0x3e2d25ff	0.16909026
166	0x3da22da9	0.07918865
167	0xbe256dce	-0.16155168
168	0x3ddfa492	0.10920061
169	0x3e3983cd	0.18116684
170	0xbd7cb267	-0.061693575
171	0x3e116311	0.14197947
172	0xbc9bdc6f	-0.01902601
173	0xbca612b9	-0.0202726
174	0xbe3ba3a4	-0.18324143
175	0xbb9ec56d	-0.0048453123
176	0x3d24b6d7	0.040213432
177	0xbaa7a719	-0.0012790888
178	0xbe2674e0	-0.16255522
179	0x3da89759	0.08231992
180	0x3e048ad2	0.12943581
181	0xbe024d89	-0.1272489
182	0xbd9a4ccd	-0.0753418
183	0xbe0c3b7c	-0.13694566
184	0x3d149d13	0.03628261
185	0xbd997c5c	-0.07494423
186	0xbde8d82b	-0.11369356
187	0xbd08a203	-0.03335763
188	0xbd995b9a	-0.07488175
189	0x3ba41d02	0.005008341
190	0xbd94e531	-0.07270277
191	0x3d857bda	0.065177634
192	0x3c32c6d0	0.010911658
193	0x3e1b330c	0.15156192
194	0x3d4973cf	0.04918271
195	0x3d0659b3	0.032800388
196	0x3d0175bb	0.031606417
197	0x3e261cfe	0.16221997
198	0x3de1f5af	0.110331886
199	0xbde3c7a4	-0.11122063
200	0xbd21f0b3	-0.03953619
201	0x3e1f9b3d	0.15586562
202	0x3e1be96b	0.1522576
203	0x3c8132c0	0.01577127
204	0xbe3a22af	-0.18177293
205	0x3decd60b	0.11564263
206	0xbdcf04e2	-0.10108353
207	0x3e27efed	0.16400118
208	0x3e18b860	0.14914083
209	0xbd9a52f5	-0.07535354
210	0x3d2d95da	0.042379238
211	0x3dff4fa3	0.124663614
212	0xbdc57e21	-0.09643198
213	0x3df88763	0.12135198
214	0xbd106d34	-0.035260394
215	0x3e320b88	0.17387211
216	0x3da96024	0.082702905
217	0x3d9331ed	0.07187257
218	0xbdc79d6f	-0.09746825
219	0xbe3b1e32	-0.18273237
220	0xbdb1ef49	-0.08688218
221	0x3e2361c2	0.1595526
222	0xbd927b39	-0.07152409
223	0xbdfad0c7	-0.12246852
224	0x3e357f59	0.1772436
225	0xbe356dcf	-0.1771767
226	0x3e12f7fb	0.1435241
227	0x3d9f1e41	0.07769442
228	0x3d7aeb13	0.06125934
229	0xbe3ff2c0	-0.18744946
230	0x3cfe3a5f	0.031033693
231	0x3d933384	0.0718756
232	0x3e30e933	0.17276458
233	0xbe27fe68	-0.16405642
234	0x3d752bbd	0.059856165
235	0x3e0e32c1	0.13886549
236	0x3e25ab96	0.16178736
237	0x3d8cc703	0.06873896
238	0x3d892c1c	0.06697866
239	0x3dda5e50	0.1066252
240	0xbcc038ab	-0.023464521
241	0xbd262a0c	-0.040567443
242	0xbe0ae159	-0.13562526
243	0x3e246c36	0.16056904
244	0x3e16d441	0.14729406
245	0xbda6a00b	-0.081359945
246	0x3e0c3aba	0.13694277
247	0x3de34c32	0.110985175
248	0xbda7a463	-0.08185651
249	0xbdf9cb5e	-0.12196992
250	0x3c26608b	0.010154854
251	0x3b9394a9	0.0045038057
252	0x3c618a9e	0.013765959
253	0xbd9f6e48	-0.07784706
254	0x3df205f0	0.11817539
255	0xbe41d2ab	-0.1892802

t_modules.0.layers.0.1.fn.net.0.bias f4 [64]
0	0xbd2686ec	-0.040656015
1	0x3ceecdcc	0.029150866
2	0x3df78b02	0.120870605
3	0x3e085421	0.13313343
4	0x3d991ec5	0.07476572
5	0xbccc055e	-0.024904903
6	0xbdbbfdcc	-0.09179267
7	0x3caf0659	0.021365331
8	0x3d8f546c	0.06998524
9	0x3e298aab	0.16556804
10	0xbccf379a	-0.025295068
11	0x3e1d9bf3	0.15391521
12	0x3dc8c991	0.09804071
13	0xbdd81823	-0.10551479
14	0x3d8d158b	0.068888746
15	0x3d682e8e	0.056685023
16	0xbdbebf4b	-0.0931383
17	0x3de0fa02	0.10985185
18	0xbd8f83a9	-0.07007534
19	0xbc976b3a	-0.018483747
20	0xbe0b1b48	-0.13584626
21	0xbe339f5a	-0.17541257
22	0x3be5ce52	0.0070131207
23	0x3d53d464	0.051716223
24	0x3d8c7dd5	0.06859938
25	0xbe3080c3	-0.17236619
26	0xbd506376	-0.050876103
27	0xbdc7ad02	-0.097497955
28	0x3cd98b40	0.026555657
29	0xbd66fcdd	-0.056393493
30	0x3dffc77b	0.1248922
31	0x3e132dc7	0.14372931
32	0xbb98df6c	-0.004665306
33	0x3dbe6628	0.092968285
34	0x3d198df4	0.037488893
35	0x3d9dc57b	0.07703682
36	0x3c7bc797	0.01536741
37	0xbe0209f1	-0.12699105
38	0x3d02d593	0.03194196
39	0x3dbb5a72	0.091481104
40	0xbddcc9a3	-0.10780647
41	0xbdb9a9de	-0.09065603
42	0xbe1723d8	-0.14759767
43	0x3d7a5a9f	0.06112158
44	0xbe0f4a60	-0.13993216
45	0xbdb2625d	-0.087101676
46	0xbe366590	-0.1781218
47	0x3d696bf2	0.05698771
48	0xbd0d0a13	-0.034433436
49	0x3e0cbdec	0.13744324
50	0xbd86fa24	-0.06590679
51	0xbe0b621b	-0.13611643
52	0xbd7178aa	-0.058952965
53	0xbddd9c1b	-0.108207904
54	0xbdc26415	-0.094917454
55	0xbda29ff3	-0.07940664
56	0x3d584473	0.052799653
57	0x3ddc763b	0.10764738
58	0xbdf35cf1	-0.118829615
59	0xbdc81813	-0.09770217
60	0xbd8d2b45	-0.06893019
61	0xbda6ced5	-0.08144919
62	0x3d2c4823	0.042060982
63	0x3db7492f	0.089495055

t_modules.0.layers.0.1.fn.net.3.weight f4 [32, 64]
0	0x3bbe3dd3	0.00580571
1	0xbcbcd38d	-0.023050094
2	0x3dae2cf0	0.08504665
3	0xbe01cfa1	-0.1267686
4	0xbdd7473a	-0.10511632
5	0x3db857de	0.09001134
6	0xb9689734	-0.00022181572
7	0x3d9323ca	0.071845606
8	0xbddeddc0	-0.10882139
9	0xbd992ed4	-0.07479635
10	0x3db3b863	0.08775403
11	0xbdbf4b79	-0.09340567
12	0xbd84e24b	-0.064884745
13	0xbc9c3585	-0.019068489
14	0x3df3d260	0.1190536
15	0x3de6ef2f	0.112760894
16	0xbd5500f1	-0.05200285
17	0xbdeb1c68	-0.114800274
18	0xbda8460b	-0.08216485
19	0x3c60ee80	0.013728738
20	0xbd13cc5d	-0.036083568
21	0xbd7619ef	-0.060083326
22	0x3cccc08e	0.024994161
23	0x3c71d5ea	0.014760474
24	0x3d06b9e9	0.03289214
25	0xbdda2beb	-0.10652908
26	0x3d1ad2f5	0.03779884
27	0xbd13f172	-0.036118932
28	0x3d5437ac	0.051810905
29	0x395ed0e1	0.00021249383
30	0xbda40e97	-0.08010595
31	0x3c7636ec	0.015027743
32	0xbcda9984	-0.02668453
33	0x3d429f15	0.047514994
34	0x3d0e8f0e	0.034804396
35	0xbcd635f3	-0.026148772
36	0xbc175976	-0.009237638
37	0xbdb6c155	-0.08923594
38	0x3d1cf7e1	0.038322333
39	0x3df12a77	0.11775678
40	0x3d6c595f	0.05770242
41	0xbd3d668f	-0.046240386
42	0x3df31131	0.118685134
43	0xbdba4a9a	-0.0909626
44	0xbbbb34ad	-0.0057130666
45	0x3d93dbc5	0.07219652
46	0x3dcbeec7	0.099576525
47	0xbdd33418	-0.103126705
48	0xbd67ac83	-0.056561004
49	0x3d9ce45a	0.07660742
50	0x3da1b21d	0.078953005
51	0x3a9209ec	0.0011141873
52	0x3b4f8364	0.0031664008
53	0xbdc6338d	-0.09677801
54	0xbd7292a8	-0.059221894
55	0xbcdf8c1e	-0.027288493
56	0x3dbc7abf	0.092030995
57	0x3d35bc62	0.04436911
58	0x3b2c5b3a	0.0026299492
59	0xbd193685	-0.03740551
60	0x3ca808de	0.02051204
61	0xba81ab09	-0.0009892891
62	0xbdcaedf6	-0.09908669
63	0xbde95fbd	-0.11395214
64	0x3d94f505	0.07273296
65	0xbde8fe7f	-0.11376666
66	0x3cc79377	0.024362309
67	0x3dbda92a	0.09260781
68	0xbd37aea9	-0.044844303
69	0x3dbeaa40	0.09309816
70	0x3d5594e6	0.052143954
71	0x3d4d0769	0.050055895
72	0x3dd78595	0.105235256
73	0x3cc85736	0.024455648
74	0x3d154121	0.036439065
75	0x3dc147d4	0.09437528
76	0xbd5e289f	-0.054237958
77	0xbda5730c	-0.08078584
78	0xbb9f23b1	-0.0048565497
79	0xbdeafed0	-0.11474383
80	0xbdf2213a	-0.11822744
81	0x3d6f5b40	0.058436632
82	0x3cf3fcde	0.029783662
83	0xbe0ba3a0	-0.13636637
84	0xbdba8edb	-0.09109279
85	0xbdc5b7fc	-0.09654233
86	0xbd84ffd8	-0.06494111
87	0x3db01ee1	0.0859964
88	0x3d8d76ad	0.06907401
89	0xbd58041e	-0.0527383
90	0x3dd81811	0.10551465
91	0x3d6656e7	0.05623522
92	0x3c88b0d7	0.016685886
93	0x3d1af461	0.037830714
94	0xbca77eaa	-0.02044614
95	0x3c9a3b6a	0.018827159
96	0x3d58bc98	0.052914232
97	0x3cca87c0	0.024722934
98	0xbdbcb290	-0.092137456
99	0x3d2fcf81	0.0429225
100	0xbdda1628	-0.10648757
101	0x3df558f7	0.11979859
102	0x3dc0985e	0.09404062
103	0x3c7d0850	0.015443876
104	0x3d021a32	0.031763263
105	0x3e0c7419	0.13716163
106	0x3d3cddeb	0.046110075
107	0xbdb997e7	-0.09062176
108	0x3bdb36d3	0.006689885
109	0xbd9cc69b	-0.076550685
110	0x3d6175e4	0.05504407
111	0x3d312e44	0.043257013
112	0xbb6351e0	-0.0034686252
113	0xbd009a15	-0.031396944
114	0xbd08c34e	-0.033389382
115	0xbde3dad8	-0.111257255
116	0x3df8110d	0.12112627
117	0xbdb37794	-0.08763042
118	0x3df55f35	0.1198105
119	0x3cec1348	0.028817788
120	0xbdc682aa	-0.09692891
121	0xbd98cdfb	-0.07461163
122	0x3d053e3a	0.032530047
123	0xbd4642fa	-0.048403718
124	0x3db7bc29	0.089714356
125	0x3d91db7e	0.07121943
126	0x3d8882d8	0.066655815
127	0xbc637c9a	-0.013884688
128	0x3d78cba0	0.060741067
129	0x3da75693	0.081708096
130	0xbb871613	-0.0041225045
131	0x3da29d72	0.079401866
132	0x3c2d4151	0.010574655
133	0xbd6bc456	-0.057560287
134	0x3d02e1dc	0.031953678
135	0x3ddb000e	0.1069337
136	0x3d864597	0.06556242
137	0xbdc866ba	-0.097852185
138	0xbe24cb07	-0.16093074
139	0xb9f2704b	-0.00046241502
140	0xbd82132b	-0.06351312
141	0x3cf04922	0.029331747
142	0xbca31ce5	-0.019911239
143	0xbdb39d00	-0.0877018
144	0xbd034e22	-0.032056935
145	0x3e1833a6	0.14863452
146	0xbd26cfc6	-0.040725492
147	0x3dd7c643	0.10535862
148	0xbceeeacd	-0.029164696
149	0x3c108129	0.008819857
150	0x3d9dc7b9	0.0770411
151	0x3d4e308d	0.05033927
152	0xbe08ad8c	-0.13347453
153	0x3bc3b6a1	0.005972699
154	0xbe0ca4d8	-0.13734758
155	0xbd5af329	-0.05345455
156	0xbcfb2b61	-0.030660333
157	0x3d2eed93	0.042707037
158	0xbdb96b5a	-0.09053679
159	0xbde1e2bd	-0.11029575
160	0x3e06cac5	0.13163288
161	0x3c3df98d	0.011595142
162	0xbcb373ba	-0.021905769
163	0xbd8db91d	-0.06920073
164	0x3cb21001	0.021736147
165	0xbe209295	-0.15680917
166	0xbcfd1917	-0.030895753
167	0xbd366f86	-0.04453995
168	0x3de41752	0.111372605
169	0xbcafd25b	-0.02146261
170	0xbd817e60	-0.06322932
171	0x3dc5888d	0.096451856
172	0x3dee5d9d	0.11638949
173	0x3b9fa1eb	0.004871597
174	0x3dad7eb2	0.08471431
175	0xbde10fcc	-0.10989341
176	0xbdc9230c	-0.09821138
177	0x3d9ca3df	0.076484434
178	0x3d9e139c	0.07718584
179	0xbc1fada3	-0.009745988
180	0x3de53e11	0.11193479
181	0xbd24c9e7	-0.04023161
182	0x3d1f2a1e	0.038858525
183	0xbd96d9de	-0.073657736
184	0x3ccf127a	0.025277365
185	0xbd6cfe4b	-0.0578597
186	0xbda8d372	-0.08243455
187	0x3d05f525	0.03270449
188	0xbd4ee8ff	-0.05051517
189	0x3a2df60e	0.0006636091
190	0x3c8426fc	0.01613187
191	0xbd78ef19	-0.060774896
192	0xba83752d	-0.0010029428
193	0x3db9fef1	0.09081829
194	0xbd4d7f0b	-0.050169986
195	0x3ccff3ca	0.025384802
196	0xbd5e0a62	-0.05420912
197	0x3de21912	0.11039938
198	0xbe0e170d	-0.1387598
199	0x3da0837c	0.07837579
200	0xbdeb0951	-0.11476386
201	0x3da3424a	0.07971628
202	0x3dc595e8	0.09647733
203	0x3dadd4bd	0.08487842
204	0xbc8eb988	-0.017422453
205	0x3d13a308	0.03604415
206	0x3c61b7c9	0.013776728
207	0xbce40992	-0.027836595
208	0xbddc6417	-0.10761278
209	0x3cd6a664	0.026202388
210	0xbba547ca	-0.0050439583
211	0x3d7485d8	0.059697956
212	0x3d19d4fc	0.037556633
213	0x3d986977	0.07441991
214	0x3d227b66	0.039668463
215	0x3db17eea	0.08666785
216	0x3c9c822c	0.01910504
217	0xbde57494	-0.11203876
218	0xbe0416d9	-0.1289934
219	0x3e1039fd	0.14084621
220	0xbd74504c	-0.05964689
221	0xbde3fdaa	-0.11132367
222	0xbd8ce0e3	-0.06878831
223	0xbd980849	-0.07423455
224	0x3cfd1bcf	0.03089705
225	0x3d237df1	0.03991503
226	0x3d865149	0.06558473
227	0x3d218925	0.03943743
228	0xbd00e68b	-0.031469863
229	0xbccb24e9	-0.024797874
230	0x3de50ae9	0.111837216
231	0xbd82aa92	-0.0638019
232	0x3dd50e79	0.10403151
233	0x3dce752c	0.100809425
234	0x3d6acacb	0.057322305
235	0x3ce3c778	0.027805075
236	0x3d8442d5	0.0645806
237	0xbd648762	-0.055793174
238	0xbe0b4311	-0.13599803
239	0xbd30e116	-0.04318341
240	0xbe1dd4ae	-0.15413162
241	0xbd929fc8	-0.07159382
242	0xbbafe8e1	-0.0053683375
243	0xbd4d8d2d	-0.050183464
244	0xbd0d6172	-0.03451676
245	0xbd996765	-0.07490424
246	0x3d575ed4	0.05258067
247	0xbd7e8b3d	-0.062144507
248	0xbde27ade	-0.11058591
249	0x3ca283fd	0.019838328
250	0xbda64da9	-0.08120281
251	0x3cc936e3	0.024562305
252	0x3deeee54	0.11666551
253	0x3d262886	0.04056599
254	0x3dadd414	0.08487716
255	0xbd4c1ed1	-0.049834076

t_modules.0.layers.0.1.fn.net.3.bias f4 [32]
0	0x3d126966	0.035745047
1	0x3d83143e	0.06400345
2	0x3d9c8775	0.07643024
3	0x3de8ea82	0.11372854
4	0x3d1e61a4	0.038667336
5	0xbd843253	-0.06454911
6	0xbdc42d69	-0.09578974
7	0xbd71cd49	-0.059033666
8	0x3d82a13b	0.063784085
9	0x3d03535b	0.032061916
10	0x3d112d6b	0.035443705
11	0x3c1d566d	0.009603125
12	0xbd2483ae	-0.040164642
13	0x3dba51be	0.09097622
14	0xbdfcc749	-0.12342698
15	0xbcd406eb	-0.025882205
16	0xbd9305b1	-0.0717882
17	0x3d51499d	0.051095594
18	0xbda05db5	-0.07830373
19	0x3da016d8	0.07816857
20	0x3daf3db0	0.08556688
21	0x3cad686a	0.021167953
22	0xbc7bc8ea	-0.015367726
23	0x3c8066e4	0.015674062
24	0xbcee11e4	-0.029061265
25	0x3dc13300	0.094335556
26	0x3d8979e5	0.06712703
27	0x3cba640b	0.022752782
28	0x3c3fe3ae	0.011711998
29	0xbdfd008c	-0.1235362
30	0xbd81ca02	-0.06337358
31	0xbc270e72	-0.010196315

t_modules.1.pos_embedding f4 [1, 12, 32]
0	0xbedadc1c	-0.42746055
1	0x3f11ff0c	0.57029796
2	0x3fe24af6	1.7679126
3	0xbe951b5d	-0.2912244
4	0x3e9bceca	0.30431205
5	0xbe580651	-0.2109616
6	0x3edddf2b	0.43334326
7	0x400012f7	2.0011575
8	0x3f78a869	0.97131974
9	0x3efe3afe	0.49654382
10	0xbf8fe85e	-1.1242788
11	0xbf5ad06b	-0.8547427
12	0x3f2e7661	0.6814938
13	0xbf8baf92	-1.0912955
14	0xbead253a	-0.33817464
15	0x4019bb42	2.4020543
16	0x3f48295a	0.781881
17	0x403750d4	2.8643084
18	0xbec682b2	-0.38771588
19	0x3fb15817	1.3855008
20	0x3f139200	0.57644653
21	0xbd5e4c2c	-0.054271862
22	0x3cdc8ee1	0.026923599
23	0x3f307e48	0.6894269
24	0xbfa9a1db	-1.3252519
25	0xbf07e080	-0.53076935
26	0xbf8d014a	-1.1016018
27	0x3ed92af4	0.42415583
28	0xbf9483bd	-1.1602703
29	0xbfb0917e	-1.3794401
30	0xbf89b7ee	-1.0759256
31	0x3fa9374f	1.3220004
32	0x3e722d22	0.2365003
33	0x3ed7dea6	0.42162055
34	0x3f9e2439	1.2354804
35	0x3d9a6444	0.075386554
36	0x3f48e8c5	0.7848018
37	0x3ea74f40	0.3267765
38	0x3cd182f8	0.025575146
39	0xbfa546d1	-1.2912236
40	0xbef7ef70	-0.48424864
41	0xbd7f16f4	-0.06227775
42	0x3f56e472	0.8394233
43	0x3eb54af9	0.35408762
44	0xbf8bbf26	-1.0917709
45	0xbf8552c9	-1.0415889
46	0x3e14f0cf	0.14544986
47	0xc0058166	-2.0860229
48	0x3f230094	0.6367276
49	0xbe876b88	-0.26449227
50	0x3f44bd44	0.76851296
51	0xbf29759a	-0.6619507
52	0xbfa517a2	-1.2897837
53	0x3fdef04b	1.7417082
54	0x3f354da3	0.7082159
55	0x3e61410f	0.21997474
56	0xbf39dd80	-0.7260361
57	0xc00960fa	-2.146544
58	0xbe12702f	-0.14300607
59	0xbd5d3882	-0.05400897
60	0xbf814904	-1.0100408
61	0x3f30496c	0.6886203
62	0xbf34f131	-0.7068053
63	0x3f2b825a	0.66995776
64	0x3d92084f	0.07130491
65	0xbf983f02	-1.1894228
66	0xbfc2f74b	-1.5231718
67	0x3f06d281	0.52664953
68	0x3fb086d5	1.3791147
69	0x3de4615f	0.111513846
70	0x3f6a254d	0.91463166
71	0xbf4d104e	-0.80103004
72	0x3deb60cd	0.11493073
73	0x3dd7c647	0.10535865
74	0xbff2741b	-1.8941683
75	0xc003af8a	-2.057589
76	0xc04e1b5e	-3.2204204
77	0xbf744e4b	-0.95431966
78	0xbf6e954a	-0.9319655
79	0xbf2fa615	-0.68612796
80	0x3e191d93	0.14952688
81	0xbffd86f1	-1.9806806
82	0xbea1561f	-0.31511018
83	0xbeddcea4	-0.43321717
84	0xbf93b1ea	-1.153867
85	0xbe12280d	-0.1427309
86	0xbf00e894	-0.50354886
87	0x3c98d8bc	0.018658035
88	0xbff2b03d	-1.8960034
89	0x3d4d43cf	0.050113495
90	0xbf316d4f	-0.69307417
91	0x3e893347	0.26796934
92	0xc00e246f	-2.2209737
93	0x3e12d58f	0.14339279
94	0xbf3c0801	-0.73449713
95	0xbf888e05	-1.0668341
96	0x3fbc3a08	1.470521
97	0xbfd8b19e	-1.6929204
98	0x3e9cc6ce	0.30620426
99	0xbf1ecbb9	-0.62029606
100	0xbf1d9e30	-0.615695
101	0x3facb4b2	1.3492644
102	0xbf628793	-0.8848812
103	0x3f57f018	0.8435073
104	0x3f2e95eb	0.68197507
105	0xbf1b1e1d	-0.60592824
106	0xbea01fb8	-0.312742
107	0x3f936dee	1.1517923
108	0xbb35541f	-0.0027668548
109	0x3ec62ece	0.38707584
110	0x3f530930	0.82435894
111	0x3f05faa4	0.5233557
112	0xbf912dab	-1.1342062
113	0x3ee5534b	0.4479011
114	0x3fc73c27	1.5565232
115	0xbfde068d	-1.7345749
116	0xbf35dd69	-0.7104097
117	0x3df3c995	0.11903683
118	0x3f0b9c24	0.54535127
119	0xbf06f51d	-0.52717763
120	0x3e50ad23	0.20378546
121	0x3e878c12	0.26474053
122	0xbf3ef251	-0.74588495
123	0x3f8b8fe4	1.0903287
124	0xbf244921	-0.64174086
125	0xbeea6c0f	-0.45785567
126	0xbf3583e1	-0.70904356
127	0xbeebc157	-0.46045944
128	0x3e014da6	0.12627277
129	0xbdc37520	-0.09543824
130	0xbf2af3e3	-0.6677839
131	0x3f827890	1.0193043
132	0x3f3905df	0.72274584
133	0xbfafa71b	-1.3722872
134	0xbee55eea	-0.44798976
135	0x3f15fd49	0.5858961
136	0x3eadd4a9	0.3395131
137	0x3f4db9ae	0.8036145
138	0xbe9c729c	-0.3055619
139	0xbf32eb2a	-0.6989008
140	0x3ea477e2	0.32122713
141	0x3f44bd16	0.7685102
142	0xbf1ccad7	-0.6124701
143	0xbe5c0efe	-0.21490094
144	0x3eac10af	0.3360648
145	0x3f690010	0.9101572
146	0x3f4147cf	0.75500196
147	0xbf01bdb2	-0.5068008
148	0xbfec3e6e	-1.8456552
149	0xbe9fabfb	-0.31185898
150	0xbe7b89c4	-0.24564272
151	0xbdbf82d6	-0.09351127
152	0x3fa1449e	1.2599065
153	0xbe249f07	-0.16076289
154	0x3c2466b3	0.010034251
155	0x3d1612fe	0.036639206
156	0xbff6e8f0	-1.9289837
157	0xbfa8633a	-1.3155282
158	0xbf974563	-1.181805
159	0x3f1979ef	0.5995168
160	0x3f20da9a	0.6283356
161	0xbddad52a	-0.10685189
162	0xbfe73b73	-1.8065017
163	0x3efcf262	0.49403673
164	0xbdbc39bd	-0.091907
165	0x3f04dbf5	0.5189813
166	0x40000e96	2.0008903
167	0xbec64447	-0.38723966
168	0xbf06ffdd	-0.52734166
169	0xbd460edd	-0.04835402
170	0x3e95e825	0.29278675
171	0xbda318c9	-0.07963712
172	0x3e84918b	0.2589229
173	0x3f6e7c84	0.93158746
174	0x3faf9d1d	1.3719822
175	0x3edc0ab4	0.42976916
176	0xbe619dbf	-0.22032832
177	0x3fe35dd4	1.7763009
178	0xbf684069	-0.9072328
179	0xc004ca95	-2.0748646
180	0x3f43b7fe	0.76452625
181	0x3f4ea52e	0.80720794
182	0x3ed93e37	0.4243028
183	0xbf2aafd0	-0.6667452
184	0xbe9143e8	-0.2837212
185	0x3fb9aa4f	1.4505099
186	0x3e354348	0.17701447
187	0x3fecaadc	1.8489642
188	0xbf3766fc	-0.71641517
189	0x3f747229	0.95486695
190	0x3fbec161	1.4902765
191	0xbfb5acd8	-1.4193373
192	0x3fd1f6ab	1.6403402
193	0xbf6f2e0e	-0.9342965
194	0x3f3594bb	0.7093007
195	0xbf089575	-0.53353053
196	0x3f98b8b1	1.1931363
197	0x3f7c5524	0.98567414
198	0xbfa2bb41	-1.2713395
199	0xbf64255a	-0.89119494
200	0x3e8bffff	0.27343747
201	0x3ea1c826	0.31598014
202	0xbca008f9	-0.019535528
203	0xbfbc5e80	-1.4716339
204	0xbf52c607	-0.82333416
205	0xbfcaf8d6	-1.5857189
206	0xbf3856b3	-0.7200729
207	0x3f67b358	0.9050803
208	0x3f0e8660	0.5567379
209	0x3fda8d9e	1.7074468
210	0xc01491ca	-2.3213983
211	0xbf24d695	-0.64389926
212	0xbf84e449	-1.0382167
213	0xbf46520c	-0.77468944
214	0x3f8adf6e	1.0849435
215	0xbe893ad2	-0.2680269
216	0xbe8577a1	-0.26067832
217	0x3f2ba9d9	0.6705604
218	0xbd2b8451	-0.041874234
219	0xbf024708	-0.50889635
220	0xbe3195ab	-0.1734225
221	0xc03e9471	-2.9778101
222	0x3dd7b8ec	0.10533318
223	0xbe5efdb5	-0.21776469
224	0xbfbd7369	-1.4800845
225	0xbf2c2561	-0.67244536
226	0xbda327a1	-0.07966543
227	0xbec83aaf	-0.39107272
228	0xbfab0854	-1.3361917
229	0x3d10f51d	0.03539001
230	0x3fce2314	1.6104455
231	0x3f0bc4c2	0.54597104
232	0xbf8b82df	-1.0899314
233	0xbecd2e38	-0.40074325
234	0xbfae187c	-1.3601222
235	0x3f225cf7	0.63423103
236	0xbf18ed7b	-0.59737366
237	0xbdcf754c	-0.101297945
238	0x3f0a2f68	0.53978586
239	0xbfaea66b	-1.3644537
240	0xbeef827e	-0.46779245
241	0xbf3d08a2	-0.738413
242	0x3e7e1886	0.24814042
243	0x3f2a363d	0.6648901
244	0x3f9b3e03	1.21283
245	0x3f325280	0.69657135
246	0x3fa5f14d	1.2964264
247	0xbf4fb67e	-0.81137836
248	0x3da8fd8d	0.08251486
249	0x400bb427	2.1828706
250	0xbe90d7ed	-0.28289738
251	0xbfa62b77	-1.2982014
252	0xbf2f776a	-0.68541586
253	0x3ed2c627	0.41166803
254	0x3fc4cec9	1.5375606
255	0xbedf10bf	-0.43567464
