small_scale_scenario/experiments/stgcn/PEMS08/-fulltrain/final_model_s2019.pt (torch, 927240 bytes, 36 tensors)

st_blocks.0.tmp_conv1.align.align_conv.weight f4 [64, 3, 1, 1]
0	0xbe76987d	-0.24081607
1	0x3dcf0840	0.101089954
2	0x3e181222	0.14850667
3	0xbf011d23	-0.50435084
4	0x3e8bb555	0.27286783
5	0x3e57138c	0.2100355
6	0xbe707c31	-0.23484875
7	0x3f0eee42	0.558323
8	0xbdda2045	-0.10650686
9	0xbc555063	-0.013019654
10	0x3dd030ca	0.10165556
11	0xbd7962ac	-0.060885116
12	0x3e9b5808	0.303406
13	0xbefcfb41	-0.49410442
14	0xbea5143e	-0.32242006
15	0xbdf17a56	-0.11790912
16	0x3e1e2c8d	0.15446682
17	0xbeb5fd1c	-0.3554467
18	0x3edbe611	0.42948964
19	0xbd437254	-0.047716454
20	0x3ec0ee75	0.37681928
21	0xbee4b43c	-0.44668758
22	0xbe19b5cb	-0.15010755
23	0x3db06ef1	0.086149104
24	0x3e64afc0	0.22332668
25	0x3da2b55e	0.07944749
26	0x3e244fcf	0.1604607
27	0xbeb6ac53	-0.35678348
28	0xbf10df08	-0.5659032
29	0xbf04141c	-0.51593184
30	0xbef2dc68	-0.47433782
31	0x3e5b2525	0.21400888
32	0xbe7ed79b	-0.24886934
33	0xbe425a10	-0.18979669
34	0x3efe18b8	0.49628234
35	0xbeefa64e	-0.46806568
36	0xbc4f72fc	-0.012661692
37	0x3e62e1a2	0.22156385
38	0x3ebc7797	0.3680999
39	0xbe1ebd1b	-0.15501826
40	0xbc7ba0b3	-0.015358138
41	0xbecdd84b	-0.4020408
42	0xbf067032	-0.52514946
43	0xbf0bb4d7	-0.54572815
44	0x3e099545	0.13435848
45	0xbf0a9088	-0.5412679
46	0xbe51d605	-0.20491798
47	0xbdc06405	-0.09394077
48	0x3ebe9448	0.37222505
49	0xbd4bdb69	-0.049769793
50	0x3ec9156d	0.3927416
51	0x3f0bc35f	0.5459499
52	0xbeb0b1b7	-0.34510586
53	0x3f058a0d	0.52163774
54	0x3efd3751	0.49456266
55	0xbd85045f	-0.06494974
56	0xbe50b3d9	-0.20381106
57	0xbe80d136	-0.25159615
58	0x3f026661	0.5093747
59	0x3ecaa36b	0.39577803
60	0x3d66996a	0.05629865
61	0x3ef74148	0.48291993
62	0x3d20d9c6	0.039270185
63	0xbeea1200	-0.45716858
64	0xbeff23be	-0.49831957
65	0x3e4090f2	0.18805292
66	0x3e340dd3	0.17583399
67	0xbe1feef0	-0.15618491
68	0x3d9d909d	0.076935984
69	0xbe828118	-0.25489116
70	0x3e97ba87	0.29634497
71	0xbe0dc4b5	-0.13844569
72	0xbe1caa08	-0.15299237
73	0x3e1554fa	0.14583197
74	0x3e040d28	0.12895644
75	0x3f0e9122	0.55690205
76	0x3ea3323f	0.31874272
77	0xbe6d4da9	-0.23174156
78	0xbe9d0e28	-0.30674863
79	0xbed35335	-0.4127442
80	0x3f046536	0.51716936
81	0x3f0d254b	0.5513503
82	0x3eb1f1bd	0.34754744
83	0x3e822b29	0.25423554
84	0x3eeb07c3	0.4590436
85	0x3ef7c6d7	0.4839389
86	0xbefdddd2	-0.49583298
87	0x3e0aec94	0.1356681
88	0x3e9c78c2	0.3056088
89	0x3e26eae2	0.16300538
90	0x3d9cad9b	0.076503
91	0xbecf140a	-0.40444976
92	0x3e25808b	0.16162317
93	0xbd554f16	-0.052077375
94	0xbf13cbff	-0.5773315
95	0x3ea9d412	0.3316961
96	0x3e8f3ac4	0.27974522
97	0xbcdb1847	-0.026744975
98	0x3eba2e70	0.36363554
99	0xbe4c1ca7	-0.19932805
100	0xbf085377	-0.5325236
101	0x3e3d96c5	0.18514545
102	0xbeb02258	-0.34401202
103	0xbeadbe8a	-0.33934432
104	0xbf10b033	-0.5651886
105	0x3ebadabb	0.36495003
106	0xbad34acb	-0.0016120313
107	0x3eff9a8d	0.499226
108	0xbec26399	-0.37966612
109	0x3ed3b4f1	0.41348985
110	0x3e5a7667	0.2133423
111	0x3eb3839c	0.35061347
112	0x3e8abeb2	0.27098614
113	0xbf038825	-0.51379615
114	0x3edc224b	0.42994913
115	0xbf134128	-0.57521296
116	0xbd12793d	-0.035760153
117	0xbf078487	-0.52936596
118	0xbcb11180	-0.02161479
119	0xbf07322e	-0.52810943
120	0x3ec3bae9	0.3822854
121	0xbe64440a	-0.2229158
122	0x3f006619	0.5015579
123	0xbc71023f	-0.014710008
124	0x3cfde618	0.030993506
125	0xbe871bd4	-0.2638842
126	0xbe501c91	-0.20323397
127	0xbe3c3a85	-0.18381698
128	0xbf01d560	-0.5071621
129	0xbe717564	-0.23579937
130	0xbec70783	-0.38872918
131	0xbf06d8cc	-0.52674556
132	0xbf028f10	-0.50999546
133	0xbd7155f6	-0.05891987
134	0x3eb0beb7	0.34520504
135	0xbea8fa90	-0.33003664
136	0xbebe6187	-0.37183782
137	0xbf10d581	-0.5657578
138	0xbcb86df9	-0.022513377
139	0xbebae05a	-0.36499292
140	0xbe15dc6b	-0.14634864
141	0x3e828816	0.2549445
142	0xbcf62dae	-0.030051079
143	0x3e20550f	0.15657447
144	0xbf12e50e	-0.5738076
145	0xbee13630	-0.43986654
146	0xbf02d154	-0.5110066
147	0xbe7cce9a	-0.24688187
148	0xbe827ae8	-0.25484395
149	0xbea9b19f	-0.33143327
150	0xbbb6b44d	-0.0055756927
151	0xbe5d09cf	-0.21585773
152	0x3e8bd053	0.27307376
153	0xbd9da92f	-0.07698285
154	0x3f11ac0f	0.56903166
155	0xbef81abc	-0.48457897
156	0xbd842f95	-0.06454388
157	0x3dd9f399	0.10642166
158	0x3f06a56e	0.52596176
159	0xbf09c352	-0.5381366
160	0x3e8c05f9	0.27348307
161	0x3e2066eb	0.1566426
162	0x3f13540a	0.5755011
163	0xbf10b7ff	-0.56530756
164	0xbf00d972	-0.50331795
165	0xbe97aa6f	-0.29622218
166	0xbe315eb4	-0.17321283
167	0xbe487d1a	-0.19578972
168	0xbdf720e3	-0.120668195
169	0x3edddc9b	0.4333237
170	0x3ee29239	0.44252184
171	0x3e28fa8c	0.16501826
172	0xbe6adc43	-0.22935586
173	0x3e5a2ce6	0.2130619
174	0x3ed54940	0.41657448
175	0x3e0f09c1	0.13968565
176	0x3f12ce3c	0.5734594
177	0x3e25fd08	0.16209805
178	0xbef4917a	-0.4776724
179	0x3d4c4ebd	0.04987978
180	0xbe9533f1	-0.2914119
181	0x3eda14ce	0.42593998
182	0xbf073685	-0.52817565
183	0xbdee8057	-0.11645573
184	0xbe2fcaeb	-0.17167251
185	0xbeb4f086	-0.35339755
186	0x3f12ff95	0.5742124
187	0x3e8f96fb	0.28044876
188	0x3ea034ec	0.31290376
189	0xbf025e58	-0.5092521
190	0x3d67db25	0.056605477
191	0x3efda88f	0.49542663

st_blocks.0.tmp_conv1.align.align_conv.bias f4 [64]
0	0xbe8b5019	-0.27209547
1	0xbe8a4042	-0.2700215
2	0xbae8b79e	-0.0017754917
3	0x3f0ae579	0.542564
4	0xbe931c98	-0.28732753
5	0xbee06f76	-0.43835038
6	0xbd8d4f4a	-0.06899889
7	0x3ec4885e	0.3838529
8	0xbecdfc6e	-0.4023165
9	0xbed38fcd	-0.4132065
10	0xbdc7d4b2	-0.09757365
11	0xbe7f76b8	-0.24947631
12	0xbd2733aa	-0.040820755
13	0x3f0e4e4d	0.5558823
14	0x3d6e86cd	0.058234025
15	0xbd87af20	-0.06625199
16	0x3e36c61b	0.17849009
17	0xbe77b87f	-0.24191473
18	0x3e63da5d	0.22251268
19	0xbe8cc07c	-0.27490604
20	0x3f0efb27	0.5585198
21	0xbee180dd	-0.44043627
22	0x3e9ce6bf	0.30644795
23	0xbe5672d0	-0.20942235
24	0xbeeddc36	-0.4645707
25	0x3eafa5ea	0.3430627
26	0xbef51050	-0.47864008
27	0x3eb74639	0.35795763
28	0xbd8631bf	-0.06552457
29	0xbd5edeb1	-0.054411594
30	0x3d92182c	0.07133517
31	0xbea3a0f6	-0.3195874
32	0x3f0d6c8a	0.5524374
33	0x3e42d64d	0.19027062
34	0xbed21a2f	-0.41035601
35	0x3f07b068	0.5300355
36	0xbeb88757	-0.36040756
37	0x3c301206	0.010746485
38	0xbe18546b	-0.14875953
39	0xbef66237	-0.48121807
40	0x3ee07664	0.43840325
41	0xbe8fc8b2	-0.28082806
42	0xbf085910	-0.532609
43	0x3dd89464	0.10575178
44	0xbf039cc2	-0.5141107
45	0xbdf086e0	-0.11744475
46	0xbbea66e6	-0.0071533797
47	0x3e68076b	0.2265908
48	0xbf022c83	-0.5084917
49	0xbece285b	-0.40265164
50	0x3dfc74ce	0.12326966
51	0xbcab5245	-0.020913253
52	0xbda955d7	-0.08268326
53	0xbe84675e	-0.25860113
54	0x3e06d1c8	0.13165963
55	0xbdc1f7bb	-0.09471079
56	0xbe96ff5a	-0.29491693
57	0xbefb09b2	-0.49030834
58	0xbe40a18b	-0.18811624
59	0x3ee16625	0.44023243
60	0x3dd12f95	0.10214154
61	0xbe5cb72d	-0.21554251
62	0x3e8b612f	0.27222583
63	0x3e365bb6	0.17808422

st_blocks.0.tmp_conv1.causal_conv.weight f4 [128, 3, 3, 1]
0	0x3d1ea5a1	0.038732175
1	0x3e0bba16	0.13645205
2	0xbcdee550	-0.027208954
3	0xbdb59a46	-0.08867316
4	0xbe301681	-0.17196085
5	0xbe67d9c5	-0.22641666
6	0x3ea27003	0.31726083
7	0xbdeffe3b	-0.117184125
8	0x3e7b3938	0.24533546
9	0x3e47c27f	0.19507788
10	0x3dd3afac	0.10336241
11	0xbea878bb	-0.3290461
12	0x3e3fcbab	0.18730037
13	0xbd8996f8	-0.06718248
14	0xbe3d7394	-0.18501121
15	0x3d56c445	0.05243327
16	0xbe142fac	-0.1447131
17	0x3e8fcec1	0.28087428
18	0xbde4d536	-0.11173479
19	0xbe9f48ea	-0.31110317
20	0x3df28cf8	0.11843294
21	0x3e5dd4e4	0.21663243
22	0xbe0e7f45	-0.13915737
23	0x3e6cca4c	0.23124045
24	0xbe107b0e	-0.14109442
25	0xbd1a4a18	-0.037668318
26	0x3e3ef022	0.18646291
27	0xbe71a67e	-0.23598668
28	0x3dfbd0a9	0.12295658
29	0xbe8d7cb3	-0.276342
30	0x3cd0f8a8	0.025509194
31	0x3ec792ab	0.38979086
32	0x3e997f5b	0.29979977
33	0x3e200723	0.15627722
34	0x3e6d5f07	0.23180781
35	0xbdd45eca	-0.10369642
36	0xbd1383d7	-0.036014404
37	0x3dbc1a21	0.09184671
38	0xbeac8fbb	-0.33703408
39	0xbcbaab58	-0.022786781
40	0x3d341dc6	0.043973707
41	0xbe4475cb	-0.1918556
42	0xbe9ea708	-0.3098681
43	0x3e053edd	0.13012262
44	0xbe49c77a	-0.19705
45	0x3e8ab6af	0.27092502
46	0xbdb82585	-0.08991531
47	0xbe8fbd97	-0.28074333
48	0xbe880d71	-0.26572755
49	0xbd25761a	-0.040395834
50	0xbe5d676e	-0.21621487
51	0xbe92bec7	-0.28661177
52	0x3dd1e2b2	0.10248317
53	0x3d8c9cc9	0.06865842
54	0x3d6d51b3	0.057939243
55	0xbe738c40	-0.2378397
56	0x3cb88ec0	0.022529006
57	0xbe70abb0	-0.23502994
58	0x3e975c1e	0.29562467
59	0x3ea7f5fa	0.32804853
60	0xbde18389	-0.110114165
61	0x3d37e90b	0.04489998
62	0xbe3311d0	-0.17487264
63	0xbe308aff	-0.17240523
64	0x3e5494b0	0.20759845
65	0xbe9d1438	-0.30679488
66	0x3e605a05	0.2190934
67	0x3e708dca	0.23491588
68	0xbe22d448	-0.15901291
69	0x3dff03af	0.124518745
70	0xbe815ea7	-0.25267527
71	0x3e49d2c1	0.19709302
72	0xbe91a20c	-0.28443944
73	0xbcdeb29a	-0.027184773
74	0x3e937733	0.2880188
75	0x3e5e4321	0.21705295
76	0x3e621767	0.2207924
77	0x3e6573c9	0.2240745
78	0x3df6de4d	0.12054119
79	0x3e2b8490	0.16749787
80	0xbe18bc61	-0.14915611
81	0x3ea0cf92	0.31408364
82	0xbe6ff8b0	-0.2343471
83	0xbc8f7b64	-0.017514892
84	0x3e4423ed	0.1915433
85	0x3e48a412	0.19593838
86	0xbe233285	-0.1593724
87	0x3e8512c9	0.25990894
88	0x3e1206b9	0.14260377
89	0xbe96fcbf	-0.29489705
90	0x3e86818e	0.26270717
91	0x3e5cb5f3	0.21553783
92	0x3ec6c552	0.38822418
93	0x3cabfe23	0.020995205
94	0xbdbaee6d	-0.09127507
95	0x3d924e0b	0.07143792
96	0xbe074a5d	-0.13211961
97	0xbe7879ca	-0.24265209
98	0xbb7caf8d	-0.0038556785
99	0xbc7f3f4b	-0.015579055
100	0x3e43bb78	0.19114482
101	0x3e353833	0.1769722
102	0xbd87c1ab	-0.06628736
103	0xbe94efa2	-0.29089075
104	0xbc8b7737	-0.01702462
105	0xbe154765	-0.14578016
106	0x3e168c02	0.14701846
107	0x3dbae4e0	0.09125686
108	0x3e99ae5f	0.30015847
109	0xbe4cdb30	-0.20005488
110	0x3e77ab20	0.24186373
111	0xbe0d0f47	-0.13775359
112	0x3e8bf69d	0.27336589
113	0xbe4ebf32	-0.20190123
114	0xbe238f48	-0.15972626
115	0xbdef98de	-0.11699079
116	0x3c409744	0.011754815
117	0x3d135a89	0.035975013
118	0x3e6db132	0.23212126
119	0xbea49d52	-0.32151276
120	0x3e4760a9	0.19470467
121	0x3e72ec2b	0.23722903
122	0x3e8255ce	0.2545609
123	0xbe21213b	-0.15735333
124	0xbd505912	-0.050866194
125	0xbe96f0d6	-0.29480618
126	0xbe7edb78	-0.24888408
127	0xbe92fd0e	-0.2870869
128	0xbde7dc31	-0.11321295
129	0x3ca20786	0.019778978
130	0xbeb21043	-0.34778032
131	0xbd228cd0	-0.03968507
132	0x3d1b5da9	0.03793112
133	0x3e2c3c1a	0.16819802
134	0xbe853af5	-0.26021543
135	0x3e5730bd	0.21014686
136	0x3ddd411d	0.10803435
137	0xbe9b990f	-0.30390212
138	0xbe04e220	-0.12976885
139	0xbe5fdf48	-0.21862519
140	0xbda9445b	-0.08264991
141	0xbe905da8	-0.28196454
142	0x3e53ed17	0.20695911
143	0x3e874c4f	0.26425406
144	0x3ebbdcb1	0.36691812
145	0xbd9bd55a	-0.07609053
146	0xbdf4bd13	-0.119501255
147	0xbe7154cd	-0.23567505
148	0xbd0fa145	-0.035065908
149	0xbd2cdb1a	-0.04220114
150	0xbdca36a4	-0.09873703
151	0x3e9dc005	0.30810562
152	0x3da09c01	0.078422554
153	0x3df2111c	0.118196696
154	0x3e3aae32	0.18230513
155	0xbe6a37c0	-0.2287283
156	0xbdc81c34	-0.09771004
157	0x3dbac9f4	0.09120551
158	0x3d9c3307	0.0762692
159	0xbe49acef	-0.19694875
160	0xbe9c950f	-0.30582473
161	0xbd2d6d2d	-0.042340446
162	0xbeadb046	-0.33923548
163	0xbe3c75c0	-0.18404293
164	0x3e4e21e9	0.20130123
165	0xbe208224	-0.15674645
166	0x3ded2663	0.11579587
167	0x3e712ae7	0.23551522
168	0x3da4345f	0.080178015
169	0xbe8981c0	-0.26856804
170	0xbe1930dd	-0.14960046
171	0x3e4a5b96	0.197615
172	0x3dd6df32	0.1049179
173	0xbe6f2a8f	-0.23356079
174	0x3e2c3651	0.16817595
175	0x3c62edd3	0.013850647
176	0x3e1d11f0	0.15338874
177	0x3d84ab46	0.0647798
178	0x3ea6e7e0	0.32598782
179	0x3e9127c4	0.2835065
180	0xbddb668b	-0.10712918
181	0xbe58fe2e	-0.21190712
182	0x3ccca664	0.024981685
183	0xbe32ecb1	-0.17473103
184	0xbe1fb314	-0.15595657
185	0xbda88174	-0.08227816
186	0x3d95a3cb	0.07306632
187	0x3e86ade8	0.26304555
188	0xbe4fb3c7	-0.20283423
189	0x3da88365	0.082281865
190	0xbe167c57	-0.1469587
191	0x3e85787a	0.2606848
192	0xbe96c157	-0.29444382
193	0x3e4374ca	0.1908752
194	0x3e6d4b9f	0.23173378
195	0xbe45fbd5	-0.19334348
196	0xbbee9853	-0.007281342
197	0xbe1892b2	-0.1489971
198	0x3c74b785	0.014936333
199	0xbc97a2b5	-0.018510202
200	0x3e12b652	0.14327362
201	0xbd92fecf	-0.07177507
202	0x3cd77ec3	0.026305562
203	0x3d15f965	0.036614794
204	0x3e992556	0.29911298
205	0xbe9484a5	-0.2900745
206	0x3e397bef	0.18113683
207	0xbd61a8dd	-0.05509268
208	0x3e10ba91	0.1413367
209	0xbca47d62	-0.020079318
210	0xbe81f2ad	-0.2538046
211	0x3eba2fd7	0.36364624
212	0xbd6b053a	-0.05737803
213	0x3ee91e0b	0.45530733
214	0x3ef8566a	0.4850343
215	0x3e8fed54	0.28110754
216	0x3c87214f	0.016495375
217	0xbe3f7694	-0.18697578
218	0xbe6fbbf5	-0.23411544
219	0x3e7d6d5f	0.24748753
220	0x3e26c9c3	0.16287903
221	0xbe8de07d	-0.27710333
222	0x3d4e93e9	0.050434027
223	0xbe9e8d49	-0.30967167
224	0xbbd7377e	-0.0065678945
225	0x3de4ae82	0.11166097
226	0xbda29458	-0.079384506
227	0xbcc5098f	-0.02405241
228	0x3e34907b	0.1763324
229	0x3eab53cc	0.3346237
230	0x3e477a3a	0.1948022
231	0x3d193faf	0.03741425
232	0x3ca71e96	0.020400327
233	0x3e84e1ba	0.25953466
234	0xbeae4ab9	-0.34041384
235	0x3e74033d	0.2382936
236	0x3e7f26fe	0.24917218
237	0x3e5e0bbf	0.21684168
238	0xbe5c7b80	-0.21531487
239	0x3d36298c	0.044473216
240	0x3e9bad50	0.30405664
241	0x3d6869ea	0.056741633
242	0xbe2e1ea0	-0.1700387
243	0x3dd3cdf7	0.10342019
244	0x3e93cca1	0.28867057
245	0xbbc864ca	-0.0061155306
246	0x3eb294e6	0.34879225
247	0x3cad586c	0.021160327
248	0x3da245fb	0.07923504
249	0xbe82a030	-0.25512838
250	0x3e46e59d	0.19423528
251	0xbe8ec16b	-0.2788194
252	0x3d49ece2	0.049298175
253	0x3db821c0	0.08990812
254	0x3de9bfec	0.11413559
255	0xbe73dabe	-0.23813912

st_blocks.0.tmp_conv1.causal_conv.bias f4 [128]
0	0xbe9aed77	-0.30259296
1	0xbe8263f5	-0.25466886
2	0x3c2a9c2e	0.010413213
3	0xbeabd6dc	-0.33562362
4	0xbc81ef10	-0.015861064
5	0x3cc48bc4	0.023992427
6	0x3d178140	0.036988497
7	0xbea766c3	-0.32695588
8	0x3dfe5988	0.124194205
9	0xbe93713e	-0.28797334
10	0xbe9f909a	-0.3116501
11	0xbe7ee0e9	-0.24890484
12	0x3d94097d	0.07228372
13	0xbe4d3e48	-0.2004329
14	0x3da3e9bf	0.08003568
15	0xbe8fb953	-0.2807108
16	0x3c8dd9c3	0.017315751
17	0x3e638de6	0.22222099
18	0x3d30f07e	0.0431981
19	0xbe898eb6	-0.26866692
20	0x3e95d1c8	0.29261613
21	0x3d7bd79e	0.061484925
22	0xbe08d255	-0.13361485
23	0xbea661cf	-0.32496497
24	0xbe7391d5	-0.237861
25	0xbe8bef59	-0.27331045
26	0xbe3e0ff3	-0.18560772
27	0x3e963b8c	0.29342306
28	0x3e922e2a	0.28550845
29	0xbd99195e	-0.074755415
30	0x3e8de53a	0.27713948
31	0x3ddd4327	0.10803824
32	0x3def9bcb	0.11699637
33	0xbd0138fc	-0.031548485
34	0xbdea0772	-0.11427201
35	0xbc31ff84	-0.010864142
36	0x3e0253b0	0.12727237
37	0x3e98994e	0.29804462
38	0xbe56f6d6	-0.20992598
39	0x3c11dcc7	0.008902735
40	0xbd1e6b69	-0.038676653
41	0xbe6818fd	-0.22665782
42	0xbd744841	-0.05963922
43	0xbeaae8b5	-0.33380666
44	0xbdae8dec	-0.08523163
45	0xbe7011f5	-0.2344435
46	0x3e4e204e	0.20129511
47	0xbe870141	-0.26368144
48	0xbcda63e1	-0.026658954
49	0x3e454099	0.19262923
50	0x3e80c638	0.2515123
51	0xbe549ee4	-0.20763737
52	0x3decde6d	0.11565862
53	0x3e632fa0	0.22186136
54	0xbe9662a0	-0.2937212
55	0x3e705590	0.2347014
56	0xbe9cb119	-0.30603865
57	0xbe844929	-0.25837067
58	0x3bdd05f5	0.006745095
59	0x3ea4a500	0.32157135
60	0x3e0cc57c	0.1374721
61	0xbcd72eb8	-0.026267394
62	0x3e1c48b4	0.15262109
63	0x3ea20add	0.31648913
64	0xbe3c932c	-0.18415517
65	0x3ea06ece	0.31334537
66	0xbe8d5709	-0.27605465
67	0xbd158b69	-0.036509905
68	0x3b398f90	0.002831433
69	0x3ea1e96c	0.316234
70	0x3e2c38b7	0.1681851
71	0xbd5ff6b2	-0.054678626
72	0x3e7d67cf	0.24746631
73	0x3e41e836	0.18936238
74	0xbd226285	-0.039644737
75	0x3e82cafe	0.25545496
76	0x3ac689a8	0.0015147226
77	0x3cfb372e	0.03066596
78	0x3e8b493f	0.2720432
79	0x3e4ef285	0.20209701
80	0x3e199440	0.14997959
81	0x3e817d2d	0.25290814
82	0x3ec4b663	0.384204
83	0x3de04761	0.109511144
84	0x3e4d6be2	0.20060685
85	0x3e20b905	0.1569558
86	0xbe90e6e0	-0.28301144
87	0xbc739760	-0.014867634
88	0x3d3e0ef5	0.046400983
89	0x3e8b7f2f	0.2724547
90	0xbe84e517	-0.25956032
91	0x3dcb9f72	0.09942521
92	0xbe3d5b2e	-0.18491814
93	0x3e753917	0.2394756
94	0x3e5d5931	0.21616055
95	0xbe8648e2	-0.2622748
96	0xbd2dcb39	-0.042430136
97	0x3d5844f4	0.052800134
98	0xbe432d3f	-0.19060229
99	0xbde16433	-0.110054396
100	0x3de030eb	0.1094683
101	0x3e1a7522	0.15083745
102	0x3e945fd8	0.28979373
103	0xbe832e99	-0.2562149
104	0x3e9a983a	0.30194265
105	0x3df842ce	0.12122117
106	0xbeaadcd0	-0.33371592
107	0x3e832205	0.25611892
108	0xbc28c47e	-0.010300754
109	0x3e70f17f	0.23529623
110	0xbe0bac74	-0.13640004
111	0xbe2b9cce	-0.16759035
112	0x3d171537	0.036885466
113	0x3d91472d	0.07093654
114	0xbe6dd874	-0.23227102
115	0x3ddd98c2	0.10820152
116	0xbe204f1e	-0.15655181
117	0x3e80f03a	0.25183278
118	0x3e729b17	0.23691975
119	0xbe681b72	-0.2266672
120	0x3eb695b5	0.35661092
121	0xbb980bfd	-0.004640101
122	0xbbcf2247	-0.006321225
123	0x3eb09d03	0.3449479
124	0x3e2f3aea	0.17112318
125	0x3e5c8297	0.21534191
126	0xbe8262b0	-0.25465918
127	0xbe381ee5	-0.17980535

st_blocks.0.graph_conv.align.align_conv.bias f4 [16]
0	0xbdf101e8	-0.11767942
1	0x3dbbc29c	0.09167978
2	0xbd140d14	-0.036145285
3	0x3c915601	0.017741205
4	0xbd6ac747	-0.057318952
5	0x3dfdd5af	0.123942725
6	0xbcf48802	-0.02985001
7	0xbdab5651	-0.08366073
8	0x3dac3d87	0.08410173
9	0xbe081f5a	-0.1329321
10	0x3d804080	0.062623024
11	0x3893a9b1	7.041114e-05
12	0xbdf8e0ae	-0.12152229
13	0x3dc2202a	0.09478791
14	0xbc217636	-0.009854844
15	0x3d7f4146	0.06231811

st_blocks.0.graph_conv.cheb_graph_conv.weight f4 [3, 16, 16]
0	0x3e9dfad6	0.30855435
1	0x3bc07830	0.0058737025
2	0xbd8b2b25	-0.067953385
3	0xbd051b6d	-0.03249686
4	0xbc8e6663	-0.017382806
5	0x3e5f8c39	0.21830834
6	0xbc1f26c0	-0.009713829
7	0x3d11a2de	0.035555713
8	0x3b8f89f8	0.004380461
9	0x3dad0867	0.08448868
10	0x3d5f7783	0.054557335
11	0x3da55494	0.080727726
12	0x3c6a7509	0.01431013
13	0x3d8d59f9	0.069019265
14	0x3ced3d5d	0.028959924
15	0x3d837152	0.064180985
16	0x3d2c1bfc	0.042018875
17	0x3e4d0369	0.20020832
18	0xbde7ee7c	-0.11324784
19	0x3c1d7b18	0.009611867
20	0xbcec6347	-0.028855933
21	0x3e44f85b	0.19235365
22	0x3d777223	0.060411584
23	0x3cf3ee9e	0.029776867
24	0x3d029d8a	0.031888522
25	0xbd81011c	-0.0629904
26	0x3dc8b1dc	0.09799549
27	0x3db88432	0.09009589
28	0x3d2d50cb	0.04231338
29	0x3d9e8a38	0.07741207
30	0xbcebb786	-0.028774034
31	0xbc8e2f63	-0.01735658
32	0x3c6e238c	0.014534842
33	0xbd9109a9	-0.07081921
34	0x3dde4fb7	0.10855048
35	0xbd593907	-0.0530329
36	0x3c83fbb2	0.016111229
37	0xbd925cd1	-0.071466096
38	0xbd2ec7c5	-0.042670984
39	0xbd0a1082	-0.03370715
40	0x3d259f3a	0.040435053
41	0xbbf4ab78	-0.0074667297
42	0xbd27a00a	-0.04092411
43	0x3cdb050e	0.026735809
44	0xbd1b182d	-0.037864853
45	0x3d1ded69	0.03855649
46	0x3c1cd5f0	0.009572491
47	0x3e011e56	0.12609228
48	0x3d4995be	0.04921507
49	0x3d2288b9	0.03968117
50	0xbc9a997b	-0.018872013
51	0x3d21aca8	0.0394713
52	0x3d8bdf3f	0.0682969
53	0xbc215eac	-0.009849232
54	0xbd42856c	-0.047490522
55	0xbdacf27a	-0.08444686
56	0x3d0d598e	0.034509234
57	0xbcac1b7a	-0.021009196
58	0x3caf07ba	0.021365989
59	0x3d07d1d6	0.0331591
60	0xbba3620f	-0.0049860547
61	0xbd1a412b	-0.037659805
62	0xba9706b5	-0.0011522385
63	0xbd970636	-0.073742315
64	0x3c8b55f7	0.017008765
65	0x3d328910	0.043587744
66	0x3dd2bd0d	0.10289965
67	0xbcead0f5	-0.028664092
68	0x3ce9e476	0.028551321
69	0xbd82d571	-0.06388367
70	0x3d035132	0.032059856
71	0xbd72e30c	-0.05929856
72	0x3d0b3492	0.03398568
73	0xbd0328fb	-0.032021504
74	0x3d96ebe7	0.073692136
75	0x3cf17955	0.029476801
76	0x3ba5fbaa	0.005065401
77	0x3c895c17	0.016767545
78	0xbd506c64	-0.05088462
79	0x3d6f3811	0.05840308
80	0x3da6bf5f	0.0814197
81	0x3db03216	0.08603303
82	0xbd7c4b33	-0.061595153
83	0xbcf68575	-0.030092934
84	0xbc973df5	-0.01846216
85	0x3d960230	0.07324636
86	0x3db36f8d	0.08761511
87	0xbc6e0711	-0.014528052
88	0xbd7b0f69	-0.061293993
89	0xbc95170f	-0.018199472
90	0x3da0002e	0.07812534
91	0x3de1867b	0.11011978
92	0xbd6ddf56	-0.058074318
93	0xbc68abc2	-0.0142011065
94	0xbd74e686	-0.059790157
95	0xbcb083c4	-0.021547206
96	0x3e575418	0.21028173
97	0xbe464c1e	-0.19364974
98	0x3ba0ed65	0.004911112
99	0x3d8a1189	0.06741626
100	0xbd6b7c5d	-0.05749165
101	0x3e4ea006	0.20178232
102	0x3e1411df	0.14459942
103	0xbd0c8867	-0.03430977
104	0xbda9b8b5	-0.08287183
105	0xbd4f013b	-0.050538283
106	0x3ca88cc8	0.020574942
107	0xbd95e7b2	-0.07319583
108	0x3d45c94a	0.048287667
109	0xbd3b2146	-0.04568603
110	0x3d9280ef	0.071534984
111	0xbd434c15	-0.04767998
112	0xbc99119a	-0.01868515
113	0x3cd25b67	0.02567835
114	0xbce24428	-0.02762039
115	0xbcc4f436	-0.02404223
116	0xbd8328a0	-0.06404233
117	0x3c2ddcb7	0.010611705
118	0xbb9e696a	-0.0048343437
119	0x3c88f548	0.016718522
120	0xbd74d0ff	-0.059769627
121	0x3cd5cf77	0.026099904
122	0xbc84fb87	-0.016233219
123	0x3b953890	0.004553862
124	0x3c166b5a	0.009180868
125	0xbc5d3e7c	-0.013503667
126	0xbd95a122	-0.07306124
127	0xbc8fa6c8	-0.017535582
128	0x3e1d7cc3	0.15379624
129	0x3c967315	0.018365422
130	0x3d324232	0.04352016
131	0xbcf9f2cf	-0.030511288
132	0xbd0921dd	-0.03347956
133	0x3cbcb240	0.023034215
134	0xbd47b342	-0.048754938
135	0x3c680b58	0.014162861
136	0x3cd2bd00	0.025724888
137	0x3ce7c4d5	0.028292099
138	0xbd253efd	-0.040343273
139	0xbd891367	-0.06693154
140	0xbd2fe631	-0.042944137
141	0xbd922257	-0.07135456
142	0x3d8ecbce	0.069724664
143	0xbd9ec511	-0.07752431
144	0xbd470704	-0.048590675
145	0x3c0f90c8	0.008762546
146	0x3cedb8e7	0.029018832
147	0xbd9b5b66	-0.07585792
148	0xbd5c6f22	-0.053816922
149	0xbd760de8	-0.060071856
150	0xbd9867be	-0.07441662
151	0x3d2813d1	0.041034523
152	0xbd16d902	-0.03682805
153	0x3d315b91	0.043300215
154	0xbd8180b7	-0.063233785
155	0xbd24b38b	-0.040210288
156	0x3d8499c7	0.06474643
157	0x3dfcaa5a	0.123371795
158	0xbd05cd17	-0.032666292
159	0x3b26a04a	0.002542513
160	0xbc2977ec	-0.010343533
161	0x3df19809	0.117965765
162	0x3a6d2f34	0.00090478663
163	0x3d35892b	0.044320267
164	0x3d8ae5af	0.0678209
165	0x3eae725d	0.34071627
166	0x3dbde5fa	0.0927238
167	0xbdc85105	-0.09781078
168	0x3dc2be37	0.09508937
169	0xbcd9ced7	-0.026587887
170	0x3dc9fdfa	0.09862895
171	0xbdd2a54e	-0.102854356
172	0x3d32d105	0.043656368
173	0x3be1f382	0.0068954835
174	0x3d147615	0.036245424
175	0xbc1da5b7	-0.009622029
176	0xbdf3d0e1	-0.11905075
177	0xbe314563	-0.17311625
178	0x3d4e4451	0.05035812
179	0x3d12db17	0.03585347
180	0xbcfaa1aa	-0.030594666
181	0xbe16d666	-0.14730224
182	0xbc066394	-0.008202452
183	0x3d3f0091	0.0466314
184	0x3cb2c398	0.021821782
185	0xba470b0b	-0.0007592893
186	0xbe28b93f	-0.16476916
187	0x3d8196f4	0.0632762
188	0x3cf3f30f	0.029778985
189	0x3d4015aa	0.04689566
190	0xbbe1ee5c	-0.0068948697
191	0x3d099632	0.033590503
192	0x3ce22e0c	0.027609847
193	0xbd4d9cef	-0.05019849
194	0xb90e023f	-0.00013543012
195	0xbd32cd98	-0.0436531
196	0x3ba8dfe7	0.0051536444
197	0x3d9b6ac6	0.07588725
198	0xbcf826e1	-0.030291976
199	0x3d53ce96	0.051710688
200	0xbd251746	-0.0403054
201	0x3d902cdd	0.07039807
202	0x3ca1cb13	0.019750154
203	0x3d26ed58	0.040753692
204	0x3cc64849	0.02420439
205	0x3dc2ba48	0.095081866
206	0xbd5aab55	-0.05338605
207	0x3ced462c	0.028964125
208	0xbd45aac9	-0.048258577
209	0x3d2c85fb	0.04211996
210	0xbd20fc20	-0.039302945
211	0xbd1b307b	-0.03788803
212	0xbd96f795	-0.07371441
213	0x3dbb0ec9	0.091336794
214	0xbd71cea3	-0.059034955
215	0xbd678cf0	-0.056530893
216	0xbd2de92e	-0.042458706
217	0x3d02d6af	0.03194302
218	0x3b6ea77c	0.0036415746
219	0x3cc76da3	0.024344271
220	0xbcbc71de	-0.023003515
221	0xbc936366	-0.017991733
222	0xbccc8bd7	-0.024969025
223	0x3b41552c	0.002950023
224	0x3d58bada	0.05291257
225	0x3c995229	0.018715935
226	0x3df81e68	0.121151745
227	0xbbae5925	-0.0053206854
228	0x3d33e6ef	0.043921407
229	0x3e1f437b	0.15553086
230	0x3d167560	0.03673303
231	0xbd8281aa	-0.06372388
232	0x3d5a99d7	0.05336937
233	0xbdabcda1	-0.0838883
234	0x3d85832c	0.0651916
235	0xbdf39f3b	-0.11895605
236	0xbd9a07ad	-0.07520995
237	0x3d4cff5a	0.05004821
238	0xbd6eacd8	-0.058270305
239	0x3d0f9a81	0.035059456
240	0xbe4930bb	-0.19647495
241	0xbd9eedcd	-0.07760201
242	0x3d81a718	0.06330699
243	0xbdb0646a	-0.086129025
244	0x3d4d3da9	0.05010763
245	0xbdf213c9	-0.1182018
246	0xbdabc56e	-0.08387266
247	0x3c95fff8	0.018310532
248	0xbd8f285f	-0.06990122
249	0xbbf42002	-0.0074501047
250	0xbc899e68	-0.016799167
251	0x3bedc4fd	0.007256149
252	0x3d87427c	0.06604478
253	0x3cddd8d9	0.02708094
254	0xbd03f352	-0.03221447
255	0x3d4d2dc3	0.05009247

st_blocks.0.graph_conv.cheb_graph_conv.bias f4 [16]
0	0x3d8b81bc	0.06811854
1	0x38b10840	8.4415544e-05
2	0xbc9680ec	-0.018372022
3	0xbcc9184a	-0.024547715
4	0x3b7be045	0.0038433236
5	0xbcf177f2	-0.02947614
6	0xbcf659a1	-0.030072035
7	0xbc2f783d	-0.010709819
8	0x3b8c103e	0.004274397
9	0xbd49d467	-0.04927483
10	0xbd5e5258	-0.054277748
11	0x3d5e6c63	0.054302584
12	0x3c86282b	0.016376575
13	0xbabd7d4b	-0.0014456896
14	0x3da670f5	0.081270136
15	0xbda8af8c	-0.08236608

st_blocks.0.tmp_conv2.align.align_conv.weight f4 [64, 16, 1, 1]
0	0xbcc2dd10	-0.023787051
1	0x3e1e8612	0.15480831
2	0xbe00ee64	-0.12590939
3	0xbe187450	-0.1488812
4	0xbd815bf8	-0.0631637
5	0xbdeb74ac	-0.11496863
6	0xbd867ba8	-0.06566554
7	0x3ddd870c	0.10816774
8	0xbd05cf08	-0.032668144
9	0xbdc08560	-0.09400439
10	0x3e18cc7a	0.14921752
11	0xbe74e6d4	-0.23916179
12	0xbe7124fe	-0.23549268
13	0xbe66a5b2	-0.22524145
14	0xbd8bd4d0	-0.068277
15	0xbe77c144	-0.24194819
16	0x3d85bae8	0.0652979
17	0x3cdc28a0	0.02687484
18	0xbd3ba7a0	-0.045814157
19	0x3def8714	0.11695686
20	0x3dfb205c	0.122620314
21	0x3e020612	0.12697628
22	0xbc3177e0	-0.010831803
23	0x38ea3000	0.0001116693
24	0xbd9281bc	-0.07153651
25	0xbe2c2860	-0.16812277
26	0x3de56fa0	0.112029314
27	0xbd7d37c0	-0.061820745
28	0x3babd480	0.005243838
29	0x3e0fe87e	0.14053532
30	0xbcb291a0	-0.021797955
31	0xbd03d998	-0.032189935
32	0x3e7f380a	0.24923721
33	0xbe1265f4	-0.14296705
34	0xbd9e615c	-0.077334136
35	0xbe3a5fb0	-0.18200564
36	0xbd6671b0	-0.056260765
37	0xbe7d7498	-0.24751508
38	0x3e3a5400	0.18196106
39	0x3e30d0c8	0.17267144
40	0x3d365d58	0.044522613
41	0x3e62abc8	0.22135842
42	0xbe483ec0	-0.19555187
43	0xbe1a2f06	-0.15057
44	0x3cc16280	0.023606539
45	0x3d3346c8	0.043768674
46	0xbd32e5c0	-0.043676138
47	0x3e0e0cb6	0.13872036
48	0xbdf2a408	-0.11847693
49	0xbdfeb51c	-0.124368876
50	0x3e0698be	0.13144204
51	0x3e14a49c	0.14515918
52	0x3e542f0c	0.20721072
53	0x3e1bba18	0.15207708
54	0xbcaa6780	-0.020801306
55	0xbdeb34b8	-0.11484665
56	0xbda49e74	-0.08038035
57	0xbe49bb1a	-0.1970028
58	0x3bebca40	0.007195741
59	0x3dbf9470	0.09354484
60	0xbdb3c6f0	-0.08778179
61	0xbe6436d8	-0.22286546
62	0xbdad165c	-0.0845153
63	0xbd135ea0	-0.035978913
64	0x3e4896c0	0.19588757
65	0xbdfbb828	-0.122909844
66	0x3d0ea400	0.03482437
67	0x3e14130c	0.14460391
68	0x3d785918	0.06063184
69	0x3cc73730	0.024318308
70	0x3daa55cc	0.08317146
71	0x3d6df928	0.058098942
72	0x3e622820	0.22085619
73	0x3cfdda70	0.030987948
74	0x3df8c044	0.12146047
75	0xbc7506a0	-0.014955193
76	0x3d1d3150	0.038377106
77	0x3e2dfb9c	0.16990513
78	0xbc40f460	-0.011777014
79	0xbe0ea2b4	-0.13929254
80	0x3e4d1834	0.20028764
81	0x3daf7e9c	0.08569071
82	0x3e1d5f66	0.15368423
83	0xbdf3d498	-0.119057834
84	0x3e55cb7e	0.20878407
85	0x3d437cb0	0.047726333
86	0x3ca2f5e0	0.019892633
87	0xbc1943e0	-0.009354562
88	0xbd3ed818	-0.0465928
89	0x3dbd9e58	0.09258717
90	0xbcc566e0	-0.024096906
91	0xbdf29298	-0.11844367
92	0x3e5cff3c	0.21581739
93	0x3d012440	0.03152871
94	0xbdf94e58	-0.12173146
95	0x3c6d3940	0.0144789815
96	0xbd7c8208	-0.061647445
97	0xbe4951f8	-0.19660175
98	0xbd50edf8	-0.051008195
99	0xbdfba71c	-0.12287733
100	0xbdbf5998	-0.093432605
101	0x3e28d2e8	0.16486704
102	0xbe1b9b92	-0.15196064
103	0x3d44cc88	0.04804662
104	0xbe7e6e4a	-0.2484676
105	0xbd2fe810	-0.04294592
106	0xbd115088	-0.03547719
107	0xbe003b24	-0.1252256
108	0x3e313982	0.17307094
109	0xbdc0a7d4	-0.09407011
110	0x3d0dfe10	0.03466612
111	0x3e6cb282	0.2311497
112	0x3e007b28	0.1254698
113	0xbd9046a8	-0.070447266
114	0xbd82cc08	-0.06386572
115	0x3d12a570	0.035802305
116	0xbe0c10e6	-0.13678321
117	0xbe1a23d2	-0.15052727
118	0x3e7dbbd2	0.24778679
119	0x3e739dc0	0.23790646
120	0xbe1482b6	-0.14502987
121	0xbda35fd0	-0.07977259
122	0x3dc10224	0.094242364
123	0xbd3113f8	-0.043231934
124	0x3e50af80	0.20379448
125	0x3dfd4204	0.12366107
126	0x3b970f00	0.0046099424
127	0xbdf07c70	-0.117424846
128	0xbe011b04	-0.12607962
129	0x3e3bb1a0	0.18329477
130	0x3dbe1dfc	0.09283063
131	0x3d5e7e90	0.05431992
132	0x3c57e180	0.013176322
133	0x3da8ffe4	0.08251932
134	0x3e27a9a2	0.16373304
135	0x3cfb16c0	0.030650496
136	0xbe71f728	-0.23629439
137	0x3e780dda	0.24224034
138	0xbe714cb2	-0.23564413
139	0xbe52bdfe	-0.20580289
140	0xbcf4f940	-0.029904008
141	0xbdb3a048	-0.087708056
142	0x3e02a1bc	0.1275701
143	0xbe5b35b4	-0.21407205
144	0x3a8d9d00	0.0010804236
145	0xbe6e5bb2	-0.23277166
146	0x3da9427c	0.08264634
147	0xbe56288a	-0.20913902
148	0x3e49e8e6	0.1971775
149	0xbe56207a	-0.20910826
150	0xbe58750a	-0.21138397
151	0xbe4a57ea	-0.19760099
152	0x3e44e3d2	0.19227532
153	0x3df5e7c4	0.120070964
154	0x3e2d645c	0.16932815
155	0x3e21a8b0	0.15787005
156	0xbc303e80	-0.010757089
157	0x3e0cbbd0	0.1374352
158	0x3dc60ef8	0.09670824
159	0x3e669fbe	0.22521874
160	0xbe61f194	-0.22064811
161	0x3e3a597e	0.18198201
162	0xbc2c1700	-0.0105035305
163	0x3e3737c4	0.17892367
164	0xbe7bc22e	-0.24585792
165	0xbd8a6424	-0.067573816
166	0x3dcc4d60	0.099756956
167	0x3dfd3060	0.123627424
168	0x3e7e0ca2	0.24809507
169	0xbe484db4	-0.19560891
170	0x3e2d8f74	0.16949254
171	0x3dc4488c	0.0958415
172	0x3dc425c0	0.09577513
173	0x3c5e16c0	0.013555229
174	0x3df6a380	0.12042904
175	0xbe1925c6	-0.14955816
176	0xbd1e8500	-0.038701057
177	0x3dc22e1c	0.09481451
178	0xbe6aa04a	-0.22912708
179	0x3cc6da40	0.024273992
180	0xbe00dfaa	-0.12585321
181	0x3d2f63c0	0.04281974
182	0xbe7e1622	-0.2481313
183	0x3e144870	0.14480758
184	0x3d5b9b80	0.053615093
185	0xbe3e7dbe	-0.18602654
186	0x3e00af0a	0.12566772
187	0x3d74cd38	0.059766024
188	0xbd421eb8	-0.047392577
189	0x3c1c9860	0.009557813
190	0xbd6db368	-0.058032423
191	0x3dd92a34	0.10603753
192	0x3de6d2f0	0.11270702
193	0xbe2a58da	-0.16635457
194	0xbe7ea2e0	-0.2486682
195	0x3db936fc	0.090436906
196	0xbe3b9abc	-0.18320745
197	0x3e1710ca	0.14752498
198	0xbe37c190	-0.17944932
199	0x3de78afc	0.11305806
200	0xbdd25f80	-0.102721214
201	0xbe3308b8	-0.17483795
202	0x3e421dac	0.18956631
203	0xbe3a7dc8	-0.18212044
204	0x3d740510	0.05957514
205	0xbe2543ce	-0.16139147
206	0xbc8174c0	-0.015802741
207	0xbe0e3e6c	-0.13891
208	0x3e27c488	0.16383564
209	0xbd917d04	-0.07103923
210	0xbe119fde	-0.1422114
211	0x3c9b6730	0.018970102
212	0xbdd439b8	-0.103625715
213	0x3d793530	0.06084174
214	0x3dedef14	0.11617866
215	0x3e30191e	0.17197081
216	0xbe0ac014	-0.13549834
217	0x3c238400	0.009980202
218	0x3e546cba	0.20744601
219	0xbe129806	-0.14315805
220	0xbdd2906c	-0.102814525
221	0x3e139f20	0.1441617
222	0x3e37238e	0.17884657
223	0x3e7ec572	0.24880007
224	0x3e68fe9e	0.22753379
225	0x3e346b32	0.17619017
226	0x3d8634d8	0.06553048
227	0x3df51c70	0.11968315
228	0xbd38b1a0	-0.04509127
229	0xbe18b214	-0.14911681
230	0xbc3729c0	-0.011179388
231	0xbe0cc8f6	-0.13748536
232	0x3c121180	0.008915305
233	0xbe0f233a	-0.13978282
234	0xbe22171a	-0.15829125
235	0xbd032268	-0.032015234
236	0xbc1daba0	-0.009623438
237	0x3e6c893e	0.23099229
238	0x3e5bbfac	0.21459836
239	0x3d79e408	0.061008483
240	0x3e2e6b9a	0.17033234
241	0xbda39f20	-0.07989335
242	0x3d8fb914	0.07017723
243	0xbc817680	-0.015803576
244	0x3e760c00	0.24028015
245	0x3c938330	0.018006891
246	0x3e241bd2	0.16026238
247	0x3e72053a	0.23634806
248	0xbd9c8f38	-0.07644504
249	0x3e1fcdfe	0.15605924
250	0xbd17fc00	-0.03710556
251	0x3df62444	0.12018636
252	0xbe368fe4	-0.17828327
253	0x3d2d3888	0.04229024
254	0x3d9d2ad8	0.076741874
255	0xbd0c69c8	-0.03428057

st_blocks.0.tmp_conv2.align.align_conv.bias f4 [64]
0	0xbe70fc56	-0.23533759
1	0x3e29b5cc	0.16573256
2	0xbe001b32	-0.12510374
3	0x3d82bc20	0.06383538
4	0x3df213f8	0.11820215
5	0xbdee8058	-0.116455734
6	0x3d85070c	0.06495485
7	0xbe542544	-0.2071734
8	0x3e1abd96	0.15111384
9	0xbd01fea8	-0.031737
10	0xbd8042e0	-0.062627554
11	0xbe1d438c	-0.15357798
12	0x3d1fa018	0.038971037
13	0xbe7a94de	-0.24470851
14	0x3dd9f644	0.106426746
15	0xbe3f12ec	-0.18659562
16	0xbd7822a8	-0.060579926
17	0x3cac75a0	0.021052182
18	0x3e32932a	0.17438951
19	0xbcf3a560	-0.029741943
20	0xbe0157a6	-0.12631091
21	0xbde8677c	-0.11347863
22	0xbe07cb42	-0.1326113
23	0xbe2524fa	-0.16127387
24	0xbe6e7466	-0.2328659
25	0x3cdc5350	0.026895195
26	0x3d8ad3c0	0.06778669
27	0x3e7834c6	0.24238881
28	0x3e5817a2	0.21102765
29	0x3df7afc8	0.120940745
30	0x3e15e9da	0.14639989
31	0x3db367a8	0.08760005
32	0x3e02316c	0.12714165
33	0xbe393ed6	-0.18090376
34	0xbd6d3f48	-0.057921678
35	0xbe513666	-0.20430908
36	0x3e173238	0.1476525
37	0x3b75be80	0.003749758
38	0xbd91f6fc	-0.07127187
39	0x3e18c376	0.14918312
40	0x3d4c4ca8	0.049877793
41	0x3e754614	0.23952514
42	0x3e560cc6	0.2090331
43	0x3dbfeab4	0.09370938
44	0x3d17d5c8	0.037069112
45	0x3e11938e	0.14216444
46	0xbce38320	-0.027772486
47	0x3e092aee	0.13395283
48	0xbe6c0a16	-0.23050722
49	0x3e5fff1c	0.2187466
50	0xbe51d898	-0.2049278
51	0xbe04d2ee	-0.12971088
52	0xbd710030	-0.05883807
53	0x3e047680	0.12935829
54	0x3e368dee	0.1782758
55	0xbe66f00a	-0.22552505
56	0x3e139462	0.14412072
57	0xbd3df748	-0.046378404
58	0xbe775bf4	-0.24156171
59	0x3e16f1b8	0.14740646
60	0x3d0ab250	0.03386146
61	0x3e1e84b4	0.1548031
62	0x3e542ef8	0.20721042
63	0x3e68bf12	0.22729138

st_blocks.0.tmp_conv2.causal_conv.weight f4 [128, 16, 3, 1]
0	0xbcf3de40	-0.029769063
1	0xbd2c3f58	-0.042052597
2	0xbdbd6cc8	-0.09249264
3	0xbe1db4b6	-0.15400967
4	0xbd70ffef	-0.058837827
5	0xbe5431ac	-0.20722073
6	0x3daaea1f	0.08345436
7	0x3dd3d681	0.10343648
8	0x3d858afa	0.06520648
9	0x3d722e69	0.05912629
10	0xbb0114ed	-0.001969631
11	0x3cde8420	0.027162611
12	0x3d8a5f90	0.06756508
13	0xbc87c2dd	-0.01657241
14	0x3df8399e	0.121203646
15	0xbd9b30aa	-0.07577641
16	0x3da3a726	0.079908654
17	0x3e37069d	0.17873617
18	0xbcb8734d	-0.022515917
19	0xbcbcb188	-0.023033872
20	0xbb846115	-0.0040398934
21	0x3d215de0	0.039396167
22	0x3d3cdbe4	0.04610814
23	0xbc3d59a0	-0.011557013
24	0x3d806221	0.062687166
25	0xbd46d0a8	-0.048538834
26	0x3e0bb075	0.13641532
27	0x3d001037	0.031265464
28	0xbdfab58b	-0.12241658
29	0xbdbf6972	-0.09346284
30	0x3bf71904	0.007540824
31	0xbdba5b76	-0.09099476
32	0xbd3537a2	-0.04424251
33	0xbd888ecb	-0.066678606
34	0x3d4e645b	0.050388675
35	0xbda77abb	-0.08177706
36	0x3da90ef8	0.08254808
37	0x3dd280fb	0.10278507
38	0x3e1361a3	0.14392714
39	0xbcfe2747	-0.031024588
40	0xbca909b6	-0.020634513
41	0x3e0907f2	0.13381937
42	0xbe17ddb5	-0.14830668
43	0xbbd0b6de	-0.0063694557
44	0x3d9156d1	0.07096637
45	0x3d3b408f	0.045715865
46	0x3d760744	0.060065523
47	0x3dc6db4b	0.097097956
48	0x3e16440e	0.14674398
49	0x3cbe65a4	0.023241825
50	0xbc1ee4a5	-0.009698068
51	0x3e946e45	0.2899038
52	0x3e47017a	0.19434157
53	0xbca3af51	-0.019981058
54	0x3e081cee	0.13292286
55	0x3e8befbf	0.2733135
56	0x3e91fcc5	0.2851316
57	0xbc870012	-0.016479526
58	0xbceebc66	-0.02914257
59	0x3d8512bc	0.06497714
60	0xbcf69b86	-0.030103456
61	0x3d3612b5	0.044451434
62	0xbd23388f	-0.03984886
63	0x3c8fe9b8	0.0175675
64	0xbdcd9889	-0.100388594
65	0xbd21d712	-0.039511748
66	0xbe010aa0	-0.1260171
67	0x3ccc02b5	0.024903635
68	0xbcccdca6	-0.025007557
69	0xbdc97643	-0.0983701
70	0x3e0b26fc	0.1358909
71	0x3e505d58	0.20348108
72	0x3cde9205	0.027169237
73	0x3bda22b7	0.0066569704
74	0xbe138bad	-0.14408751
75	0xbe2a5a62	-0.16636041
76	0xbcadab43	-0.021199828
77	0xbe3a6b1a	-0.18204919
78	0x3cc44826	0.023960184
79	0x3d283175	0.04106279
80	0xbe67b83d	-0.22628875
81	0x3e8c22f6	0.27370423
82	0x3d3679d6	0.044549786
83	0x3e2fb61f	0.17159317
84	0xbd33326b	-0.043749254
85	0xbdab350d	-0.08359728
86	0xbdf27e13	-0.11840453
87	0xbdc3946b	-0.09549793
88	0xbcfaf734	-0.030635454
89	0xbd0f56ef	-0.034995016
90	0x3d2f0193	0.04272611
91	0x3d3465e4	0.044042483
92	0xbdeb460e	-0.11487971
93	0xbe1232b0	-0.14277148
94	0x3d48e301	0.049044613
95	0x3b502305	0.0031759155
96	0x3d869baa	0.06572659
97	0x3d179d76	0.0370154
98	0x3e24729f	0.1605935
99	0x3d9dcf4d	0.07705555
100	0xbe0cd386	-0.13752565
101	0xbd546e90	-0.051863253
102	0xbdf1298a	-0.11775501
103	0xbdffc947	-0.124895625
104	0x3d0d26bf	0.03446078
105	0x3a54ea9f	0.00081221195
106	0xbde55096	-0.11197011
107	0xbbef8660	-0.00730972
108	0xbd86f8e2	-0.065904394
109	0xbd3d3773	-0.04619546
110	0xbd81337d	-0.06308649
111	0x3b962557	0.004582088
112	0x3c0efced	0.008727294
113	0x3d31599b	0.043298345
114	0x3e20d1fa	0.157051
115	0x3cf5b146	0.029991757
116	0x3ca44b6a	0.020055491
117	0x3e011fea	0.1260983
118	0xbd7a6184	-0.061128154
119	0x3c0a286f	0.008432492
120	0xbdcf1e37	-0.10113185
121	0x3da3206a	0.07965167
122	0xbe32bef8	-0.17455661
123	0xbdaa9888	-0.08329874
124	0x3caa6d5f	0.020804105
125	0x3d99a9e3	0.075031064
126	0x3e0082fa	0.12549964
127	0x3e024e7f	0.12725256
128	0x3c2c0bf8	0.0105009
129	0x3c8fc202	0.017548565
130	0x3c2badaa	0.010478416
131	0x3d8aa332	0.06769408
132	0xbe0f55d6	-0.13997588
133	0x3df672b3	0.12033596
134	0x3e357e5e	0.17723987
135	0xbdaa1132	-0.08304061
136	0xbdf2de58	-0.11858815
137	0x3db47428	0.088112175
138	0x3dc27ba6	0.0949624
139	0xbe2ed72b	-0.17074268
140	0xbd91acc3	-0.0711303
141	0xbd1380dd	-0.036011565
142	0x3dbe778f	0.09300148
143	0x3df56e86	0.11983971
144	0xbd3cc1e9	-0.046083365
145	0x3cf19dfc	0.029494278
146	0xbe2cf6bb	-0.16890995
147	0x3c746778	0.014917247
148	0xbd2d1970	-0.042260587
149	0x3a55c008	0.000815392
150	0xbc87507f	-0.016517876
151	0xbe1bccae	-0.15214798
152	0x3d573fdc	0.052551135
153	0xbd228738	-0.039679736
154	0x3ddea3f1	0.10871113
155	0x3da200d6	0.07910316
156	0xbe0d1412	-0.13777187
157	0xbda9a588	-0.08283526
158	0xbc8dbdd9	-0.01730244
159	0xbd9becaa	-0.076134995
160	0x3df589bf	0.119891636
161	0x3d867ff6	0.06567375
162	0xbdd45d1e	-0.10369323
163	0xbe3d99c4	-0.18515688
164	0xbbf7c12c	-0.0075608697
165	0xbdba8afb	-0.0910854
166	0x3dfde971	0.12398041
167	0x3d66a4e5	0.0563096
168	0x3d8619a9	0.06547863
169	0xbdff5a00	-0.12468338
170	0x3cfc616d	0.030808175
171	0x3dc5d38a	0.096594885
172	0xbdb686be	-0.08912419
173	0xbe47d0a2	-0.19513181
174	0xbe2c2c71	-0.16813828
175	0xbe5897a5	-0.21151598
176	0xbe289186	-0.16461763
177	0x3d8b419b	0.067996226
178	0x3d46456a	0.048406042
179	0xbdd4cc9b	-0.10390588
180	0xbd88664a	-0.06660135
181	0x3df3f18a	0.11911304
182	0xbd20ac30	-0.03922671
183	0xbce40619	-0.027834939
184	0xbcf958b9	-0.030437814
185	0xbe1eeef4	-0.15520841
186	0x3c3cbadd	0.011519161
187	0xbd86abc9	-0.06575734
188	0x3e189328	0.14899886
189	0x3ddcf045	0.10788015
190	0x3c16355d	0.009167996
191	0x3d2a09ed	0.041513372
192	0xbe01c20e	-0.12671682
193	0xbd86fe04	-0.065914184
194	0xbd5a367e	-0.053274624
195	0xbea323aa	-0.31863147
196	0xbe5bf941	-0.21481802
197	0xbe812aa7	-0.25227854
198	0x3d3b646b	0.045750063
199	0xbcdc86b5	-0.026919702
200	0xbd7a2e41	-0.061079267
201	0xbe288ef1	-0.16460778
202	0xbe1d16a7	-0.15340672
203	0xbbbadfa6	-0.0057029305
204	0xbd830d62	-0.06399037
205	0x3d5de398	0.05417213
206	0xbdf1ddcc	-0.118098825
207	0x3e72a477	0.23695551
208	0x3dfad8df	0.12248396
209	0x3df96c14	0.121788174
210	0xbdb36b3d	-0.087606885
211	0xbda00b98	-0.07814711
212	0x3e3080f4	0.17236692
213	0x3e00d596	0.12581477
214	0x3d5ae383	0.05343963
215	0xbdf9d5d6	-0.12198989
216	0xbda34d7f	-0.079737656
217	0xbe33835a	-0.17530575
218	0xbd9ecaee	-0.077535495
219	0x3da4fa6b	0.08055576
220	0x3dc896d3	0.097943924
221	0x3e38ee0f	0.18059562
222	0xbe1e5d01	-0.15465166
223	0xbe21adb4	-0.15788919
224	0xbd2ebcaa	-0.042660393
225	0xbde51b65	-0.11186866
226	0xbe1c661b	-0.15273325
227	0xbddfedc5	-0.10934023
228	0xbc09b649	-0.008405277
229	0x3db25209	0.08707053
230	0x3e0fe41e	0.14051864
231	0x3b5699f3	0.003274557
232	0x3cb8065e	0.022463974
233	0xbdb88fbb	-0.090117894
234	0xbdcf7ff3	-0.10131826
235	0x3d2bb367	0.04191914
236	0x3d916442	0.07099201
237	0x3bab063a	0.005219248
238	0xbd660568	-0.0561575
239	0x3d90f10e	0.070772275
240	0xbc169914	-0.00919177
241	0x3db9aa4e	0.09065686
242	0x3d10f07f	0.035385605
243	0xbd4a6798	-0.0494152
244	0xbe160e12	-0.14653805
245	0x3cdad05b	0.02671068
246	0x3b070422	0.0020601829
247	0x3e11761c	0.14205211
248	0x3db3cd70	0.087794185
249	0xbe2de328	-0.16981184
250	0xbdbacc31	-0.09120978
251	0xbe5ebae7	-0.21750985
252	0x3c7a173d	0.0152643295
253	0x3db73431	0.089455016
254	0x3b3e82fa	0.0029069767
255	0xbe087f17	-0.13329731

st_blocks.0.tmp_conv2.causal_conv.bias f4 [128]
0	0xbe13b138	-0.14423072
1	0xbd8f454d	-0.0699564
2	0xbc7620e0	-0.015022486
3	0x3d93d0bb	0.072175466
4	0xbd3b932c	-0.04579465
5	0xbdf4d141	-0.119539745
6	0x3db39b8b	0.08769902
7	0x3d96caee	0.073629245
8	0xbd993bf6	-0.0748214
9	0xbd045a1e	-0.032312505
10	0x3d97b209	0.074070044
11	0xbe049700	-0.12948227
12	0x3ceff200	0.0292902
13	0x3d973211	0.07382596
14	0xbd816305	-0.063177146
15	0xbbb5a9f9	-0.005543944
16	0xbbe91c9f	-0.0071140076
17	0x3da8a6cf	0.08234941
18	0xbdaeddb8	-0.08538383
19	0x3e04dc77	0.12974726
20	0x3db4b33e	0.0882325
21	0xbb885c02	-0.004161359
22	0x3b9f57b8	0.004862752
23	0x3e03db6c	0.12876672
24	0x3d7afec1	0.06127811
25	0xbd13f8b3	-0.03612585
26	0x3cb6cd71	0.022314759
27	0x39e4b1f0	0.00043620123
28	0x3d8ff4b8	0.07029098
29	0x3dc67770	0.0969075
30	0x3e0a82a6	0.13526401
31	0xbc9af164	-0.018913932
32	0x3dc4f3c2	0.096168056
33	0xbcdbc82c	-0.026828848
34	0x3e1d5046	0.15362653
35	0xbdbdf34c	-0.09274921
36	0x3e1b92b3	0.1519268
37	0x3c14c8eb	0.009081106
38	0x3e029f9f	0.12756203
39	0xbd9231f9	-0.07138438
40	0xbe031e6d	-0.12804575
41	0xbdc5f6ea	-0.09666236
42	0xbd810713	-0.063001774
43	0x3d9f3dda	0.07775469
44	0xbcf5af43	-0.029990798
45	0x3dfb4024	0.12268093
46	0xbe2aef02	-0.16692737
47	0xbd6d650e	-0.0579577
48	0xbd9dc9ae	-0.07704483
49	0x3d8cbe07	0.06872182
50	0x3dafcecb	0.085843645
51	0x3cf06c29	0.02934845
52	0xba82106c	-0.0009923107
53	0xbdd809d8	-0.105487525
54	0xbb2b9f26	-0.002618739
55	0xbdeedeeb	-0.11663612
56	0xbcbe37b5	-0.023219923
57	0x3df0e209	0.11761863
58	0xbde5c20f	-0.11218654
59	0x3c4c3962	0.012464853
60	0xbe1cf857	-0.15329109
61	0x3c984c63	0.018591112
62	0x3d607d2e	0.05480688
63	0x3d979fc9	0.074035235
64	0xbc8452c2	-0.016152743
65	0x3c390c72	0.011294471
66	0x3dd6d085	0.10488991
67	0x3d57d9ce	0.05269795
68	0x3d8a7fa4	0.06762627
69	0xbe046c96	-0.12932047
70	0x3e53975b	0.20663206
71	0xbe3a04fa	-0.18165961
72	0x3db74fac	0.08950743
73	0x3d020b34	0.031748965
74	0xbe2c28b4	-0.16812402
75	0xbdae1e3b	-0.0850186
76	0xbdf1f326	-0.11813955
77	0xbc314029	-0.01081852
78	0x3d8e9a03	0.06962969
79	0xbe289a85	-0.16465195
80	0xbdcc6dfd	-0.09981916
81	0xbe2b5345	-0.16730984
82	0xbd8f393b	-0.06993338
83	0x3e091f1e	0.13390777
84	0xbe386671	-0.18007828
85	0x3c878478	0.016542658
86	0x3e0aba21	0.13547565
87	0x3e7f20f2	0.24914911
88	0x3d86cce1	0.06582046
89	0x3e884968	0.26618505
90	0x3e085e5b	0.13317244
91	0x3e009a80	0.12558937
92	0xbc74052f	-0.014893814
93	0x3db087b8	0.08619636
94	0x3e69bb9e	0.22825477
95	0xbbab9285	-0.0052359723
96	0xbe54c585	-0.20778473
97	0xbc02c39d	-0.007981208
98	0x3da30495	0.07959858
99	0xbbd10f50	-0.006379999
100	0x3e807809	0.2509158
101	0xbd0533f2	-0.032520242
102	0xbdb3d4da	-0.087808326
103	0x3d3b7ec3	0.045775186
104	0xbdd39d73	-0.103327654
105	0xbe408a4f	-0.1880276
106	0x3d7b34f0	0.061329782
107	0xbd97ba13	-0.07408538
108	0xbd1f59fd	-0.03890418
109	0x3d56c4af	0.052433666
110	0x3d92de07	0.071712546
111	0xbd81c7a5	-0.06336907
112	0x3d6fbdf5	0.058530767
113	0xbe16e23a	-0.14734736
114	0x3d809804	0.06278995
115	0x3e0137f7	0.12619005
116	0x3cb76e2f	0.022391407
117	0x3d1bdfe8	0.03805533
118	0xbc2205e6	-0.009889102
119	0x3c94c011	0.01815799
120	0xbd89634a	-0.06708391
121	0x3d1eee11	0.038801257
122	0xbdbbbcfd	-0.09166906
123	0x3d8de0a5	0.06927613
124	0x3e0c0b8b	0.13676278
125	0xbd7afed4	-0.06127818
126	0x3e4bae5f	0.19890736
127	0x3e3b8cba	0.18315402

st_blocks.0.tc2_ln.weight f4 [170, 64]
0	0x3e9e52e7	0.30922624
1	0x3b8959a9	0.0041915965
2	0x3e289b53	0.16465501
3	0x3f05a672	0.522071
4	0x3c391570	0.011296615
5	0x3e005a72	0.12534502
6	0x3d26970c	0.040671393
7	0x3e6d45a4	0.23171097
8	0x3e92121f	0.2852945
9	0x3e7583ed	0.23976107
10	0x3e3d5bdd	0.18492074
11	0xbbc4f69d	-0.006010844
12	0x3e837956	0.2567851
13	0x3e8f6437	0.28006145
14	0x3e778326	0.24171123
15	0x3e7f0c08	0.24906933
16	0xbd85d970	-0.065356135
17	0x3e5f0abb	0.21781437
18	0x3dbabe15	0.091182865
19	0x3ea2bc4d	0.31784287
20	0x3e7361ba	0.23767748
21	0x3e9c0d8b	0.30479082
22	0x3ca94b5e	0.02066582
23	0x3ebde661	0.37089828
24	0x3c453867	0.012037373
25	0x3e8e13cf	0.27749488
26	0x3e59dd3d	0.21275802
27	0x3e047f8e	0.12939283
28	0x3e829965	0.25507656
29	0x3e28f2c3	0.16498856
30	0x3ea4c741	0.3218327
31	0x3e3b5725	0.18294962
32	0x3e8080c7	0.2509825
33	0x3e017129	0.12640823
34	0x3e3fa142	0.18713859
35	0x3e66b66f	0.2253053
36	0x3ec12851	0.3772607
37	0x3e9e7c15	0.30954042
38	0x3eab46ec	0.33452547
39	0x3d59b600	0.053152084
40	0x3e651727	0.22372113
41	0x3e9d9e9e	0.30785078
42	0xbd09dfe7	-0.033660796
43	0x3e73694e	0.2377064
44	0x3dacce11	0.084377415
45	0x3ebad2d8	0.36488986
46	0x3ea2ce7f	0.3179817
47	0x3e55f982	0.20895961
48	0x3e71fe82	0.23632243
49	0x3e90a69f	0.28252122
50	0x3e93e12b	0.28882727
51	0x3e5bc145	0.21460445
52	0x3e907d3f	0.28220555
53	0xbb4b53dc	-0.0031025326
54	0x3cef2481	0.029192211
55	0x3e08989f	0.1333947
56	0x3eab8326	0.33498496
57	0x3e4d930d	0.20075627
58	0x3e708b5f	0.23490666
59	0x3e2ba590	0.16762376
60	0x3ea17aeb	0.3153909
61	0x3e944255	0.28956857
62	0x3e96a680	0.29423904
63	0x3d52b553	0.051442456
64	0x3e67d535	0.22639926
65	0x3e97f2c3	0.296774
66	0xbc4d79a9	-0.012541213
67	0x3f130b60	0.5743923
68	0x3e6fc38f	0.23414443
69	0x3e8eb35b	0.27871212
70	0x3e8ff996	0.28120106
71	0x3e94f194	0.2909056
72	0x3e3057e1	0.17221023
73	0x3da2f2c0	0.07956457
74	0x3e6f244a	0.23353687
75	0x3e194781	0.14968683
76	0x3e64bdbf	0.22338007
77	0x3e758582	0.2397671
78	0x3e6f629c	0.2337746
79	0x3e248e90	0.16070008
80	0x3e5659d4	0.20932704
81	0x3e44657f	0.19179343
82	0x3e0a4c8f	0.13505767
83	0x3ea34ba0	0.31893635
84	0x3e959846	0.29217738
85	0x3e5851f0	0.21125007
86	0x3d7b31c8	0.061326772
87	0x3f14225b	0.5786492
88	0x3e25280c	0.16128558
89	0x3dc1803b	0.09448286
90	0x3e7f8950	0.24954724
91	0x3ec632b8	0.3871057
92	0x3e0e3cb7	0.13890348
93	0x3e991f59	0.2990673
94	0x3e1b7199	0.15180053
95	0x3e48f15a	0.19623318
96	0x3da78e24	0.08181408
97	0x3eec017c	0.46094882
98	0x3e2faebb	0.17156498
99	0x3e352d21	0.17692997
100	0x3e3b60c9	0.1829864
101	0x3e3d83f1	0.18507363
102	0x3e85c866	0.26129454
103	0x3ec03ea6	0.37547797
104	0x3e94b84e	0.29046863
105	0x3e6a7c92	0.22899082
106	0x3ea6c9c5	0.32575813
107	0x3ea45ad2	0.3210054
108	0x3e43da32	0.19126204
109	0x3ecec98e	0.4038815
110	0x3e5fbb07	0.21848689
111	0x3e3099a9	0.17246117
112	0x3e428933	0.1899765
113	0x3ea1d9bc	0.3161143
114	0xbd3d4db2	-0.046216674
115	0x3e715405	0.23567207
116	0x3e5e6d5f	0.2172141
117	0x3e2b455f	0.16725682
118	0x3e8014a8	0.2501576
119	0x3e599e41	0.21251775
120	0x3e1e3514	0.15449935
121	0x3e69350d	0.22774144
122	0x3eb7a9a9	0.35871628
123	0x3d656ed9	0.056013916
124	0x3e360fe4	0.177795
125	0x3e4bafbf	0.1989126
126	0x3e131af1	0.14365746
127	0x3e2f544c	0.17122
128	0x3e23a25f	0.15979908
129	0x3f0053b5	0.50127727
130	0xbb441846	-0.0029921695
131	0x3f29b866	0.66296995
132	0x3e349d45	0.17638119
133	0x3e328657	0.17434059
134	0x3ec00a21	0.37507728
135	0x3e94c01b	0.29052815
136	0x3e821f9f	0.2541475
137	0x3e8856b1	0.2662864
138	0x3e8c866e	0.27446312
139	0x3e51e5cd	0.20497818
140	0x3e6f9b85	0.2339917
141	0x3eaf30e8	0.34217
142	0x3e8aedbd	0.27134505
143	0x3e5a84da	0.21339741
144	0x3e28cfaf	0.16485475
145	0x3e183bb6	0.14866528
146	0x3d636859	0.055519436
147	0x3e1f2cad	0.15544386
148	0x3e7f94a7	0.2495905
149	0x3e9123bd	0.2834758
150	0x3e9ab88d	0.30218926
151	0x3e5f5d33	0.21812896
152	0x3de0a735	0.10969392
153	0x3c0e5dfa	0.008689398
154	0x3ec188cb	0.37799677
155	0x3e54309f	0.20721672
156	0x3e63832b	0.22218005
157	0x3e64bbb5	0.2233723
158	0x3db5b850	0.088730454
159	0x3e65385e	0.22384784
160	0x3e39184a	0.18075672
161	0x3df268ae	0.11836372
162	0x3eb1f47e	0.34756845
163	0x3e0d88f2	0.13821772
164	0x3e5acedd	0.21367975
165	0x3e99c07e	0.30029672
166	0x3e7d6a63	0.24747615
167	0x3d436cb0	0.047711074
168	0x3e53e91a	0.2069439
169	0x3df809a1	0.121112116
170	0x3e2b68ad	0.1673915
171	0x3e4d07a5	0.20022447
172	0x3df9ffdf	0.12207007
173	0x3e8ba75d	0.27276126
174	0x3e86d017	0.26330635
175	0x3e3a10a6	0.18170413
176	0x3e9b1d6e	0.3029589
177	0x3ea6cb66	0.32577056
178	0xbd1c1e6e	-0.038114958
179	0x3c9779d2	0.018490706
180	0x3e771974	0.24130803
181	0xbc214554	-0.009843189
182	0x3e8fa4fc	0.2805556
183	0x3e5175c8	0.20455086
184	0x3e36f07e	0.17865178
185	0x3dc96a4e	0.09834729
186	0x3e9a2f2d	0.30114117
187	0x3dd9c3c0	0.106330395
188	0x3e9c7b07	0.30562612
189	0x3e0c235d	0.13685365
190	0x3e5b3605	0.21407326
191	0x3e916346	0.28396052
192	0x3ea6895b	0.3252667
193	0x3d2372c1	0.03990436
194	0x3ddbdcec	0.10735497
195	0x3f08713a	0.5329777
196	0x3e56ffe9	0.2099606
197	0x3c48bfc9	0.012252756
198	0x3e444eff	0.1917076
199	0x3e23512c	0.15948933
200	0x3e9b646f	0.30350062
201	0x3e22047f	0.15822028
202	0x3e10cb04	0.14139944
203	0x3dc30bae	0.09523712
204	0x3e4d055b	0.20021574
205	0x3e97d29c	0.2965287
206	0x3ded9f78	0.11602682
207	0x3e9cb06a	0.30603343
208	0x3c947f1d	0.018127019
209	0x3d30e761	0.04318941
210	0x3e13a42b	0.14418094
211	0x3eb6a9f2	0.35676533
212	0x3dd41350	0.10355246
213	0x3e958a54	0.29207098
214	0xbd1f1404	-0.038837448
215	0x3ee584d2	0.44827896
216	0x3d92d672	0.071698084
217	0x3df2a1e2	0.11847283
218	0x3dbe9604	0.09305957
219	0x3d9a30a7	0.07528811
220	0x3e0c28a9	0.13687386
221	0x3e36eccd	0.1786377
222	0x3e670fce	0.22564623
223	0x3eb93b4b	0.3617805
224	0x3e994e22	0.29942423
225	0x3e18f0ab	0.14935558
226	0x3decf136	0.11569445
227	0x3e64f15c	0.22357696
228	0x3ea95776	0.3307454
229	0x3e77df20	0.24206209
230	0x3d6ee681	0.058325294
231	0x3db05ebd	0.0861182
232	0x3e15e0a4	0.14636475
233	0x3e649e5a	0.22326031
234	0x3d056bda	0.03257356
235	0x3df87d61	0.12133289
236	0x3d008d48	0.031384736
237	0x3e650e59	0.22368754
238	0x3e859800	0.2609253
239	0x3e5258e5	0.20541723
240	0x3e38b749	0.18038668
241	0x3e336092	0.17517307
242	0x3e5776d7	0.21041428
243	0x3e6b094f	0.2295277
244	0x3e87984f	0.2648339
245	0x3d429367	0.047503855
246	0xbd423190	-0.047410548
247	0x3e03d7d1	0.12875296
248	0x3e407009	0.18792738
249	0x3e13cf71	0.14434601
250	0x3e421234	0.18952256
251	0x3e75d58f	0.24007247
252	0x3e6cfa64	0.23142391
253	0x3e5e3511	0.2169993
254	0x3e6198bc	0.2203092
255	0x3e456c32	0.19279554
