small_scale_scenario/experiments/stid/METRLA/-fulltrain/final_model_s2017.pt (torch, 478531 bytes, 19 tensors)

node_emb f4 [207, 32]
00000000: 83c0 e2bd c3b1 6dbd dfad 8bbd a3a8 2fbc
00000010: 7416 98bd b435 60bd 0ad4 ef3d f696 46be
00000020: 8787 c13d 7e12 123e f9cf b1bc 644e 253c
00000030: 3c9f a5bd 914f 593d 4771 b6bc dcb3 3ebe
00000040: b7ae 1a3e 10e5 cf3d c345 02be a6e8 1dbe
00000050: 8232 abbd 2bae 3bbe 7e19 18be 255b 973d
00000060: 3eb6 46bd ce0c 813d b2bf 1cbd b344 843d
00000070: 573c 1d3e ce15 d93d 173e 243e 3bb5 f13c
00000080: 463a 863d 5e4d 88bd ad89 6fbe 83ab f63d
00000090: 84b9 88bc ad7e 7c3d 1b9d 0b3e fd21 be3d
000000a0: b021 8d3d aee5 cebd f74f 5fbe 849b 4ebd
000000b0: 456e 163e 8472 31bd 3536 733e c5a6 f5bc
000000c0: 5a99 8c3d 48d0 dcbd 8591 97bd fe35 1ebe
000000d0: aa5f 653d 611c 4f3d 8ccb 61bd 0c10 a83b
000000e0: 9094 b63c 85d2 833d 924b ea3d e019 e13d
000000f0: f8c4 1fbe 1717 0fbe 02f9 043e 7558 6c3c
00000100: 6726 e23d 1729 88bc a1e2 e63d e293 d13c
00000110: 6055 ec3d 90d8 2ebe bcde 9d3d cc08 193e
00000120: d9d6 773c 78d5 1e3e 6f34 d13d 916b 413e
00000130: ab01 ca3c 969e 34bd 600a 013d 2c9a 71be
00000140: b234 cf3d ca41 12be 621a e63d 2e1b b7bc
00000150: 98db 9d3d 0947 2bbc cc96 ab39 090f 1c3e
00000160: 06e8 adbd 6bcb 003b 23f6 9fbc 3e52 01be
00000170: 4172 85be 10e4 413e 9978 8e3c 0782 393b
00000180: 13fc 383e 10c0 e9bd cf1b adbd db48 393c
00000190: 9dd7 273e b7ba cfba 68c2 91be 5ca6 a63d
000001a0: ba11 843d 1f85 1ebe ef98 8c3b b520 1dbe
000001b0: 7119 aabd 267c e5bd 0f7d afbd 8498 263e
000001c0: 7ee9 cbbd 06d5 d1bd 8958 363e 40d0 10be
000001d0: 3c36 9d3d 6bcd 84be a357 babd ad44 f3bc
000001e0: c8df 3e3d ecf7 64be 292e 413e fcb2 e7bd
000001f0: 3bdd a03c a9bf 21be 9d54 adbe a7c8 f33d
00000200: 091c c73d 4cc2 853d c31b dd3c 2e19 513e
00000210: e644 a6bc e769 ddbd 4fd0 b1bc 6488 d3bc
00000220: 2fc8 b83d 23e4 8cbd 6fc3 4a3e 96b6 63be
00000230: 677b 923d b40e 58be fece bb3d 594e 963e
00000240: 4ad0 81be 2202 a73d 6818 14bc 6e70 ee3c
00000250: 53bd a43d d246 013f 77f0 953d 4b8a 33be
00000260: 9afc b63e 2335 5ebd 39eb 23be 462a febd
00000270: 5da4 343c e4c4 b43c 0f76 bcbc eb81 733b
00000280: 8d9e 8e3e 9c8d 87bd 9c5e 28bd fe18 8dbc
00000290: 3130 8f3c 6e02 113e b29e e2be c4af c6bb
000002a0: 9bdb fb3c 1ca7 6d3d 9aee 0e3e 4f86 1bbe
000002b0: 734e 0f3d b527 d7bc 37ab e53c 15aa 163e
000002c0: c6fe f1bc 6959 b5be 45d7 ce3d f587 85be
000002d0: 7478 983e 381d 34be a385 36be 4fd1 703e
000002e0: 82b5 843d 37f4 fb3c aef6 673e fd7d a2be
000002f0: 933c a73d b39a 41be e141 003e 74ab 803d
00000300: 44d8 0e3e 5515 823e 314c 81bd fa92 9c3d
00000310: 362f 863c 5e54 dfbd 7b23 fe3d fd9c 25be
00000320: 6178 26bd 0301 ab3c afe4 ae3d 1e18 173e
00000330: 623d 3f3e 9723 5abe f1e3 26be 148b cb3d
00000340: 9739 75be 2ca7 e33d 8edc 0cbe 570a 673d
00000350: 01d2 08bd bfc0 24bd d697 7f3e 160b a1bc
00000360: 89da 313d 6105 0b3d 764c 89bb bc00 5dbe
00000370: 9da5 6a3c e3d7 bbbe e2f3 6c3d 0d04 e9bb
00000380: de9a 1a3d 3ca5 fdbd 3de5 f5bd 00fc 3f3d
00000390: c656 16bc cb0d bb3d f800 cf3d 4444 243e
000003a0: 4f4a 4f3d c668 0fbc 2974 c9bd e5b2 2bbd
000003b0: 1574 d73d efa2 12bd f947 8b3e 202e 6b3d
000003c0: 2fb1 5dbc 5919 51bd b1dd 8dbd ed25 4bbd
000003d0: 68f7 7c3d 155c b73c cf9f 5e3c 875a 82bd
000003e0: 19d0 d4bc 177f 40bd 5fb8 603d 5e00 d2bb
000003f0: ee43 7dbe f340 70be 5d2e ca3c d675 0d3e
-0.11071875 -0.058030855 -0.06820273 -0.0107213585 -0.074261576 -0.054738715 0.11710365 -0.19393525
0.09449678 0.14264867 -0.021705614 0.010089491 -0.08087012 0.053054396 -0.022270812 -0.18623298
0.15105711 0.10151112 -0.12721924 -0.1542078 -0.08359243 -0.18328159 -0.14853474 0.07390431
-0.048513643 0.063012704 -0.038268752 0.06458416 0.15355049 0.10599862 0.1603931 0.029505363
0.065540835 -0.066553816 -0.23392363 0.12044432 -0.016690023 0.061644245 0.1363415 0.092838265
0.06891191 -0.10102402 -0.21807848 -0.05044128 0.14690502 -0.0433221 0.23751147 -0.029986748
0.06865187 -0.10781914 -0.074008025 -0.15450284 0.055999435 0.050564174 -0.055125758 0.005128866
0.022287637 0.06436638 0.11440195 0.109912634 -0.15602481 -0.13973652 0.12985614 0.014425387
0.11042481 -0.016621156 0.11273695 0.025583211 0.115397215 -0.170748 0.07708499 0.14944762
0.015126907 0.1551112 0.10215079 0.1888869 0.024658998 -0.04409655 0.031504035 -0.23593968
0.10117473 -0.14282909 0.11235501 -0.022351827 0.077079 -0.010453948 0.00032728014 0.1524011
-0.084915206 0.0019652497 -0.019526547 -0.12629029 -0.2606373 0.18934655 0.01739149 0.0028306262
0.18064909 -0.11413586 -0.0845257 0.011308874 0.16390844 -0.0015848492 -0.28468633 0.08137199
0.064486936 -0.15480469 0.004290692 -0.15344508 -0.08305634 -0.1120532 -0.08568775 0.16269118
-0.099566445 -0.10245709 0.17807211 -0.14141941 0.0767636 -0.2593797 -0.09098747 -0.029695833
0.046600133 -0.223602 0.18865265 -0.113134354 0.01963674 -0.15795769 -0.33853617 0.11903506
0.09722144 0.065312 0.026990777 0.20419762 -0.020296525 -0.10811215 -0.021705775 -0.025821872
0.09022557 -0.06879451 0.19801114 -0.2223762 0.071524434 -0.21099359 0.0917034 0.2935665
-0.25354224 0.08154704 -0.009039022 0.029106345 0.08043923 0.5049869 0.07321256 -0.17533223
0.35739595 -0.054249894 -0.16007699 -0.12410407 0.011025515 0.022066541 -0.023005513 0.0037156295
0.2785534 -0.06618807 -0.04110585 -0.017223831 0.017479034 0.14161083 -0.442617 -0.0060634334
0.030744364 0.058020696 0.13958207 -0.15187953 0.034986924 -0.026264051 0.028035743 0.14713319
-0.02954043 -0.35419777 0.10099653 -0.2608029 0.29779398 -0.17589271 -0.17824416 0.23517345
0.06479932 0.0307561 0.22652695 -0.31736746 0.081658505 -0.1890667 0.12525131 0.06282702
0.13949686 0.254069 -0.063133605 0.07645221 0.016379934 -0.10904764 0.12409111 -0.16173168
-0.040642146 0.020874506 0.08539712 0.14755294 0.1867576 -0.21302639 -0.1629789 0.099386364
-0.2394775 0.1111587 -0.1375601 0.056406345 -0.0334034 -0.04022288 0.24960265 -0.019658606
0.043421302 0.033940677 -0.004190023 -0.21582311 0.014321712 -0.36688146 0.057849772 -0.0071110786
0.03774535 -0.123850316 -0.12006614 0.046871185 -0.009175962 0.0913349 0.10107607 0.16041666
0.050607976 -0.008753007 -0.09836609 -0.041918654 0.10520188 -0.035799917 0.27203348 0.057417035
-0.013531013 -0.051049564 -0.0692705 -0.049596716 0.061759382 0.022382775 0.013587906 -0.06364923
-0.025978135 -0.046996202 0.05486333 -0.006408735 -0.24732944 -0.23462276 0.02468031 0.13814482

time_in_day_emb f4 [288, 32]
00000000: d953 9cbc e211 60be 424d 893c 55d3 99bd
00000010: 0042 2dbd 394c 0e3e 7021 a7bd 5e00 04be
00000020: 8cf2 173e d005 6bbc fda8 86bd 5eac 9e3d
00000030: 9bc8 d1bd 9c96 073c bfc7 823e da91 013e
00000040: e9f7 2fbc d422 873e be33 8e3e 3f10 13bd
00000050: 8823 12be 59e9 c3bc ac1b 003d 3d60 00be
00000060: 74cf f0bc e8e9 2a3e 87cf 43bc aabb 803d
00000070: 1839 6a3e b985 86bd fafa ce3d 58cf dabd
00000080: c2f4 f4bc f29c 18be 2d07 b03d e8dd c0bd
00000090: 5a34 523d 1764 9c3d c473 20be e843 5ebd
000000a0: 5bde d63d 405b 6cbd 7a38 33bd f2b7 6d3b
000000b0: 9c1d db3b d5f9 863d 12b5 3b3e 8d32 d43d
000000c0: fe1b 0bbd a7e4 4e3e 8b8d 5d3e 0db7 84bd
000000d0: 680f 3dbe 7879 993b e670 1e3d ce60 debd
000000e0: 2968 9e3d 0a12 f53d f443 6ebc 55fd 053d
000000f0: bbd9 783e 809e 67bd f3fa bb3d 0a33 95bd
00000100: 181c 39bd 6974 1dbe eda6 3f3d f813 a5bc
00000110: 2638 aebb 0c5d 263e c49f f1bd cf94 95bc
00000120: 78e5 f63d 0a4d 28bc 33a5 613c c89f c6bc
00000130: 15ab 91bc f3cb 283d f58a 483e 2d84 8c3d
00000140: 7204 4abd 179a 283e c219 5f3e 811f d6bc
00000150: 3e14 f0bd a9ee 27bd 5a58 c53c 5cca 99bd
00000160: 6651 683d fd32 9f3d 0411 533d 8e1c 963d
00000170: d3df 5a3e 9cb6 383c 3361 5d3d 80ba b8bd
00000180: 6aa3 74bd eb06 0bbe 99e2 5eb9 48bf 183d
00000190: d2b3 1dbd f933 da3d e9c0 fbbd 6d36 a8bb
000001a0: e5d2 b03d 2294 943c 260d 5bbd 6c69 d03b
000001b0: bc36 5d3d 7d99 61bc 209d 4f3e 69b5 03bd
000001c0: f372 5cbc 2908 613e 3425 ae3d eb3e 77bd
000001d0: 909e 3abe c660 153d ae5f ab3d 9afa 9ebc
000001e0: e11b 983d 04f7 193d f762 d4bc 58be 133d
000001f0: 4d95 073e f119 d5bd 225e e2bc 0872 57bd
00000200: ceae a6bc ffeb 21be 0b10 783d f693 24bd
00000210: a87f a63d f1cf a63d 5a95 f9bd 821b 153c
00000220: 0929 ca3c 986f 59bb b807 7dbd aed5 083c
00000230: 3c21 483c b900 0e3e ac5a bb3d cfcc e2bc
00000240: 1a20 dabc 06ce 443e 3016 b53d 3587 16be
00000250: 779b 4dbe 2067 2c3b 4014 583d 2432 b7bd
00000260: aed5 973d f2ab 3e3d 16c0 5f3d 44d4 4c3d
00000270: ada8 983d fd71 37bd 31a4 f03c aa3c 9fbd
00000280: 31eb 0f3d 92df ddbd ef55 603d 64b9 d33b
00000290: 7e9d a5bb a9ff 083e 13d9 21bd 6645 b1ba
000002a0: ad4d 753d 81d7 0b3d b149 b83c 7b86 e23c
000002b0: 11d8 723d 2c2f 9b38 7d3a 823e 0067 0bbd
000002c0: 070f 933c 65fe 713e 2092 a23d 7346 6b39
000002d0: 01cc 79bc 44d4 1d3d bf85 303d c399 e5bd
000002e0: 391f 7f3d 94ef 9bbc 0b39 0dbc 3f13 c4bc
000002f0: 6ae4 093e e60f f8bd b89a 0fbd 39d8 2bbc
00000300: 7fe2 923d bb42 b5bd d5ac fe3c abc9 913b
00000310: 863e 0bbd cdd0 f13d 4cc2 3abd 50da c4bc
00000320: 9085 ce3d e041 423d 63c8 8b3b aa76 4fbd
00000330: ffab 2abc 8f0d ea3c 150b 353e fa2a 21bd
00000340: ec35 103d 52d3 353e 7885 b43d 7a1a 893b
00000350: 7182 57bd e0f8 3f3b 954e 863d d057 28be
00000360: 3362 ea3c 4fc6 813d 4488 443d f4ae 0abc
00000370: a428 5d3e bf14 04be 5061 25bd 5318 99bd
00000380: f53e 9a3d 6c09 04be 114f 303d c5aa cabc
00000390: dea8 f9bc d48b 0d3e d634 b2bd 80ed dabc
000003a0: 6678 dd3c d34d c3bc 8b31 e13c c3db 34bb
000003b0: a643 26bd 8575 cdbc fa71 383e 985a 4bbd
000003c0: 6ef4 24bd b28a 243e 3dda a73d 404d 23bc
000003d0: a51d 6fbd 7bfd adbc f847 1d3c 9d4a f0bd
000003e0: 2d79 863c caca 363d 83cb 833d bfec 493d
000003f0: dab9 1d3e b86a fcbd 733a 48bd 1dc3 da3a
-0.01908295 -0.21881822 0.016760472 -0.075110115 -0.04229927 0.13896264 -0.081606746 -0.12890765
0.14838618 -0.0143446475 -0.06575201 0.0774772 -0.102433406 0.008275654 0.2554302 0.12653294
-0.010740259 0.2639376 0.2777385 -0.035904165 -0.14271367 -0.02391498 0.03127639 -0.12536712
-0.029395796 0.1669079 -0.011951334 0.06285794 0.22873342 -0.06568474 0.10106464 -0.10684079
-0.029901866 -0.1490362 0.08595119 -0.09417325 0.051319458 0.07636278 -0.15669161 -0.05426398
0.1049163 -0.05770421 -0.043755032 0.003627297 0.0066868793 0.065906204 0.18330792 0.10361204
-0.033962242 0.20204411 0.21636026 -0.06480227 -0.18462908 0.0046836697 0.038681887 -0.10858308
0.07734711 0.11966331 -0.0145425685 0.0327123 0.24301808 -0.05654764 0.09178724 -0.072851256
-0.045192808 -0.15376438 0.046790052 -0.020151123 -0.005316752 0.16246432 -0.11798051 -0.018259434
0.120554864 -0.010272274 0.013772297 -0.024246112 -0.017781774 0.041210126 0.19584258 0.06861148
-0.049320646 0.1646503 0.2178717 -0.02613807 -0.11722611 -0.04099909 0.02408998 -0.075093
0.056718253 0.07773397 0.0515299 0.07329665 0.21374445 0.011274006 0.054047775 -0.09019947
-0.059726156 -0.13576858 -0.00021255984 0.037291795 -0.03850157 0.10654444 -0.12292654 -0.005133441
0.08633975 0.018137041 -0.053479336 0.0063602235 0.054007277 -0.013769505 0.20274782 -0.032155428
-0.01345514 0.21975769 0.0850319 -0.060362738 -0.1822455 0.036469243 0.08367859 -0.019406606
0.074271925 0.037589088 -0.025926096 0.036070198 0.13240547 -0.104053386 -0.027632777 -0.052598983
-0.020347025 -0.15812682 0.060562175 -0.04018017 0.08129817 0.081451304 -0.1218669 0.009100797
0.02467777 -0.0033178087 -0.06177494 0.008351726 0.012214955 0.13867463 0.09148154 -0.027685551
-0.026626635 0.19219217 0.088421226 -0.14700015 -0.20078836 0.0026306584 0.052753687 -0.089451104
0.07413803 0.0465507 0.054626547 0.05000712 0.07454047 -0.044786442 0.029375168 -0.077752426
0.035136405 -0.10833658 0.054769453 0.0064613093 -0.005054175 0.13378777 -0.03951366 -0.0013524711
0.05988853 0.034141067 0.022496076 0.027652016 0.05928809 7.3997624e-05 0.25435248 -0.034033775
0.017951502 0.236322 0.079380274 0.00022437591 -0.015246392 0.03853251 0.0430963 -0.11210968
0.062285636 -0.019035138 -0.008619557 -0.023934959 0.1346604 -0.121124074 -0.03505966 -0.010488563
0.07172107 -0.088506185 0.031088272 0.0044490895 -0.033995174 0.11807404 -0.045595452 -0.02402988
0.10084069 0.047426105 0.0042658313 -0.050650276 -0.010416984 0.028570918 0.17680009 -0.039347626
0.035207674 0.17756394 0.0881452 0.0041840645 -0.052614633 0.0029292628 0.06557957 -0.16439748
0.028611278 0.063366525 0.047981516 -0.008464564 0.21597534 -0.12898539 -0.040376008 -0.074753426
0.07531539 -0.12894219 0.043044154 -0.024739632 -0.03047603 0.13822871 -0.08701484 -0.026724577
0.02703495 -0.02384082 0.027489444 -0.0027596809 -0.04059186 -0.025080452 0.18012229 -0.049646944
-0.04027217 0.16068533 0.081959225 -0.009967148 -0.05837788 -0.021239033 0.009599678 -0.11732981
0.016415203 0.04462699 0.06435301 0.049298044 0.15402928 -0.123250425 -0.048883867 0.0016690228

day_in_week_emb f4 [7, 32]
00000000: 1d07 0cbd 968b 423d a643 8cbe 5525 093d
00000010: 57a9 9d3e 0d82 e43d bcb5 1ebe 58ff c0bb
00000020: 537f 0dbd 2671 1f3b 5b65 913e 9b0d d5bc
00000030: a643 393e af5a 4e3e 9ae3 103e a465 d83b
00000040: 9477 e5bc 46a5 a2be 614a 84bc 639f 093e
00000050: 84b3 d23d e77b f0bd 8a06 3abe 737b bebd
00000060: 9227 ae3d 59e7 0c3e 8802 f43a ab3e 703e
00000070: ef95 ddbb 68ee b3bd 4f9b 883d 05b0 0fbc
00000080: 2c2a 073d cec9 e13d cb4c a4be c0f6 b63d
00000090: 783a 763e f890 2fbe 5284 fbbc f0bb b2bd
000000a0: 6224 aebc 3fe8 923e be9b 0d3e a782 0abe
000000b0: 9fc3 333d 38f5 853d 0d15 4b3e 5bfa 15be
000000c0: 9048 5ebd f0f4 42be b5f4 d4bd a2ef ffbd
000000d0: 8f99 443d fdf9 9ebd a7b7 2ebe 5567 22bd
000000e0: a33e 37ba 58b7 833b e653 d23a 91c1 773d
000000f0: b748 46bd 5b55 153d ac23 a23d d890 aebc
00000100: 4f49 ed3c c1fe df3d d731 a0be 798a 223d
00000110: f16c bd3e 9499 7d39 980a 54bd fd0e 223c
00000120: 2c1b 31bd 1937 9c3e e896 cebd 4da2 343d
00000130: dd67 f93d 24b8 193e e446 9b3d 3d97 0ebe
00000140: 21f3 4dbd dedb f1bd 1059 073d cc7c a5bd
00000150: 0487 a83d 1894 bdbd cd4f ddbd 31df db3c
00000160: 6ceb a03d be81 613e b6e1 43bc 8a1b 023e
00000170: d791 62bb 463c 3dbd 56a2 8b3d 2ac9 04be
00000180: 28f8 913c 8506 223e f4d8 92be 9d75 d03c
00000190: 2ae0 803e c2d6 63be 91d2 7039 79f8 07bd
000001a0: e243 d8bb 83c1 ab3e a49c 673e fa6d 9fbd
000001b0: 8081 553c fbef 863d 2a91 55bd bafd 063d
000001c0: c1e0 7c3d 64ed 78be 0714 273d 4f3e 05be
000001d0: afb2 c8bb a30b 21bb fe53 78bc c4b7 e9bc
000001e0: 9314 933b 9404 1c3e 9b7f 463c 2183 393e
000001f0: f5a5 083b 47fb 4a3d dc92 a93c 7d5d 90bd
00000200: 8b6c 453d 6d79 593e 09c6 9dbe 70fa 513d
00000210: d4bd a93c 9cbb 0ebe 6d5d 36bd 6278 433b
00000220: ce92 c63c a3a5 8a3e 7ba8 503e b2e9 48be
00000230: 5eff 633d 4561 f3bd deb5 dabd 83c9 b3bd
00000240: 0103 a9bd 373d c53c 3510 203d 154d 253e
00000250: 4387 14bd 4184 ccbd fef4 00be 673b 99bd
00000260: 81db ba3c e50b 8b3e ab9f 34bd 36ca 2d3d
00000270: edb6 bc3c 5373 3abe 8554 e63d 77f4 babd
00000280: 39ac 2dbe e97b 993b 7bea d3bd 1e16 633e
00000290: 056a 253e 0214 34be d368 babe 218a 86bc
000002a0: 9d55 0e39 4201 5e3e 2fe7 443e 3769 56be
000002b0: 72d3 a1be 100f 443d 7fef 30be f36d 09bc
000002c0: c93d 03be 774e 473e fd39 84bd 98b7 113e
000002d0: f6c1 de3d 5d18 993a 3418 3dbe 8220 0ebd
000002e0: d0ef d23d 040e b63e f6d1 0ebd bb50 5c3d
000002f0: 79b6 65be c216 143e b9c0 28bc 3b9f adbd
00000300: 9fe3 3fbd dde0 6a3e 6778 f2bd e64c 093e
00000310: f410 313e f3b5 eebd fed2 96be 3950 5ebe
00000320: 22e6 ccbb c77e 213c 0ba7 49be cd58 1bbe
00000330: 8512 bebc 34a9 e53d 2798 2e3d 9b58 803e
00000340: 58f4 a6be f40f f2bd a100 12be 1e4d b23e
00000350: 4115 9dbd 81f3 163e 4da7 36be d0fb 9bbd
00000360: 2202 27bd 461c b03e 9788 edbc aed2 78bc
00000370: eb8b ec3c 2b77 033e 3a93 ce3d aff0 0e3e
-0.03418647 0.0474964 -0.27395362 0.03348287 0.3079326 0.11157618 -0.15499014 -0.0058898143
-0.034545254 0.0024328916 0.2839764 -0.026007464 0.18092212 0.2015178 0.14149323 0.0066039134
-0.02801112 -0.3176672 -0.016148748 0.13439707 0.10288146 -0.117423825 -0.18166557 -0.0930089
0.08503641 0.13760127 0.0018616477 0.23461406 -0.0067622582 -0.08785707 0.06670248 -0.008769994
0.032999203 0.11024819 -0.32089838 0.089337826 0.24045742 -0.17145145 -0.030702744 -0.087272525
-0.021257583 0.28692815 0.13828942 -0.13526402 0.04388773 0.065409124 0.19832249 -0.14646284
-0.05426842 -0.19038749 -0.10398237 -0.12496878 0.047998007 -0.07762525 -0.17062245 -0.039649326
-0.00069902296 0.004019659 0.0016046732 0.060487334 -0.04840919 0.036458354 0.0791696 -0.021309301
0.02896562 0.10937262 -0.31288025 0.03968284 0.36997178 0.00024185173 -0.051767915 0.009891269
-0.043238804 0.30510786 -0.10087377 0.044100095 0.121780135 0.1501165 0.07581881 -0.1392488
-0.050280694 -0.118095145 0.03304392 -0.08080444 0.08228877 -0.09256762 -0.108062364 0.026839824
0.07857403 0.22022149 -0.011955669 0.12705818 -0.003457179 -0.04620006 0.068180725 -0.12967363
0.017818525 0.158228 -0.28681147 0.025446707 0.25171024 -0.22249892 0.00022966626 -0.033195946
-0.006599889 0.33546075 0.22618347 -0.07784648 0.0130313635 0.065887414 -0.052140392 0.032956816
0.06173778 -0.24309307 0.040790584 -0.1301205 -0.0061248164 -0.0024573586 -0.015156744 -0.02853001
0.0044885366 0.15236121 0.012115384 0.18116428 0.0020850871 0.049556043 0.02069991 -0.070490815
0.048199218 0.21237727 -0.3081515 0.051264226 0.0207204 -0.13938755 -0.04452269 0.0029826392
0.024239924 0.27079496 0.2037677 -0.19620398 0.05566346 -0.11883787 -0.1067922 -0.0877867
-0.08252526 0.024077041 0.039077956 0.16142686 -0.036261808 -0.09986163 -0.12593457 -0.07482033
0.022809746 0.27157512 -0.044097584 0.04242917 0.023036445 -0.18208055 0.112465896 -0.09128659
-0.16960229 0.0046839607 -0.10347458 0.22176406 0.16153724 -0.17585757 -0.364081 -0.016423287
0.00013574069 0.21680167 0.19228815 -0.20938574 -0.31606632 0.047865927 -0.1727886 -0.00838803
-0.12816538 0.19463526 -0.06456373 0.14230192 0.10876839 0.0011680234 -0.18466264 -0.03469897
0.10299647 0.35557568 -0.034868203 0.053787928 -0.22432889 0.14461806 -0.010299855 -0.084776364
-0.046847936 0.22937341 -0.11839371 0.1340824 0.17291623 -0.11655798 -0.2945785 -0.2171029
-0.00625302 0.009856886 -0.19692628 -0.15170594 -0.02320219 0.112139136 0.042625573 0.250676
-0.32608294 -0.11819449 -0.14258052 0.3482446 -0.076700695 0.14741327 -0.17837258 -0.07616389
-0.04077352 0.3439657 -0.028995795 -0.015186949 0.028875312 0.12838428 0.10086675 0.13959001

time_series_emb_layer.weight f4 [32, 36, 1, 1]
00000000: 0518 d6bd 4815 26be 31ba e23d 867d c7bd
00000010: 0af6 d13d 4db5 5c3d ebf7 0abc 010a dabd
00000020: fe3a 0cbe c9ec ad3d 8e3f 833c 5358 2abc
00000030: 8638 c3bc f182 c2bd 7c82 783d 102f 3fbc
00000040: a4a0 cfbd ce2e dabd 2666 ed3d 2d7e 96bb
00000050: d560 8fbd c1eb bb3c f39b 463d 9b19 f53d
00000060: 3197 ea3d ebc5 d73c eea0 43bd 1151 e53d
00000070: e437 68bc 77a2 02bd 3b96 7b3d ab87 123d
00000080: 087a 5cbd bb7f 55be 2f4b 503d 6ece bf3d
00000090: 5200 96bb 948e 96bc 39f4 5bbd b090 efbd
000000a0: 25c3 6b3d 2ddc 333c af0b 123d 0a68 aabd
000000b0: 12a3 78bd a87c 81bc 8248 3a3c a6b8 cb3c
000000c0: cf86 30bb c647 1bbd 1dff 9abb 3eee a13c
000000d0: bfa7 a0bc c50b b6bc 2e7a 493d a961 5abd
000000e0: fc2e b9bd 9ff4 c4bd 43c7 42bd 4c02 7ebc
000000f0: 6809 c3bd 5985 0e3d a038 da3d 33b8 133d
00000100: a741 fdbc 1979 623d 3f01 b8bd 1113 9abd
00000110: 6c96 a53d 36c3 8a3e b78b 8bbd c73c 323e
00000120: a01b 6dbc 4e1a b9bd 39a5 2bbe 64ca 9fbd
00000130: 580e bfbd 249b 0ebd c9e7 a03d 1a42 083d
00000140: 3f18 dfbd 54c8 3fbd d111 dfbd a46b 423d
00000150: 546a cc3d 5b3c 513d d470 c23d 353b 61bd
00000160: ff5f 51bc a0f2 bd3d b713 cc3d 3f33 71bd
00000170: 7ce0 103d 62dd d33d 3b4d a5bd e97c e13c
00000180: 22c3 b33d 4453 183e 88b8 313c be98 e3bd
00000190: 3ce1 073d 16da 333d 2a01 2abd 5ab4 7f3d
000001a0: 3060 2dbd 9a52 24be 04d8 003e 1e15 8e3d
000001b0: 472f 8dbd 310d d2bd c3d2 c0bd 0984 183d
000001c0: 79da 36bd e8fe d43d a761 a2bd f30f f43d
000001d0: 831a 753b 6fb2 8cbd 3c32 e93c 2e4d 133e
000001e0: a2c8 ba3d 9170 c1bd b28a 263d 9d25 333d
000001f0: 8b8c fd3d 4f47 a1bd a428 b4bd c5b4 013e
00000200: a49b fdbd d1a6 243e 4858 08be 13ef 9dbd
00000210: 22ca 493c c431 21bc f037 0bbd f834 983c
00000220: 89c8 8a3c ca1d e8bd ef9b 193e 5939 8dbd
00000230: 5867 f93d 5541 8c3e b402 a5bb 172a 9abd
00000240: 6c95 cbbd ad07 e2bd 0fa6 a4bd 57d4 683d
00000250: e80f bebd 028e d53d 96ea ddbc bc26 69bd
00000260: 9a90 6a3d 010d 39bd 9216 f03c 1386 c63a
00000270: 47fb cc3d 078f 62bd bf67 8b3d a21c 5fbc
00000280: f6d6 943d 6362 0d3e 0b3b ae3d 590e 003e
00000290: 7bc9 ebbd 4a7b 073d e644 a73c 8661 85bd
000002a0: d038 68bd efae f13d dad2 debd f5d2 0abe
000002b0: e164 9a3d 4238 efbd d215 3a3e 8c36 bbbd
000002c0: a541 d73b d1f2 b9bd 8259 493d 8ad6 a63d
000002d0: aa82 5e3d 6c7e e6bd 1707 9cbb 1eee 22bd
000002e0: 159b 3fbd 12d7 ddbd 2cab 59bd d327 5b3d
000002f0: 7e4f 113d 0fe5 ddbb aa80 dc3d e644 023e
00000300: c22e ca3c 2bc0 063b 87eb 2c3d 9cc7 b73c
00000310: 4483 c9bd e710 b53d a4d0 13bd fa7c fc3d
00000320: 6a0b 383d 69e7 ceba 4d46 86bc 34fe 01be
00000330: e711 68bd 2f2c 523d e788 cdbd 1927 e4bd
00000340: b3a9 f23d fd93 d23d 0e4b a6bb b265 973c
00000350: 67ae b63d 7c88 453e 29a1 8fbd 2db2 e5bd
00000360: ad27 97bd a5f2 d8bc 2497 bdbc b91a 4a3c
00000370: b012 b0bd f7bd ecbc d269 243c 91a9 c1bd
00000380: a1e3 5c3c 8c6f 9e3d 69f8 9d3d 28d4 933d
00000390: 1a3c 523d fc33 1cbe 2840 4c3d 11fb a5bc
000003a0: 15ae fe3c 99ea e03a 41a0 80bd e9a2 233e
000003b0: fc9c 173d 7362 473c 0663 dabd d91f 93bd
000003c0: b517 563c 8082 203d a593 2e3d da0a 1a3e
000003d0: b1e0 e63d 242c 93bd c017 bbbc 66dc ccbc
000003e0: b751 d53d 5e3b 05be 73c8 9bbc 4a7a dbbd
000003f0: 1f79 233c 22bf 393c ba1d dc3c b4a6 fabb
-0.104538 -0.16219056 0.110706694 -0.097407386 0.10252006 0.05388384 -0.00848196 -0.10646439
-0.13694379 0.08492429 0.016021516 -0.010397035 -0.023830663 -0.09497631 0.060671315 -0.011668935
-0.10138062 -0.106534585 0.11591749 -0.004592678 -0.07000891 0.022939565 0.04848857 0.119677745
0.11454619 0.026339492 -0.047760896 0.11197103 -0.014173482 -0.03189322 0.061422568 0.035773914
-0.053827316 -0.20849507 0.05085295 0.09365545 -0.004577675 -0.018378533 -0.053699706 -0.11697519
0.05755915 0.010977787 0.035655674 -0.08320625 -0.06070239 -0.015806511 0.011369826 0.02486832
-0.002693582 -0.037910245 -0.004730119 0.019766923 -0.019611238 -0.022222409 0.049188785 -0.053315792
-0.09042165 -0.0961697 -0.047553312 -0.015503477 -0.095232785 0.03479514 0.106553316 0.036064338
-0.030915095 0.05529127 -0.08984613 -0.07523168 0.08085331 0.2710206 -0.06813758 0.17405997
-0.014471918 -0.0903822 -0.16762246 -0.07802275 -0.09328908 -0.034815922 0.078567095 0.033266164
-0.108932965 -0.046821907 -0.1089207 0.047465935 0.09981218 0.05108295 0.094941765 -0.054988105
-0.012779235 0.09274793 0.09964698 -0.058886763 0.035370335 0.1034496 -0.08071371 0.027525382
0.08777453 0.14875513 0.010847218 -0.11113118 0.033173785 0.043909155 -0.041505016 0.062427856
-0.04232806 -0.16047135 0.12582403 0.069376215 -0.06893783 -0.10256422 -0.094151996 0.037235294
-0.044641946 0.10400182 -0.07928782 0.119171046 0.0037399835 -0.06869971 0.028466336 0.1438491
0.09120299 -0.094452985 0.040659614 0.043737043 0.12380322 -0.07874929 -0.08796814 0.12666614
-0.12383202 0.1607926 -0.13314927 -0.077116154 0.012316259 -0.009838525 -0.033988893 0.018579945
0.016941326 -0.11333807 0.1500089 -0.06895704 0.121779144 0.27393594 -0.0050357226 -0.07527559
-0.09940609 -0.1103662 -0.08039486 0.056843128 -0.092803776 0.104274765 -0.027089398 -0.056921706
0.05726681 -0.045178417 0.029307637 0.0015146158 0.10008865 -0.055312183 0.06806897 -0.013617666
0.07267563 0.13807063 0.08507355 0.12505473 -0.11513039 0.033076562 0.020418596 -0.06512742
-0.056694806 0.11800944 -0.108800605 -0.13557036 0.075387724 -0.11680652 0.18172386 -0.09141263
0.0065691047 -0.09079517 0.049157627 0.08146389 0.05432383 -0.11254582 -0.0047615874 -0.039777867
-0.046778757 -0.10832037 -0.053141758 0.053504776 0.0354762 -0.0067716907 0.10766728 0.12721595
0.024680499 0.0020561318 0.042216804 0.022434048 -0.0983949 0.088411145 -0.036087647 0.12328525
0.04493276 -0.0015785518 -0.016390944 -0.12694627 -0.056657698 0.051311668 -0.10035878 -0.1114027
0.11848774 0.10282133 -0.005074865 0.01848111 0.08919983 0.19290346 -0.07013161 -0.11215625
-0.073806144 -0.02648289 -0.023143359 0.012335473 -0.08597314 -0.028899176 0.010034995 -0.0945617
0.013482005 0.0773612 0.07713396 0.072182 0.05132685 -0.15254205 0.04986587 -0.02026132
0.031088868 0.0017159759 -0.06280566 0.15980114 0.037014946 0.012169468 -0.106634185 -0.07183809
0.013067176 0.039186954 0.042621274 0.15043202 0.11273325 -0.071861535 -0.022838473 -0.025007438
0.104159765 -0.13010928 -0.01901648 -0.10716684 0.009977608 0.0113370735 0.026869643 -0.007649267

time_series_emb_layer.bias f4 [32]
00000000: 26d8 0d3e 2c9e 8d3d 98a3 ffbd 9524 42bc
00000010: f7a2 5fbd b232 9dbd f464 2e3d d41e 36bd
00000020: c6f9 143e 0952 60be c8bc fd3d a0da ecbd
00000030: 1610 5ebd 7f74 603e 6c9d 23be 6aa5 bfbc
00000040: 9a48 15bd 5f20 55be fe3a 0ebe 760a 13bc
00000050: c55f f1bd 4832 a8bd 30c2 143c f9a1 6fbd
00000060: a925 33be 88a5 02be 4c3f c53d 1ba4 893c
00000070: 825e d63d ed17 56be 3c6f 503d a911 643d
0.13851985 0.069149345 -0.12482375 -0.011849542 -0.054598775 -0.07675685 0.042576745 -0.044462994
0.14548406 -0.21906294 0.12389523 -0.11565137 -0.05421456 0.2191944 -0.1597802 -0.023394305
-0.03644619 -0.2081313 -0.13889691 -0.008974662 -0.11785845 -0.082127154 0.009079501 -0.05850408
-0.17494835 -0.12758458 0.096312135 0.016801884 0.10467245 -0.20907564 0.05088733 0.055680905

encoder.0.fc1.weight f4 [128, 128, 1, 1]
00000000: 858b ef3b 419a 59bc f8a3 f9bb a8b4 893c
00000010: 7ce7 693b 462c 8c3c 50f7 b2ba e2bf 03bd
00000020: 4521 60bd c143 393d 4ef1 063b 7d98 b2bc
00000030: 60d1 da3a 7bdb 833c 3415 9ebd e2b5 343d
00000040: ce8a 13bd 4669 13bd 91c0 48bd 23bd eabc
00000050: c0e1 ecbc 8b69 8cbd b02d 96bd 1153 12bd
00000060: 5d78 7fbc 3bd7 223c 2fcb 48bb f85c a8bc
00000070: d418 833b a1c9 da3d f4f3 cd3b 3a30 bdbc
00000080: 8ffb 8c3d ac72 2a3e 6e2b da3c c81f 053e
00000090: 472b 53be 6ec9 b33c 9867 3e3e aa90 1a3d
000000a0: 928b ccbc 4c4b af3e 9c79 96bb cacf 49bc
000000b0: b2f6 163e 035b 8d3b 1aad 7c3e 71ae 88bd
000000c0: 767b 31be d98c 973c 2af4 60be 8d7d c4bd
000000d0: 36f0 08bd 3686 f3bd 2cb6 623c 48ce 52be
000000e0: dd46 b8be 44aa 36bd 9230 55bd 9ed3 843c
000000f0: dabf 493e b765 203e 780a 2ebe aeb6 9a3e
00000100: 7b09 a13e a219 5a3e 6873 bcbd 72a4 95be
00000110: 1e2e 77be 5ff0 d53c 8d33 91be 22ce b23b
00000120: f3d9 dfbd a867 7cbd ee1d bcbd c54f aebc
00000130: 0128 153e eca2 613e 8a1f 54bb 5d51 363d
00000140: 00bd 0d3e f566 a73c 77d5 e8bc 95f5 1cbd
00000150: 1e93 533d bbc8 153e 926c 87bd 5445 073e
00000160: 0667 19be 5f1d 13be 91a8 b0bd a076 3f3d
00000170: cde1 14be d7c8 de3c 6cd9 a73d eeb3 2dbe
00000180: 5572 0b3e c0e2 723d 1f35 1bbd c31b 8abd
00000190: 96f7 f7bd 03df 093d 9843 403e c57a a03c
000001a0: de5d 8b3c 5342 06bd e01e 293c d841 4e3d
000001b0: cd79 463e dd45 c9bd e52f f53d dc58 adbc
000001c0: 9054 303d 385c c0bc 6fb8 2a3d 908c 2bbd
000001d0: ceed 93bd 27a7 87bd 2368 a73c 01f7 1cbd
000001e0: f995 a4bd 62dc 35bd 496b 683b 72ce cdbd
000001f0: b3de 1c3e d21e f3bd 4d88 9c3d 5018 723d
00000200: 6b30 d83b 36fa c63c 6bfc 703d 75b5 6f3d
00000210: 1895 1c3d b3ef 043c 5c13 b9bb e2aa 7cbd
00000220: da7f ffbc 3e66 4f3d 50d8 833d ab7a 493d
00000230: 22aa 5f3d cda2 a93d cca6 9bbd f303 63bd
00000240: aef8 1bbd c810 68bd d757 d23c a501 353c
00000250: 2c61 39bc 287b 733d f405 97bb 61e2 9b3c
00000260: 63c0 3fbd 9ac1 ee3c 1eb1 97bb 4f09 1abc
00000270: 4107 db39 0162 6f3d 9b7f 21ba ef4c 5ebc
00000280: 6285 53be 631b 573b 8015 563d 6ed6 c1bd
00000290: fd3c e43d d1bd 8e3e b393 a23d 757e f3bd
000002a0: 1134 f8bd aef0 6abd 9f65 90bc cf50 823a
000002b0: 2427 ecba 89f9 45bc 9f7b 0ebe 9988 333b
000002c0: 4e5d 2c3d 027c 19be 4070 43bd dc0d 9cbd
000002d0: e136 65bd 5ec7 323e 5aa1 60bd 883b 003e
000002e0: 240a 8d3e 4ef5 283e 3a63 acbd 0380 03bd
000002f0: d28f 133e d0ee 3a3e 4d54 213e b13c 5dbe
00000300: c49d 66be 1c23 433d a2be cc3c 7bf3 09bc
00000310: 2a91 bdbd dd8d 8abd c55a 943e 372b a3bc
00000320: c612 bdbd c6fd debc 45c7 093e 0ae7 d5bd
00000330: 4cd2 25bd 859a 37be 1ddb 3abd de79 1a3d
00000340: ca69 773b f863 3a3e c428 5fbd 7d7c d2bc
00000350: 9f96 163a 21f0 81bd e093 d93d ba4e ca3b
00000360: e367 21bd efd2 633d 11eb 9b3d c95a febd
00000370: 79cb cabd 91d0 0d3d 3e37 abbd 7f87 313e
00000380: 5e66 803d 4a51 c03c d8ee ad3b b9c4 18bd
00000390: f7c2 973c 6d50 e03d 8bad 933c d61f 633c
000003a0: 88bf 333c 8c59 b6bd 9580 3ebd 7455 883d
000003b0: 17b7 733d af72 a6bc 4ea6 d13d 88c1 c5bd
000003c0: d4ad 7b3c 1891 5c3c 5015 8fbc 9d54 3abb
000003d0: f002 af3c 0d3e c3bd 0ba7 47bd b3b4 ae3b
000003e0: 3bb5 ab3c 2a93 e2bc a1f8 04bc b83c 25bd
000003f0: c830 5d3d 8745 dbbd 12e6 8b3d 5bb1 dc3c
0.007310333 -0.013281406 -0.0076184236 0.016809776 0.0035690954 0.017110955 -0.0013654027 -0.032165416
-0.05471923 0.04523063 0.0020590606 -0.021801228 0.0016694479 0.016095867 -0.07718888 0.04411877
-0.036021046 -0.03598907 -0.04901177 -0.02865464 -0.02891624 -0.06856068 -0.07332933 -0.03572375
-0.015592662 0.00993901 -0.0030638685 -0.020552143 0.0040007625 0.10682989 0.006285185 -0.023094285
0.068839185 0.16645306 0.026632037 0.13000405 -0.20621978 0.021946635 0.18594205 0.03773562
-0.024968896 0.34237134 -0.0045921337 -0.012317607 0.14742544 0.004313828 0.24675408 -0.06673897
-0.17332253 0.018499779 -0.21968141 -0.095942594 -0.033432208 -0.11890833 0.0138373785 -0.20586503
-0.35991564 -0.04459597 -0.052048273 0.016214188 0.19702092 0.15663801 -0.16996181 0.302175
0.31452546 0.2129884 -0.092016995 -0.29227024 -0.24138686 0.026115594 -0.28359643 0.005456702
-0.109302424 -0.06162229 -0.09185396 -0.021278271 0.14566042 0.22034806 -0.0032367432 0.044511188
0.13841629 0.020434836 -0.0284221 -0.038320143 0.051653974 0.14627354 -0.06612505 0.1321004
-0.14980707 -0.14366673 -0.086259015 0.04674399 -0.14539261 0.027195377 0.08195767 -0.16963169
0.13617833 0.059298277 -0.037892457 -0.067435764 -0.1210777 0.033659946 0.18775785 0.019589791
0.017012533 -0.032778095 0.010322303 0.050355762 0.19382401 -0.098277785 0.11972026 -0.021160536
0.043049395 -0.023481473 0.041679796 -0.041882098 -0.07223092 -0.06623679 0.020435398 -0.0383215
-0.080364175 -0.044399627 0.0035464338 -0.10049142 0.15319328 -0.11871113 0.07643185 0.059105217
0.0065975687 0.024289232 0.058834475 0.05852266 0.038228124 0.008113789 -0.00564806 -0.061686404
-0.031188894 0.050634615 0.06437743 0.04918925 0.05460561 0.08283005 -0.07600173 -0.05542369
-0.038078956 -0.05665663 0.02567665 0.011047755 -0.0113146715 0.059443623 -0.004608864 0.019028844
-0.046814334 0.02914505 -0.0046292683 -0.009401633 0.0004177634 0.058443073 -0.00061606773 -0.013568147
-0.2065635 0.003282272 0.052266598 -0.09464727 0.11144445 0.27879193 0.07938328 -0.11889354
-0.12119306 -0.057358436 -0.017626582 0.0009942296 -0.0018017036 -0.01208342 -0.13914345 0.002739465
0.04208117 -0.14988711 -0.04771447 -0.07619831 -0.05596054 0.17458865 -0.054841377 0.1252271
0.275468 0.16499826 -0.084173635 -0.032104503 0.14410332 0.18255162 0.15754814 -0.21605183
-0.2252112 0.047640905 0.024993245 -0.008419867 -0.092562035 -0.067653395 0.28975502 -0.019918067
-0.092320964 -0.027220618 0.13454922 -0.10444458 -0.040483758 -0.17930038 -0.04561912 0.037713878
0.0037752264 0.18202198 -0.054482237 -0.025694126 0.000574449 -0.06344629 0.10623908 0.0061739357
-0.039405715 0.055621084 0.07613195 -0.1241966 -0.099020906 0.034622733 -0.08360146 0.17336844
0.06269525 0.023476262 0.0053080134 -0.037296984 0.018525584 0.1095284 0.018027088 0.013862571
0.010970958 -0.089037985 -0.046509344 0.06656924 0.05950078 -0.020318357 0.10236798 -0.09656054
0.015361268 0.013462327 -0.017466217 -0.002843178 0.021363705 -0.095333196 -0.04874329 0.0053315996
0.02096044 -0.027658064 -0.008115918 -0.04034111 0.0540016 -0.10706621 0.06830992 0.026940038

encoder.0.fc1.bias f4 [128]
00000000: 2e3c 25bc 748d 43bd b672 1fbe 09af 77be
00000010: e8a9 88bd 8403 12bd 6cf4 c4bd c7de a0bd
00000020: b382 7abe 1a2b 193c 2a85 bdbd f265 89bc
00000030: 38df f4bd cb5a 53bd e712 82bd c148 4bbe
00000040: 712c 0cbd 1faa 15be 2ca7 ecbc ff15 fabd
00000050: a12e 9cbd e542 a3bd b2bc c9bc b1a4 2abc
00000060: 47e4 c8bd da1d 643c c8d1 0fbc 7206 08be
00000070: 9e12 30be 33f8 9dbe 36aa 5fbd 7797 3cbd
00000080: faa6 1b3b 702e 7dbd 980f 0c3c 59e7 66bd
00000090: 89d6 15bd 2e6c 92bd b811 74be 5e76 a1bc
000000a0: 2f91 b8bc d9ca 20be 8ff7 2bbd 8cbe aabc
000000b0: 2121 38be 9830 c2bc 6eb5 0dbe 79cc 1e3c
000000c0: e766 2fbd f65a 1cbc c76f 23be fce1 e9bc
000000d0: 706a e8bd 3181 c7bd f4d8 a6bd d5cf a53b
000000e0: 789f 293c c4cc f1bd 92b2 eabd 5ab1 c8bc
000000f0: b2ed 31be 5732 60be f191 c8bd 4e01 acbd
00000100: ceac 1fbe 90f3 bdbb ced3 90bd a4fb e5bd
00000110: e6ac 95be cce5 14be a873 8dbd 1c45 09bc
00000120: 22c9 c3bd 5805 a1be d404 73be e3e4 cebd
00000130: 49d3 8bbd d32f 67bd 6610 07be 6ec2 09be
00000140: ce5f a3be 39b4 ecbd ed99 11be 7219 d93c
00000150: 7d5d 0cbd 6520 98bd 438e 98bd b26c 71bd
00000160: 6719 abbd 9002 c3bd 6505 aebd d9fd 92bb
00000170: 5add e1bd 288e 0abd 8583 71bd c0ca f6bc
00000180: cb29 ccbd cb29 9cbd 9405 b9bd ba8b 583b
00000190: ebc6 1f3c 6a5a 98bd 3e5f 81be b88d d8bd
000001a0: 8f47 b6be f51e b2bd 44fb 06be b179 88bb
000001b0: 50bb 1cbe 404f 91be 0c1a 23be d5bb 05be
000001c0: 9229 b0bd 8b22 0ebe 169b 97be 78e1 ddbd
000001d0: c006 9fbe 8931 9cbc 06d1 bbbb e72b 68be
000001e0: f4b2 98bd 789c c8bd e28f 9dbb cc03 02be
000001f0: 5676 35bd eacc b0bc 80d6 d5bc 74af c3bc
-0.010085149 -0.047742322 -0.15571102 -0.24187864 -0.06673032 -0.035647884 -0.09616932 -0.078549914
-0.2446392 0.009348655 -0.09253915 -0.016772244 -0.11956638 -0.05160026 -0.063512616 -0.19851972
-0.03422207 -0.14615677 -0.028888308 -0.12211227 -0.07626081 -0.079717435 -0.02462611 -0.010415242
-0.098091654 0.013923133 -0.008778043 -0.13283709 -0.17194602 -0.30853423 -0.054605685 -0.046042886
0.0023750649 -0.061811864 0.00854864 -0.056372974 -0.03658155 -0.0714954 -0.23834884 -0.019709762
-0.022530166 -0.1570238 -0.041984137 -0.020842813 -0.17981388 -0.023704812 -0.13838741 0.009692305
-0.042822745 -0.009543171 -0.15960608 -0.02855014 -0.11348426 -0.09741438 -0.08146849 0.005060176
0.010352962 -0.11806634 -0.11459841 -0.02449863 -0.1737583 -0.21894203 -0.09793461 -0.08398686
-0.15593264 -0.005796857 -0.070716485 -0.11229637 -0.29233474 -0.14540786 -0.06906825 -0.008378293
-0.095598474 -0.3144939 -0.2373231 -0.101022504 -0.06827409 -0.056442093 -0.1318985 -0.13453075
-0.3190903 -0.11557812 -0.14218874 0.026501391 -0.034268845 -0.07428054 -0.07449009 -0.05894155
-0.083544545 -0.09521973 -0.08497123 -0.0044858274 -0.110285476 -0.033826977 -0.058963317 -0.030125976
-0.09968909 -0.07625159 -0.09034267 0.0033042268 0.009752016 -0.0743912 -0.25267977 -0.10573906
-0.3560147 -0.08697311 -0.13181788 -0.0041648974 -0.15305829 -0.28380775 -0.15927905 -0.13059933
-0.08601679 -0.13880365 -0.2961051 -0.108340204 -0.31059837 -0.019066589 -0.0057317046 -0.22672997
-0.074560076 -0.09795469 -0.004808412 -0.12696761 -0.044302307 -0.021582086 -0.026103258 -0.023887374

encoder.0.fc2.weight f4 [128, 128, 1, 1]
00000000: 9a71 afbd acd7 8cbc 475f dbbc b6a7 0f3d
00000010: 4212 693c 9fa9 bf3b 41bb acb8 1178 a5bc
00000020: 4685 02be 1bcb edbc b86f 13bd 4bb9 e93b
00000030: f924 7bbd 3eee 33bd b0d3 4b3e 77a5 073e
00000040: bfd7 f3bb aacd 33bd db1b a93e 209d 993d
00000050: e176 95bc 69f8 b2bd 86f2 923c 43eb ccb4
00000060: 7afc eabb ebe0 81bd 9669 f23a 3d07 0cbd
00000070: abd1 0cbe 9689 683d 091a 5ebd 2037 b53b
00000080: 6064 7fbd dd3e f43c b986 e5bc a033 6f3c
00000090: 1349 39bc af59 4cbd 5e6c 973d 1df9 2fbc
000000a0: ab0a b93c 0c7e af3c adaa adbd d0ca e2bc
000000b0: 0dff ba3c 3ab1 e0bd 8acf b7bc bbde 223c
000000c0: 3392 2ebd d059 5dbd a350 ccbc c97f 97bd
000000d0: 9450 80bc 4291 8fbd e3b1 73bd 1e3f 65bd
000000e0: e60b a03d b9d3 f93c 46e4 443d a5d3 60bc
000000f0: d40b 4f3c 4e70 e8bd d20c 50bd fe6a af3e
00000100: b49d e33c 86ad 9fbd 84c3 6ebd 8f04 15bd
00000110: 667e 82bd 5b7f e5bb 473e 7cbd dd21 23bd
00000120: d7cd 7fbd d68f 243d 7752 1d3c f6bb b8bb
00000130: a2d1 67bd 9d51 003d e68c 513d 4414 bd3d
00000140: 6b9b 0ebd fe2d 03bc 38f2 bc3c 7e11 80bb
00000150: c860 3abc c096 a93c 12fc dabc 9b60 6ebd
00000160: d5bc 333c 1c4d a5bd 4647 923d a81d 63bc
00000170: 1697 a6be 6c3b 833c 8468 e93c 5cd6 e13d
00000180: 8f83 f4bc 65a2 9dbd 02d9 813b adfe 85bd
00000190: fac1 8abc f590 003c a117 bf3d 1347 1cbd
000001a0: e0da 86bd 487c db3d 063b fa3b 2e7f 34bd
000001b0: 42ef 97bc 2c23 2f3d 30b6 7d3e 201a 78bc
000001c0: 3971 0bbc 1eae f4bc 20cb 9cbb 8835 a7bc
000001d0: 2c2c 993d 2b4a 8ebc 5d7d d9bc 9169 cebd
000001e0: 6db4 35ba 2520 39bd 0a8c 44bd b6ce af39
000001f0: 1275 40bd 2970 413d bb47 6c3c 55a0 023d
00000200: 7881 25bd 20a6 c53b 0948 2d3c 4e1f 3fbd
00000210: e06d f03d aa94 1a3d 673c 9a3b a5d7 e1bd
00000220: 77f7 3e3e 7b35 ccbc 55ca 30bd 0e87 98bd
00000230: 9fa6 68bc 5b1f 5ebc 8453 d1bd 10d3 3d3c
00000240: fe3f 893c 2345 a93d 2542 0cbc 71e4 423d
00000250: 3071 d33d 34ad 20bd 9139 cfbb dbb1 eab4
00000260: 239d 413d c0b5 93bd 7840 773d bb4f 1b3d
00000270: 4c94 033e 0511 503d a306 f2bd ed21 46bd
00000280: 2f38 34bd 6ce5 d73d 2ff1 773d 454b fcbc
00000290: de4f 573d caa5 a33d e859 04bd 5ca7 ebbc
000002a0: e676 9a3b f710 313d 6259 463b d707 62bd
000002b0: 3ae4 4abd e3c4 38bc a13c a3bd bcdf 19bc
000002c0: e30e b13c ec6f 1fbd 9d95 103c fc5a b93b
000002d0: fb54 e6bc a4c8 d4bd 87fc 9fbb 8a4f 733d
000002e0: 7007 38bc d8cc 813d de78 273b 7fba 103c
000002f0: 7cf8 11bc 5dd0 e5bd ac92 2c3d 0dee 95bd
00000300: 381a 883d 3593 e53c 72c2 0fbd 9b07 9a3c
00000310: b163 e83d fa66 35bc 6604 ae3d ce82 b93d
00000320: 39cf 6dbc 6c5a 5f3c 7233 dcbc 0ab8 c73b
00000330: 9ad2 9f3d f5cd 613d 827e 083d 2ea2 dc3c
00000340: bd33 5f3d 317f b7bd 83b8 f13c 166c 4dbd
00000350: 94b6 0cbe f7fa 4d3d 2b88 b2bd b9c3 3fbd
00000360: 35bb 313b eb49 abbd 9777 503d 7c93 1a3d
00000370: 72a9 e13c d43d a63d 2da8 6b3d a3af b83c
00000380: 81cb 453b a986 c6bc dc0a 59bb 65c1 d73d
00000390: 19c1 8cbd 79ba 1f3d f456 1dbd 4be9 c1bc
000003a0: b148 683e 7ba6 733d 3de7 0cbd d820 edbc
000003b0: 2cb1 a73c c838 18bd 4d45 00be a59d ed3c
000003c0: c9c3 a1bd dabc 663d 3bf6 a23b 1fb3 28bc
000003d0: 5b49 d3bc a0de 22bd 187c 603d dfa5 203e
000003e0: 69aa 90bd 298b 7ebc 74d8 1bbd dd75 42bd
000003f0: 0671 fc3d 1dae 613d a397 87bd 574d b63d
-0.0856659 -0.017192684 -0.02677883 0.03507205 0.014225544 0.005849078 -8.236478e-05 -0.020198854
-0.12746152 -0.029027512 -0.035995215 0.0071326843 -0.061314557 -0.043928377 0.19904971 0.13246714
-0.0074414904 -0.04389731 0.33029065 0.07500672 -0.018245162 -0.08738787 0.01793791 -3.8169136e-07
-0.007171211 -0.06341728 0.0018494602 -0.03418659 -0.13751857 0.056771837 -0.054224048 0.005530253
-0.062351584 0.029815132 -0.028018342 0.014599711 -0.011308926 -0.049890216 0.07393716 -0.010740546
0.022588095 0.021422409 -0.084798194 -0.0276846 0.022826696 -0.10971303 -0.02243783 0.009940798
-0.042619895 -0.05404073 -0.024940794 -0.0739742 -0.015663423 -0.070101276 -0.059495818 -0.055968396
0.078147694 0.030496465 0.04806926 -0.013722335 0.012637097 -0.113495454 -0.050793476 0.34261316
0.02778516 -0.07796769 -0.058291927 -0.0363813 -0.06371765 -0.0070037073 -0.06158283 -0.039827216
-0.062452164 0.040176235 0.009602181 -0.005637641 -0.056596406 0.031327832 0.05115976 0.09232381
-0.034816187 -0.008006571 0.023064718 -0.003908335 -0.0113756135 0.020701766 -0.026731525 -0.0581976
0.010970314 -0.08071348 0.071425006 -0.013862051 -0.32537144 0.016019545 0.02849222 0.11027214
-0.029847888 -0.0769699 0.003962637 -0.06542716 -0.016938198 0.00784706 0.09330679 -0.03815372
-0.06584716 0.10717064 0.0076364307 -0.0440666 -0.018546704 0.042758152 0.2477653 -0.015142947
-0.008510881 -0.029868182 -0.0047849566 -0.020411268 0.07479128 -0.01736935 -0.026549036 -0.10078729
-0.00069314876 -0.04519667 -0.047985114 0.00033532613 -0.046986647 0.047226105 0.014421399 0.031891186
-0.040406674 0.0060317665 0.010576257 -0.046660714 0.11739707 0.037739433 0.0047069076 -0.11027459
0.18649088 -0.024927845 -0.04316171 -0.07447635 -0.014199882 -0.01355728 -0.102210075 0.011585966
0.016754147 0.0826514 -0.008560692 0.04758114 0.10324323 -0.03922768 -0.006324001 -4.3715303e-07
0.047268998 -0.072124004 0.060364217 0.037917834 0.1284954 0.05079748 -0.11817672 -0.048372198
-0.043998893 0.105418056 0.060532745 -0.03079761 0.0525664 0.07990606 -0.032312304 -0.028766327
0.004713881 0.04322907 0.0030265679 -0.055183258 -0.04953406 -0.01127741 -0.079705484 -0.009391721
0.021613544 -0.038925096 0.008824733 0.005656598 -0.028116694 -0.10389832 -0.0048823985 0.059402026
-0.011232242 0.06337899 0.002555422 0.008833527 -0.008909341 -0.11221383 0.042132065 -0.07320795
0.06645626 0.028024295 -0.035097547 0.018802455 0.113471396 -0.011071915 0.08496933 0.09058152
-0.014514738 0.013632398 -0.02688 0.006094937 0.07803841 0.055128057 0.033323772 0.026932802
0.0544927 -0.08959807 0.029506927 -0.050151907 -0.13741523 0.050288167 -0.08717378 -0.046817515
0.002711964 -0.08363708 0.0508953 0.03773831 0.027546618 0.081172615 0.05753343 0.022544688
0.0030181112 -0.024234133 -0.0033118045 0.10534934 -0.06872768 0.038996194 -0.038413003 -0.023670813
0.2268398 0.05948494 -0.034400214 -0.028946325 0.020470224 -0.037163526 -0.12526436 0.029005835
-0.07898671 0.056332447 0.0049732006 -0.010296612 -0.025791815 -0.039763093 0.054805845 0.15688275
-0.07063753 -0.015536108 -0.038048223 -0.047475684 0.12326245 0.055097688 -0.06620719 0.0890147

encoder.0.fc2.bias f4 [128]
00000000: 7911 b43c 7bf8 e63c dfb2 3c3c 2068 9bbd
00000010: a513 3fbc 0696 a0bc 6e5b 793c e1e9 9e3c
00000020: bdce 00bd 9673 f7bb 23b3 373b 7847 bdbd
00000030: 11c1 6ebc 7fad 633d 86ef 8cbb e215 18bd
00000040: a0ef 8abd 802f 6e3c 1a31 55bd f982 e83c
00000050: 595c 7abd c4cf f23b 13b3 cb3d a753 843d
00000060: 0616 02bd 5490 b6bb c3e6 10bd 8f2d a6bd
00000070: d376 f2bc 85e5 0c3e 53ed 1bbd 2b24 a53a
00000080: 701d 563b cded ac3d d24a a2bc e74c d43c
00000090: 2dcd 21bc fe25 643c f757 46bb 9aa9 15bd
000000a0: 1cc7 d83d da2f 4a3d 8023 803d 038b 76bc
000000b0: 2e98 06bd 6b15 c33d 2d9e 88bd 0926 b2bd
000000c0: 3286 103d e0f3 a3bc 8cfc e2bc 55fd f0bd
000000d0: 5d07 dcbc 0467 583c d32e ae3d 1bd9 413c
000000e0: 7dae c83c 783e 8d3d 61a3 9fbd 79ae 403b
000000f0: a86f 263d a787 683c 74a1 05bd 316e c23c
00000100: 9f01 18b9 e61a 513d ff0f da3c 396f d6bc
00000110: 5fee 36bd 94cb ebbc 2514 9bbd c97f 03bd
00000120: 641a 8f3c 6ac7 273c 2d0f 423c 20ef 90bd
00000130: 3276 1abd 0644 d43a 6d59 10bc f515 e6bc
00000140: af91 10bd dc78 2abc 4c4c c03a b886 fd3c
00000150: 6893 f9bc a9ad e23c 7a84 893d 6524 b13d
00000160: 6500 8a3d 97b2 26bd dd2f 603c 6f95 253d
00000170: d268 783d c46b 72bc b384 783d 8f95 a0bd
00000180: abdb 98bc ca5f 80bd c549 c93d 97a5 97bd
00000190: 34e6 78bd 8a86 203d 7453 7e3d ec70 223c
000001a0: d446 393c 5867 04be 451e f33a f81b 9a3d
000001b0: 9369 6cbc 95bd 243b babe c73d 65a6 0d3d
000001c0: a783 0ebd c78b f9bc bd50 34ba 0ef9 adbc
000001d0: 7d3d 1bbd 4b13 183d 0843 673d d7d8 733c
000001e0: 46b5 b0bc e00c bfbd 1d49 383d c6bb e7bb
000001f0: f35d 9f3b d237 e6bd dbc0 97bd 8a62 5a3d
0.021980988 0.028194657 0.011517256 -0.0758822 -0.011662398 -0.019602787 0.015219552 0.019398632
-0.03144716 -0.0075516207 0.0028030358 -0.09242147 -0.014572398 0.05558538 -0.0043010144 -0.037130244
-0.06783986 0.014537692 -0.05204878 0.028382765 -0.061123226 0.0074100215 0.09946265 0.06461268
-0.031759284 -0.0055714045 -0.03537632 -0.08114158 -0.029597675 0.1375943 -0.038068127 0.001259928
0.0032671355 0.084437944 -0.019811068 0.025915576 -0.009875578 0.013925074 -0.0030264833 -0.036538698
0.10584852 0.04936204 0.06256771 -0.015047791 -0.032859974 0.095255695 -0.06670795 -0.08698661
0.03528423 -0.02001375 -0.027708314 -0.11767069 -0.02685898 0.013208155 0.08505025 0.011831547
0.024497265 0.068966806 -0.07794834 0.0029400869 0.040633827 0.014192498 -0.032624677 0.023734184
-0.00014496454 0.051051043 0.026618956 -0.026176082 -0.044660922 -0.028783597 -0.07572202 -0.032104287
0.017468639 0.010240415 0.0118444385 -0.070768595 -0.037710376 0.0016194589 -0.008810383 -0.028086642
-0.035295185 -0.010404792 0.0014671176 0.030948028 -0.030465797 0.027670698 0.06714721 0.0864952
0.067383565 -0.04069766 0.0136832865 0.040425714 0.06064684 -0.014796201 0.060673427 -0.07841026
-0.018659433 -0.0626827 0.098285235 -0.07404631 -0.060766414 0.039190806 0.062091306 0.009914618
0.011308391 -0.12930048 0.001854845 0.07524866 -0.014429468 0.0025137414 0.09753175 0.034582514
-0.034793522 -0.030462159 -0.0006878486 -0.021236923 -0.037900437 0.037127774 0.05646041 0.014883242
-0.021570813 -0.093286276 0.0449916 -0.007071945 0.0048634945 -0.11241116 -0.07409831 0.05331663
