small_scale_scenario/experiments/stid/METRLA/-fewshot10/final_model_s2019.pt (torch, 478531 bytes, 19 tensors)

node_emb f4 [207, 32]
00000000: af5c 95bc 071d 043c 7bf8 5a3d de30 8bbd
00000010: cf2f d23d d302 6c3d fe52 d7bd ef8d 2b3e
00000020: 5339 d3bd 87b4 a7bd 28b7 9db9 ff6c 31bc
00000030: 1ebc cc3d 779c 0abe 8d80 94bd 0d9e a238
00000040: 8e72 003d ef77 31be e620 4a3d 91cc 1abe
00000050: d127 9b3d 9a09 0c3c 5724 80bd 45c1 113e
00000060: 64f3 9fbd 0171 34bd 7b2e 44bd 0504 16be
00000070: b62b 0dbd e754 99bd d70b 9abd fb53 abbc
00000080: 4274 17bd 1abd d2bd f6e6 f43d 1497 31be
00000090: 3f15 523d 4212 043e 1745 b03d 17d1 2bbd
000000a0: 0cfe 08bb 9599 90bd 78f2 b1bd 1d4e 40be
000000b0: a40f 333d d4b4 8dbd 48ef e63b a3c8 ba3d
000000c0: c4ae 2cbd 4bc4 0a3e d268 ee3d d766 113d
000000d0: a70e 2c3d 0808 7f3d 659f 293e bed5 4d3b
000000e0: a511 103d 01bf b13c c989 6ebd 9920 1b3d
000000f0: 66b2 4cbd d2ba 0a3d d2bd 453d bd14 debc
00000100: 8d40 21be 6f9a 333c 5b09 fabd 0744 b63c
00000110: 10d6 bbbc 5894 893b 337e df3d 138a d5bc
00000120: 39a8 b13d 2958 5bbd b517 eb3d e2b1 0a3e
00000130: 7979 6c3e af40 a7bd 4626 91bd f5f9 f6bd
00000140: afdb 853d 8e27 d63c 345c b23d 1fc8 d53d
00000150: ed1f ee3d a95c 463e 4a27 00be 0937 dfbb
00000160: 2ffa 3a3e f17c 8a3c 8230 ac3d 7175 c1bd
00000170: dea6 0ebd 8c99 23bd 0e07 abbd 1c74 2e3d
00000180: 9847 b33d dabd 903d 62de 233e 84ad a3bd
00000190: fea8 0abe ac63 7dbc 5237 58bd 8468 29be
000001a0: b696 00be 19ea 5e3e e5cf 44bd 4fbf d93d
000001b0: 8665 95be 8a2f 103e 5378 bf3d 4e7a fc3c
000001c0: 0103 363d aac7 9c3c 9545 0e3e 3c0d 613b
000001d0: f0b3 63bd 1a23 38be ef50 f73d 08ac 82be
000001e0: 8e4a cb3d 3d7c 93bd f2b3 023e bcad e7bb
000001f0: 7b08 c03c 1562 aebd 6254 3d3b 885e 943b
00000200: 9766 05be c600 a0bd 7277 91bd 0347 eabd
00000210: 100e 8ebd f688 64bd 3169 dd3d ad46 a2bd
00000220: 3c6d e9bd 7bf4 df3c a8c9 a73d bddf 193d
00000230: c353 bdbd 7818 e73d bed2 e0bc e858 633e
00000240: 973f 16be d7e8 7b3d 91e1 30be 4d2b a7bd
00000250: 8ee7 a4bd 598e 42be 24f6 21bd 075e f5bc
00000260: 9bfe 2e3d 8a5b a2bd 1046 193e 9128 1fbe
00000270: 00fa c7bd ed5e 0d3d 7d14 f13d f636 34be
00000280: d808 d33d 46fa 23bc e424 6b3e 2f79 9fbe
00000290: 89c0 fbbd 13e8 bbbd 0fb5 86bd c307 fabd
000002a0: c568 99bd 6252 493e b429 d53d 36c4 28bd
000002b0: 409f 77bd 88a7 f53d 063e 563c b20b b33d
000002c0: 27fc 32bc f428 093e c5d3 fabc c991 f5bc
000002d0: 394d b3bd 65ba 9bbc 3d83 a8bd 8159 29be
000002e0: 8f7b d03c 2ccb 02bd 12b7 783e b2f6 063c
000002f0: 8093 59bd 861a a0bd d830 34bd 4ad7 2f3e
00000300: f9a5 20ba b492 71bd 3b3d 14bd 8a90 92bc
00000310: c32d c2bd 387e 58be b53a debb 2aa3 bb3d
00000320: bcc0 4dbd 1565 1cbd d6f7 60bd 4bc3 05bd
00000330: e68d f33c 9d13 fb3d 1e76 923c 907f 9a3d
00000340: 0db7 7cbd ecb6 a53d dd8c b23d 4609 d0bd
00000350: c732 a13d d847 ccbd 7c66 a83d 12fd 43bd
00000360: 8d1c 3e3d 76a3 f2bc 3450 41bd 7275 063d
00000370: de08 a4bd e6d1 183d 45fa 123e 6cc2 84bd
00000380: 86fd 093e 7800 6bbd 5845 46bd afb6 82bd
00000390: 697c 99bd c6cb 463d f7f3 a73c 11b3 4dbe
000003a0: 8ef6 b73d 3834 00bd 5c27 1fbe 1284 04bd
000003b0: 0ec9 00be d643 89bd 5105 273d 7989 a63d
000003c0: 75b7 14be 934b f8bb cbe1 2c3e 2bf8 13bd
000003d0: 70ba 213d aa39 d5bd e221 0a3e 405a c5bd
000003e0: 1f8d 1d3d b614 c63b e668 08be 6e54 983d
000003f0: 2898 d7bc 7799 f0bc ba82 eb3d 6d84 fb3d
-0.018232672 0.008063561 0.053459626 -0.0679643 0.10263025 0.05761988 -0.105138764 0.16753362
-0.10313668 -0.0818873 -0.00030081836 -0.010829209 0.09996818 -0.13536249 -0.072510816 7.754201e-05
0.031359248 -0.17330907 0.04934778 -0.15117098 0.07575954 0.008547211 -0.06256931 0.14233883
-0.07810095 -0.04405308 -0.04789589 -0.14649971 -0.034465514 -0.07486897 -0.075217895 -0.020914068
-0.036976106 -0.102899745 0.11958115 -0.17342788 0.051289793 0.1289759 0.08606928 -0.04194745
-0.0020903377 -0.070605434 -0.08688825 -0.18779798 0.043716088 -0.06919256 0.0070475675 0.091203
-0.042158857 0.13551442 0.11641087 0.035498466 0.04200616 0.06226352 0.1656471 0.0031407918
0.035173077 0.021697523 -0.05823687 0.037872884 -0.04997482 0.033869572 0.04827673 -0.027109498
-0.1574728 0.010962113 -0.12208816 0.022249235 -0.022929221 0.004198592 0.109127425 -0.026066815
0.08674664 -0.053550873 0.11479131 0.1354442 0.23093213 -0.08166634 -0.07087378 -0.12059394
0.06536042 0.026141908 0.087089926 0.10438561 0.11627183 0.19371285 -0.12514988 -0.0068119806
0.182595 0.01690528 0.0840769 -0.09446228 -0.034827106 -0.039941356 -0.08350955 0.0425912
0.0875389 0.07067461 0.16002801 -0.0799208 -0.13541028 -0.015465658 -0.052787133 -0.16543776
-0.12557492 0.21768989 -0.048049826 0.10632192 -0.2917902 0.14080635 0.09349122 0.030820038
0.04443646 0.019138176 0.13893731 0.0034340164 -0.055591524 -0.1798214 0.12075984 -0.25521874
0.099263296 -0.07201431 0.12763956 -0.0070702713 0.023441544 -0.085148014 0.0028889407 0.0045278706
-0.13027416 -0.078126475 -0.071028605 -0.11439326 -0.06936276 -0.05579468 0.10811079 -0.079236366
-0.11397788 0.027338257 0.0819276 0.03756689 -0.09244492 0.11283964 -0.02744424 0.22201884
-0.14672695 0.06150135 -0.17273547 -0.08162556 -0.08051978 -0.18999614 -0.03954138 -0.029952062
0.04272328 -0.07927616 0.14968133 -0.15542819 -0.097644806 0.034514356 0.11771486 -0.17599091
0.10304421 -0.0100084 0.22963291 -0.31147143 -0.122925825 -0.09175124 -0.06577503 -0.12208512
-0.07490686 0.19660333 0.10408345 -0.041202746 -0.060454607 0.11994845 0.013076311 0.08742465
-0.010924376 0.13394529 -0.030618558 -0.029976742 -0.087549634 -0.019009778 -0.08228157 -0.1653805
0.025449542 -0.03193204 0.24288586 0.008237528 -0.053119183 -0.07817559 -0.043991894 0.1717197
-0.00061282475 -0.058977798 -0.036191206 -0.017891187 -0.094813846 -0.21141899 -0.006781901 0.091619805
-0.050232634 -0.038182337 -0.054923855 -0.03265695 0.029730748 0.122596 0.017878588 0.07543862
-0.06169801 0.0809153 0.08718274 -0.10158019 0.07871013 -0.099746406 0.08222672 -0.04784877
0.046413947 -0.02961896 -0.04719563 0.03282685 -0.08009504 0.03730955 0.14353283 -0.064823955
0.13475618 -0.057373494 -0.048405975 -0.063825004 -0.074944325 0.048534177 0.020502074 -0.2008784
0.089825734 -0.0312998 -0.15542358 -0.032352515 -0.12576696 -0.06702392 0.040776554 0.081316896
-0.14523108 -0.0075773685 0.16883008 -0.036125343 0.03948444 -0.10411389 0.13489488 -0.096363544
0.03846466 0.0060449494 -0.13321266 0.07437979 -0.026317671 -0.029370053 0.114995435 0.122811176

time_in_day_emb f4 [288, 32]
00000000: 453d e4bd 158e 67bd fadb ebbd 3cd2 a93d
00000010: 7fe6 15be 0536 d5bd 3317 a83d 386f 463e
00000020: bc19 383d 7e3f 373e 3ed6 103d f843 653d
00000030: f09d c0bd 15db 1fbe 308b 6f3d c6fa d03d
00000040: 4fdd 8c3d 47cb ab3c 61f2 c3bd 2a07 abbd
00000050: db6f b43c 61b6 983c 6612 09bd fed1 ea3d
00000060: c76d 913d ae51 12be 6a2d 993d cd04 05be
00000070: 9dff 0abe d801 1e3d 52fb 64be 731c b73d
00000080: 1724 e9bd 8459 7b3d 9aff 4cbd 4428 203d
00000090: 49f3 87bc ed35 67bd ebd4 f1bd c1a0 523e
000000a0: bb3f 913d 75c7 3b3e ce21 a93d 5fbc 2b3e
000000b0: f746 b83c 80d1 29be 4f21 81bd 1b40 eb3d
000000c0: d29e 99bd fff6 873d 6622 b5bd a818 99bd
000000d0: eb7a 6d3c 241e 14be c550 49bd 7c1c 8e3d
000000e0: 0636 ad3d ba62 debc 56d4 5e3c 06a9 6cbd
000000f0: bd0b 15bd 8437 713d 7583 2abe beeb 053e
00000100: e034 6bbd f3fa 283d a388 78bc 4034 333d
00000110: 2f8c 68bc 865c 53bd 77b2 84bd 5d0d fe3d
00000120: 90d6 563d 9d60 a63d d208 aa3d 3954 183e
00000130: 2de8 183c a799 4bbe 4487 5d3c 2411 2f3e
00000140: a7d3 f8bb 3b42 1e3d 6e30 37be 88aa 7bbc
00000150: 8232 e4bb 5cc2 43be 7511 fd3b 569a ed3d
00000160: e8f4 813d 5fdf b2bd e01d 443d 9e8d bcbd
00000170: 8d75 ddbd 1636 c43b 5a86 cebc 54c6 913d
00000180: a632 94bc ed2a b13d 5267 54bd 39b8 ae3c
00000190: 81c3 7abd ab62 29be 9597 66bc 9b93 a83d
000001a0: 6822 c4bd 8b7f 8fbc 39af c9bc 5f52 7b3d
000001b0: e19c cfbd 4289 29be c0ce c6bd 5116 d63d
000001c0: 38ba 47bd 662d 2a3e ba5c 26be ff29 d0bd
000001d0: 8732 00be d392 fdbd 373f 22bd a363 a6bd
000001e0: 4984 c83d 40d7 a73d 4cea adbc 989c 80bd
000001f0: 7f12 21be e24d 75bc ea20 6a3d cc07 523d
00000200: b57f 6f3c 42c4 88bc ee2d 3b3d 0da9 cebd
00000210: c54d fdbd 29f2 383d bb50 3fbc 15e0 fb3d
00000220: 390b b7bd 447e 113a fa7a 403e 4421 74bd
00000230: 6870 c2bd 2747 fbbd f1fb f63d 7e1a da3d
00000240: bbd8 38bd a754 d9bd 513e 07be 85bc 87bc
00000250: df53 99bd 4437 b8bd d687 fb3c fe33 473c
00000260: 4f4d f43d 84be 26be 838a 6a3c 321d 0abd
00000270: d409 e0bc 2102 d5bb e10b 03be d257 313d
00000280: eed2 8f3d 4857 1b3d b31d be3c 2276 b2bb
00000290: f754 20bd 3b30 6bbd 0ffe 1a3d affa 1d3e
000002a0: 91c7 343d 27e1 fc3c f215 703e 0ca7 8dbd
000002b0: 47c2 d2bd 7bad 6dbc b658 613d 10a1 01be
000002c0: 1116 25be 1c27 873d 306d b33d 734b b7bd
000002d0: 1ab4 7cbb 7304 adbd 84d4 af3c dd40 7bbc
000002e0: b168 533d b865 09bd f157 973d 2648 1dbd
000002f0: 7b17 18bd b3b3 41bc aa53 7abd bc39 6ebd
00000300: a7ab ea3d e03b 6fbc 409d 0e3d 1827 473d
00000310: e64b ea3c c0ed 283d f8f9 c13d 23ea 2e3d
00000320: 8cbd 993d c6ff 133e de12 f13d b619 093d
00000330: 67e9 563d 44ea 44be 76a2 793d 8c24 c3bd
00000340: eb25 65bc 33f5 113e 7fe9 57bc 6698 27be
00000350: 0d8b 6c3d c58f e9bc 8990 e03d fb17 8a3d
00000360: abce 133d 43d8 9abd 8ae9 6d3d 6f31 eb3c
00000370: 0609 72bc 48a9 b03c a1ad 2ebe 92b7 683d
00000380: a650 2a3d fd1d 803c 5068 cfbc 1692 c93d
00000390: c292 74bd f0f6 cb3d e3ff 013e 5250 783d
000003a0: 4340 cf3c 5228 4c3e 08a6 f33d 3456 3cbd
000003b0: 2b2a 953d ddf1 34be c104 023d 8bfa 08bd
000003c0: 41fa 7a3c 1d15 1f3b c624 c8bd 18a8 59be
000003d0: 974e af3d 3957 c7bd bb11 0e3e 58de 243d
000003e0: 387e 3ebd 1287 a3bd c3b3 50bd 6072 c4bd
000003f0: b098 c13d e9ca f3bb 52ca 7b3d aae2 24bd
-0.11144499 -0.056531984 -0.115165666 0.08292052 -0.14638709 -0.10410694 0.0820755 0.19378364
0.044946417 0.17895314 0.035360567 0.055973023 -0.09405124 -0.15610917 0.05848235 0.10204081
0.06878149 0.020970954 -0.095677145 -0.08350976 0.022025993 0.018641653 -0.03346481 0.11465834
0.071010165 -0.14288971 0.07479365 -0.12990113 -0.13574071 0.038575977 -0.22361496 0.08940973
-0.11383837 0.061364666 -0.05004845 0.0391009 -0.0165955 -0.056447912 -0.11808189 0.20569135
0.07092234 0.18337806 0.08258401 0.16771077 0.022494776 -0.16583824 -0.06305181 0.114868365
-0.07500996 0.06638908 -0.088444516 -0.07475406 0.014494638 -0.14464623 -0.049149293 0.06939027
0.0845757 -0.027146686 0.0136004295 -0.05777838 -0.036388148 0.058890834 -0.1665171 0.1307821
-0.057423472 0.04125495 -0.0151692955 0.043751 -0.014193579 -0.05160191 -0.06479352 0.124048926
0.052450716 0.08123896 0.083024636 0.14875878 0.009332699 -0.19882832 0.013521019 0.17096382
-0.0075935903 0.03863738 -0.17889568 -0.015360482 -0.006964029 -0.19117111 0.0077230283 0.11601703
0.0634554 -0.08734011 0.047880054 -0.09206699 -0.10813437 0.005987893 -0.025210548 0.07117906
-0.018090557 0.086507656 -0.051856346 0.021328079 -0.061221603 -0.16541545 -0.014074226 0.082312785
-0.09576875 -0.017516872 -0.024619685 0.061357852 -0.10137344 -0.16556266 -0.09707403 0.10453475
-0.048761576 0.1661888 -0.1624631 -0.1016426 -0.12519275 -0.1238152 -0.039611068 -0.08124473
0.097908564 0.081953526 -0.021229886 -0.06279868 -0.15729712 -0.014972182 0.057160296 0.051276967
0.01461785 -0.016695146 0.0456981 -0.10090838 -0.12368349 0.045152817 -0.0116769625 0.122986
-0.089376874 0.0005550126 0.18796912 -0.059602037 -0.09494096 -0.122694306 0.12059773 0.10649584
-0.045128565 -0.10611849 -0.13207366 -0.016569385 -0.074867 -0.08994916 0.03070442 0.012158392
0.11928808 -0.16283613 0.01431525 -0.03371925 -0.027348436 -0.006500498 -0.127975 0.043296643
0.070226535 0.037925035 0.023207521 -0.0054462114 -0.03914353 -0.057419043 0.037839945 0.1542766
0.044135634 0.03086908 0.23445871 -0.06916627 -0.10290962 -0.014506693 0.055016242 -0.12659097
-0.16121699 0.065992564 0.0876106 -0.08949938 -0.0038559497 -0.08448114 0.02146364 -0.015335289
0.051613513 -0.033544272 0.0738982 -0.038398884 -0.037131768 -0.011822629 -0.061114945 -0.05816053
0.11458521 -0.014601678 0.034817934 0.048621267 0.028600644 0.04124236 0.09471506 0.04270376
0.07506856 0.14453039 0.11771177 0.033471785 0.052468684 -0.1922999 0.06094595 -0.09528455
-0.013986091 0.14253692 -0.013178228 -0.16366729 0.057749797 -0.028510937 0.10965068 0.06742855
0.036085766 -0.0756078 0.05808405 0.028710095 -0.014772659 0.021565095 -0.17058422 0.05681569
0.04158082 0.0156393 -0.025318295 0.09842317 -0.05971027 0.09959209 0.1269527 0.060623474
0.025299197 0.19937256 0.11896902 -0.045980647 0.072834335 -0.17670389 0.031742815 -0.03344206
0.015318454 0.002427406 -0.09772639 -0.21255529 0.08559912 -0.09733433 0.13873951 0.040251106
-0.04650709 -0.07984747 -0.050952684 -0.09592128 0.09452951 -0.0074399603 0.061472245 -0.040255226

day_in_week_emb f4 [7, 32]
00000000: fe26 95be 7f99 a63e 4da6 8a3e 3cca 693e
00000010: 1585 8cbe 3363 a93a 2108 7d3d c5e3 8abe
00000020: 6b41 80be 3769 9c3e 3269 2b3e e423 95be
00000030: 21e9 413d c612 5f3e 0400 7bbe 7dd3 d4bb
00000040: acb6 463e 82ec 343d 4666 d1bd 2c9c 9e3e
00000050: 1322 0e3e 6ed5 4a3e 55f0 493d 4dc6 6b3b
00000060: eec1 8b3e eee9 7ebe 7d60 083e b0e3 8f3e
00000070: f74d b03e 12a4 d03d 9c8c d13d 5935 3d3e
00000080: b52b 35be 1093 7a3e a68d 443c 9380 0bbe
00000090: 1e41 f23c bf72 98be d3b7 7bbe db92 7d3d
000000a0: 0bcd 85bd 9119 8a3d ba9b 023d f7e5 bd3d
000000b0: 015f 9bbe a877 4f3e f766 eebc af02 0cbd
000000c0: 6491 1abd 542e 7b3e e3ba 6abe cc6d 393e
000000d0: fb57 8bbe 9efd 3ebe c4ba 873e 5050 853e
000000e0: 055f c93d f741 9bbe e04c b5bd 55df dc3d
000000f0: 2eeb 103d 518b c53d 48c6 0a3e ce72 3fbe
00000100: 2c86 a03e a17c b03e 0c78 163e c7fd b2be
00000110: f854 a33e 3eff 823d 36f6 063d 453f 3fbe
00000120: c68d f83d 1270 2ebd 8209 54be f959 263e
00000130: 1af7 b4be f5ad 7fbe a26b 103d 0629 8fbc
00000140: 5dac bd3c 89f2 673e ae8c 2abe 78b2 5a3d
00000150: f9ea 473e e4d4 a23e 36ff 9ebb 21f5 763d
00000160: 31de 7b3e 5c81 81be 7493 b8bc 29f8 aa3e
00000170: ded5 8f3a 12df 623e 6638 9cbe d7e1 37bd
00000180: 9197 5d3d a7e4 58bd c970 523b e782 123e
00000190: 057c 923e 5cea 893c 9d8b c63c 82b0 963d
000001a0: 2eb5 713e 7a98 183d 4d7f 89be f073 bdbc
000001b0: a25c 7d3d 727a a5bd 0739 0fbd 2b08 343e
000001c0: 16d8 febd e140 a1bd cc7a 923e d730 d3bd
000001d0: 9ad1 1bbe d061 b6bc 6754 2d3e f2fa 173d
000001e0: e39d 9b3d 2525 99be 0d43 c93d 0955 c43e
000001f0: eb0f 613e 8b4c 68be c027 e23c 7d6a 7cbe
00000200: d9d1 9b3e 1626 e5bd 7700 62be 9da8 993b
00000210: 4b37 893e 7365 173e e95d aebe 22aa 3c3d
00000220: 4f79 5e3e 7617 913e 5e17 b5be b0af 95be
00000230: 11a3 643e af43 fd3c 5378 4ebe 9b33 4a3e
00000240: 9f12 8a3d ac0c 26be 6b16 413e a02e 8cbe
00000250: 9efa 29be 5fcb 8f3e 630e e33d d0ef a3bd
00000260: 6987 823e 3998 a7bc 52a5 8d3d c395 6e3e
00000270: 5855 6d3e abff 6abd 9247 193e b88e 573e
00000280: 98cc 933e f224 2bbe a073 683e a57a 47be
00000290: df75 bebd 96aa 723d bc84 a0be 5e28 28be
000002a0: 4f8b 4fbe 0ee5 cebd acdf c4be f563 1c3e
000002b0: e77a c2be a5db 1fbe 74dc cb3a 7eee bd3d
000002c0: 8fdc 36be 4c08 f73d 53aa 8a3d bd71 3ebe
000002d0: 7c68 983d fb35 ba3e 22e3 853e 6066 0fbe
000002e0: 4fa2 bb3d 38b7 193e 11d3 08be d147 533d
000002f0: 0c45 c33e 2be3 9abe a1d2 943e d025 ff3d
00000300: 53a6 90be d8ca 8f3e 8ce3 423e 5559 6e3e
00000310: 288d 373e 760e c63d c586 a7be 23e7 133e
00000320: c3ad 44be 6979 9ebe 1e90 a6bd 05be 713e
00000330: 8e20 da3c 6758 403e c039 15be 1360 9abe
00000340: 088d 813e 0bcb ad3e adcd 773e fa0e 80be
00000350: c078 84bd 2ff5 133e 4eef fcbc 68d0 2c3e
00000360: 412d 90be 3bd8 283e 6c73 77be e993 46be
00000370: 8368 703e e95e 50be 85be 1dbc 9f5d 863e
-0.2913131 0.32538983 0.27080002 0.22831053 -0.27445284 0.001292324 0.06177533 -0.271269
-0.2504991 0.30549023 0.16739348 -0.29128945 0.04734147 0.21784505 -0.24511725 -0.006494938
0.19405621 0.044170864 -0.10224585 0.30978525 0.13880186 0.1980798 0.049301464 0.003597635
0.27296394 -0.24893925 0.13318057 0.281034 0.34434482 0.10187544 0.10231897 0.18477382
-0.17692454 0.24470162 0.011996662 -0.13623266 0.029572066 -0.29775044 -0.24581842 0.06190763
-0.065332495 0.06743158 0.031886794 0.09272378 -0.3034592 0.20260489 -0.029101832 -0.034182247
-0.03773631 0.24529392 -0.22922854 0.1810829 -0.2721556 -0.18651435 0.26509678 0.26037836
0.09832577 -0.30323765 -0.08852553 0.10784785 0.035380535 0.09645713 0.13552201 -0.18696138
0.31352365 0.34470084 0.14694232 -0.34959242 0.31900764 0.0639634 0.03294965 -0.18676479
0.12136416 -0.042587347 -0.20706752 0.1624526 -0.35344774 -0.24968703 0.035258897 -0.017475616
0.023153478 0.22651114 -0.16655228 0.053392857 0.19523229 0.31803048 -0.004852201 0.060292367
0.24596478 -0.25294006 -0.022531249 0.33392456 0.0010973772 0.22155407 -0.3051178 -0.044893112
0.054099623 -0.052952435 0.0032110682 0.14307748 0.28610244 0.016835384 0.024236495 0.07357885
0.23604271 0.037254788 -0.26854935 -0.023126572 0.06185592 -0.08079995 -0.034966495 0.17581241
-0.12443559 -0.07873703 0.28609312 -0.1031205 -0.15216675 -0.022263438 0.16926728 0.037104554
0.07598474 -0.29911152 0.09827242 0.38346127 0.21978728 -0.22685449 0.027606845 -0.24649997
0.3043354 -0.11188905 -0.2207049 0.0046892897 0.26799998 0.14784794 -0.34056023 0.04606069
0.21725963 0.28338212 -0.3536939 -0.292356 0.2232783 0.030916063 -0.20163088 0.19746248
0.06741833 -0.16215771 0.18856208 -0.27379322 -0.16599509 0.28084847 0.110867284 -0.08004725
0.25493935 -0.020458328 0.06916298 0.23299317 0.23177087 -0.05737273 0.14968708 0.21050537
0.2886703 -0.16713312 0.22700357 -0.19480379 -0.09299826 0.059244715 -0.31351268 -0.16421649
-0.20267986 -0.101022825 -0.38451898 0.15272506 -0.37984392 -0.15611131 0.0015553371 0.092740044
-0.17857574 0.120621294 0.06770768 -0.18598075 0.07441804 0.3636931 0.2614985 -0.14003897
0.09161817 0.15011299 -0.13361765 0.05158216 0.38138616 -0.3025144 0.29066947 0.12458384
-0.28251895 0.28084445 0.19032115 0.23276265 0.1792494 0.09670727 -0.32720008 0.1444364
-0.1920691 -0.30952004 -0.08132957 0.23607643 0.026626851 0.18783723 -0.14572811 -0.30151424
0.2530291 0.33943972 0.24199553 -0.25011426 -0.06468344 0.14448999 -0.030875828 0.16876376
-0.28159526 0.16488735 -0.24165124 -0.19392361 0.23477368 -0.20348705 -0.009627943 0.26243302

time_series_emb_layer.weight f4 [32, 36, 1, 1]
00000000: 116c 99bd 7248 d83c 9026 e43d 1126 c13d
00000010: 5b07 cb3d 959c 22be b27b 69bd fcc8 e33d
00000020: b877 e53d c641 bcbd a5fb 05be f115 c3bc
00000030: 3a27 a6bd 674e 8b3d 7123 003e 3b22 d43d
00000040: a3a1 24be e04a 5f3d d5e5 50bd d919 d23d
00000050: fd40 1bbe 5dba 133e b0dd 2dbd 4fde 22be
00000060: e234 19bd ad16 243e 4d56 ed3d 2bb2 273e
00000070: 7ced 2a3e 4890 e83d fe60 143d 8dd8 e73d
00000080: 1ea9 983c 57d2 2e3e 1d67 01be 0ccc 2c3e
00000090: cc4f 913d 6fc7 ccbd 402b ff3d bbbe 5c3d
000000a0: abbc af3b e9b1 00be f8fe 11bd 3a1b 483c
000000b0: 1b03 cebd 1735 45bd 220b 17be 61e1 e7bc
000000c0: db5f 5e3d 2b37 1b3e 0086 7b3d 13b5 373d
000000d0: c4a3 33bd 9024 20be 2707 c53d c128 1c3e
000000e0: 5fcf 963d 4718 d73d 42e9 d9bd 3371 0a3e
000000f0: 4306 d33d f932 f13d 9b75 87bd 1710 163b
00000100: 100e 403c a4e0 1abe a1a0 bc3d 92ac 853c
00000110: 2a4b 47bd 933e 903c 6ecb 36bc 50eb 3fbd
00000120: f241 923c 13a4 13be 2a8f 94bd 6239 20be
00000130: bcab c63d cea6 bbbd a3d2 15ba c6d4 a23d
00000140: 45af 0abd 92f8 893d 2b00 a03d cdb4 483d
00000150: 442a 003d b4f9 8bbd 9acb b2bd 48ae d8bd
00000160: d23a 283e 57d9 53bd fddb 103e e4c2 1e3d
00000170: e908 b7bd 89d4 f93d eb6f 88bd 25a6 853d
00000180: 60f7 70bd e183 e23d 06b4 a73d 4744 b53d
00000190: bbc3 ab3c de3f 0b3d 290e ca3c d6dc 89bd
000001a0: 9bd8 07be cc55 0f3e 4503 d43d d1f7 1dbc
000001b0: fe45 393d 1ee4 0bbe ce3a bcbc 78bc b3bc
000001c0: 8b34 1f3e 64b8 edbd 3e80 e3bd 3f4d 07be
000001d0: 86b1 fabd fd4c cb3c 5b9c 003d b528 143e
000001e0: 0ac7 2b3e 4a3e febd cbc8 16bd e31d 5e3c
000001f0: 2f8a c43d 9641 173e 6b8c cb3d e738 08bc
00000200: 5c15 163b 7922 9f3c 8b6c 263e 89f7 113e
00000210: a0f1 47bd bd01 0cbe 9964 29be 576e 043e
00000220: 12b3 9c3d da0d e03c 5cbd 38bd 2706 bb3d
00000230: 755e 4bbd bfb1 e43d 8710 003e 2334 be3d
00000240: 6891 a7bd 392b d8bd e709 28be f784 243d
00000250: 0673 3f3d 7965 a5bd d62b 013e 1bf0 c83d
00000260: d3de 07bd a8ba d73d 0e99 17bd 2531 d4bc
00000270: af74 c4bd 467a 1b3e 346a aebd 1347 aabd
00000280: afb9 dd3d 3491 f43d 0b66 edbd 42f1 143e
00000290: a467 d83d a06d 0c3e 7999 113e 7080 423d
000002a0: 4c0f 2a3e f44b 0abe a0c2 cc3d 0139 e6bd
000002b0: 87d4 36bc 6889 b73c f186 f13c 0ce8 b43d
000002c0: 7629 80bd cad0 643e 4a49 ca3d 8c75 9bbd
000002d0: fcbe 3bbd 72a9 c53d 94c7 dd3d e6e0 e63d
000002e0: 51a1 083e aa2c 99bd 074e acbd 3a64 08bd
000002f0: fb78 f73d 5bda 363c 7c02 0dbe 6e9b ab3d
00000300: 458b 9d3d 1452 0a3e a899 123e 34dd e03d
00000310: 7fa5 b1bd 1967 cabd 31eb 113e e8ad cfbd
00000320: c86b 283e c999 4ebd 7061 123c a24e 4bbd
00000330: 1bb0 b93b 709c 2b3e 1b5d 25be 89b0 c43d
00000340: 28b1 e7bc c718 e33d 69c0 b63d 8cff 023e
00000350: bbc0 adba f7fd bbbd 48d9 a1bd bad6 91bc
00000360: 54f2 09be 90a1 3cbd 0022 8c3c ab57 57bb
00000370: 8fb9 063d 001a 753d 1767 1dbe c18d cd3d
00000380: 2462 5b3d dd05 38be a56e 633a 29f8 dfbd
00000390: 1201 1d3d e535 1dbe 543e fcbd b72c 8a3c
000003a0: 15f5 783d c065 edbd 3fac d03c fb09 3abd
000003b0: fad7 723d 6a4a 13be 953b 3a3d edfa 103e
000003c0: 7190 8f3d a2e4 edbd 268e 233e 7d06 cd3c
000003d0: 8082 afbd 506e 243d 4614 7f3b 6b27 113e
000003e0: 09d1 0cbe a7d5 d43d 915c f2bc 55af 4e3d
000003f0: 098c fcbd 6218 713d 6000 153e d87b 82bd
-0.07491315 0.026401732 0.11140168 0.09431089 0.09913512 -0.15880044 -0.05700273 0.11122319
0.11204475 -0.09192233 -0.13084276 -0.023814173 -0.081129506 0.068020634 0.1251352 0.103580914
-0.16077285 0.054514766 -0.051000435 0.10258836 -0.1516151 0.1442656 -0.042447746 -0.15905116
-0.03740395 0.16024275 0.11588726 0.1637656 0.16692156 0.113556445 0.03622531 0.11320601
0.018635329 0.17072426 -0.12636991 0.16874713 0.07095298 -0.099989764 0.12459421 0.053892832
0.005363067 -0.12567867 -0.035643548 0.012213523 -0.10059186 -0.048146334 -0.1475034 -0.028305711
0.054290634 0.15157764 0.06140709 0.04485042 -0.04385735 -0.15638947 0.09620505 0.15249921
0.07363772 0.105026774 -0.106401935 0.13519745 0.10303929 0.117773004 -0.06614228 0.0022897774
0.011722103 -0.15124756 0.09210325 0.01631764 -0.048655666 0.017607963 -0.0111569 -0.04685527
0.01785371 -0.14418058 -0.07253869 -0.1564689 0.097007245 -0.09162675 -0.0005715286 0.079507396
-0.033858556 0.06736864 0.07812532 0.04900055 0.031290308 -0.068347365 -0.0873024 -0.105801165
0.16428688 -0.051720943 0.14146419 0.03876008 -0.08937246 0.12198741 -0.06661972 0.0652583
-0.058829665 0.1106031 0.081886336 0.088509135 0.020967355 0.033996455 0.024664955 -0.06731574
-0.13266222 0.13997573 0.10352186 -0.009641604 0.045232765 -0.13661239 -0.022977259 -0.021940455
0.15547387 -0.11607435 -0.11108445 -0.13213061 -0.12240891 0.024816984 0.031399112 0.14468654
0.16775146 -0.124142244 -0.036812585 0.01355693 0.09596669 0.14771113 0.09938892 -0.008314348
0.0022900915 0.019425618 0.16252343 0.14254583 -0.048814416 -0.13672538 -0.16542281 0.12932716
0.076513425 0.027350355 -0.045102462 0.09132033 -0.049650628 0.11166715 0.12506305 0.09287288
-0.08182031 -0.10555119 -0.16410027 0.040165868 0.046740554 -0.08075995 0.12614378 0.098114215
-0.033171486 0.10533649 -0.0370112 -0.02590234 -0.09592568 0.15183362 -0.085163504 -0.083143376
0.10826432 0.11941758 -0.11591729 0.14545158 0.10566643 0.13713694 0.14218701 0.04748577
0.16607398 -0.13505536 0.09998059 -0.112413414 -0.011159069 0.022404388 0.02948329 0.08833322
-0.06257908 0.22345272 0.0987726 -0.0759078 -0.045836434 0.0965146 0.10829082 0.11273365
0.13342787 -0.07479222 -0.0841332 -0.03329871 0.12083622 0.011160458 -0.13770479 0.08379255
0.07692579 0.13507873 0.14316428 0.10979691 -0.08674144 -0.098829456 0.14249875 -0.10140592
0.16447365 -0.05043963 0.008934364 -0.049635537 0.0056667454 0.16758895 -0.16148798 0.09603984
-0.028282717 0.1108871 0.08923418 0.12792796 -0.0013256291 -0.09179299 -0.07902771 -0.017802585
-0.13471347 -0.046052516 0.017106056 -0.003285865 0.032891806 0.05983925 -0.15371357 0.10036803
0.05356039 -0.17970987 0.000867585 -0.10936005 0.0383311 -0.1535259 -0.12316576 0.016867025
0.060780603 -0.11591673 0.025472758 -0.045419674 0.059288003 -0.14383855 0.045466978 0.1415822
0.07009972 -0.11615874 0.15972194 0.025027508 -0.08569813 0.040144265 0.0038921996 0.14175193
-0.13751616 0.103923135 -0.029585155 0.05046018 -0.12331397 0.058861144 0.14550924 -0.063712776

time_series_emb_layer.bias f4 [32]
00000000: 89d6 efbd e7f8 e4bd 4366 1dbd 3235 743d
00000010: 0329 033e 54f6 7b3d 52dc e1bd 030a 23be
00000020: 8ef0 0f3e 86a1 ce3c 7e96 6ebd 8734 e2bd
00000030: ac13 003e 66d6 d73c 7c86 053e 3359 27bc
00000040: 9072 dd3d f1ab 0ebd 64a1 fcbd b8f0 2f3d
00000050: 6b34 f33d 0143 de3c f473 703d e2b8 24be
00000060: ee5b e8bd 9859 063d e6a7 0f3c bba7 d0bc
00000070: e7eb 04be 36e1 ae3d c77a aabd 3185 14be
-0.11710841 -0.11180287 -0.038427602 0.059621044 0.12808613 0.061514214 -0.11028351 -0.15921788
0.14056608 0.025223505 -0.05824899 -0.11045175 0.12507504 0.02634735 0.13039583 -0.010214138
0.10812867 -0.034831945 -0.1233547 0.042954177 0.11875232 0.02713156 0.05870433 -0.16086152
-0.11345659 0.032800287 0.008768057 -0.025470605 -0.12980615 0.08539049 -0.08324199 -0.14503933

encoder.0.fc1.weight f4 [128, 128, 1, 1]
00000000: d4b4 14be 5895 883d 7a0e 64bd 23a2 9dbc
00000010: e283 51bd 2eb7 2a3d f758 a83a 759c 1c3e
00000020: 24ac 4cbd 2259 3dbd ee0c a7bc 630f 5ebd
00000030: 5af7 3d3d d731 84bd e45a 8dbd 286d b3bd
00000040: ae09 993d 09be ca3c 5470 aa3d 4a56 dbbd
00000050: e092 72bc 6360 023d c68d 393c 8034 3e3d
00000060: faa3 163e 5d35 03bd 6f52 eebc 10e6 e43d
00000070: 8c54 b53d adc1 373d cb25 73bc e9b7 71bd
00000080: 5799 6fba 60d5 863c f6ea d83b 003d 823c
00000090: c743 8bbd 8d0c e8ba db65 5dbc b664 303d
000000a0: 6bc0 24bd caa5 cdbd 6ad2 273d e79c bebc
000000b0: 8cdf 04bd 280d b2bc fd02 5e3d d609 b8bd
000000c0: 8390 b63d f148 27bd 692a 71bd 1ff1 e0ba
000000d0: 2863 f4bc 9354 163b 3872 3fba 72ac b0bc
000000e0: dc88 08bc e0a7 053d d755 82ba a7f8 d73d
000000f0: 820d ab3d a327 9cbc 716e 3cbd ae44 653d
00000100: 1fa7 16be 4dfa 233c a1fb 413d 4c76 9e3c
00000110: a031 92bd 2f6d 3dbe e77a 0dbd b8d0 e33b
00000120: 446c 0ebd 2bda d23a d58d 0c3e 457f 18bd
00000130: 6e38 b63d 3e64 06bd 1490 cebc 9e58 be3d
00000140: ca0b 57bd 83d2 ea3d b08b 4a3b e494 093b
00000150: 351f 0fbe b6f6 063d 3d96 1c3d 2863 10bd
00000160: 29cd 0e3e b369 93bb 0c6f 6a39 1238 0a3d
00000170: d031 43be 19e6 793d fa6c 3a3e e3d8 453d
00000180: b47d 2dbd 23c7 bb3c 9dcc eb3c b44d a2bd
00000190: 1dc1 b33c 8b7e debc 0a93 f83d f90d b0bc
000001a0: 54b7 4a3d 272b 813d 22e6 8c3d b22e 5e3d
000001b0: f705 8a3d e8a5 49bc 5c89 1f3c 2a92 3cbd
000001c0: a7e4 edbd d587 69bc dd5e 1ebd 570f a1bd
000001d0: 50c4 333d d943 f0bd fe76 d1bd b70e bebd
000001e0: 98e6 99bd dfd1 563d 6cb2 e7bc 471f babb
000001f0: c31c 373c 7019 5dbd 588c 043d bd13 5f3d
00000200: f23f b73c b278 a0bd 3aa6 c63a 3359 11b8
00000210: a55c b3bd 8630 453d 6153 aa3c ccf0 833d
00000220: 6886 2e3d 8887 8c3d ca9e d1bc 1010 95bc
00000230: 69ec 1ebb 7ff2 2cbd d53c 243d f770 883d
00000240: d5ea 6b3c d6e8 8fbd d500 b3bc 87bd 923d
00000250: 71fd 03be 506e 4c3b 772b f1bd 53f4 81bd
00000260: a780 bc3d e833 c3bd ba47 e43d 1f59 483d
00000270: 9511 973d da75 aebd f60a 9a3c 629a a33d
00000280: 43c7 1b3d 6564 f3bd 8d51 9abd 606d 8fbc
00000290: 5a4e eebb 420f 8d3d 556c 79bc e8cd 95bd
000002a0: 5aa6 14bd 3230 04be 3ae8 be3c ebd4 15be
000002b0: 539e 05be 40fd cfbd e8ed 313e 6b8c b1bc
000002c0: 7b42 423d fde7 dfbd 8c8d 7cbd d2fa 6ebd
000002d0: 7b88 c93c ceed eabc 0924 dfbd ea31 953d
000002e0: e5b4 3dbd be8f d63c 1454 d33d ea89 37bc
000002f0: 1e46 313e 884c 25bd 90df cdbc 7357 e43d
00000300: 0836 09bd 29de ce3d be64 043d 8a1d 07bd
00000310: e878 133d 595c 0abd 0310 10bd ba8c a93c
00000320: e793 233c 04f5 5bbd add3 a53d 8b9c 1f3d
00000330: 4843 ed3b 40d6 29bd 1133 013d c087 803b
00000340: 8d07 dd3d 36bd e4bb b40e 22bd fc1f 8a3d
00000350: ad81 aebc 296f 94bc 1680 b8bc 900c 0bbd
00000360: ef5f 463d b84d d03c c839 a1bc 4164 6d3d
00000370: 51db 6bbd c32b 893d 82f9 003c 2320 7fbc
00000380: 0aaa 643d 6e7e 5ebd 0de3 8e3d ade2 8dbd
00000390: 4793 ec3c d65a 083d 716b 2d3d fe54 ab3c
000003a0: c479 9f3c e12f 21bd 7578 a43b 8a04 74bd
000003b0: a80a 1a3c 0466 3abd 26b5 c63c 0cb1 123b
000003c0: b14d 8abd 6ec7 04bd 759d 703c 1964 d93d
000003d0: 0f46 2e3d 4bb2 f23c 5176 8abd 9988 523d
000003e0: 8331 d8bd 4e2b 713d a68a 98bd 39f1 9cbd
000003f0: 59a2 3c3d 44f6 6e3d 9bdc febb ccc8 88bc
-0.14522105 0.0666911 -0.05567787 -0.019242352 -0.051151164 0.0416786 0.0012843896 0.15294059
-0.049968854 -0.04622758 -0.020391908 -0.054213893 0.04637847 -0.06454819 -0.06902102 -0.08761054
0.074725494 0.024748819 0.08322206 -0.10709818 -0.014805526 0.031830203 0.011325305 0.046436787
0.1471099 -0.032033313 -0.029092042 0.111766934 0.08854017 0.044862438 -0.0148405535 -0.05901328
-0.0009139976 0.016459167 0.0066198064 0.015898228 -0.06800037 -0.0017703936 -0.013513054 0.043064795
-0.040222567 -0.100413874 0.04097215 -0.023268176 -0.032439753 -0.021734789 0.05420207 -0.08986251
0.08914282 -0.040841047 -0.058878336 -0.0017161703 -0.029832438 0.0022938594 -0.00073030917 -0.021566603
-0.008333411 0.0326308 -0.0009943795 0.105454735 0.08352186 -0.019061869 -0.046003763 0.0559737
-0.14712189 0.010008407 0.047359113 0.019343518 -0.071383715 -0.18498681 -0.034541037 0.0069523714
-0.03477122 0.0016086748 0.1372598 -0.03723075 0.08897482 -0.032810442 -0.025215186 0.09294246
-0.052501477 0.11465933 0.0030906014 0.0020993287 -0.13976748 0.032950126 0.038229216 -0.035250813
0.1394545 -0.0044986843 0.00022357347 0.03374488 -0.1906197 0.061010454 0.18205634 0.048302542
-0.042356208 0.022922104 0.02878409 -0.07924977 0.02194267 -0.02715995 0.121374205 -0.021491038
0.04949124 0.06307059 0.06879832 0.05424375 0.06739419 -0.012307622 0.009737339 -0.04603783
-0.116158776 -0.014253576 -0.038664687 -0.07864254 0.04388839 -0.11731691 -0.10227774 -0.092801504
-0.075146854 0.052446242 -0.02828332 -0.005679998 0.011176291 -0.053979337 0.032360405 0.054462183
0.022369359 -0.07835521 0.001515574 -3.4653767e-05 -0.08757905 0.04814198 0.020791711 0.06442413
0.04260865 0.06861788 -0.025588412 -0.018196136 -0.0024249798 -0.04222345 0.040097076 0.06662171
0.01439925 -0.07026832 -0.021850983 0.07165056 -0.12889649 0.003119368 -0.117758684 -0.06345429
0.09204226 -0.09531385 0.11146493 0.048913117 0.073764004 -0.08518572 0.018804055 0.079884306
0.038031828 -0.11884383 -0.07535086 -0.017508209 -0.007272524 0.06887676 -0.015223582 -0.07314664
-0.036291458 -0.1290901 0.023304094 -0.14632003 -0.13048677 -0.101557255 0.1737591 -0.021673402
0.047426682 -0.1093292 -0.061658427 -0.05834467 0.024601212 -0.028677847 -0.10895545 0.07284911
-0.046315093 0.026191588 0.10318771 -0.011202315 0.17311904 -0.04035619 -0.025131017 0.11149492
-0.033498794 0.101009674 0.032322638 -0.032987155 0.036003977 -0.033779476 -0.03517152 0.020696986
0.009983993 -0.053700462 0.080970146 0.03896765 0.0072406866 -0.04146409 0.03154284 0.0039224327
0.10792456 -0.0069805635 -0.039564803 0.06744382 -0.021302069 -0.018119412 -0.022522014 -0.033947527
0.048431333 0.025427684 -0.019680873 0.057956938 -0.057582203 0.066978 0.007871987 -0.015571627
0.055826224 -0.05431979 0.069769 -0.069280006 0.028878821 0.033289753 0.042338792 0.02091455
0.019467242 -0.0393523 0.0050192424 -0.05957464 0.009401955 -0.045507446 0.0242563 0.002238336
-0.067531 -0.032416753 0.014685978 0.10614795 0.04254728 0.029626032 -0.06760848 0.0513998
-0.105563186 0.05887919 -0.0744832 -0.07663197 0.046053264 0.058340326 -0.007777763 -0.01669731

encoder.0.fc1.bias f4 [128]
00000000: 4233 04be 71ea 05be f9fd f7bc 9884 debd
00000010: 6d71 38bb 3199 8dbb 6d91 2d3d e669 bb3d
00000020: 72d8 41bd a6ec 723c 24ae edbd 4994 83bd
00000030: 9cf0 8a3b c5ce e43c ef68 563c 9167 173c
00000040: 9f84 e7bc 9b5e edba a455 c6bc b7cd f8bc
00000050: be15 92bc 7252 3e3c 4e17 053c b250 523c
00000060: 8472 0fbd bcae 7dbd a41e 273d 94aa 05bd
00000070: 8400 0dbd e9ec 2c3d f621 9ebd 349c 68bd
00000080: 623e 13bd c9ef 8e3d 18a3 1ebd 8c9f d1bb
00000090: 6896 fbbc 2e0b a5bc 29d9 95bc bd79 203d
000000a0: 98ec b3bc f953 6e3d 326b c63c 94c8 80bd
000000b0: 578a eabd 6794 bfbd d81b 1abd 9c99 dcbd
000000c0: 639a 1a3d 2b1f 23bd 64b7 e43b 2bba 6a3b
000000d0: 77ab 21bd d3bb bbbd 9096 88bd 9ee9 e0bc
000000e0: f43d 9cbc d58a 3abd d003 08bd b1b7 733d
000000f0: 28fa 13bd c9f8 4d3c 1eeb 343d 2d34 6bbd
00000100: f5de 67bd 6a99 c9bd 4c7e 463d 6848 60bd
00000110: 1677 2b3d 4836 503d 0ab9 c2bc 4cba f8bd
00000120: 25c0 4bbd ed96 51bc 59c9 513c f80a a3bd
00000130: 60b1 85bb 37ff 723b a6d3 9739 3313 56bc
00000140: 7d5f 123d 6afb c8bd 83fb 23bd 8e49 1fbd
00000150: cd05 383c 96fa a9bd 0c10 00bc be9f 5d3c
00000160: 7757 8c3b 4920 3d3d a780 96bd a251 1ebd
00000170: 2c18 39bb 8c27 efb9 a956 cdbc ad90 9fbd
00000180: d8a7 803d 683c 8cbd 5b75 83bd b107 d9bc
00000190: 909f 993d 632c 6abd c0cc b5bd 1301 1abe
000001a0: 5d8f fcbd 8c70 7fbc f0b1 c3bd a6c8 39bd
000001b0: b459 0e3d b90a c9bd 3477 c63c be3a 613d
000001c0: f126 b4bd 3948 c3bc 941f 103b 964c 423c
000001d0: 108b 9fbd fa7c 653d 9cd6 99bc 7829 73bc
000001e0: 046a 2e3d 8da3 453a f6b8 96bd 9b45 de3c
000001f0: 7a59 a5bd 03eb d639 7745 7cbd a537 f3bc
-0.12910178 -0.13077714 -0.03027247 -0.10865134 -0.002814378 -0.0043212404 0.042375017 0.09151058
-0.04732556 0.014826929 -0.1160548 -0.064247675 0.0042401087 0.027930627 0.013086542 0.009241001
-0.02826148 -0.001810986 -0.024210759 -0.03037153 -0.017832633 0.011616336 0.008123232 0.012836622
-0.03502132 -0.061934218 0.040800706 -0.03263338 -0.03442432 0.042218123 -0.07721321 -0.056789592
-0.035948165 0.06979329 -0.038729757 -0.0063971933 -0.030711368 -0.020146932 -0.018292027 0.0391786
-0.021963403 0.05818555 0.024221037 -0.06288257 -0.114521675 -0.093544774 -0.03762421 -0.10771486
0.03774489 -0.039824646 0.0069798697 0.003581653 -0.039470162 -0.09166684 -0.066693425 -0.027455147
-0.01907251 -0.045542557 -0.03320676 0.059501354 -0.03612724 0.012571522 0.044169538 -0.057422806
-0.056609113 -0.098437145 0.04846029 -0.054756552 0.041861616 0.050833017 -0.023769874 -0.12144908
-0.04974379 -0.012792331 0.012804353 -0.079610765 -0.0040799826 0.003707839 0.00028958655 -0.013066101
0.035735596 -0.098135784 -0.040034782 -0.038888507 0.011231852 -0.082997486 -0.007816326 0.013526855
0.0042828876 0.046173368 -0.07348757 -0.03865207 -0.0028243167 -0.00045615097 -0.025065737 -0.077912666
0.06282014 -0.06847459 -0.06418868 -0.026492925 0.07501137 -0.057171237 -0.088769436 -0.15039472
-0.12332032 -0.015590798 -0.09555423 -0.04535737 0.034753516 -0.09816498 0.024226762 0.05498766
-0.0879649 -0.02383815 0.0021991478 0.01185908 -0.07790196 0.05602739 -0.018779092 -0.01484143
0.042581573 0.00075393246 -0.07359497 0.0271328 -0.08073707 0.00040992358 -0.061589684 -0.02968962

encoder.0.fc2.weight f4 [128, 128, 1, 1]
00000000: 107f a73c fc7d 7fbd c787 7e3d 261d 833d
00000010: c72d 63bd a7c7 8bbd e710 d73c 512e eebb
00000020: 68b2 19bd b3c5 2cbd 30cb 0e3d 00a3 f83d
00000030: 4399 153d 8d95 983d 2053 16bc e3ad d5bc
00000040: 9249 c93d fe31 dabb e633 34bb 9274 4a3c
00000050: e64b 93bd 21c8 cd3d 8d78 143d f599 e13b
00000060: 87e0 373d aabc 3b3d 0684 883d e7c8 b63d
00000070: f6b8 9d3c e4d3 e6bc 4c40 603d 6565 81bd
00000080: abcc a13d 1d06 5bbd 09f3 9fbd 58c9 163d
00000090: 6125 473d b25a 97bd 42e5 4dbd 712d 38bd
000000a0: f8b6 41bd 6d17 eebc 171b 963c 9781 4abd
000000b0: 0d25 fb3d 1c1b 87bd 1530 9a3c 5b38 083d
000000c0: 6775 813d 1736 96bc 3198 7abc 46e4 b0bc
000000d0: 8432 87b9 9d17 4b3d 4bdc 623d cc1f 15bd
000000e0: 15d8 3ebd 141f d23d c0d5 0f3c 2391 633c
000000f0: 4af3 b93d f71a 503d 25e1 53bd 17b9 c03d
00000100: eff9 5a3d 94bf a03d fa0c 70bd 75da 15bc
00000110: 44a4 86bd 1578 6dbd 2962 003e 8635 b5bc
00000120: 284b 94bd 89c1 9ebd 5784 b23d bbf6 963d
00000130: ad72 9a3d 521b 2cbd f128 283d 363b d23d
00000140: b2ad 8dbd 4344 65bc d6ab 34bd 45f4 3bbd
00000150: 5c87 173d 1323 4cbb 67f7 713c 0ab8 3cbd
00000160: d583 f33c 7fa1 49bd 053f 5cbb 97a2 773c
00000170: 5b47 ddbc 1d7e 4fbd 75aa 5c3d 4b55 ee3d
00000180: 40e0 99bc 7ae3 313d 1789 073c cd0a 37bc
00000190: a434 73bb c23e a23c 93cb 993d 8b04 d03d
000001a0: 11bb 6a3d d859 113d 7a50 223d ff0a 1e3d
000001b0: 00c5 12bb f627 903c 4d0a 48bd 0c94 383c
000001c0: 8ee4 0f3d 074c cfbc 8c3f fe3c dfb2 a2bd
000001d0: 7b33 e73b 7eac 103d f72d 9ebc cefb 1c3d
000001e0: e79d e13b cdab c43b 70c5 433d 6697 48bc
000001f0: 2681 283e f49d 6cbc b979 b8bc 55e5 793d
00000200: 410f fb3d eb3f 86bb 7e67 dc3d 6224 793c
00000210: c54f 9dbd 5169 09bd 0735 7abd e9c9 9dbb
00000220: d2b9 9fbc 1805 9bbd dbec 05bd 34e2 9d3d
00000230: bea7 6e3d a8f1 36bd 02a9 a8bd 0cc1 71bd
00000240: eb93 1e3d 2595 103d 71ac ccbc 9a03 923d
00000250: 28d1 c7bd 9de6 e8bc c0fd 86bd 8f55 af3c
00000260: b472 85bd d78a 54bd 0da8 a8bd 9f6c 863d
00000270: ee8c afbd 9abc 5abd c8e7 bbbc 553a f83c
00000280: 80cc adbd 690d d93c 7be1 b5bd 3824 fc3c
00000290: 3cd5 9c3d 61f5 483c 76bf 8cbc b582 713d
000002a0: 62ab 163d 357e 1ebd ab32 9dbd 68f2 3c3d
000002b0: aaab 25ba 6f8d 76bb 3592 983d b77b febc
000002c0: faa0 80bd 5963 b63b ec83 a63b 0a0f ebbc
000002d0: a32a b4bd 26f0 1b3d d407 bd3d b1a4 11bd
000002e0: 6fb4 c93c 8255 96bd aa0d 91bc 2fb7 9e3d
000002f0: fec5 8e3d b2d0 d53c ea11 89bc 1c3e 473d
00000300: 1947 353d 1868 c7bd fc47 243d 3762 a2bd
00000310: f1aa 103d edf4 0abd 0d4e af3d 3b35 9b3d
00000320: 5962 c33c 6d61 8d3d ec0c 263d 66b1 863d
00000330: 8cbb 46bd a82d 89bd 6c36 b8bd b656 c9bd
00000340: ae6c 69bd 397b 7e3d 7627 6abb 0e08 373c
00000350: 852e 7e3c fc2a 14bd 9e0e a23c f159 e43b
00000360: 081b a0bd 256d e1bc d4be 96bd 165c 3b3d
00000370: c2b9 95bd 4558 16bd 8454 48bc 8187 583d
00000380: cbde b2bd a3c0 72bd 29d2 443a c4a6 023d
00000390: 3e1c f6bd 9141 933d 90c8 ef3c 36ae 9d3d
000003a0: 9a8e d63d ee58 153d bd57 9abd fad4 fbbc
000003b0: a90e 9d3d a0de a43d 5c05 01bd 0b4f acbd
000003c0: b87b 923b 6918 883d fef6 43bd ba33 9f3c
000003d0: 535d f03c 3647 8dbc f50b 60bd 5c1b 833c
000003e0: 240f 6d3d a81d dc3c 0ddd 85bd 425e d33c
000003f0: d988 733d 73a0 02bd 9a2a 9cbd 04eb 13bd
0.02044633 -0.062376007 0.062141206 0.06402044 -0.05546358 -0.0682519 0.026253177 -0.007268705
-0.037523657 -0.04218073 0.034861743 0.12140465 0.036523115 0.074503995 -0.009175092 -0.026083892
0.098284855 -0.0066587916 -0.0027496754 0.012356894 -0.07192211 0.10047937 0.03624778 0.006884808
0.04489186 0.04583422 0.066658065 0.08925038 0.019253235 -0.02817721 0.05474882 -0.063181676
0.079003654 -0.053472627 -0.07810027 0.03681311 0.04861963 -0.07390346 -0.050267465 -0.04496521
-0.047293633 -0.029063905 0.018323464 -0.049439993 0.12262926 -0.065969676 0.018821755 0.03325687
0.06321221 -0.018336339 -0.015295074 -0.021593224 -0.00025786844 0.049583066 0.05538587 -0.036407277
-0.04659279 0.10259834 0.008778989 0.013889584 0.09079607 0.050806966 -0.051728386 0.09410303
0.05346101 0.07849041 -0.058606125 -0.0091463225 -0.065743 -0.057975847 0.12537445 -0.022120249
-0.072408974 -0.07751758 0.08716648 0.07371279 0.07541404 -0.042018242 0.04105467 0.102652
-0.069178954 -0.013993326 -0.044109188 -0.04588725 0.036994323 -0.0031148836 0.014768458 -0.04607395
0.029725948 -0.04922628 -0.0033606899 0.015114448 -0.027011564 -0.05065738 0.053873498 0.11637362
-0.018783689 0.04342983 0.008272431 -0.011172009 -0.0037110234 0.019805316 0.07509532 0.101571165
0.057307307 0.035486072 0.03962753 0.038584705 -0.0022395253 0.01759718 -0.04883795 0.011265766
0.035130076 -0.025304807 0.03103616 -0.07944273 0.0070556975 0.03532075 -0.019309027 0.038326077
0.0068852785 0.0060019256 0.047795713 -0.012243127 0.16455516 -0.014441956 -0.02251898 0.061009724
0.12258769 -0.004096975 0.10761927 0.015206428 -0.076812305 -0.033547703 -0.061085727 -0.0048153293
-0.019497786 -0.07569331 -0.032696586 0.077091604 0.05826544 -0.044664055 -0.08235361 -0.059021994
0.038715284 0.035298485 -0.02498457 0.07129593 -0.0975669 -0.028430277 -0.06591368 0.021403102
-0.065160185 -0.05189022 -0.08235178 0.065636866 -0.08571802 -0.05340252 -0.02293767 0.030301252
-0.08486271 0.026495652 -0.088808976 0.03077899 0.07657859 0.012265534 -0.01718114 0.058962543
0.036784537 -0.03869458 -0.0767568 0.046129614 -0.00063198304 -0.0037620922 0.07449762 -0.031064851
-0.06280704 0.0055660424 0.0050816443 -0.028693695 -0.08797195 0.03807082 0.09230009 -0.035557453
0.02462217 -0.07340528 -0.01770671 0.07749783 0.06971358 0.02610049 -0.016732175 0.048643216
0.044257257 -0.09736651 0.040107712 -0.07928889 0.035319272 -0.033924986 0.08559809 0.07578512
0.023850607 0.06903348 0.040539667 0.06576805 -0.048518702 -0.06698161 -0.08994755 -0.09830992
-0.05698841 0.062129233 -0.0035729087 0.011171354 0.015514021 -0.036173806 0.01978236 0.0069687297
-0.07817656 -0.027517864 -0.07360616 0.045742117 -0.07310821 -0.036705274 -0.012227181 0.0528636
-0.08733901 -0.059265744 0.0007508123 0.03189732 -0.120171055 0.0719024 0.02927044 0.07699244
0.10476418 0.036461763 -0.07536266 -0.030741204 0.07668812 0.08050275 -0.03149925 -0.08413514
0.004470315 0.06645281 -0.047842972 0.019433845 0.029341375 -0.01724587 -0.054698903 0.016004257
0.057875767 0.02686961 -0.06536303 0.025801782 0.05945668 -0.031891298 -0.07625313 -0.0361128

encoder.0.fc2.bias f4 [128]
00000000: aaaa 2bbd 48b8 a9bd c26c 2abd 568c 383d
00000010: e1b1 d0bc effb 063d db20 253c 3bcd 6c3d
00000020: 2fe5 893d 6449 763d 5e12 a43d 161a 42bd
00000030: 7b26 6a3d c90e 80bc f999 aabd b4c5 e6bc
00000040: ebdd 373d 403c c63c e040 fe3c 1d01 af3c
00000050: c35c 84bd 35cd 9a3d 23a3 e3bc c603 8abd
00000060: 9c97 bdbc aedb 9f3b 5e4e 063d 2ec3 d83c
00000070: 55ed 2fbc f3b6 4fbd 98d6 883d ccb8 45bd
00000080: 5487 423d af90 2bbd 3cbf 66bc 9c54 90bd
00000090: 0222 e7bc 9e1e 82bd 1bbb 923d 899b a6bd
000000a0: 12c3 513b 0d93 2d3d 8cac 693d 211c 063d
000000b0: 6465 663c 25b6 643d 8388 d8bb 4c9e 183d
000000c0: 491a ff3c 52b7 f23b f402 173d a414 873b
000000d0: c4a3 063a 9898 b33d 3953 8b3c 0c4e 543b
000000e0: 0c6d 3a3d 5565 223d b06f ac3d df09 b4bd
000000f0: 98d0 88bd 2d74 743d 4a7c 9fbc d686 e5bc
00000100: 02c8 bbbd 34e0 8f3d a028 85bd 546c 163d
00000110: 9871 33bd b875 3ebd 422a 94bd 3871 b63d
00000120: d03a 78bd 2220 96bc 290e 3d3b f785 0ebc
00000130: 0780 1b3d 0cd1 473d 6fba a8bd 91ec a5bd
00000140: b8fc 9e3c d75c b8bd f6cd bb3d 34d5 713d
00000150: 377d 6a3d ab4c b4bd 4e89 3dbd 82d4 c63d
00000160: eaed 383d fa05 563d e115 c438 ba5e a2bc
00000170: f165 303d e622 76bd b4e2 e63c 0ba1 84bd
00000180: 4c98 b1bc 2ecf d9bc 2490 873d 1f14 12bd
00000190: de54 87bd 1c14 dcbd dd9d 893d cafd 4c3d
000001a0: 968b 9a3d 92c7 20bc 01ef a23d 0ead 883c
000001b0: 818e 0b3d 0968 b7bb 9859 ba3c 78c1 273d
000001c0: c17b 6cbd 59db 923b 94fb 61bd 6776 833b
000001d0: 1f34 ad3d ee2d 1cbd 1307 b4bd 8b4c 7f3d
000001e0: bd1e 0abd 0417 033d 091c ba3d 0aab 043b
000001f0: 0dc0 4abb 6978 ff3b 5985 d6bd 3720 97bd
-0.041910805 -0.08287102 -0.041607626 0.04505571 -0.025475444 0.032955106 0.010078634 0.05781291
0.067331664 0.060128585 0.08011316 -0.04738816 0.057165604 -0.01563205 -0.08330149 -0.028170444
0.04488937 0.024198651 0.031036794 0.021362836 -0.064630054 0.075586714 -0.02778775 -0.06739001
-0.023143582 0.004878483 0.03278958 0.026460256 -0.010737737 -0.050711583 0.066815555 -0.04827194
0.04749234 -0.041886028 -0.01408368 -0.07047388 -0.028214458 -0.06353496 0.07164594 -0.08135135
0.003200714 0.042376567 0.05704932 0.03274167 0.014062259 0.05583777 -0.0066080703 0.03726034
0.031140463 0.0074071074 0.03686805 0.0041223336 0.00051360973 0.08769339 0.017007457 0.0032395152
0.04551415 0.03964742 0.0841974 -0.08790945 -0.06680411 0.059681106 -0.019468445 -0.028018396
-0.09169008 0.07025185 -0.06501889 0.036724404 -0.043809503 -0.046498984 -0.072346225 0.089083135
-0.060602963 -0.018325869 0.0028847551 -0.008698932 0.037963893 0.048783347 -0.082386844 -0.08101762
0.019407615 -0.09002083 0.09170143 0.059041217 0.05724832 -0.08803686 -0.046273522 0.097085014
0.045148768 0.052251793 9.3500836e-05 -0.01982056 0.04306597 -0.060091875 0.028184272 -0.06476029
-0.021679066 -0.026588049 0.066192895 -0.03566372 -0.06607984 -0.10746023 0.06719563 0.05004672
0.07546155 -0.009813206 0.079557426 0.016684081 0.03407145 -0.0055971188 0.0227478 0.04095599
-0.05773521 0.0044817147 -0.055171564 0.0040119174 0.08457207 -0.03812974 -0.08790412 0.062328856
-0.03372072 0.03200437 0.090873785 0.0020243549 -0.0030937225 0.0077963364 -0.10474653 -0.07379191
