small_scale_scenario/experiments/stid/METRLA/-fewshot10/final_model_s2020.pt (torch, 478531 bytes, 19 tensors)

node_emb f4 [207, 32]
-0.023831608 -0.20574695 0.033606924 -0.06899547 0.0015118404 -0.09589843 -0.0054356437 0.011808358
-0.07180609 -0.0417568 -0.08987688 0.07847139 0.14228927 0.047650002 0.06457587 0.025324142
0.09989265 -0.10493037 -0.07639314 0.06717903 -0.11571024 0.017051162 -0.04183834 -0.019801999
-0.1007403 -0.14467776 -0.09055278 0.061860885 -0.06980369 -0.16023406 -0.047674913 0.16708608
-0.019634573 -0.1267864 0.037969217 -0.06652168 0.058404986 -0.09519729 0.082853444 -0.13938119
-0.0665034 0.07188322 0.06388628 0.07970189 0.06528945 -0.06447539 0.062032033 0.003686695
0.007712574 0.050781295 0.056639448 0.14312287 -0.08160509 -0.082513265 0.029892042 0.008374403
0.1357093 0.10690914 0.053613305 0.069747 -0.019829528 -0.014927315 -0.04185449 0.11615899
0.055682715 0.1083759 -0.11371166 -0.09848793 -0.0470721 0.21963559 0.06698774 0.15469177
-0.046528626 0.07809267 0.037194636 0.01140763 0.027248174 0.13365781 -0.10527305 -0.12837316
-0.1271495 -0.07463401 0.09133771 0.029223612 -0.001028902 -0.113799185 -0.063011184 0.015961101
-0.08439772 -0.00042596055 0.14488143 -0.0075936373 -0.07653429 0.21055709 0.0077757332 0.015834108
-0.12411681 -0.09186078 0.12094233 0.06743077 0.10410183 -0.08766592 0.051865883 -0.020184424
-0.019836256 0.043099523 -0.013662567 -0.13761047 -0.29837897 -0.13384682 0.040286534 0.020432064
-0.041020762 -0.0109312795 0.036780708 0.0050011342 0.08194961 0.09870822 0.062069394 -0.097865164
0.029555684 0.1879745 0.058082364 0.18638605 0.08882385 0.10543336 -0.1601223 -0.1576828
0.16827103 -0.10836792 -0.016681418 0.19055146 0.11781206 -0.050282493 -0.006864919 -0.0541749
0.1327581 -0.061955284 -0.098918445 -0.16713274 -0.072062165 0.054892328 -0.107077636 0.20791224
-0.009508625 0.019176 -0.14011046 -0.116623655 0.0377355 -0.009591187 -0.056036763 -0.12935857
0.15915881 0.1898994 -0.001093878 -0.1288812 0.047281947 0.23575541 -0.042406373 0.07766354
0.13844302 0.052299287 -0.047184467 -0.008189977 0.10712297 -0.023125626 -0.15715493 -0.05607501
-0.050753072 0.14995469 0.118727885 0.00977414 -0.10928313 -0.07174237 -0.17503548 0.03489835
0.1340766 0.116776206 -0.0464886 -0.15778777 0.11260471 0.079774894 0.038178038 0.013651929
0.15973969 0.22939913 0.078454874 0.08532165 -0.03212584 0.033834863 0.021118155 -0.1452312
0.009812148 0.06576403 0.020007925 -0.02898243 -0.031581163 -0.001697009 -0.093077555 -0.17366141
0.123979256 -0.08192263 0.11158401 -0.019971266 0.1298204 0.0094457045 0.042782303 0.022373632
-0.018852938 0.11069736 0.03397753 0.10696571 -0.061886393 0.05898838 0.03147095 -0.035363026
-0.033449154 0.15460153 -0.03930313 0.048086334 0.045614224 0.040438082 -0.07891437 0.09686702
-0.03157336 -0.03356595 -0.052175906 -0.016955853 0.017438274 -0.036502 -0.08519658 -0.046770547
0.06123566 0.17367041 0.2596723 0.078777425 0.0004451148 -0.18494844 0.10930162 -0.0068254448
-0.075307734 -0.016031733 0.12835768 0.049068585 0.012055908 0.018446349 0.020217173 0.047108233
0.1278346 -0.0049804645 0.10515125 0.09294526 0.015639387 -0.074430615 -0.113232285 0.09238415
00000000: 813a c3bc 54af 52be 6aa7 093d 7f4d 8dbd
00000010: f228 c63a 6566 c4bd 7c1d b2bb d877 413c
00000020: 120f 93bd 2e09 2bbd 5f11 b8bd 9cb5 a03d
00000030: 47b4 113e a62c 433d 5b40 843d 9374 cf3c
00000040: 8594 cc3d bce5 d6bd 0274 9cbd 2995 893d
00000050: 7ef9 ecbd e1ae 8b3c ae5e 2bbd cd37 a2bc
00000060: ee50 cebd 6826 14be bc73 b9bd d761 7d3d
00000070: 3df5 8ebd 6614 24be c546 43bd 9d18 2b3e
00000080: afd8 a0bc 4bd4 01be 9c85 1b3d 853c 88bd
00000090: 113a 6f3d ccf6 c2bd 11af a93d f1b9 0ebe
000000a0: ef32 88bd 8237 933d cfd6 823d bf3a a33d
000000b0: 7ab6 853d ac0b 84bd 4d15 7e3d 7a9c 713b
000000c0: c3b9 fc3b 0c00 503d c4fe 673d cd8e 123e
000000d0: 9220 a7bd b7fc a8bd 28e0 f43c cb34 093c
000000e0: 61f7 0a3e 2ef3 da3d a099 5b3d 84d7 8e3d
000000f0: 8971 a2bc b291 74bc 9d6f 2bbd c4e4 ed3d
00000100: 8f13 643d 2ff4 dd3d a9e1 e8bd 0ab4 c9bd
00000110: adce 40bd 27e8 603e de30 893d 8567 1e3e
00000120: cd94 3ebd 0def 9f3d 6759 183d 11e7 3a3c
00000130: 9037 df3c 98dd 083e 6699 d7bd 4174 03be
00000140: 7b33 02be b7d9 98bd 440f bb3d 5b66 ef3c
00000150: 39dc 86ba 8c0f e9bd 020c 81bd dbc0 823c
00000160: b6d8 acbd 7553 dfb9 cc5b 143e 0cd4 f8bb
00000170: 03be 9cbd 479c 573e 94cb fe3b 88b6 813c
00000180: f430 febd 8121 bcbd 9db0 f73d 2519 8a3d
00000190: 5733 d53d 318a b3bd 5271 543d ce59 a5bc
000001a0: a57f a2bc 2089 303d f6d8 5fbc c2e9 0cbe
000001b0: 21c5 98be 240f 09be 7e03 253d 2561 a73c
000001c0: 6305 28bd 1c19 33bc 5ea7 163d 8ee0 a33b
000001d0: 32d5 a73d 8927 ca3d 7a3c 7e3d 886d c8bd
000001e0: c31e f23c 637c 403e c6e7 6d3d fcdb 3e3e
000001f0: 47e9 b53d 72ed d73d 1af7 23be 9a77 21be
00000200: 3e4f 2c3e 00f0 ddbd 78a7 88bc ec1f 433e
00000210: 7347 f13d 04f5 4dbd 1df3 e0bb 80e6 5dbd
00000220: bdf1 073e d3c4 7dbd c195 cabd d824 2bbe
00000230: 5495 93bd c7d6 603d 854b dbbd f2e6 543e
00000240: 10ca 1bbc fd16 9d3c 1e79 0fbe 62d8 eebd
00000250: 8a90 1a3d 5b24 1dbc ce86 65bd 9376 04be
00000260: 87fa 223e fd74 423e 7460 8fba 6ff9 03be
00000270: b7aa 413d de69 713e 4eb2 2dbd 100e 9f3d
00000280: 02c4 0d3e c737 563d 8044 41bd 412f 06bc
00000290: 4a63 db3d f471 bdbc 39ed 20be e9ae 65bd
000002a0: 74e2 4fbd b98d 193e 9b27 f33d b723 203c
000002b0: d5cf dfbd aaed 92bd 803c 33be 92f1 0e3d
000002c0: 604b 093e 5d28 ef3d d56a 3ebd 1e93 21be
000002d0: 4c9d e63d 0561 a33d 9360 1c3d 57ac 5f3c
000002e0: cd92 233e 9be7 6a3e f3ac a03d 1ebd ae3d
000002f0: 6396 03bd 6d96 0a3d fbff ac3c 7db7 14be
00000300: 22c3 203c 4baf 863d a9e7 a33c 906c edbc
00000310: 405b 01bd 2c6e deba 729f bebd 4cd4 31be
00000320: d6e8 fd3d 0dc7 a7bd 2886 e43d c89a a3bc
00000330: a4ef 043e 28c2 1a3c 7f3c 2f3d e848 b73c
00000340: 7a71 9abc 4cb5 e23d 062c 0b3d d710 db3d
00000350: 967c 7dbd cd9d 713d afe7 003d d2d8 10bd
00000360: fb01 09bd dd4f 1e3e 52fc 20bd 2df6 443d
00000370: fbd5 3a3d 67a2 253d db9d a1bd 3762 c63d
00000380: 1153 01bd 737c 09bd 67b6 55bd 00e7 8abc
00000390: b6da 8e3c 1f83 15bd 8b7b aebd 7992 3fbd
000003a0: 3ed2 7a3d a8d6 313e c5f3 843e 0f56 a13d
000003b0: 4c5e e939 2063 3dbe 87d9 df3d fba7 dfbb
000003c0: f13a 9abd fb54 83bc 3270 033e 24fc 483d
000003d0: 2586 453c cc1c 973c 7c9e a53c 90f4 403d
000003e0: 13e7 023e 2a33 a3bb 8a59 d73d 165a be3d
000003f0: 2c1e 803c 146f 98bd 54e6 e7bd e733 bd3d

time_in_day_emb f4 [288, 32]
0.07215091 0.0156929 0.02397221 0.04976147 0.0010058741 -0.017827837 0.106473476 -0.006304029
-0.20337963 0.12223343 0.059949294 0.105451174 -0.05722704 0.021373678 0.025574436 0.13704118
-0.095891856 -0.051732916 -0.08974232 -0.04309818 0.060953192 -0.041678544 -0.0367191 -0.027549122
-0.07026391 0.15376152 -0.08579324 0.030100776 0.0018100124 0.044099413 0.101247504 -0.07521539
0.06979748 0.06796518 0.018901533 0.02419753 0.09840754 -0.013477256 -0.06494464 0.03653952
0.075223014 -0.11482796 -0.08527854 0.04642766 0.15970041 -0.097558975 0.08867367 0.018913466
-0.08510404 0.029253662 -0.061109725 -0.12593472 -0.05082291 -0.094173536 -0.05609251 -0.15939495
-0.04998892 0.08325959 0.009362134 0.07583651 -0.03566254 0.107303396 -0.040972978 -0.05193584
0.08719898 0.06864249 -0.039446644 -0.11119505 -0.04049803 0.006849832 -0.0040079816 -0.17435955
-0.010900736 -0.1330601 -0.010577791 0.04274087 0.06390332 -0.09345099 0.0056497753 0.23961216
0.063948564 0.07198163 0.015436971 0.0074881394 -0.101498805 -0.026097571 0.02160317 -0.010109919
0.056401044 0.13126098 -0.02260552 -0.04794511 -0.019941624 -0.029640157 0.10534843 0.079884574
0.0896938 -0.06446663 -0.075676136 0.0056390525 0.018344337 -0.036866095 0.06287019 -0.050824463
-0.054338243 -0.024001783 0.00071658136 0.13107699 0.07561655 0.04552081 0.09770395 0.07686599
-0.0648208 -0.03927932 0.007965813 -0.08480695 -0.05429809 0.008511202 -0.059822626 -0.13211653
0.10272682 0.2113842 0.120990776 -0.10904338 0.05575582 0.056462046 -0.117428094 0.004163459
0.076624945 0.018180732 0.0026896712 0.14547995 -0.027765935 -0.111674234 0.027570456 -0.10457647
0.10246527 -0.12802942 0.029560512 0.032880895 -0.064737596 0.1378832 0.012906436 -0.013986296
0.16724473 0.05770045 -0.07012487 -0.1381644 0.08469342 0.084434085 0.07016329 0.05136747
-0.09244611 0.08483407 0.13754144 -0.099078335 0.11294668 0.07434297 -0.036282383 0.006800232
0.04053662 0.075092316 -0.036470544 -0.018415254 0.06623118 -0.004332122 0.059701122 -0.23790641
0.13668223 -0.08733497 -0.12504332 0.09178166 0.024090463 -0.065532826 -0.13355006 0.0005054778
0.09379273 0.018047849 0.079201244 -0.05110783 -0.1617541 -0.011798175 0.06768142 -0.04316339
0.09246562 -0.0031243549 0.08896219 -0.16986547 -0.03353958 0.047860075 0.10115606 -0.03833475
0.07293569 0.06772891 0.080977485 0.08428972 0.15869126 0.05918458 -0.06718982 -0.16150345
0.08089032 0.05140377 -0.06517709 0.11585596 0.10167239 0.075378515 -0.06487711 0.017942103
0.12572597 0.01640478 0.0978259 -0.0012439949 0.063447185 -0.1795899 0.09011301 -0.016670235
-0.048104707 0.04561408 0.076768674 -0.06692023 -0.12961692 0.033231232 -0.075914964 -0.037720367
-0.100435026 -0.0540732 -0.013679516 0.005588879 0.030660098 -0.005309304 0.07613686 -0.12075701
-0.0328778 0.019140223 -0.08174837 0.122116014 -0.010687681 0.09738479 0.030655213 0.16613449
0.09610702 -0.002168814 0.05893933 -0.07623686 0.13954791 -0.10742833 0.025120296 0.0148174735
-0.008114734 -0.0048426534 0.111756146 -0.16854325 -0.07649051 0.13521288 0.02536839 0.05325434
00000000: dbc3 933d 668e 803c 5e61 c43c afd2 4b3d
00000010: 89d7 833a af0b 92bc c40e da3d 0792 cebb
00000020: c042 50be 8555 fa3d 648d 753d c9f6 d73d
00000030: e766 6abd da17 af3c 7b81 d13c 8654 0c3e
00000040: f362 c4bd e5e5 53bd d2ca b7bd b887 30bd
00000050: 0eaa 793d 1fb7 2abd c466 16bd b2ae e1bc
00000060: 86e6 8fbd a973 1d3e 5eb4 afbd e795 f63c
00000070: f03d ed3a 96a1 343d da5a cf3d 870a 9abd
00000080: fbf1 8e3d 5431 8b3d 63d7 9a3c e639 c63c
00000090: e489 c93d b5cf 5cbc b201 85bd 77aa 153d
000000a0: 860e 9a3d ec2a ebbd 84a6 aebd ee2a 3e3d
000000b0: 8188 233e 00cd c7bd 8b9a b53d 6af0 9a3c
000000c0: 074b aebd 60a5 ef3c 314e 7abd 08f5 00be
000000d0: af2b 50bd 0ede c0bd 43c1 65bd 6e38 23be
000000e0: 2fc1 4cbd 0184 aa3d a363 193c 2c50 9b3d
000000f0: e212 12bd e2c1 db3d 48d3 27bd adba 54bd
00000100: 6195 b23d 6f94 8c3d ce92 21bd 3bba e3bd
00000110: 43e1 25bd 8e74 e03b 6355 83bb 4f8b 32be
00000120: 0099 32bc e840 08be 794e 2dbc 0d11 2f3d
00000130: bedf 823d 3c63 bfbd c021 b93b e45c 753e
00000140: 77f7 823d 1b6b 933d 59eb 7c3c 115f f53b
00000150: 9bde cfbd 93ca d5bc 22f9 b03c 13a4 25bc
00000160: c804 673d 4769 063e 362f b9bc 1762 44bd
00000170: 9e5c a3bc eacf f2bc ebc0 d73d 869a a33d
00000180: 62b1 b73d 1507 84bd 17fc 9abd cdc7 b83b
00000190: dd46 963c e700 17bd 16c2 803d 502d 50bd
000001a0: c791 5ebd 639f c4bc f6d8 3b3a 0c39 063e
000001b0: dadc 9a3d 0774 3a3d 0219 c83d eb6b 9d3d
000001c0: c5c0 84bd 5ae3 20bd 0b83 023c 44af adbd
000001d0: ad67 5ebd 9272 0b3c 9208 75bd 8e49 07be
000001e0: 7062 d23d 1a75 583e 03ca f73d 2352 dfbd
000001f0: 3760 643d bf44 673d 247e f0bd a06d 883b
00000200: 8aed 9c3d c2ef 943c 3245 303b b2f8 143e
00000210: 6375 e3bc 76b5 e4bd 70db e13c 302c d6bd
00000220: 50d9 d13d 251a 03be e328 f23c 1eae 063d
00000230: 2595 84bd 4131 0d3e 8475 533c c726 65bc
00000240: 3442 2b3e 4f57 6c3d a19d 8fbd f87a 0dbe
00000250: be73 ad3d c7eb ac3d c5b1 8f3d b266 523d
00000260: 6354 bdbd 7cbd ad3d aad7 0c3e 95e9 cabd
00000270: 9750 e73d 2141 983d d69c 14bd 7bd4 de3b
00000280: ba09 263d 00ca 993d 2362 15bd 96db 96bc
00000290: 37a4 873d 79f4 8dbb 2a89 743d bd9d 73be
000002a0: 6df6 0b3e addc b2bd 5b0b 00be 06f8 bb3d
000002b0: 5d59 c53c 1336 86bd 59c1 08be 0a82 043a
000002c0: 6716 c03d 15d9 933c 4334 a23d 7256 51bd
000002d0: dea2 25be 224d 41bc 8e9c 8a3d 18cc 30bd
000002e0: 9d5e bd3d fac1 4cbb cf31 b63d 37f1 2dbe
000002f0: cc60 09bd ed08 443d e92a cf3d e604 1dbd
00000300: 4f5f 953d 74b5 8a3d 86d7 a53d 17a0 ac3d
00000310: f67f 223e 886b 723d d19a 89bd 2961 25be
00000320: d3a9 a53d c28c 523d 917b 85bd e445 ed3d
00000330: 9d39 d03d 0d60 9a3d 4ade 84bd 51fb 923c
00000340: 4fbe 003e 5163 863c f258 c83d 8b0d a3ba
00000350: 99f0 813d 6ae6 37be 2b8d b83d 0490 88bc
00000360: 7109 45bd d4d5 3a3d e538 9d3d 790d 89bd
00000370: 4cba 04be 791d 083d 4e79 9bbd ac80 1abd
00000380: e1b0 cdbd dc7b 5dbd 0c20 60bc ea22 b73b
00000390: e32a fb3c acf9 adbb a4ed 9b3d 744f f7bd
000003a0: dfaa 06bd f5cb 9c3c b06b a7bd f617 fa3d
000003b0: 621b 2fbc ad71 c73d a420 fb3c 291f 2a3e
000003c0: c2d3 c43d a922 0ebb 5e6a 713d 1222 9cbd
000003d0: a6e5 0e3e 6203 dcbd 14c9 cd3c fdc4 723c
000003e0: a9f3 04bc 1faf 9ebb 68e0 e43d 9a96 2cbe
000003f0: 0ea7 9cbd 3f75 0a3e 5fd1 cf3c 3921 5a3d

day_in_week_emb f4 [7, 32]
-0.13607162 0.015453424 -0.06302209 0.08230898 -0.30401236 -0.27136475 -0.22830725 -0.36004847
-0.2185282 0.18966746 0.18027002 -0.12221981 0.3148413 0.30465525 0.17198221 0.3088803
-0.15797825 -0.21324983 0.31123462 0.11532722 -0.06691796 0.2585495 0.041930433 0.23344949
0.27789605 -0.033765282 0.2524864 -0.18652959 0.20098099 -0.31314203 0.003400239 0.2726874
-0.168338 -0.14293401 -0.20548637 0.1153791 -0.16541049 -0.35918668 -0.26904586 -0.3128608
0.15588409 0.050434332 0.2093891 -0.2523586 0.17195565 0.100561105 -0.10013879 0.26678097
-0.2974093 0.16502048 -0.053882223 -0.061047494 0.25681737 0.13430715 -0.10189641 -0.0062741307
0.24164465 0.07747089 0.17176338 -0.23419908 -0.01606063 0.09164971 0.1738012 0.028231243
-0.254678 -0.19717424 -0.0046190773 0.13613254 0.24987568 -0.18910252 0.22168717 -0.14085642
-0.058289055 -0.21885899 0.21837609 0.27420852 -0.19000515 0.18023427 0.2129462 -0.027456898
-0.34647825 -0.07026636 0.20108642 -0.25269014 0.2902864 0.030951552 -0.13390218 -0.2626445
0.18708704 -0.27529877 0.14087632 -0.10094157 -0.048838034 -0.26872674 0.09710699 0.33761054
-0.055865053 -0.08641503 0.11004297 0.21572417 0.14424495 -0.24766976 -0.19481182 -0.26885086
-0.10941404 0.1711077 0.26086238 -0.07819661 -0.14958787 -0.11860358 -0.03363825 -0.037093036
-0.056986656 0.20639035 0.07209005 -0.2653265 0.2534847 0.14424431 0.04124824 -0.24919866
0.084294796 0.32565913 0.0016927988 0.11439308 0.27639082 0.24653216 -0.084682725 0.099267155
-0.13567904 0.19602816 0.3306433 0.03885404 0.2436098 -0.032635015 0.06998797 0.052794483
-0.36445525 0.36261293 -0.014877459 -0.110237926 -0.040578783 0.23117617 -0.041632082 0.068636455
-0.24576025 -0.22092132 0.3345991 -0.028213019 -0.29834643 -0.0161956 0.2619632 -0.108927324
-0.28080106 0.0016611604 0.3623083 0.036014542 -0.21520525 -0.25490332 0.089960225 0.019738391
0.2914693 -0.2802258 -0.35975337 -0.2664527 -0.03304871 -0.3118684 -0.17036076 -0.14717375
-0.25456816 -0.27806753 -0.06297872 -0.26300755 -0.037001226 0.2746211 0.11752313 -0.17628701
-0.09774756 -0.14296997 0.26989222 0.017587785 -0.10805057 -0.010888696 0.2581855 -0.2837431
0.027440622 0.22913744 -0.17695767 0.036989275 -0.08453857 -0.31120798 -0.25706992 0.12356004
-0.18376452 0.15205975 -0.34324676 0.1468896 0.15851723 -0.09552766 -0.03407368 -0.03680706
-0.30560926 0.1255781 -0.21061467 -0.23989724 0.32894716 -0.1597004 0.15890549 -0.1577484
0.039007746 -0.17613128 -0.24988839 0.055232234 -0.28863662 -0.15038806 0.09346954 0.1416755
-0.14451453 0.2958875 0.3579615 0.035031848 -0.09875589 0.03966541 0.21912709 -0.15520535
00000000: 5c56 0bbe 5c30 7d3c ba11 81bd 9c91 a83d
00000010: 82a7 9bbe 52f0 8abe 60c9 69be 4658 b8be
00000020: dbc5 5fbe 3038 423e b498 383e 614e fabd
00000030: e132 a13e c6fb 9b3e 1b1c 303e 8f25 9e3e
00000040: 0dc5 21be 2a5e 5abe 255a 9f3e ad30 ec3d
00000050: 490c 89bd 9a60 843e 3fbf 2b3d 620d 6f3e
00000060: 6448 8e3e 774d 0abd e645 813e 9d01 3fbe
00000070: f6cd 4d3e 2754 a0be 8bd6 5e3b af9d 8b3e
00000080: cc60 2cbe 4b5d 12be 056b 52be e14b ec3d
00000090: 5e61 29be 51e7 b7be 61c0 89be 4a2f a0be
000000a0: 14a0 1f3e 3b94 4e3d 196a 563e 2535 81be
000000b0: 2415 303e fbf2 cd3d 9115 cdbd 8497 883e
000000c0: 0846 98be 21fb 283e 9bb3 5cbd f00c 7abd
000000d0: 917d 833e d087 093e 11af d0bd 3997 cdbb
000000e0: b271 773e 0fa9 9e3d bde2 2f3e e2d1 6fbe
000000f0: 9591 83bc d8b2 bb3d f1f8 313e 3545 e73c
00000100: 2865 82be 0be8 49be a15b 97bb 5466 0b3e
00000110: 69df 7f3e 17a4 41be f601 633e aa3c 10be
00000120: 81c0 6ebd 921c 60be fb9d 5f3e 0f65 8c3e
00000130: b690 42be 558f 383e 920e 5a3e 4aed e0bc
00000140: 9965 b1be cfe7 8fbd 99e9 4d3e 9a60 81be
00000150: 6ba0 943e 1c8e fd3c a71d 09be 5779 86be
00000160: bf93 3f3e f6f3 8cbe e241 103e 74ba cebd
00000170: 640a 48bd 8d96 89be 08e0 c63d 4adb ac3e
00000180: c1d2 64bd 5dfa b0bd 355e e13d cce6 5c3e
00000190: f3b4 133e 249d 7dbe c07c 47be d2a6 89be
000001a0: 7814 e0bd db36 2f3e c18f 853e 8b25 a0bd
000001b0: 902d 19be 6fe6 f2bd 43c8 09bd deee 17bd
000001c0: d76a 69bd fe57 533e f3a3 933d e0d8 87be
000001d0: bfc8 813e c8b4 133e eaf3 283d ef2d 7fbe
000001e0: c0a2 ac3d cbbc a63e e7e0 dd3a eb46 ea3d
000001f0: 1983 8d3e ed72 7c3e 236e adbd 944c cb3d
00000200: 72ef 0abe 9bbb 483e 144a a93e 6a25 1f3d
00000210: d974 793e 4bac 05bd da55 8f3d 073f 583d
00000220: e199 babe 67a8 b93e 96c0 73bc 6cc4 e1bd
00000230: f035 26bd 72b9 6c3e 6786 2abd 4591 8c3d
00000240: 93a8 7bbe 3339 62be 9350 ab3e fd1e e7bc
00000250: ddc0 98be a3ac 84bc 0a20 863e 4a15 dfbd
00000260: 28c5 8fbe 4bbb d93a 7980 b93e fc83 133d
00000270: c45e 5cbe b082 82be 113d b83d 68b2 a13c
00000280: 773b 953e c279 8fbe 9831 b8be 7d6c 88be
00000290: 165e 07bd 37ad 9fbe 0d73 2ebe b7b4 16be
000002a0: c256 82be de5e 8ebe fdfa 80bd eda8 86be
000002b0: 998e 17bd 239b 8c3e f7af f03d 9584 34be
000002c0: df2f c8bd b866 12be 502f 8a3e 4214 903c
000002d0: 9e49 ddbd 8066 32bc e430 843e c746 91be
000002e0: 28cb e03c 01a3 6a3e 6434 35be 1182 173d
000002f0: 8f22 adbd a756 9fbe ab9e 83be 0c0d fd3d
00000300: c42c 3cbe 8db5 1b3e 0abe afbe 3a6a 163e
00000310: 5752 223e 01a4 c3bd d890 0bbd 00c3 16bd
00000320: d178 9cbe 8c97 003e 5fab 57be 9fa7 75be
00000330: c36b a83e 8088 23be 1fb8 223e cc88 21be
00000340: 96c6 1f3d c25b 34be bee2 7fbe 323b 623d
00000350: 2ec8 93be 54ff 19be f56c bf3d 6213 113e
00000360: 9efb 13be 917e 973e bb46 b73e 8e7d 0f3d
00000370: 8740 cabd 3278 223d da62 603e 27ee 1ebe

time_series_emb_layer.weight f4 [32, 36, 1, 1]
0.024021039 0.1313443 0.149503 -0.027328826 -0.021278173 0.071096964 -0.043070313 0.116592094
-0.09455667 0.07224434 0.124133594 0.04700595 0.081117615 -0.041463535 -0.11999631 0.026863074
-0.052888237 -0.16011335 0.003729103 -0.12912603 0.14681694 -0.092366375 -0.085844636 -0.033495985
-0.014550343 -0.0015445171 0.10395753 0.08947137 -0.12016892 -0.076220304 0.07956964 0.08403023
-0.14603934 0.06547861 0.13079424 -0.0019899402 -0.050235264 -0.07461787 0.04148642 0.014460303
0.034105673 -0.12533402 0.0577381 -0.04292662 0.07371237 0.07069734 -0.08953704 -0.059436698
-0.14518556 -0.14287126 -0.07710948 0.0866341 0.023425337 0.1539426 0.044864625 -0.14582255
0.09783061 -0.08675114 0.08574249 0.06648816 -0.097221054 -0.06321389 -0.08639678 -0.123966984
-0.13313538 0.023885148 0.118446335 0.02631512 0.1419482 -0.009925729 0.05535231 0.16130961
0.04569066 0.13191724 0.051887512 0.15598975 0.017526293 -0.03545479 0.022874689 -0.017872943
0.115630426 0.13791092 0.10206769 -0.0024702386 0.09936238 -0.16823265 0.120624505 0.100962795
-0.12972501 0.021033086 -0.08507768 -0.1026878 -0.058176383 0.026608128 -0.15628287 0.037559945
-0.063517325 -0.052552506 0.11861199 -0.0048908438 -0.14151788 0.12440815 -0.0925322 -0.0051187654
-0.13222517 -0.117559984 0.15546034 0.004171551 -0.023870738 -0.15186697 0.009422588 0.03131509
0.1217901 -0.007039052 -0.12727141 -0.16382697 0.007742676 -0.11411959 0.124079965 -0.09613772
-0.06055569 -0.0077255634 -0.05202022 0.04009591 0.04304991 0.0024305684 -0.055175114 0.12819085
0.1613515 -0.07582307 0.0014798945 -0.08047433 -0.07423557 0.09234731 -0.045773193 -0.026080301
0.10058579 0.058512095 -0.0034389356 -0.0857147 0.1358727 0.14159463 -0.1373224 0.07727259
-0.007906112 -0.14665361 0.020409968 0.057396773 0.091625616 0.12541795 0.0103659285 -0.03503382
-0.13275337 -0.030485757 -0.06587034 -0.12373223 0.056299645 0.0934741 -0.019646684 -0.07954836
-0.05334764 -0.021682888 0.0019704134 0.08429574 -0.011621493 0.1065767 -0.15392579 0.14405803
0.036706675 -0.031392112 -0.08490699 -0.11291595 0.11700272 0.056861855 -0.12234219 -0.13185768
-0.08236846 -0.17707846 0.020941319 0.01170803 -0.10979917 -0.111044504 0.08304873 -0.11245657
-0.07850709 0.018483179 -0.02568344 -0.14261979 -0.062134225 -0.09669091 -0.08002937 0.11135628
-0.056381755 -0.07595022 0.13558742 -0.1056933 0.16936177 0.17127162 0.022786938 0.057835955
-0.11318436 0.05648983 -0.113405354 0.1100181 0.1455581 0.041486613 0.062247336 0.057800427
-0.026676442 0.020914989 0.055631015 -0.15424865 -0.1485556 -0.02936094 0.14847894 0.0511756
-0.07142062 -0.058771767 -0.08172458 0.13206092 0.056850545 0.17017792 -0.09985736 0.035074405
0.06809168 -0.047200203 -0.03603467 -0.12372886 -0.08788524 0.10814448 -0.1514711 -0.028405929
0.15223297 0.09283946 0.057642788 0.13225043 0.17043772 0.10805012 0.04810059 -0.095389694
0.12729213 0.14366895 0.095972516 -0.034039095 0.1451045 -0.14493926 0.14192277 -0.044038665
0.17013866 0.22723946 -0.108586036 -0.07672308 0.09115308 0.092968255 -0.110702924 0.016826373
00000000: c5c7 c43c 1f7f 063e 5017 193e b4e0 dfbc
00000010: 904f aebc 499b 913d 7f6a 30bd d6c7 ee3d
00000020: eda6 c1bd d7f4 933d c139 fe3d 5089 403d
00000030: fe20 a63d abd5 29bd a0c0 f5bd f30f dc3c
00000040: 56a1 58bd c1f4 23be f763 743b 9d39 04be
00000050: 2e57 163e 952a bdbd 50cf afbd 1633 09bd
00000060: 9064 6ebc 6571 caba afe7 d43d c43c b73d
00000070: 1f1b f6bd 6419 9cbd 68f5 a23d 0b18 ac3d
00000080: 568b 15be a619 863d edee 053e a869 02bb
00000090: 7ec3 4dbd 41d1 98bd aaed 293d e8ea 6c3c
000000a0: 64b2 0b3d 9057 00be c97e 6c3d d3d3 2fbd
000000b0: 83f6 963d c4c9 903d 325f b7bd e573 73bd
000000c0: 86ab 14be d84c 12be 93eb 9dbd 386d b13d
000000d0: 7ee6 bf3c 21a3 1d3e f8c3 373d 8252 15be
000000e0: 6a5b c83d 95aa b1bd c299 af3d f22a 883d
000000f0: d51b c7bd 4976 81bd ccf0 b0bd 67e2 fdbd
00000100: a454 08be c9aa c33c fe93 f23d ce92 d73c
00000110: de5a 113e 869f 22bc 1bb9 623d 592e 253e
00000120: 2126 3b3d 5015 073e 0088 543d c7bb 1f3e
00000130: 4d93 8f3c 0b39 11bd b363 bb3c 476a 92bc
00000140: a5cf ec3d 8538 0d3e dd08 d13d bae3 21bb
00000150: 817e cb3d 2e45 2cbe fb09 f73d 95c5 ce3d
00000160: a2d6 04be 944d ac3c 353d aebd fb4d d2bd
00000170: 5c4a 6ebd 4af9 d93c 9e08 20be 75d8 193d
00000180: 5f15 82bd 4c41 57bd d8ea f23d 5f43 a0bb
00000190: 10ea 10be b3c9 fe3d 8681 bdbd 51bb a7bb
000001a0: 0966 07be 4ac3 f0bd ff30 1f3e 82b1 883b
000001b0: 918c c3bc 0483 1bbe 3361 1a3c 4044 003d
000001c0: 176d f93d d9a7 e6bb 7053 02be 42c2 27be
000001d0: 46b6 fd3b 88b7 e9bd a31d fe3d dae3 c4bd
000001e0: 3e09 78bd b926 fdbb 2713 55bd 9c3b 243d
000001f0: 1a55 303d 2c4a 1f3b 4dff 61bd 7644 033e
00000200: 5439 253e 2049 9bbd 05f9 c13a bacf a4bd
00000210: d208 98bd 9620 bd3d ac7c 3bbd 5ba6 d5bc
00000220: ecff cd3d 61aa 6f3d c45f 61bb 308b afbd
00000230: 3722 0b3e 2ffe 103e 3e9e 0cbe 1741 9e3d
00000240: a388 01bc 5d2c 16be ce32 a73c e118 6b3d
00000250: 36a6 bb3d 906d 003e dbd5 293c 9f7f 0fbd
00000260: 80f0 07be 44bd f9bc 07e7 86bd 5367 fdbd
00000270: 759a 663d 596f bf3d 15f2 a0bc 40ea a2bd
00000280: 0e83 5abd 50a0 b1bc 0d22 013b 3fa3 ac3d
00000290: 1368 3ebc e344 da3d b99e 1dbe f383 133e
000002a0: bd59 163d 0495 00bd b7e3 adbd 7a40 e7bd
000002b0: 1f9f ef3d fae7 683d 8b8e fabd b305 07be
000002c0: ccb0 a8bd 0e54 35be 218d ab3c 09d3 3f3c
000002d0: 63de e0bd 4d6b e3bd 7415 aa3d a14f e6bd
000002e0: 53c8 a0bd 096a 973c 1466 d2bc ec0a 12be
000002f0: 7580 7ebd e205 c6bd 70e6 a3bd c30e e43d
00000300: 8ef0 66bd ca8b 9bbd 6ed7 0a3e bb75 d8bd
00000310: 2c6d 2d3e d461 2f3e acab ba3c 65e5 6c3d
00000320: 34cd e7bd e161 673d 1141 e8bd 2b51 e13d
00000330: 2f0d 153e deed 293d 10f7 7e3d 24c0 6c3d
00000340: 8e88 dabc e955 ab3c 59dd 633d 5cf3 1dbe
00000350: f61e 18be 5b86 f0bc dd0a 183e 829d 513d
00000360: f944 92bd aaba 70bd 375f a7bd fa3a 073e
00000370: 1edc 683d 1f43 2e3e 0482 ccbd 2eaa 0f3d
00000380: a773 8b3d 0055 41bd 1799 13bd 8e65 fdbd
00000390: 2dfd b3bd da7a dd3d 3d1b 1bbe 8db3 e8bc
000003a0: f6e2 1b3e 9d22 be3d d81a 6c3d a86c 073e
000003b0: 3a87 2e3e 6249 dd3d 2005 453d ac5b c3bd
000003c0: de58 023e f41d 133e 3d8d c43d 946c 0bbd
000003d0: 4696 143e f56a 14be 3454 113e e361 34bd
000003e0: d438 2e3e 76b1 683e 5b62 debd fd20 9dbd
000003f0: 77ae ba3d 2466 be3d 37b8 e2bd 76d7 893c

time_series_emb_layer.bias f4 [32]
-0.014463292 -0.08752883 0.14825101 -0.007453839 -0.10702249 0.00021606416 -0.08556511 0.0266482
0.07417456 -0.1075389 0.090734236 0.068866536 -0.03317245 -0.029810349 0.10947983 -0.107397445
-0.019177087 -0.07413398 -0.14662921 0.090277925 0.0315518 -0.09874618 0.0009229997 0.10390608
-0.15171169 0.048843216 0.12208403 0.017063027 0.023474835 -0.02608472 -0.105776 0.12048965
00000000: 72f7 6cbc 5142 b3bd 1dcf 173e 553f f4bb
00000010: 9b2e dbbd 488f 6239 c33c afbd 534d da3c
00000020: d5e8 973d 5b3d dcbd dfd2 b93d e609 8d3d
00000030: d6df 07bd d534 f4bc f636 e03d 31f3 dbbd
00000040: 4419 9dbc 8ed3 97bd f825 16be a2e3 b83d
00000050: 763c 013d 703b cabd 76f5 713a b6cc d43d
00000060: 4f5a 1bbe d30f 483d 3107 fa3d c3c7 8b3c
00000070: 4c4e c03c 9faf d5bc 16a1 d8bd 47c3 f63d

encoder.0.fc1.weight f4 [128, 128, 1, 1]
-0.06603579 -0.05286912 0.0026108306 0.035932336 -0.036813054 0.04527484 -0.10582991 -0.009092943
0.063077234 0.026390882 -0.014585475 0.015757238 0.0078704115 0.010462276 -0.012570675 0.049735818
0.09133492 0.048109006 0.02661457 0.027850581 0.06901952 -0.050688013 0.04988976 0.02189526
-0.028802346 -0.00072324765 0.05456112 0.019351548 -0.07124181 -0.0001799213 0.0014418556 0.021283414
-0.1317081 0.121423095 0.2113693 -0.004244165 0.13633874 -0.26821664 -0.121695876 -0.20114654
0.1730769 -0.008098919 -0.009501539 -0.031270843 -0.14605278 -0.040870123 0.15282466 -0.1573734
0.088632636 0.12463422 -0.02742291 -0.06468265 0.20557229 0.17857447 0.30936417 -0.04583494
0.015979925 -0.13356633 -0.15236694 0.23263907 0.03541493 0.027914833 -0.1707167 -0.2468702
-0.022868948 0.06688948 0.07720045 -0.029309038 -0.021469926 0.008545727 -0.04263048 0.043008678
0.061053712 -0.029231511 0.03523567 0.059625335 0.045840237 0.09295691 0.044361893 -0.0075926376
-0.021420598 0.02435142 -0.04499001 -0.104582265 0.050023057 0.0069010695 0.07742166 -0.08632769
-0.068411246 -0.06490741 0.015976872 0.031197304 -0.015415548 0.051576395 0.03398519 0.05687996
0.012656881 0.06929315 -0.07791335 -0.010370748 -0.054153692 0.022788174 -0.04313404 0.038768247
0.04022825 0.05531358 -0.047952164 0.039095428 0.02674951 -0.005509609 -0.04711546 0.088154
-0.04242968 0.061896767 0.07224239 0.016171366 0.07732807 -0.042751424 -0.036123272 -0.024239736
0.01562016 0.063849844 -0.02290452 0.03469373 -0.018552931 -0.057095535 -0.024143774 -0.03913862
0.067578584 -0.056226578 -0.06240735 -0.10359333 -0.041173182 0.17547867 -0.0047577396 0.05626602
0.09520158 0.07517388 -0.034809988 -0.095709264 0.031192126 0.12899643 0.09162988 -0.114621736
0.09123038 -0.085104525 -0.025843363 -0.015278987 -0.003120536 0.08965228 -0.042382352 -0.07207638
0.04591985 0.026338488 0.042282134 -0.05400076 -0.037329517 0.08273981 -0.0791139 0.008771762
-0.059031054 0.008037976 -0.018357823 -0.047155492 0.016278174 -0.227 0.05505244 -0.18126646
-0.09670561 -0.020704238 -0.021776753 0.06256028 0.08127286 -0.061940826 0.083263725 0.0559168
-0.10670147 0.07845385 0.0049076094 -0.0039172247 -0.037874587 0.06899495 -0.010242404 -0.046636578
-0.03826434 -0.11878076 -0.08396092 0.13628608 0.04758364 -0.26949945 0.059400003 0.054521374
-0.023460913 0.06518884 0.050777446 0.009163076 0.059174005 -0.10644315 -0.0003982689 0.17195253
-0.094458885 0.026522635 -0.046527695 -0.13681534 -0.091762155 -0.090573 0.10988074 -0.07419961
-0.0068233777 -0.010325229 -0.0051305755 -0.07719092 0.08395413 -0.10301394 -0.064079285 0.043837205
-0.07159914 -0.043121442 0.05640922 0.07343293 0.06876465 0.04402936 -0.012073632 -0.07116578
0.13627864 -0.066111 -0.062192105 0.037713803 0.023227492 0.06679917 -0.07918151 -0.060313188
-0.029402627 -0.032295916 0.037595958 -0.017172419 -0.057502408 0.024220224 0.011459133 -0.007684396
0.0052133123 0.029285971 -0.027626023 0.0578878 -0.032843847 0.021597466 -0.02527801 0.006622873
-0.028826475 0.00033928012 0.0067611085 0.05444715 -0.04621563 -0.0072069177 0.009356229 -0.026114177
00000000: c63d 87bd 4a8d 58bd 781a 2b3b c92d 133d
00000010: 49c9 16bd 1c72 393d 5abd d8bd 91fa 14bc
00000020: a32e 813d b131 d83c ebf7 6ebc 5315 813c
00000030: e6f2 003c f769 2b3c 3cf5 4dbc c9b7 4b3d
00000040: cd0d bb3d f30d 453d cc06 da3c e726 e43c
00000050: 1b5a 8d3d 3c9e 4fbd 3459 4c3d b05d b33c
00000060: e6f2 ebbc 5498 3dba 7b7b 5f3d 2387 9e3c
00000070: 3ae7 91bd 42a9 3cb9 a5fc bc3a 8e5a ae3c
00000080: 7dde 06be acac f83d 3271 583e a312 8bbb
00000090: 629c 0b3e b153 89be b03b f9bd 5cf9 4dbe
000000a0: 123b 313e 54b1 04bc 58ac 1bbc db15 00bd
000000b0: dc8e 15be 6e67 27bd 117e 1c3e 7e26 21be
000000c0: 0785 b53d 3a40 ff3d 03a6 e0bc 5678 84bd
000000d0: 8b81 523e 3adc 363e fb64 9e3e 6bbd 3bbd
000000e0: 55e8 823c 9dc5 08be 1406 1cbe f038 6e3e
000000f0: 3f0f 113d a6ad e43c 5cd0 2ebe 8bcb 7cbe
00000100: a957 bbbc 5afd 883d 451b 9e3d 8219 f0bc
00000110: b3e1 afbc 6003 0c3c 4c9d 2ebd de29 303d
00000120: 7513 7a3d ec76 efbc 4753 103d b239 743d
00000130: f9c2 3b3d 3160 be3d d1b4 353d a9cb f8bb
00000140: 407a afbc a17c c73c 7247 38bd 3a2f d6bd
00000150: fae4 4c3d 5e22 e23b 3f8f 9e3d 92cc b0bd
00000160: 321b 8cbd 2dee 84bd eee1 823c 7d91 ff3c
00000170: 7f91 7cbc c541 533d 0e34 0b3d f6fa 683d
00000180: ce5e 4f3c 91e9 8d3d 0991 9fbd 12ea 29bc
00000190: 43d0 5dbd 44ae ba3c 52ad 30bd 74cb 1e3d
000001a0: 61c6 243d 7e90 623d 7d69 44bd 8722 203d
000001b0: ca21 db3c f389 b4bb 24fc 40bd 168a b43d
000001c0: beca 2dbd 7787 7d3d d1f3 933d d079 843c
000001d0: 2e5e 9e3d 1e1c 2fbd fff5 13bd 6992 c6bc
000001e0: b3eb 7f3c b5c3 823d 43a2 bbbc 031b 0e3d
000001f0: 51fc 97bc 02dd 69bd 2ac9 c5bc d14f 20bd
00000200: a466 8a3d d74d 66bd d99e 7fbd bd28 d4bd
00000210: 36a5 28bd aeb0 333e d0e6 9bbb 3377 663d
00000220: 0cf9 c23d c3f4 993d eb94 0ebd 3803 c4bd
00000230: a186 ff3c a417 043e 72a8 bb3d cdbe eabd
00000240: fed6 ba3d 484b aebd 76b5 d3bc b754 7abc
00000250: e881 4cbb 9d9b b73d 1e99 2dbd c89c 93bd
00000260: 7416 3c3d d0c3 d73c 0830 2d3d e72f 5dbd
00000270: d6e6 18bd 7d73 a93d 7806 a2bd 70b7 0f3c
00000280: 8cca 71bd b7b1 033c 2563 96bc 1e26 41bd
00000290: ce59 853c b072 68be ab7e 613d ea9d 39be
000002a0: 970d c6bd ef9b a9bc 2965 b2bc 9b1f 803d
000002b0: 6372 a63d aab5 7dbd 2c86 aa3d 0409 653d
000002c0: 4d86 dabd 69ac a03d 03d0 a03b 105c 80bb
000002d0: 6222 1bbd 394d 8d3d c2cf 27bc ff05 3fbd
000002e0: 12bb 1cbd 5443 f3bd b4f3 abbd 948e 0b3e
000002f0: 10e7 423d d5fb 89be 6b4d 733d ce51 5f3d
00000300: 1a31 c0bc ba81 853d 03fc 4f3d ba20 163c
00000310: 7160 723d defe d9bd bfce d0b9 5314 303e
00000320: a973 c1bd ff45 d93c d393 3ebd 5219 0cbe
00000330: cced bbbd 567e b9bd 2709 e13d f7f5 97bd
00000340: a496 dfbb 262b 29bc 631e a8bb 4616 9ebd
00000350: 25f0 ab3d f9f8 d2bd 003c 83bd a48e 333d
00000360: 92a2 92bd 1ca0 30bd 5b0d 673d 0164 963d
00000370: 7bd4 8c3d 2158 343d 7cd0 45bc 5dbf 91bd
00000380: a18c 0b3e 3465 87bd 26bd 7ebd ca79 1a3d
00000390: 9547 be3c 01ce 883d ea29 a2bd f60a 77bd
000003a0: c7dd f0bc b948 04bd 38fe 193d 2cad 8cbc
000003b0: a587 6bbd 7e69 c63c 16bf 3b3c 63cd fbbb
000003c0: 6fd4 aa3b 22e9 ef3c f84f e2bc c21b 6d3d
000003d0: 4587 06bd 2bed b03c d413 cfbc af04 d93b
000003e0: 8025 ecbc 68e1 b139 4a8c dd3b fa03 5f3d
000003f0: 9a4c 3dbd 0228 ecbb de4a 193c 66ed d5bc

encoder.0.fc1.bias f4 [128]
-0.025461202 -0.087125316 0.022403963 0.0016277013 0.062769495 -0.06788499 -0.07933571 -0.030486222
-0.0538571 -0.068373 -0.00916465 0.020367546 -0.08055025 0.017959299 0.027098766 -0.0030859543
-0.04465784 -0.0045901607 0.05870497 -0.036152907 0.010466453 -0.0039652046 -0.096179046 -0.022666996
0.025461145 0.062152043 0.022960026 -0.08004418 -0.069798574 -0.085532755 0.06640734 -0.08886155
-0.013326017 0.03312382 -0.0063909288 -0.072513476 -0.08324669 0.022411747 -0.06553244 -0.07831302
0.028021803 -0.045124143 -0.05134983 0.009247925 0.064650916 -0.066441 -0.033398286 -0.051486336
0.03695099 -0.0068918928 -0.07277425 -0.09740698 -0.05085827 -0.09425604 0.0013072398 -0.06337991
-0.10281478 -0.022632323 -0.08446558 0.012611722 0.06444994 0.02524274 0.011464727 -0.04944528
0.050982032 -0.07306218 -0.1312117 -0.08312356 0.021614289 -0.08285734 -0.035582524 0.035041995
-0.01561105 -0.023041781 0.026514756 0.04750718 -0.117762506 0.0076558497 0.009009502 -0.09033848
-0.020585297 -0.05587748 0.02602356 -0.03840641 -0.05391884 0.060400303 -0.004629595 -0.017582573
-0.0262239 -0.09416782 -0.0032558702 0.057612453 -0.023172352 0.057074092 -0.065698445 -0.0112307845
0.049211346 -0.12041576 -0.028479334 -0.016661812 0.07568566 0.013310273 0.009837985 -0.06996056
-0.12208683 -0.0343968 -0.072082385 -0.098348826 -0.08121447 -0.08625602 0.08049196 -0.04574097
-0.04174236 0.03063364 0.052269734 0.055607412 -0.032869868 0.053204916 0.030809928 -0.109329835
-0.007920155 0.028314952 -0.06310373 0.05710833 -0.030992702 -0.01764474 -0.005086297 0.023643496
00000000: 0394 d0bc c26e b2bd 8488 b73c 9858 d53a
00000010: 4b8d 803d 4907 8bbd c37a a2bd 3ebe f9bc
00000020: 4399 5cbd 2507 8cbd 5427 16bc d7d9 a63c
00000030: 88f7 a4bd 611f 933c 3bfe dd3c b93d 4abb
00000040: 24eb 36bd 0f69 96bb 9f74 703d 1215 14bd
00000050: 7c7b 2b3c 8cee 81bb 85f9 c4bd 23b0 b9bc
00000060: e493 d03c 2493 7e3d aa16 bc3c 34ee a3bd
00000070: 8ef2 8ebd cc2b afbd 9200 883d 0bfd b5bd
00000080: 5e55 5abc d8ac 073d ff6a d1bb f281 94bd
00000090: 3e7d aabd d798 b73c df35 86bd 9462 a0bd
000000a0: fb8d e53c 18d4 38bd 3354 52bd 9c84 173c
000000b0: b367 843d 3812 88bd a4cc 08bd 56e3 52bd
000000c0: ec59 173d 63d5 e1bb aa0a 95bd 507d c7bd
000000d0: c350 50bd 5009 c1bd b057 ab3a 54cd 81bd
000000e0: 8e90 d2bd 6c67 b9bc 4afc acbd 65a1 4e3c
000000f0: 55fe 833d ddc9 ce3c 8dd6 3b3c 2287 4abd
00000100: 89d2 503d a0a1 95bd 5c5c 06be af3c aabd
00000110: 7310 b13c 1cb1 a9bd fbbe 11bd 3288 0f3d
00000120: 7dc5 7fbc 1ec2 bcbc 7935 d93c e496 423d
00000130: 782d f1bd ecdd fa3b 979c 133c 6203 b9bd
00000140: 7fa2 a8bc c9df 64bd 5c2f d53c 0a50 1dbd
00000150: 00da 5cbd 4f66 773d dcb3 97bb 5409 90bc
00000160: 81d3 d6bc 0fdb c0bd 7060 55bb 09fb 6b3d
00000170: f2d3 bdbc 86c6 693d e88c 86bd 5301 38bc
00000180: d691 493d 8a9c f6bd 7e4d e9bc 5a7e 88bc
00000190: 1501 9b3d 5513 5a3c 802f 213c 7b47 8fbd
000001a0: a908 fabd a9e3 0cbd ee9f 93bd 1c6b c9bd
000001b0: c653 a6bd ffa6 b0bd f8d8 a43d e25a 3bbd
000001c0: 09fa 2abd 66f3 fa3c ca18 563d 99c4 633d
000001d0: 8ea2 06bd 66ed 593d 1a65 fc3c 52e8 dfbd
000001e0: 8ac3 01bc c2f4 e73c 873c 81bd 6dea 693d
000001f0: 68e4 fdbc b48b 90bc f4aa a6bb 01b0 c13c

encoder.0.fc2.weight f4 [128, 128, 1, 1]
-0.041120484 -0.0075127417 -0.040939502 -0.026850265 -0.035005547 0.06556479 0.06104033 0.061800648
-0.03212589 0.0052863318 0.015531513 -0.017550988 -0.070731044 -0.029615873 0.053520184 -0.03503444
-0.0027518054 0.026441207 0.014949835 0.02881792 0.0485648 -0.038307484 0.055537123 -0.022739643
-0.073126264 -0.06514579 -0.032370143 0.113063864 0.031387776 0.072419666 -0.020309096 0.034656316
0.03483264 0.08027622 -0.013779973 -0.02915991 -0.055990092 -0.073941424 -0.056087498 0.029995404
0.008086455 -0.05079738 -0.07339968 -0.061207287 -0.06110856 -0.06263209 0.057971016 -0.0704625
-0.07380454 -0.08941195 0.044200514 -0.05285986 -0.0050356905 -0.00061928766 -0.0803288 -0.00015560561
0.08761206 -0.016639689 0.11158229 0.044393923 0.01561239 0.011849804 0.051219728 0.013791674
0.0054865666 0.062063083 0.066393405 0.08076816 0.11711886 0.108998455 0.0033019925 -0.0020180603
0.03587558 0.042786714 -0.04168537 -0.092874624 -0.13541327 0.053995237 0.053355344 0.07291721
-0.010434226 -0.026346058 0.037294183 0.026121635 -0.060981687 0.021271687 0.105770774 0.0751998
0.05368386 -0.15217572 0.013507532 -0.05493815 0.038007718 -0.0030910068 -0.014597778 0.03700195
-0.06060849 0.109803304 0.017302884 0.033079363 -0.0076279608 0.068043336 0.019751621 -0.011524737
0.07182004 -0.06400584 0.046509065 -0.06515814 0.0080886595 0.08357164 0.0023948539 0.024451498
0.05218537 -0.08743366 -0.045187753 -0.074220136 -0.0155705875 0.027289726 0.02879718 0.09872939
-0.06195702 -0.0850618 0.007745965 -0.056598514 0.054384764 -0.09621699 -0.021135537 0.061137952
0.09125478 -0.111807466 0.009843837 0.07987469 0.05780903 -0.063404225 0.05077115 -0.00576857
-0.012871121 -0.022169402 0.010012714 -0.0040092506 0.10079031 -0.0103048915 -0.03505162 -0.01780183
-0.0081873955 -0.008073015 -0.061096232 0.025642347 0.017879508 -0.039413873 0.06485267 -0.08480136
0.009955847 0.04379608 -0.017486336 0.06346733 0.017850207 -0.026498975 -0.114679635 0.055874217
0.064030476 0.0014875944 -0.087311216 -0.017905155 0.026584798 0.012034863 -0.03897852 0.02887028
0.08339645 0.0244511 0.06566474 -0.085582204 -0.064642526 -0.043519646 0.014652014 -0.10483296
0.10394257 0.04205901 0.052080687 0.03299989 -0.00047098385 -0.115765005 -0.0077550034 0.06261802
-0.014039898 0.05044493 0.01647386 0.05282982 0.036559403 -0.07191429 -0.08150399 0.04597446
0.0057035587 0.027697485 0.020895725 0.03857526 0.024668865 0.0033125507 -0.045906205 0.01002494
2.7749042e-05 -0.056271426 -0.07073342 0.019473406 0.011578567 -0.019365974 -0.051192623 -0.032217655
0.06388842 0.038750336 0.1031995 0.10742755 0.030681994 -0.018070608 -0.0612072 -0.06484346
-0.03772681 -0.13747434 -0.052563645 0.009978364 0.084732376 -0.0057779043 0.02554461 0.027592255
-0.053163815 -0.07725962 -0.06414759 0.05984699 0.03228385 -0.052314673 0.0748809 0.042998105
0.04802987 -0.082324095 -0.09589954 0.061724003 -0.024841089 -0.11877189 0.0823212 0.026540836
-0.0005287374 0.011885223 0.018126195 -0.029140739 -0.009357591 -0.03289549 -0.04177983 -0.05616531
0.012195816 0.04609806 -0.09286149 -0.027385775 -0.004199224 -0.033642814 -0.016889352 0.07895297
00000000: f46d 28bd 722d f6bb 2eb0 27bd 16f5 dbbc
00000010: fa61 0fbd d546 863d 6d05 7a3d ad22 7d3d
00000020: 7096 03bd f738 ad3b e377 7e3c 17c7 8fbc
00000030: 70db 90bd fd9c f2bc fb37 5b3d 4680 0fbd
00000040: a257 34bb 3b9b d83c 27f0 743c 8f13 ec3c
00000050: e2eb 463d 4fe8 1cbd e57a 633d 7d48 babc
00000060: 39c3 95bd 286b 85bd 8e96 04bd 078e e73d
00000070: 7890 003d c350 943d 435f a6bc c8f3 0d3d
00000080: acac 0e3d dc67 a43d 65c5 61bc c3e0 eebc
00000090: de55 65bd 9a6e 97bd 01bc 65bd ecb8 f53c
000000a0: 0d7d 043c ea10 50bd 9252 96bd 7eb4 7abd
000000b0: f84c 7abd 4145 80bd 0473 6d3d a54e 90bd
000000c0: d626 97bd 9d1d b7bd 990b 353d 9583 58bd
000000d0: 6f02 a5bb b157 22ba 6d83 a4bd 102a 23b9
000000e0: f46d b33d f54f 88bc 4185 e43d 67d6 353d
000000f0: 1ccb 7f3c ae25 423c c7cb 513d 79f6 613c
00000100: a8c8 b33b dc35 7e3d 44f9 873d c769 a53d
00000110: 03dc ef3d 953a df3d 3e66 583b 6f41 04bb
00000120: 46f2 123d 1f41 2f3d 47be 2abd 0d35 bebd
00000130: c7a9 0abe 1c2a 5d3d 228b 5a3d 9e55 953d
00000140: 51f4 2abc b0d3 d7bc c9c1 183d 0afd d53c
00000150: efc7 79bd f641 ae3c 599e d83d 5a02 9a3d
00000160: 9be3 5b3d f4d3 1bbe b24e 5d3c d306 61bd
00000170: fbad 1b3d 7d92 4abb 852b 6fbc 5b8f 173d
00000180: 9c40 78bd 8ee0 e03d c7be 8d3c 3a7e 073d
00000190: f9f3 f9bb 4e5a 8b3d 27ce a13c 40d2 3cbc
000001a0: 6316 933d 7e15 83bd 4a80 3e3d a271 85bd
000001b0: 4c86 043c 9c27 ab3d fbf2 1c3b 824e c83c
000001c0: 54c0 553d 6b10 b3bd cb16 39bd ba00 98bd
000001d0: c71b 7fbc b48e df3c 10e8 eb3c a232 ca3d
000001e0: a5c6 7dbd e234 aebd ddd1 fd3b d8d3 67bd
000001f0: 8fc2 5e3d 6a0d c5bd 6f24 adbc ca6b 7a3d
00000200: c9e3 ba3d 50fb e4bd 0b48 213c 5795 a33d
00000210: 29c9 6c3d 13da 81bd 69f5 4f3d 4606 bdbb
00000220: 65e1 52bc 9b9c b5bc 5e0c 243c 0860 83bb
00000230: 266b ce3d d9d5 28bc 4a92 0fbd 25d5 91bc
00000240: 6d24 06bc ae44 04bc 0b40 7abd e60f d23c
00000250: 0c78 923c 7170 21bd 7ad1 843d 56ac adbd
00000260: d91d 233c 8563 333d 813f 8fbc 29fb 813d
00000270: 993a 923c 6114 d9bc 28dd eabd 5ddc 643d
00000280: 6922 833d 63fb c23a 39d0 b2bd d5ad 92bc
00000290: 5dc8 d93c e02d 453c f1a7 1fbd 5e81 ec3c
000002a0: c2cb aa3d ac4d c83c 3c7b 863d b945 afbd
000002b0: 4d63 84bd a841 32bd 000f 703c aab2 d6bd
000002c0: d8df d43d 1246 2c3d 8f52 553d e52a 073d
000002d0: 62ee f6b9 3416 edbd af1d febb e03d 803d
000002e0: 9a07 66bc 589f 4e3d 30f4 863c 1564 583d
000002f0: 50bf 153d cd47 93bd 90eb a6bd b74f 3c3d
00000300: ebe4 ba3b d6e5 e23c 832d ab3c 1801 1e3d
00000310: 5c16 ca3c 6117 593b 2508 3cbd a53f 243c
00000320: 9dc6 e837 de7c 66bd afdc 90bd b186 9f3c
00000330: 08b4 3d3c 64a5 9ebc 5baf 51bd a9f6 03bd
00000340: efd7 823d acb8 1e3d 425a d33d fa02 dc3d
00000350: ce58 fb3c d008 94bc 67b4 7abd a6cc 84bd
00000360: 6d87 1abd 13c6 0cbe fa4c 57bd 4b7c 233c
00000370: 2b88 ad3d 9354 bdbb ee42 d13c 2709 e23c
00000380: 4dc2 59bd 4b3a 9ebd d05f 83bd 1e22 753d
00000390: 123c 043d e947 56bd 285b 993d c81e 303d
000003a0: f8ba 443d 8999 a8bd fa66 c4bd 4fd2 7c3d
000003b0: 8a7f cbbc ad3e f3bd 0498 a83d 2b6c d93c
000003c0: f79a 0aba 3dba 423c 637d 943c 8fb8 eebc
000003d0: 9550 19bc 6cbd 06bd 5421 2bbd 990d 66bd
000003e0: f6d0 473c 52d1 3c3d 2a2e bebd 2258 e0bc
000003f0: a599 89bb 0ccd 09bd 8a5b 8abc 18b2 a13d

encoder.0.fc2.bias f4 [128]
-0.042669542 0.06630242 -0.03567023 -0.08719294 0.081893556 -0.036566854 -0.082163475 0.03915591
-0.042401597 -0.06276024 0.07513138 0.016731922 -0.002239041 -0.019750912 -0.04962628 -0.020105748
0.088203505 -0.08190288 -0.008494688 0.0692678 -0.07104435 0.06277049 -0.05411554 -0.06701254
-0.094002694 -0.019693563 -0.026949454 0.00087759795 -0.08290552 -0.0026754616 -0.059437666 0.058871586
0.08266991 -0.03807725 -0.01357183 0.007987285 0.016126415 -0.012135402 0.025915291 -0.05562855
-0.07447351 0.050354693 0.06512191 -0.030088112 -0.009103718 0.04005686 -0.016672343 -0.026817651
-0.062993824 -0.090404525 0.033947743 0.03598071 0.05397086 -0.06170375 -0.049785152 -0.0047459644
-0.006999907 -0.023071945 0.057844695 0.0017534125 -0.06308559 0.08436783 0.0049437536 -0.021953724
-0.040161878 0.024279578 0.058738906 0.018760674 0.0042609605 -0.007846309 0.03679338 0.030906836
0.030698884 0.057982586 -0.07376793 0.03126358 0.09745768 -0.006947786 -0.056300048 0.0049125473
0.086142495 -0.06296357 -0.052153848 0.011888773 0.059625037 -0.007906622 -0.05214196 0.042111505
-0.07982845 -0.06781814 -0.06212987 0.083352745 0.011676183 -0.06019847 0.02424448 -0.02074755
-0.055410616 0.05939189 0.0855612 0.039529108 0.08252883 0.095078684 -0.08682951 -0.07713277
0.031282775 -0.05843495 -0.00052238617 -0.04360056 0.01438104 -0.011534593 -0.05773067 -0.09187286
-0.064717665 0.07471966 0.015291925 -0.07701126 0.05579777 -0.036723033 0.033089776 0.05900643
-0.057939325 0.035739984 -0.046441138 -0.014561177 0.042868547 -0.050387405 0.019665044 0.07287358
00000000: 42c6 2ebd 90c9 873d f21a 12bd 3692 b2bd
00000010: cfb7 a73d 20c7 15bd 5345 a8bd f361 203d
00000020: 4cad 2dbd 7188 80bd 7bde 993d 6211 893c
00000030: e0bc 12bb aacc a1bc ed44 4bbd cfb4 a4bc
00000040: 0aa4 b43d b2bc a7bd 4e2d 0bbc 47dc 8d3d
00000050: b37f 91bd d18d 803d 42a8 5dbd df3d 89bd
00000060: 7c84 c0bd 6554 a1bc 1ac5 dcbc 9a0e 663a
00000070: 5fca a9bd cc56 2fbb e974 73bd 5523 713d
00000080: d74e a93d e4f6 1bbd 615c 5ebc 1add 023c
00000090: 8b1b 843c 91d3 46bc 4e4c d43c c3da 63bd
000000a0: 9185 98bd b940 4e3d a35e 853d 587b f6bc
000000b0: c327 15bc a912 243d 7094 88bc b1b0 dbbc
000000c0: e802 81bd 0226 b9bd ca0c 0b3d 8260 133d
000000d0: 8c10 5d3d 12bd 7cbd 84eb 4bbd 0984 9bbb
000000e0: 7a5f e5bb 6001 bdbc 8fee 6c3d c3d2 e53a
000000f0: 0533 81bd 0ac9 ac3d 36ff a13b 4cd8 b3bc
00000100: c880 24bd f7e5 c63c 3598 703d fcaf 993c
00000110: 879f 8b3b ce8d 00bc a8b4 163d 5530 fd3c
00000120: 3a7c fb3c 267f 6d3d a413 97bd 3d0e 003d
00000130: e497 c73d 41aa e3bb e19a 66bd 6ff9 a03b
00000140: 7a6b b03d 0bf3 80bd 469f 55bd 21c9 423c
00000150: 6239 743d c78a 01bc cf92 55bd 1d7d 2c3d
00000160: 197d a3bd 3de4 8abd e47b 7ebd d8b4 aa3d
00000170: 764d 3f3c ac92 76bd 5c9c c63c c4f6 a9bc
00000180: 3ef6 62bd e944 733d b63a af3d 46e9 213d
00000190: e004 a93d 9db8 c23d acd3 b1bd c9f7 9dbd
000001a0: 5e22 003d 7c59 6fbd bef0 08ba 8096 32bd
000001b0: 749e 6b3c 97fb 3cbc ff76 6cbd d727 bcbd
000001c0: b28a 84bd 9f06 993d fb8a 7a3c 14b8 9dbd
000001d0: 348c 643d e46a 16bd 2589 073d bab0 713d
000001e0: c951 6dbd 1764 123d 1039 3ebd 0192 6ebc
000001f0: ee96 2f3d 0663 4ebd 9618 a13c be3e 953d
