small_scale_scenario/experiments/stid/URBANEV/-fulltrain-longterm/final_model_s2017.pt (torch, 287164 bytes, 18 tensors)

node_emb f4 [275, 32]
000000 a1 55 5a bd 8e 09 62 3c 33 f3 15 3d 84 fe 83 3b
       -0.05330432 0.013796223 0.036608886 0.0040281434
000010 53 a6 c7 bd 13 9f 37 3e aa a2 5f bd d1 38 80 3d
       -0.09748521 0.17931776 -0.054598488 0.06260837
000020 04 24 27 bd 2a 19 55 3d 82 3b 05 be 45 44 0d 3d
       -0.04080583 0.05202595 -0.13010982 0.034488935
000030 bb 3f 3a bd e2 9b e7 bd 15 c2 10 3d db 38 95 3d
       -0.045470934 -0.11309029 0.03534134 0.07286235
000040 2d a7 96 3d d7 e8 0d bd 13 13 a8 3d 91 76 8e 3b
       0.07356105 -0.03464588 0.08206763 0.0043476303
000050 3b 4b ea 3c 09 2d 8e bb a8 ce aa 3d c8 a2 0a be
       0.028600326 -0.0043388647 0.08340198 -0.13538659
000060 97 40 f4 bc e8 87 fb bc fd c8 32 bc 7c b8 97 3d
       -0.029815955 -0.030704454 -0.010912177 0.074082345
000070 fa 82 dd bc 0b c2 a0 bd d0 ca 04 bd d0 74 85 3d
       -0.027039994 -0.07849511 -0.03241998 0.06516421
000080 2a 30 c9 bd e4 d6 9f bd 53 93 fc bd fd 00 a9 bd
       -0.0982364 -0.07804659 -0.12332787 -0.082521416
000090 54 3a 01 be 7c 6b eb 3d 2c 92 a1 bd 05 00 f1 3d
       -0.12619907 0.114951104 -0.07889208 0.11767582
0000a0 06 8f ca bd a6 06 64 3d 1e ad 29 3d 43 01 d6 3c
       -0.09890561 0.055670403 0.041424863 0.026123649
0000b0 f8 04 a6 bc ce cf fd bd 65 3d d6 3d f6 81 cb bc
       -0.020266041 -0.12393151 0.10460929 -0.024842244
0000c0 b7 c9 04 be d4 9f b2 3d 99 d3 91 3c d9 1d 07 bd
       -0.12967573 0.08721891 0.017801093 -0.03298745
0000d0 b7 10 48 3d 26 bc 03 be f1 35 0f 3d 4e ab 60 bc
       0.048844066 -0.12864742 0.034963552 -0.013712717
0000e0 b9 58 e5 3d 3f e3 d9 bd ba 2b d4 bc 60 b9 3e bd
       0.11198563 -0.10639047 -0.025899757 -0.046563506
0000f0 24 57 b2 3d 07 f4 7f bd c6 9e df 3d ba fd 98 3d
       0.08708027 -0.062488582 0.109189555 0.074702695
000100 99 fc f6 3c dd 9a 39 3d d8 47 ba 3d dc 40 44 bd
       0.030149745 0.045313705 0.09095734 -0.047913417
000110 50 72 fe bd d6 70 7a 3d e6 66 b8 bd 87 5e 35 bc
       -0.12424147 0.061142765 -0.09004001 -0.0110699
000120 81 22 a4 3d b4 7f fe 3c 48 a1 32 bd 2d 93 ab 3c
       0.080143936 0.031066753 -0.04361084 0.020944202
000130 66 9d 5e 3d c7 37 f6 bc 0d 3d 0c 3d 39 ca 08 3d
       0.054349326 -0.030055894 0.03423791 0.03339598
000140 ff 72 d3 3c d4 28 26 bd 2e 60 8a 3e a1 e0 49 3d
       0.02581167 -0.04056628 0.27026504 0.04928649
000150 c5 1c 74 3d 6e 1e bd 3c ec 9a 2c bd e9 39 3b be
       0.05959775 0.023085799 -0.042139933 -0.1828381
000160 4e e8 51 3a c8 40 85 bd 50 7d 0b be 75 f2 a3 bd
       0.00080073334 -0.06506497 -0.13622022 -0.080052294
000170 44 8e 0d be 26 cb 2d bc c1 98 74 3d 54 5a 02 bd
       -0.13823801 -0.010607516 0.05971599 -0.031824425
000180 98 75 72 bc bc ff a4 3e d5 3d 27 3e 8c fd 54 3d
       -0.014798544 0.3222636 0.16332181 0.051999614
000190 e8 71 3c be 7b 78 48 3e 4b 1a 00 3d ad 07 49 3e
       -0.18402827 0.1957721 0.031275075 0.19631834
0001a0 5e ad 3b 3e e7 07 8a 3d 45 55 c2 be 30 43 92 be
       0.18327853 0.067397885 -0.3795568 -0.28566885
0001b0 2f f8 38 3e 25 3d c5 bd 60 6d ae bd 36 26 b1 bd
       0.18063425 -0.09630803 -0.085169554 -0.08649866
0001c0 c6 c5 9b 3d cc 11 4a bd d8 b6 32 3d ec 55 39 3e
       0.07606082 -0.04933338 0.043631405 0.18099183
0001d0 b7 14 29 3e c6 f7 70 bd ac 04 ab 3d f0 bb fe bd
       0.16511808 -0.058830045 0.083505005 -0.1243819
0001e0 61 3f eb bc af 2e cf 3d c7 c1 a6 be c6 d2 ac 3e
       -0.028716745 0.10116326 -0.32569715 0.33754557
0001f0 26 20 ec bd f4 1a 9b bc 16 5f 3a bd 96 6b d3 bc
       -0.11529569 -0.01893375 -0.045500837 -0.025808137
000200 6d 50 04 bc 7c f9 17 3d c4 07 90 bc 9d 5c 31 3d
       -0.008075816 0.03710316 -0.017581828 0.043301214
000210 62 03 a0 3c f2 f0 84 3c e2 ec 45 bd 56 a9 c1 3c
       0.019532863 0.016228173 -0.048321612 0.023640316
000220 6c 98 a7 3c ac f2 63 bd 6c 1a c9 bb 1c 9e 53 bc
       0.020458423 -0.05565135 -0.006137183 -0.012916114
000230 2f 50 99 bc 0f 8d 00 bb fb 8f 34 3d 11 8a 30 bd
       -0.018714992 -0.0019615327 0.044082623 -0.04310042
000240 db 75 34 bd 3e a0 b1 3d be d3 fe 3d c7 da 2b 3d
       -0.04405771 0.08673142 0.1244273 0.04195669
000250 b0 8a 4d 3d 0d 47 32 bd 0b 86 e4 3c 92 d3 11 be
       0.05018109 -0.04352479 0.027895948 -0.14240864
000260 63 64 71 3c d4 be 36 3c 52 0c 18 be 31 80 57 bd
       0.014733407 0.011153895 -0.1484845 -0.052612487
000270 f3 a4 9c bd 59 7e 10 bd 4d f7 14 bb f1 e3 ba b9
       -0.07648649 -0.035276745 -0.002273041 -0.00035646514
000280 fc 6a 71 bd 3e 15 41 bd 15 43 4d bc 2b 8d 25 bd
       -0.05893992 -0.0471394 -0.012528201 -0.04041783
000290 9c bd c9 3c bd a9 b3 3d 06 9d db bd bc ba be bd
       0.024626546 0.087726094 -0.10723309 -0.093129605
0002a0 a3 7b 8a 3d c2 ec 90 3a 6c c8 39 3d 53 d9 28 3d
       0.06761863 0.0011056887 0.045357153 0.04122288
0002b0 2f 02 3c 3d f9 74 a4 bd e7 d8 a8 3d 4d d0 2d 3d
       0.04590052 -0.08030123 0.08244496 0.04243498
0002c0 ff 82 06 bd 2c d6 ed 3c 03 b3 0d 3e 50 5c 15 bc
       -0.03283977 0.02903279 0.13837819 -0.009116247
0002d0 1a 3a 96 bd b5 35 65 3d c6 64 b4 bd bb 1e bd bd
       -0.07335301 0.055959422 -0.088082835 -0.09234377
0002e0 2b ba 76 bd 52 5e 25 3b c7 ea 9f 3d 57 69 7f be
       -0.060236137 0.0025233221 0.07808452 -0.24942528
0002f0 b5 88 8f bc 9b 13 3f bd 3b 4e 2c bd 1a fd a4 3d
       -0.017521242 -0.046649557 -0.042066794 0.08056088
000300 3b 60 c7 bd 39 1e 0c bc bc da 6c 3b 03 08 98 bc
       -0.097351514 -0.0085521275 0.0036141118 -0.018558508
000310 af 85 91 bd d6 b3 ec 3d c3 86 39 be 28 b6 fc 3b
       -0.07105576 0.115577385 -0.18117814 0.0077121444
000320 76 81 ba bb 9b 41 5d 3c b2 b9 cb 3c dc d8 95 3d
       -0.0056917025 0.013504411 0.02486882 0.07316753
000330 7b 4c f3 b8 ec 64 0e bd 5f cd d0 3d f8 03 8c 3d
       -0.000116013885 -0.034764215 0.101954214 0.068366945
000340 d9 a6 47 bc 9b 06 c3 3d 13 4d 29 3e 8f 39 a2 3c
       -0.012185776 0.09522744 0.16533308 0.019802837
000350 71 10 12 3d 25 68 ac bd 34 0f 2c bd 88 c4 f8 bd
       0.03566021 -0.084183015 -0.042006686 -0.1214686
000360 90 90 8d b8 36 8d d9 bd 42 44 7f bd bc be df bd
       -6.750331e-05 -0.10622637 -0.062320955 -0.109250516
000370 7c 00 dc 3b c0 4e af bd e4 a6 2c 3d 4b 9c 5f 3d
       0.006713925 -0.08559942 0.042151347 0.054592412
000380 ad a2 0d be 5a b8 7a bd 04 d8 4f bc e8 50 42 bd
       -0.13831587 -0.061210968 -0.0126857795 -0.04744044
000390 81 77 c2 bd cc ac 08 3e 46 43 1d bc d6 bf 4b 3e
       -0.0949545 0.13347167 -0.009598559 0.19897398
0003a0 4f fd a2 3c 4c 96 77 3c b9 9d 9f 3c e7 6c a0 3d
       0.019896178 0.015111517 0.019484388 0.078332715
0003b0 b7 64 3f bd e8 dc 0c be 1a 9a bb 3d 23 5e 3a 3c
       -0.04672691 -0.13756144 0.09160252 0.011374983
0003c0 c5 ce 9e bd 46 09 92 3b c1 5c 61 3c 43 a7 29 bd
       -0.07754282 0.004456672 0.013755024 -0.04141928
0003d0 c1 e2 a3 bc a4 9f 40 bd f6 ee c3 3d 25 ad 25 be
       -0.020005586 -0.047027245 0.095670626 -0.1617933
0003e0 c0 f1 0c 3d 2e 5c 74 bc 53 72 30 bd 3a 26 52 3d
       0.03441024 -0.0149145555 -0.043077778 0.051305987
0003f0 3a 52 90 bc ab 1c 31 be f9 59 5c 3d 7d 65 9d 3d
       -0.017617334 -0.17296092 0.053796742 0.07685373

time_in_day_emb f4 [24, 32]
000000 bb 11 00 be 52 5b aa bb 0f a4 17 be 53 7c 81 3e
       -0.12506764 -0.0051988745 -0.14808677 0.25290164
000010 d4 f9 1a be 44 bc 7d 3d 86 b3 07 3e f5 c8 f2 bd
       -0.15134364 0.061947122 0.13252077 -0.11854736
000020 4b bd b5 3c b0 f8 02 3e 50 b1 17 be 93 7f 40 bc
       0.022184988 0.12790179 -0.14813733 -0.011749166
000030 ca 07 b3 bd a1 67 2c 3c 1c f6 d1 bd bf 29 14 bc
       -0.0874172 0.010522754 -0.1025202 -0.009043156
000040 fd 0c 63 3e b7 d9 e6 3d 53 9b 93 3c 25 2c 11 3e
       0.22172923 0.112719946 0.0180184 0.14176996
000050 97 25 fa bb 93 af dd ba 36 cf 2b 3e 20 0a 5e 3e
       -0.0076338756 -0.0016913287 0.16778263 0.2168355
000060 43 0e 58 be 20 ae 94 be 49 59 08 be e6 29 68 be
       -0.2109919 -0.29039097 -0.1331531 -0.22672233
000070 89 a9 d4 bd d1 ac 45 bd ad 77 41 be fe 06 d1 bd
       -0.10383899 -0.048260514 -0.18893309 -0.10206412
000080 b2 4e 04 be 4b 70 ba bd 99 9c 94 3d 14 9c 62 bc
       -0.12920645 -0.091034494 0.07256431 -0.013831157
000090 26 a6 4c be 34 d1 19 be 33 bb 9a 3d d4 03 83 be
       -0.19985256 -0.15021211 0.07555237 -0.25588858
0000a0 05 59 47 3e 56 d1 90 3e e2 3d e5 3c 6d fd 2e be
       0.19467552 0.2828471 0.02798361 -0.17088862
0000b0 58 01 e3 bc 71 b0 88 3e 2e 77 ad 3e fd e8 22 3d
       -0.027710602 0.26697114 0.3387999 0.039772976
0000c0 9b 42 25 3d e1 b9 3d be 6f 7c f4 3d 19 f4 6d 3e
       0.040346723 -0.18527938 0.11937796 0.23237647
0000d0 d5 80 6d 3e 00 04 5d 3e 11 98 50 bb 90 59 bc bd
       0.23193677 0.21583557 -0.003182892 -0.0919677
0000e0 3e 7e 1a 3e b4 d8 73 be 35 49 6d be ae fe 6c 3d
       0.1508722 -0.23813134 -0.23172458 0.05786007
0000f0 3d e0 b8 3c 77 4d 25 bd e7 af d3 bc 23 4a fb bd
       0.022567863 -0.04035708 -0.025840713 -0.1227
000100 8e 3f 17 be 09 42 96 3e 60 c7 ed 3d 6f 41 4e 3e
       -0.14770338 0.29347256 0.116102934 0.20142148
000110 d0 51 95 be 59 5b 24 3e 4b 04 da bd 0e 56 32 3d
       -0.2916398 0.16050471 -0.1064535 0.0435391
000120 38 86 3d be bd 86 a5 3d f4 65 9a 3d 95 41 3b be
       -0.18508232 0.0808234 0.07538977 -0.18286736
000130 20 0f f9 ba d4 f8 8a 3e 0e 57 14 3e fb 80 78 3e
       -0.00190017 0.27142966 0.14486334 0.24267952
000140 ea 05 72 3e f3 36 f3 bc 1d 25 a8 3e db 7e d8 3d
       0.23635069 -0.029689288 0.32840815 0.10571071
000150 f9 63 82 3e f6 6e f9 3d 4a ae fc bd 04 9d 46 be
       0.25466898 0.12179367 -0.123379305 -0.19395834
000160 fe 64 e9 bd cb 18 9a bd 09 fd b9 3d ba fe c5 3d
       -0.11396216 -0.0752426 0.09081466 0.09667726
000170 8b e3 67 3e 37 01 28 3e 6e 6c 16 3e 7c 83 73 be
       0.22645395 0.16406713 0.146898 -0.23780626
000180 bb 72 78 3e 64 cd 6d 3e 46 60 7c be 7e 70 3c 3e
       0.24262516 0.23222882 -0.246461 0.18402287
000190 b1 7d 62 be f8 c8 dc bd e1 83 af 3d 33 0e 84 bd
       -0.2211826 -0.10780519 0.08570076 -0.06448021
0001a0 4e c4 7c 3e 68 bd e5 bd 63 ef 34 be ff 7e 80 be
       0.2468426 -0.11217767 -0.17669444 -0.2509689
0001b0 f4 b4 44 bd d2 44 86 3e 6b f3 ac 3e f2 81 80 bd
       -0.048024133 0.2622438 0.33779463 -0.06274785
0001c0 5b f4 32 3e 32 f8 8c 3d 4e d3 a9 3e dd 26 74 3e
       0.17476027 0.06883277 0.33169025 0.2384295
0001d0 aa 85 ad 3d 82 61 04 be 21 0c ef bd 91 a9 2c bc
       0.0847276 -0.12927821 -0.11672235 -0.010538475
0001e0 0b b6 80 3e 91 a5 e3 3d 52 15 35 be 82 bb 1d 3e
       0.25138888 0.11115564 -0.17683914 0.1540356
0001f0 32 32 58 3c d5 99 99 ba a3 41 24 3e e0 b4 82 bd
       0.013195561 -0.0011718819 0.16040663 -0.063821554
000200 99 4d 2e bd 02 67 98 3e c2 1a 22 be 9a 25 41 bd
       -0.04255447 0.2976609 -0.1583052 -0.047155
000210 e5 86 c8 3d 82 3f 26 3e 31 26 73 be 6a a8 14 3e
       0.09791354 0.16235164 -0.23745038 0.1451737
000220 4a 94 e1 39 1a bd 20 3d 23 45 83 bd ba b6 1a 3e
       0.00043025828 0.03924284 -0.06409671 0.15108767
000230 c7 78 bc 3d 2f f1 8e bd a7 59 bb 3e c5 50 9d 3e
       0.09202724 -0.06979596 0.36591837 0.30725685
000240 54 8a 3e bd e8 d4 2f be ba 7a ef 3d 94 98 7b 3d
       -0.04651864 -0.17171061 0.1169333 0.061424807
000250 d6 50 54 be 43 ae 6d be a5 a3 10 3e 10 9f 2a 3c
       -0.20733961 -0.23211007 0.14124925 0.0104139
000260 12 a0 98 bb d5 5c b7 bd 55 da 1c bd cd 92 81 3e
       -0.0046577537 -0.08953253 -0.038294155 0.25307313
000270 7c c8 37 3e ce 55 ec bd ef 86 73 3e a3 9b 1e 3d
       0.17947572 -0.115398034 0.23781942 0.038722645
000280 d4 f9 39 3e 40 f1 ec 3d b1 03 24 be 92 34 cb 3d
       0.18161708 0.11569452 -0.16017033 0.09922136
000290 1e 56 4b bd 09 97 17 be 53 cd bf be 9d 99 a5 bd
       -0.049642675 -0.14803709 -0.37461337 -0.0808594
0002a0 78 fc 14 bc 00 c7 86 bd bc e7 dc bc 98 46 6e 3c
       -0.009093396 -0.06580925 -0.026965968 0.014543198
0002b0 22 16 c4 bd 49 7a 21 bd 5e f9 48 3e 04 68 7a bd
       -0.09574534 -0.03942326 0.19626376 -0.061134353
0002c0 be 24 8a 3d 2d c0 96 3d 51 9d 55 be 94 e8 fc bd
       0.06745289 0.07360873 -0.20860793 -0.12349048
0002d0 13 67 8f bd 99 4f 9c bd e8 f3 c5 3d 30 08 17 3d
       -0.07002082 -0.076323695 0.09665662 0.036873043
0002e0 6d 89 e1 3d 42 29 15 3e ee f6 f3 bc 09 df 94 bc
       0.1101254 0.1456652 -0.029780831 -0.018172758
0002f0 c2 11 cf 3d 79 d6 3d 3e bf 65 83 3e 69 d9 87 3d
       0.10110809 0.18538846 0.25663564 0.066332646
000300 0a af 33 3c ec 09 75 be bb 26 8b be 1a 61 af bd
       0.0109670255 -0.23929566 -0.27177987 -0.085634425
000310 cd c0 24 3d 42 c3 0d be 2f ea 3e be 22 aa b8 bd
       0.04022293 -0.13844016 -0.18644021 -0.09016825
000320 fd 14 40 bd 39 bf bc 3d ac 7e 14 3e 46 58 47 3e
       -0.046895016 0.0921616 0.14501446 0.19467267
000330 eb 27 b9 39 0a c6 9f bb fb e1 4e 3e 7b 91 1c 3e
       0.0003531569 -0.004875903 0.20203392 0.15289871
000340 df 3d 2c 3d de d4 52 be c9 dd 74 bd a2 89 75 3d
       0.042051192 -0.20589015 -0.059781823 0.05994571
000350 9d 58 3b be c7 a1 bb 3d 4b 60 d6 3d 9d ec 5b 3c
       -0.18295522 0.09161716 0.10467585 0.013423112
000360 d8 35 95 3d 5f 0b 28 bd b5 6a db 3d 97 20 47 be
       0.072856605 -0.04102647 0.10713712 -0.19446026
000370 7b dd aa be 6e 62 ce 3d 1b 87 1f 3d 2b 32 c7 bd
       -0.333721 0.10077368 0.038947206 -0.09726366
000380 c3 ea 2d be a5 26 3c be bd 0d b4 3d 59 d4 af bd
       -0.16984086 -0.18374117 0.08791683 -0.08585424
000390 d5 e4 a6 3d a7 2f 41 3e df ab 22 be c9 3c 95 3c
       0.08149115 0.18865834 -0.15885876 0.018217461
0003a0 79 09 72 3d 74 50 bb bd 3c 05 8f 3e a6 a1 6c 3e
       0.059091065 -0.091462046 0.2793368 0.23108539
0003b0 04 a4 6e 3d b3 58 63 3d 04 c9 c8 3d 88 d7 1a 3c
       0.058261886 0.055504512 0.09803966 0.009450801
0003c0 3a 5f 45 3e c9 2e 38 be 16 01 b6 3d 4c a2 01 bc
       0.19274607 -0.17986597 0.08886926 -0.00791223
0003d0 5a 59 31 be 69 ba 24 3e df 63 61 3d ae 0a e9 3d
       -0.17319241 0.16086735 0.055026885 0.1137899
0003e0 84 3d 86 be 64 93 8b 3e 60 44 fb bd f6 4a 6d 3b
       -0.26218808 0.27260888 -0.12268901 0.003620801
0003f0 7f c5 5d be 05 02 ef bd 35 02 52 3e c1 5a 4f be
       -0.2165737 -0.11670307 0.20508654 -0.20249464

time_series_emb_layer.weight f4 [32, 72, 1, 1]
000000 d6 de 1a bc 70 5a 7c 3c 69 ee 0a 3d 91 d1 21 bd
       -0.009452542 0.015402421 0.033918772 -0.0395065
000010 b6 9e 12 bd ff 72 87 bd a9 84 b0 3d 5e c4 89 bd
       -0.03579589 -0.06613731 0.08619053 -0.06726907
000020 38 93 e1 bd f4 d5 d7 3d 98 d8 ab 3d e6 8a 91 3d
       -0.11014408 0.10538855 0.08390921 0.07106571
000030 94 12 27 bd a8 dc 04 3d fa 5d 94 3d 73 41 58 3d
       -0.0407892 0.032436997 0.07244487 0.052796792
000040 a0 76 a8 bd b5 1b f6 bc ea b1 2b bd ea fb 55 bd
       -0.08225751 -0.030042509 -0.04191772 -0.052242197
000050 4e a9 41 bd 97 93 f0 bd b4 35 84 3c 36 4c fb bd
       -0.047280602 -0.117469005 0.016138889 -0.122703955
000060 ad c2 e9 bc 8b 3a 94 3d 5f 57 2d bd ab fd 0e bd
       -0.028535211 0.07237729 -0.04231965 -0.034909885
000070 30 dc 26 bd d0 2e f5 bb ad 93 fb bc cb 04 eb bd
       -0.04073733 -0.007482387 -0.030710066 -0.114755236
000080 08 e5 13 bd 93 1f 56 3d 40 fa 18 3c 3d 7f d6 3d
       -0.036107093 0.052276205 0.009337008 0.104734875
000090 11 69 ce 3d fe 05 58 3d 80 cf bc 3d 19 91 bb 3b
       0.100786336 0.05274009 0.09219265 0.005724084
0000a0 c6 bf b1 bd c0 3f 20 bb 8f 50 00 3d 11 ac d4 3c
       -0.08679156 -0.002445206 0.031326827 0.025960954
0000b0 be f7 c9 3c 4d 83 0a bd 12 7d 03 3d f5 fa b8 3d
       0.024654265 -0.033816624 0.0321017 0.09032241
0000c0 cd 31 f7 3d 1b 63 b2 bd 04 ec 9b bd 48 c1 b8 3d
       0.120700456 -0.08710309 -0.07613376 0.090212405
0000d0 4c cd 2e bd 6d de e0 bd 5f 80 dd bc 40 29 8f 3d
       -0.042676255 -0.10979924 -0.027038751 0.0699029
0000e0 1c 68 51 bc 38 84 90 bb dd a2 fb bb 90 ee 8b 3d
       -0.012781169 -0.004410293 -0.007679327 0.068326116
0000f0 f9 a3 a5 bd 31 01 63 3c 9b 84 69 bd fb 26 d7 bc
       -0.08087916 0.0138552645 -0.057011228 -0.026263705
000100 49 6a 5e bd 2a ca 48 bd a9 d8 77 bd 8d 24 45 bd
       -0.05430058 -0.049020924 -0.060509358 -0.04813056
000110 39 ce 04 3d c1 ae 4d be e4 8d 2b 3d bf 08 54 bc
       0.03242323 -0.20086195 0.041883364 -0.012941538
000120 a7 92 fa 3d dd 22 65 3d e8 a1 f6 bc 3d 78 cc 3c
       0.12235003 0.05594145 -0.0301065 0.024959678
000130 0b a9 bb 3c a3 1f b3 bc 47 13 22 bd 59 ad 00 3e
       0.022907754 -0.021865672 -0.039569166 0.12566127
000140 c6 5c aa bd 72 bc fb bd 6f 02 eb 3d 0e 56 29 3c
       -0.083184764 -0.122918025 0.114750735 0.010335458
000150 93 07 40 bd 64 b9 29 3c 88 a7 66 3d d5 25 f5 bd
       -0.046882223 0.010359142 0.056312114 -0.119701065
000160 5f 17 4f 3c c2 d9 91 3d 9f 06 03 be 33 6d 88 3d
       0.012639849 0.07121612 -0.12795494 0.06661453
000170 ae 4a 9f 3d 76 3b 2b 3c 3e 1d bc 3c 4e 9a ae bd
       0.07777916 0.010451188 0.022963163 -0.08525525
000180 3a 21 6a bc 79 94 c7 bd 38 a7 8a bd b7 ca 20 3e
       -0.014290148 -0.09745116 -0.06770176 0.1570233
000190 5c 56 35 bd be df 20 3d e2 27 b0 3d 88 84 ad bd
       -0.04427181 0.039275877 0.08601357 -0.08472544
0001a0 88 9b 3e 3d 90 0a de 3d 4b 1e 0a 3d 1f e2 a2 3d
       0.046535045 0.108418584 0.033720296 0.079532854
0001b0 06 da 72 3c f7 4a 26 3d 59 20 f1 bb 50 b7 b5 bc
       0.014822489 0.040598836 -0.0073585925 -0.022182137
0001c0 b3 17 26 bd d2 50 60 3d 84 14 e7 3d e9 76 74 3d
       -0.040549945 0.054764576 0.1128321 0.059683714
0001d0 cc 18 cc bd 8d 5d e1 3d c5 38 46 3d 35 0d 5d bd
       -0.09965667 0.110041715 0.048393983 -0.053967673
0001e0 6b a5 f8 3d 04 59 52 3c 5a 2c be 3d e6 10 fb bb
       0.12140926 0.012838606 0.09285803 -0.0076619266
0001f0 29 91 90 bd 4c 8e 4a bd 65 9f 59 3c 46 08 fe bc
       -0.07058937 -0.04945211 0.0132826315 -0.031009804
000200 04 c8 53 bd 47 9e 6c bd 64 fa 6f bd 54 8e 05 3d
       -0.05170442 -0.057768133 -0.0585884 0.032606438
000210 a2 6c c8 bc 8e 44 ca bd 8f 9b a6 bd 60 f3 69 3d
       -0.024465863 -0.09876357 -0.08135139 0.057116866
000220 a7 a5 91 bc da 41 7e bd 8b dc c6 bd 69 5b a6 3d
       -0.017779185 -0.06207452 -0.09710034 0.08122904
000230 c9 8f 19 3b 4b 6e 3e be 8e b2 b5 bc a5 38 3d 3d
       0.002343165 -0.18596761 -0.022179868 0.0461966
000240 2a 7a c9 3b f7 40 11 bd 03 80 5a bd bf f5 44 bc
       0.0061485963 -0.035462346 -0.053344738 -0.012021481
000250 28 18 05 3d 2f 8a 95 bd 00 c1 0f 3d f8 4c 3c 3d
       0.03249374 -0.07301747 0.03509617 0.04597184
000260 01 12 76 bd c6 18 4c bd 9a 6e bc 3d 52 ab 44 3c
       -0.060075764 -0.049828313 0.09200783 0.012003737
000270 b4 65 3d bd 78 22 c2 bd 6c cd 86 3d 94 65 48 bc
       -0.04623957 -0.09479231 0.0658215 -0.012231249
000280 c6 71 64 3d 63 62 44 bc 4f fa 1b 3b 99 8c 9f bd
       0.055772565 -0.011986348 0.0023800319 -0.07790489
000290 2e fb 58 bd 3c dc 2c 3d cb 1a de bd b0 bb 7b bd
       -0.05297392 0.04220222 -0.10844954 -0.06145829
0002a0 33 ee 98 3d 77 3a f4 3b 24 d2 8c 3c 04 b7 69 bd
       0.07467308 0.0074532586 0.017190047 -0.057059303
0002b0 a8 7f 23 bd b3 e6 90 bd ac 04 a9 bc 5a 45 99 3d
       -0.039916664 -0.070752524 -0.02063211 0.07483931
0002c0 12 5f 73 3d 39 39 d8 3d 9d b2 42 3c 49 e8 8d 3d
       0.059416838 0.10557789 0.011883405 0.069290705
0002d0 0a 42 c9 3d 41 fe 9a bd f4 5b d9 bd 14 fc 39 3e
       0.09827049 -0.07568026 -0.10613242 0.18162566
0002e0 c5 b4 b2 bc dc cb 69 3d 01 ef 24 3e 8c da 04 3d
       -0.021814713 0.05707918 0.16106798 0.032434985
0002f0 1d 03 fd bd 1e 4d 77 3c e5 01 d8 3c b8 d6 77 3d
       -0.123541094 0.01509407 0.02636809 0.060507506
000300 27 72 0e be f7 98 55 bc 63 b1 d2 bd 86 3a a9 bd
       -0.13910733 -0.013036958 -0.1028774 -0.082631156
000310 f0 91 0e 3e f5 46 86 bc 68 48 02 be fd bd e2 3c
       0.13922858 -0.016391257 -0.12722933 0.027678484
000320 a9 9a c2 3d 52 a0 37 bc 17 cb ef 3d 8a 90 52 bd
       0.09502155 -0.011207657 0.11708658 -0.051407374
000330 99 43 8d bc f3 32 3b 3b 75 71 13 3e c7 2b 8a bc
       -0.017244147 0.0028564304 0.14398749 -0.016866578
000340 78 38 0c 3d 3f 85 0f bd 40 8b 60 3d c0 7f cb 3d
       0.03423354 -0.035039183 0.0548203 0.09936476
000350 dd 5d 3e bc bf 8d 6a be 52 7b a9 bd a2 0b 16 3e
       -0.011619058 -0.22905634 -0.082754746 0.14652875
000360 3b d2 21 3e 5d ae b5 bd a6 2b 86 3c 54 20 15 3d
       0.15802853 -0.08871148 0.016378235 0.036407784
000370 1f b4 bc 3d 83 09 c9 bd e2 e9 00 3e c0 1f 0c bc
       0.09214043 -0.09816267 0.12589219 -0.008552492
000380 cc c9 2a 3d e3 08 06 3d 51 54 01 bd c9 41 57 bc
       0.041696355 0.03272332 -0.03157455 -0.013138243
000390 b5 f5 f0 bd cc 8c b6 3d 61 51 4f 3d 6b ba 7b 3b
       -0.11765615 0.089135736 0.05061472 0.0038410674
0003a0 06 0a 63 bc 70 8e 4f 3c 02 ca 09 be de 82 8b 3d
       -0.01385737 0.012668237 -0.13455966 0.0681207
0003b0 ad 49 eb bc 91 55 aa bc 81 ac 00 bd b0 8d a5 bc
       -0.028721655 -0.020792754 -0.031414513 -0.020209163
0003c0 cd ea 1d 3d 67 e0 a5 3a 93 f6 cf bb 1e e4 9c 39
       0.038554 0.0012655378 -0.0063465326 0.000299246
0003d0 bc ae d7 bc f4 56 d4 bd 8d 38 b3 bd 07 ce 31 3d
       -0.026328437 -0.103681475 -0.087510206 0.043409374
0003e0 74 f1 41 3d d1 96 1f bd b6 64 af bd 0d a8 82 3d
       0.04734941 -0.03896219 -0.08564131 0.063797094
0003f0 72 97 e2 3d 4e ba 5f bc 73 ba 13 3c 82 b3 66 3d
       0.11064042 -0.013655258 0.009016621 0.056323536

time_series_emb_layer.bias f4 [32]
000000 f5 86 94 bd 18 a3 0c 3c 8c 21 35 3d 07 61 a4 3c
       -0.072523035 0.008583806 0.044221446 0.020065797
000010 61 ca 82 3d 0e 05 17 3d 61 00 c3 3d 8c 82 3d bd
       0.06386257 0.036870055 0.09521557 -0.046267077
000020 73 f3 ea 3d 6b 56 61 bd fe dc 4c bc cf 97 61 3c
       0.114722155 -0.055014055 -0.0125038605 0.013769104
000030 f1 a2 7b bd f6 b8 a2 bd 72 25 df bd 8f 9a a1 bd
       -0.06143469 -0.07945435 -0.10895814 -0.07890808
000040 1a 25 a6 bb c2 c1 48 3d ac d8 39 3d bf 6c 6d bd
       -0.005070341 0.049012907 0.04537265 -0.057965036
000050 d7 f4 c8 3d 6f ed 4a bc 8b 31 f3 3c fd 44 2c 3d
       0.098123245 -0.01238571 0.02968671 0.04205798
000060 0a 62 57 3d 8f ff 68 3c 60 70 ba bd 81 01 e7 3d
       0.05258373 0.014221086 -0.09103465 0.11279584
000070 33 a7 84 bd a9 09 86 3b 83 f1 20 3c 1b 32 96 bd
       -0.06477203 0.004090507 0.009823206 -0.073337756

encoder.0.fc1.weight f4 [96, 96, 1, 1]
000000 64 76 0e 3e 94 d0 e7 bc cf 37 aa bd fd f5 bc 3c
       0.1391235 -0.0282977 -0.08311426 0.023066515
000010 8b 6c 8b 3d 8e 82 b4 bd 14 24 e0 3c d6 72 d2 3c
       0.06807812 -0.08813964 0.027360953 0.025689524
000020 1e 03 a9 bc 02 87 49 bc 79 e2 05 bb 09 3b 41 bc
       -0.02063137 -0.012300255 -0.0020429178 -0.01179386
000030 ea 32 dc 3c a3 e6 dc bb 2f 86 3d bd 5f 48 c3 3d
       0.026879746 -0.006741361 -0.046270546 0.09535288
000040 84 ab 19 bd b1 6d 9a bd 3d 59 90 bd 99 00 81 3c
       -0.037517086 -0.07540453 -0.07048271 0.015747355
000050 3e 58 89 3d 38 ae 90 bc fc 71 2b bd 9e 34 c2 3c
       0.06706284 -0.017661199 -0.04185675 0.02370673
000060 03 02 b8 3d 5c c7 9c ba 26 97 1f 3d f6 42 8d 3d
       0.08984759 -0.0011961269 0.038962506 0.068975374
000070 60 61 dc 3d 1b d9 bc bd 98 5b a0 3c 57 5f b4 3d
       0.1076076 -0.09221097 0.019574925 0.08807247
000080 3f 9e 37 3e d7 a9 17 3e 2e 16 11 3e b4 82 42 3e
       0.1793146 0.14810883 0.14168617 0.18995172
000090 3b 13 4b 3e 4b a9 b4 bd 39 3d 2f 3d ae 6a ab be
       0.19831555 -0.088213526 0.042782996 -0.33479828
0000a0 cb cd 94 3d 67 11 a3 bd 8b 42 75 be 0a 58 44 bc
       0.072658144 -0.079623036 -0.23951165 -0.011983881
0000b0 29 89 7f 3e 6a 49 64 3e 4d d9 63 3d 4f ad 70 3e
       0.24954666 0.2229363 0.055627156 0.23503612
0000c0 ac d0 aa 3d ad fb 4e be b2 6f 1d 3e 56 52 85 3e
       0.08340582 -0.20213194 0.1537464 0.2603938
0000d0 da 58 bd 3c bd c2 10 3e 73 d2 89 be ee 1d 4a bd
       0.023113657 0.14136787 -0.26918373 -0.04934495
0000e0 fd eb 75 bd 4c e3 0b 3e 79 c8 90 bd 72 53 5f 3d
       -0.06003951 0.13660926 -0.07069487 0.05452294
0000f0 f2 5d 19 be 4a 69 99 3e c9 fe f6 bd 65 c5 2a 3b
       -0.14977244 0.29963142 -0.12060315 0.0026057598
000100 6c 99 09 3b 9e 02 50 3c 33 d8 77 bc 71 54 84 bd
       0.0020995988 0.0126959365 -0.0151272295 -0.064614184
000110 a6 f6 b6 3c ef b5 33 3d 30 2b af bc a7 88 85 bc
       0.022334408 0.043874677 -0.021382898 -0.016300512
000120 3d 92 0c 3d d1 ec 94 3c 09 cb 5a bd 71 4c 9e bc
       0.03431915 0.01817933 -0.053416286 -0.01932356
000130 c1 10 b6 bc 09 42 23 3d 83 5d 45 bd d7 76 f3 3c
       -0.022224786 0.039857898 -0.048184883 0.029719753
000140 d4 d9 b0 3c 80 2d 3b 3c 15 c1 2d bd 9c 41 41 bc
       0.021588244 0.011424422 -0.042420465 -0.011795428
000150 e4 17 2f bd 13 52 1f 3b a5 c4 3d 3d b6 6b 5d 3b
       -0.042747393 0.0024310395 0.046330113 0.0033786125
000160 b5 eb 3b 3d 1f 25 0e 3d 4c be 07 3c ed 33 20 bd
       0.045879085 0.03470337 0.008285116 -0.03911202
000170 31 fb 74 3d 3b 9a 92 3c e5 d5 3c 3c 99 45 28 bd
       0.059809867 0.017895808 0.011525606 -0.041082
000180 d4 68 93 3d 44 de b0 3b 6e 68 d4 3d e4 03 dd bd
       0.07197729 0.00539759 0.10371481 -0.10791758
000190 d5 55 0f bd 87 22 8b bd bc da 84 bd 6c 3e 80 bb
       -0.034993965 -0.06793695 -0.06487033 -0.0039136913
0001a0 39 06 de 3d 8f 1c be bc ea 1e 35 bb 2e 38 40 3c
       0.10841031 -0.023206977 -0.0027636834 0.011732144
0001b0 63 b4 a6 3b b8 17 91 bd d8 78 89 bc 8d 80 0b 3d
       0.0050874217 -0.07084602 -0.016781256 0.034058142
0001c0 89 a5 c2 3d 32 17 b7 3c 2f 88 4f bc 4d 37 e2 3d
       0.095042296 0.022349928 -0.012666746 0.11045704
0001d0 9c d8 ea 3c af 81 eb bc a1 e9 4f bc c8 06 56 3c
       0.02866774 -0.028748361 -0.012689979 0.01306314
0001e0 9e c2 02 bd 8f 19 11 3d 55 11 98 bd 4c 29 c7 3d
       -0.031923883 0.035424765 -0.07425181 0.09724674
0001f0 2b 01 90 bd 28 d7 f1 bc dc 36 12 be 02 27 96 bd
       -0.07031473 -0.02952154 -0.1427874 -0.07331659
000200 28 4c d5 3d dc 75 18 bc 19 2a 40 3e 45 f2 ff 3d
       0.10414916 -0.009305444 0.18766059 0.12497381
000210 09 45 13 3e 7d 03 0c be 2d c6 9a bd 31 45 75 bc
       0.14381804 -0.13673206 -0.0755733 -0.01497011
000220 88 ac d4 3d aa 19 0d bd 10 72 09 be 0e e1 48 be
       0.1038447 -0.034448303 -0.13422418 -0.19617102
000230 f2 80 83 3e e2 a8 2c 3e 6a d3 45 be 88 3f af bd
       0.25684315 0.16861299 -0.1931893 -0.085570395
000240 83 4d 1e 3e c9 ad cb bd 5c 9b 12 be 57 a1 e8 bd
       0.15459256 -0.09945256 -0.14317077 -0.11358898
000250 bc e8 53 3e 47 e7 f6 3d 90 5b 56 be fd 43 09 3e
       0.2069425 0.120558314 -0.20933366 0.13404842
000260 3a 7e 11 be 8b a1 15 3e e7 fc 39 3e bc 6d ad 3d
       -0.14208308 0.14612405 0.18162881 0.08468196
000270 e4 53 3c be 1d 22 1a 3e e5 8f fb bd a6 09 3f be
       -0.18391377 0.15052076 -0.12283305 -0.18656024
000280 34 c0 56 3c f4 c4 82 3b 9c 90 01 bd 31 0f bf 3d
       0.013107348 0.003990764 -0.03163205 0.093290694
000290 35 75 8d 3c ba 7e 59 3d 18 33 4e bd 73 be ac 39
       0.017267803 0.05309937 -0.050341696 0.00032948292
0002a0 34 56 4b 3c 6e 61 5d bd 10 aa 03 bd 4b 1e 9f 3d
       0.012410689 -0.054047994 -0.032144606 0.0776945
0002b0 89 07 61 3d 7c ba 3a 3d 50 fc f9 bc af 32 02 be
       0.054938827 0.045588 -0.03051582 -0.12714647
0002c0 d8 35 b6 3d 5d a9 d1 bd 63 9b 4e bd a8 61 c6 3d
       0.08896989 -0.102373816 -0.050441157 0.09686595
0002d0 53 17 69 bd fc 65 87 3c 40 34 a4 bd 37 8f aa bd
       -0.05690701 0.016528122 -0.080177784 -0.08328097
0002e0 d7 fa 22 3d 18 1c 96 bd e9 41 5e 3d 77 d5 de bb
       0.03979 -0.07329577 0.054262076 -0.0068003493
0002f0 36 48 29 3d a6 a4 01 3c f5 85 a2 3c 38 10 f8 bd
       0.04132863 0.00791279 0.019839266 -0.121124685
000300 36 01 66 bd 46 4d 55 bd 64 3f 29 be 4b ec 7f bd
       -0.0561535 -0.052075647 -0.16528088 -0.062481206
000310 2c d8 08 be ac 37 c9 bd d3 19 be bc 01 ed f5 3c
       -0.13363713 -0.09825072 -0.023205673 0.030020239
000320 91 ae 00 bd d6 f7 07 3e 54 1c 7f 3d 2b 64 4e bd
       -0.03141648 0.13278136 0.062282875 -0.050388496
000330 6a b7 12 bd a8 0c df bc 86 94 08 bc d0 1e 41 bc
       -0.03581945 -0.027227715 -0.008336192 -0.011787131
000340 7a bd 9f bd 46 4e 4c 3d 93 e2 99 bd cc e7 d5 3c
       -0.07799812 0.049879335 -0.07513919 0.026111506
000350 01 e0 48 bc 40 4d 12 bd 0c ca e4 bd 06 e4 52 3d
       -0.012260438 -0.035718203 -0.1117135 0.05148699
000360 a1 48 d9 3d dc c9 ba 3d 91 b1 26 3d 38 e4 ee 3d
       0.10609556 0.09120533 0.040696684 0.11664623
000370 6a 7c 98 bd 5e 0e 08 3e fa c8 da bd 94 b0 aa 3d
       -0.07445605 0.1328673 -0.106828645 0.08334461
000380 1a 73 cd 3d ae c9 b7 bd ed 6e 88 3d 35 14 0a bd
       0.100317195 -0.08974014 0.066617824 -0.033710677
000390 37 61 e0 3b 2b cf 6c 3d 04 a9 86 3e 92 5a 14 bd
       0.0068475264 0.05781476 0.26300824 -0.036219187
0003a0 19 31 20 bd a6 db 8b 3d 49 60 e8 bd c1 8f ce bc
       -0.039109323 0.06829004 -0.1134649 -0.025215032
0003b0 4e 95 16 3e 28 54 36 bc a2 e4 a1 be 03 f4 6d be
       0.14705393 -0.011128463 -0.31619745 -0.23237614
0003c0 5e 1f 28 be e4 bb 79 bc 80 00 16 be 79 01 3e 3e
       -0.16418216 -0.0152425505 -0.14648628 0.1855525
0003d0 02 0b 87 be a5 f3 26 3d 44 9e 08 3e de ba 1e 3e
       -0.26375586 0.0407597 0.13341624 0.15500972
0003e0 44 09 11 3d db ef 12 3c 7e f1 c2 3d 94 de f9 3d
       0.035409227 0.008968319 0.09518717 0.122006565
0003f0 f7 0a 8e 3d c1 0b 19 3e b2 0a bd bc 77 19 12 3e
       0.06935685 0.1494589 -0.023076389 0.14267527

encoder.0.fc1.bias f4 [96]
000000 f3 d2 45 bd e3 5c d8 bb 4e af bb bc ed 58 14 3d
       -0.04829688 -0.00660287 -0.02291074 0.03621762
000010 ad 5c 2f 3b a9 32 15 be 33 af 53 bd 0b 1c a9 bd
       0.002675812 -0.14570107 -0.051680755 -0.08257302
000020 db 87 ff bd 4c 61 ed bd 70 46 53 bd b8 30 a6 bd
       -0.12477084 -0.115908235 -0.051580846 -0.08114761
000030 38 8f f9 bc 97 08 67 bd 2a 7b f7 bd bf e3 0b 3d
       -0.0304638 -0.056404676 -0.120840386 0.034152742
000040 da f6 d2 bd 30 d7 1f 3d 66 9f e7 bc 60 f9 48 bb
       -0.103009894 0.03902358 -0.02827425 -0.0030666217
000050 c9 4c e8 bd d6 2b 04 3d 76 36 fc bd b8 11 64 3d
       -0.113427706 0.032268368 -0.12315075 0.05568096
000060 4e 85 1d 3d bf 8e 86 3d 55 22 e9 bc 7d 7e 96 bd
       0.038457207 0.065701954 -0.028458754 -0.073483445
000070 41 af 52 3d 28 3e 13 bd cd a1 ee bd 12 a8 b9 bc
       0.051436666 -0.03594795 -0.11651955 -0.02266315
000080 1c cd 2f 3d 7e 12 6c bd 09 cc b6 bd 7c 78 25 b9
       0.042920217 -0.057634823 -0.08925635 -0.0001578051
000090 45 08 09 be 22 68 b7 bd 87 9b fc bc 15 33 0d be
       -0.13382061 -0.08955409 -0.03083588 -0.13789017
0000a0 c5 d7 0c be 5e 87 dc bc fe d4 a6 3b b3 49 34 bd
       -0.13754185 -0.026920017 0.0050913086 -0.044015598
0000b0 2e 2b 15 bd 44 c0 cc bc 27 47 1f bd d9 92 80 bd
       -0.036418132 -0.024994023 -0.038886216 -0.06278009
0000c0 b9 15 9b bd fb 41 a3 3b c2 13 c3 bd 79 a4 c0 bd
       -0.07572503 0.0049822307 -0.09525253 -0.09406371
0000d0 4f 48 c6 3c 0e bd 03 bd 9d 59 83 3d 70 bc 85 bd
       0.024204401 -0.03216272 0.06413577 -0.06530082
0000e0 0e a4 d6 bd a1 0c ab bd 32 33 d1 bd 82 4a c3 bd
       -0.1048051 -0.08352018 -0.10214843 -0.095356956
0000f0 82 44 a4 3c 87 4b 1e 3c a1 2b 54 bd e5 ae 0a bd
       0.020052198 0.009661562 -0.05179942 -0.0338582
000100 1e 51 8c 3d 56 a0 53 bc a9 82 8a bd c2 dc 91 3d
       0.068514094 -0.012916645 -0.06763203 0.07122184
000110 bc db 90 3d 2b 91 17 3d 80 e6 6c 3d 31 00 4d bd
       0.07073161 0.037003677 0.05783701 -0.05004901
000120 00 d5 9e bd b1 da 67 bd ae 80 ea bd 56 34 26 3d
       -0.0775547 -0.056605045 -0.11450325 0.040577255
000130 14 5b 46 bc 54 01 f0 3c 16 a9 fc bc 2e 32 3f bd
       -0.012106676 0.029297508 -0.030842345 -0.046678714
000140 bd ad 1e bb 56 9c 2b 3c af 18 fa bc 9e 88 f7 3a
       -0.0024212443 0.010474285 -0.030529348 0.001888532
000150 70 99 66 bd b7 e2 a9 bc 11 3a 0f 3d 7b b1 4c bd
       -0.056298673 -0.020737989 0.034967486 -0.049973946
000160 c7 3b 5d bd d8 67 c4 bc 58 13 a6 bd d1 e8 f5 bd
       -0.054012086 -0.023975298 -0.08109158 -0.12007297
000170 87 02 36 3d fa 43 5e bd 8d e7 ac bd 66 5a 09 bd
       0.044436004 -0.054264046 -0.08442602 -0.033533476

encoder.0.fc2.weight f4 [96, 96, 1, 1]
000000 6e 2b c2 3c 7b cb b5 bd d3 0a d6 bc ae f5 19 bd
       0.02370235 -0.088767014 -0.026128208 -0.037587814
000010 3c e8 99 3d 6f b9 28 3d 0a 76 9c bd 1d ef 56 3c
       0.07514998 0.04119247 -0.07639702 0.0131185325
000020 77 85 30 3c 2d 92 91 bc 52 40 9a bd 16 61 9d bd
       0.010774008 -0.017769897 -0.075317994 -0.07684533
000030 be 4a 4a bd 10 93 82 bd ad 80 dc bd 10 8c 56 3d
       -0.049387686 -0.06375706 -0.107667305 0.052379668
000040 49 b9 b2 3d f1 29 a8 3c 64 91 80 bd cc 8d f8 bc
       0.087267466 0.020527812 -0.06277731 -0.030341052
000050 5a 07 a8 bc f2 25 fe 3d 56 84 b0 bd 94 01 a9 3d
       -0.020511318 0.12409581 -0.08618991 0.08252254
000060 e4 07 8b bc 5d a3 a2 3b 2e 7e 29 3d 20 ae e8 3d
       -0.016971536 0.004963322 0.0413801 0.11361337
000070 7c d2 c6 bd 35 08 da 3d cd 9b 52 3d 93 ce a6 bb
       -0.097081155 0.106460966 0.051418114 -0.0050905435
000080 86 f8 dd bd 9c e1 2b bc 06 9e 63 bd fe 51 97 bd
       -0.10838418 -0.010490801 -0.055570625 -0.07388686
000090 c9 6f f0 bc db 0a 2f 3c 59 9b af 3d eb af d6 3c
       -0.029350178 0.0106837405 0.08574552 0.026206931
0000a0 07 92 ec 3a e5 f7 aa 39 04 98 06 be d3 67 72 bd
       0.0018048891 0.00032609623 -0.13143927 -0.059181046
0000b0 e5 ff 32 bd 93 81 cd 3c ac bc 3a 3d 66 cb 60 bc
       -0.04370107 0.0250862 0.045590088 -0.013720369
0000c0 e7 3c bc bd 98 d1 51 bd 40 30 d3 bb ca 06 61 bd
       -0.09191304 -0.051225275 -0.006444961 -0.054938115
0000d0 6c 28 09 3d 21 bf b9 3d 66 d0 a2 3c 6f 6a bd 3d
       0.033485815 0.09069658 0.019874763 0.09248816
0000e0 58 ac 86 3d 82 98 5b 39 2d 11 40 bd 4f 2d f1 bd
       0.06575841 0.00020942281 -0.04689138 -0.1177622
0000f0 a0 33 c4 bd 39 53 4e bd 44 d5 ed bd dc 6d e0 3c
       -0.09580159 -0.050372336 -0.11612943 0.027396135
000100 a9 48 df 3d 61 91 4a b8 58 c0 31 3d 24 a8 58 3d
       0.10902531 -4.8295948e-05 0.043396324 0.052894726
000110 f3 f1 85 bd 86 0b a4 3c d0 03 82 3d f8 e5 28 bd
       -0.06540289 0.020025026 0.063483834 -0.04123494
000120 cb c4 ba 3d 86 4b 5b 3d d9 0d f3 3d 08 bc 1c bd
       0.091195665 0.05353882 0.118678756 -0.038265258
000130 e5 b3 f0 bc 81 e3 85 3d 50 68 80 bd d4 67 d5 bc
       -0.029382655 0.065375336 -0.06269896 -0.026050486
000140 ac be 7f 3d ea f3 26 bd 8a 2e 8a bd ae 92 bc 3d
       0.0624377 -0.04075996 -0.06747158 0.092076644
000150 58 c0 95 bd 5f b7 3c bc 01 1e 9d 3d a9 a3 28 3d
       -0.07312077 -0.011518328 0.076717384 0.041171703
000160 cc 45 40 3d 14 ad e1 bc 80 b3 a1 3b 7f 4a 69 3c
       0.046941563 -0.02754835 0.004934728 0.014238953
000170 b0 98 97 3b 83 d5 b2 bd d6 82 b6 bd 7b 69 99 bd
       0.004626356 -0.087321304 -0.08911674 -0.07490822
000180 0f c0 c1 3d 39 d9 30 3c 3c a0 ab bd 76 9d b1 bb
       0.094604604 0.010793977 -0.08380172 -0.005420382
000190 17 bd 81 3d bd 30 f5 bd cf 4d 5e bd 16 66 91 3d
       0.06334894 -0.11972187 -0.054273423 0.070995495
0001a0 ac 00 99 3d a8 8f e5 3c e4 7b b0 3d 24 06 1d 3e
       0.07470831 0.028022602 0.0861738 0.15334374
0001b0 05 f0 f4 3c 8c 76 cb 3c aa 24 98 3d 6b 5b 50 bd
       0.029899606 0.024836801 0.07428868 -0.050868433
0001c0 9c d5 ab 3d 7c 4e db 3c c9 79 11 3e 9f be c9 bc
       0.08390352 0.026770823 0.14206614 -0.024627028
0001d0 e8 c2 91 bd 60 75 1b bd 89 c9 da bd fe f1 39 bd
       -0.071172535 -0.037953734 -0.10682971 -0.045396797
0001e0 ca 2d a2 3d a4 51 5f bd d2 9b 3b 3d 2e 7f 1d 3e
       0.0791889 -0.054521218 0.0458029 0.15380546
0001f0 44 a9 0b 3e 4a 04 33 bd 26 67 15 bd 5b 12 83 bb
       0.13638788 -0.043705262 -0.036475323 -0.003999991
000200 56 de f5 3b 6e 37 8b 3d 95 d4 b0 bd 78 36 30 3e
       0.007503311 0.06797682 -0.08634297 0.17208278
000210 95 9f aa bd ef ca 81 bd 40 1c 9a 3d d0 76 0e be
       -0.08331219 -0.06337535 0.075249195 -0.13912511
000220 59 21 1c 3e 87 67 43 bb ab 62 99 3d 6c fb 19 3b
       0.15247096 -0.0029816346 0.074895225 0.0023495806
000230 3c 8f ad b9 30 07 51 be 8e 5e f6 3d 71 18 e6 3d
       -0.0003310385 -0.20412898 0.120297536 0.112351306
000240 f6 f8 47 bc 75 7f 89 3d 71 31 8e bd d9 57 ea 3d
       -0.012205353 0.067137636 -0.06943024 0.11442537
000250 b7 18 95 bd 31 8a b1 3c 64 3a 8c bd b2 89 5e 3c
       -0.072801046 0.02167234 -0.06847075 0.013582634
000260 12 5d e1 3d 85 73 68 bd cc 85 36 3d 59 72 80 3d
       0.1100408 -0.056750793 0.044561192 0.0627181
000270 0a 6e 86 3c 89 00 e0 bd 76 ee a2 3c b3 01 7b bd
       0.016409893 -0.10937602 0.019889098 -0.061280917
000280 12 7f 3f 3c 60 4c 79 3d 7d 0d 3c 3e e5 ff 55 bd
       0.011688011 0.060863853 0.1836452 -0.052245993
000290 cd f3 22 3d 6f f8 22 3d 74 3f d8 3d ee 36 3d bd
       0.039783288 0.039787706 0.10558978 -0.046194963
0002a0 63 47 11 3d 64 91 2b bd d6 38 39 bb 62 d9 81 3c
       0.03546847 -0.041886702 -0.0028262637 0.015850727
0002b0 e3 9b b4 3d 80 a3 b9 bc 6f 24 1c bd 0c 36 5c bd
       0.088187955 -0.02266097 -0.038120683 -0.05376248
0002c0 34 95 d9 3d 9b 5d 52 be 64 7c 76 3c 9b c7 99 3d
       0.10624161 -0.2054352 0.0150443055 0.07508775
0002d0 3c 13 1a bd cc cc 39 bd 3a c5 e3 3c 98 33 77 bd
       -0.037616 -0.045361325 0.027804006 -0.060351938
0002e0 77 ce 96 3d e1 3c b1 bd 06 55 a7 bd 4e f7 8c bd
       0.07363599 -0.0865419 -0.08170514 -0.06883107
0002f0 5a 28 77 bd bd 65 d1 bb a6 1b d9 bd 2d 51 50 bd
       -0.060341217 -0.006390302 -0.10600977 -0.050858665
000300 79 c9 9d 3c 9a 6c 46 ba 3f 66 e4 3d 44 d6 9d bc
       0.019261109 -0.00075692835 0.111523144 -0.019267209
000310 93 37 2a 3e 59 d2 19 3d 56 83 ab bd 9b 6f 8d bc
       0.16622762 0.03755412 -0.0837466 -0.017265132
000320 5c 5d 35 3e d2 f8 20 3e b2 03 e3 3d 06 85 30 3e
       0.17711395 0.15719917 0.11084689 0.17238244
000330 e6 3d c7 bc e9 f1 30 bc 92 b4 bd bd d6 74 18 3d
       -0.024321508 -0.010799863 -0.09262957 0.0372208
000340 32 24 bc 3d 87 b6 48 3c 25 dd b6 3d 81 51 e2 bb
       0.09186591 0.012250549 0.08928899 -0.0069066887
000350 fa 1e ae bc ae bf 2a bd a7 cc 77 3d ea 8e 75 bd
       -0.021255005 -0.041686706 0.060497906 -0.059950747
000360 08 b8 af bd 8e 35 33 3d d3 5b 41 bd 36 b2 27 be
       -0.08580023 0.043752246 -0.04720671 -0.16376576
000370 96 87 0f 3c 7e a6 e5 3c c6 84 bd bc 33 89 f2 bd
       0.008760354 0.028033491 -0.0231346 -0.11842575
000380 3d 01 62 3c a9 a3 95 3c 64 17 c6 bd 48 fc 00 3c
       0.013794241 0.018266516 -0.0967243 0.007872649
000390 ff fd f4 bc 93 61 41 3c fa a9 34 bd 65 12 99 bd
       -0.029906271 0.011803049 -0.044107415 -0.074742116
0003a0 55 26 7e 3d 23 ea f2 3b c2 7f c9 bd 35 66 85 3d
       0.062048275 0.007413165 -0.09838821 0.06513635
0003b0 88 ae 6a bd ed 38 40 bd c3 df df ba 3d 94 67 3d
       -0.057295352 -0.04692929 -0.0017080236 0.056537855
0003c0 8e e5 04 bc df 44 c3 3d 34 ab 14 bc dd 09 eb 3d
       -0.008111371 0.095346205 -0.009074021 0.11476491
0003d0 9f 52 6e 3d 73 26 73 bd 53 bf bf bb 6c c3 47 3e
       0.058184262 -0.05936284 -0.005851665 0.19508141
0003e0 70 e1 90 bc 0f 84 99 bd ef 7a 93 3d 08 77 23 3d
       -0.017685622 -0.07495891 0.07201182 0.03990844
0003f0 3c fb 8c 3d 1d 11 2b bc f2 11 53 bd 84 57 89 bd
       0.06883857 -0.010441092 -0.051530786 -0.067061454

encoder.0.fc2.bias f4 [96]
000000 aa da 15 3d 59 89 7f 3d f3 58 a6 3d 65 ae ab 3d
       0.036585487 0.062386844 0.081224345 0.083828725
000010 f6 5e 1d bd d4 50 36 bd d7 cc 6f bc 2d 0f d0 3d
       -0.03842064 -0.044510677 -0.01463624 0.101591446
000020 e5 5c b0 3c bc 07 58 bc a0 53 d2 3a 63 2a 28 bd
       0.02152867 -0.013185438 0.0016046651 -0.041056048
000030 cf 83 ac 3d 39 1b 6c 3d 50 44 b6 3d 43 31 18 bd
       0.08423578 0.05764315 0.08899748 -0.037156355
000040 75 a2 83 3c 37 c9 01 bd b5 f2 36 bd af d8 8f bd
       0.016068676 -0.031686034 -0.044665057 -0.07023751
000050 f5 1c 38 3d fc c0 83 3d f5 43 81 bd 5d 04 8b 3b
       0.04494949 0.06433293 -0.0631179 0.0042424635
000060 d5 85 f1 3c ec 5d ac 3c 0b 7c ce bc 1c a2 f5 bc
       0.029482761 0.02104088 -0.025205633 -0.029984526
000070 4c b1 a6 bc ad 4c c3 bd 2e ec 24 3d 45 e8 78 3d
       -0.020348214 -0.09536109 0.0402643 0.060768384
000080 ab 3f a0 bd c8 d2 b8 bd d3 41 d8 3b 95 ef a5 3d
       -0.07824644 -0.09024578 0.0065996437 0.08102337
000090 97 55 15 3d 6f 34 77 3d db 8c 30 bd a5 65 de 3a
       0.036458578 0.06035274 -0.04310308 0.0016967548
0000a0 f8 ca b3 bd 0d fa 9f bc 51 97 c4 3c fc 4a 54 3d
       -0.087789476 -0.019528413 0.023997935 0.051829323
0000b0 ce ee 57 bd b7 e5 be 3c d0 b9 13 3c cd 58 49 bd
       -0.052717976 0.023302896 0.009016469 -0.049156953
0000c0 a1 88 8a bd 28 4f 64 3c 0b 72 f8 bb 90 7e 32 3d
       -0.06764341 0.013934888 -0.0075819544 0.04357773
0000d0 d6 67 d4 bd 7d 30 f8 3c 31 13 a2 bd 7c b6 87 3d
       -0.10371368 0.030296559 -0.07913817 0.06626603
0000e0 25 7a b6 3d da 5f ad 3d 23 05 98 3d f4 4e 92 3d
       0.08910016 0.08465548 0.07422855 0.07143965
0000f0 93 4c ab bc 4c a8 8d bd 1a b8 a3 3d 44 e5 5b 3d
       -0.020910537 -0.06916866 0.07994099 0.05368544
000100 96 05 38 bd b3 ef 63 3d 3b e9 ed bc 7a 82 8c 3c
       -0.044927202 0.055648517 -0.029041877 0.01715206
000110 71 96 7c bd ed 19 37 bd 21 16 c7 bd 73 77 87 bd
       -0.06166691 -0.04470246 -0.09721018 -0.0661458
000120 d3 eb c5 3d 52 d1 c0 3d c5 4c aa bd 3a dc 7f 3c
       0.096641205 0.09414925 -0.08315424 0.015616471
000130 b7 07 54 3d 98 f8 0a 3d 94 25 56 bd 8a 32 54 bd
       0.05176517 0.033928484 -0.05228193 -0.05180601
000140 1b ff 01 bd ca 33 df bc 36 a3 da bc 93 c7 7e 3c
       -0.03173743 -0.027246375 -0.026689153 0.015550512
000150 3a 4a 2a bd 58 58 38 3d 06 24 21 3d 9f c1 1b 3c
       -0.041574694 0.045006126 0.039340995 0.009506612
000160 1c 48 63 3d ac 4d d5 bb e9 1f 97 3c e6 18 16 3d
       0.05548869 -0.0065095033 0.018447833 0.03664484
000170 07 af d5 3d 0c 04 6a 3d ac 41 4b bd 64 4d 34 bd
       0.104337744 0.057132766 -0.049623176 -0.044019118

encoder.1.fc1.weight f4 [96, 96, 1, 1]
000000 c9 ac a1 bd 58 19 85 bc bd 65 90 bd 62 d4 78 bc
       -0.07894284 -0.016247436 -0.07050655 -0.015187355
000010 5c d8 ec bc a4 a1 5b 3d ff b3 7c bd a0 0a a1 bc
       -0.028911762 0.05362095 -0.061695095 -0.019658387
000020 5a c1 96 bc ad c9 84 3d f0 34 c9 bd cb ce f9 ba
       -0.018402744 0.06483779 -0.0982455 -0.0019058821
000030 92 e0 aa 3c c0 2b 2e bd 20 81 98 3d e9 48 93 bc
       0.020859037 -0.042522192 0.07446504 -0.017979102
000040 cb 51 38 3d 98 80 96 3d 29 6c 05 3e 89 1f a8 bd
       0.04499988 0.07348746 0.13029541 -0.0820914
000050 bd e8 a7 bd 8b fb 28 3c 3d 83 cf bd 6f 61 67 3d
       -0.08198688 0.010313879 -0.101324536 0.056489404
000060 35 08 37 3d 41 3d c0 bd 88 bc 85 bc 49 f7 01 3c
       0.04468556 -0.09386683 -0.01632525 0.0079324925
000070 df dc 86 bc 97 bc b4 bc 91 45 b5 3d 92 5e e2 3d
       -0.016462741 -0.022062583 0.08851159 0.11053194
000080 27 68 4d bc 0a ed 85 bc ed 23 b0 bd 34 78 3a bd
       -0.012537039 -0.01634838 -0.08600602 -0.04552479
000090 a1 30 b8 bd 19 3e 59 3d d3 45 84 bd ca 39 01 bd
       -0.0899365 0.053037737 -0.064586304 -0.031549253
0000a0 b3 ed d4 bd 98 0a 25 3e e5 be 25 bd 3f a3 95 bd
       -0.103969 0.16117322 -0.040465254 -0.07306527
0000b0 70 12 0c 3e 5b f2 d2 bc 59 78 3a bd 58 3d 58 bd
       0.13678908 -0.02575033 -0.04552493 -0.052792877
0000c0 d6 5b bf bd 68 dc 7e 3d 27 8f 6b bc 0e 93 7f bd
       -0.09343688 0.062221915 -0.014377392 -0.0623961
0000d0 fa c6 a5 3d 0a 28 c8 bd c8 8f f3 3c 40 e4 1c 3a
       0.080945924 -0.09773262 0.029731646 0.00059849396
0000e0 16 38 c8 3d f9 f5 c8 bd 71 47 71 bd 87 44 6b bd
       0.097763225 -0.098125406 -0.058906022 -0.0574384
0000f0 df f6 b2 3d aa d1 72 bc dc 13 02 3e a8 3e 18 3c
       0.08738493 -0.014820496 0.12702888 0.009292282
000100 e7 0b 7d 3c b9 44 9d 3d e2 1c 16 be 5c aa ef bc
       0.015444732 0.076791234 -0.14659455 -0.029256038
000110 81 ff 88 3d cf 87 08 bd d5 59 1d 3d 38 51 01 be
       0.066893585 -0.033332642 0.03841575 -0.12628639
000120 f0 8b 46 3c e7 e9 c3 bd 1c 60 90 bc e4 d3 9d bc
       0.012118325 -0.09566098 -0.017623954 -0.019266076
000130 31 c0 8a 3c 1f b3 0f bd 39 38 00 bd 22 e6 bf bd
       0.016937347 -0.035082933 -0.031303618 -0.09370066
000140 c5 54 b5 3c 6a 72 87 3c ed 1f 33 bd 94 f0 0c 3d
       0.022135148 0.016534049 -0.04373162 0.03440912
000150 7c 0b 3d bd 6d a5 3c 3d 05 1b fa bc 3c e9 d5 3d
       -0.04615353 0.0460562 -0.030530462 0.104448766
000160 22 de 48 bd a2 13 91 3d f2 54 08 b9 b1 f9 3b 3d
       -0.049039967 0.07083823 -0.00013001615 0.04589242
000170 1c 13 8d bd ee 30 fe bc db ec fe bd 37 f7 1b bd
       -0.068884104 -0.03102919 -0.1244752 -0.03807756
000180 f0 a7 6e bd ac 6c f5 bc 51 62 29 bd e6 9c 6e 3d
       -0.058265626 -0.029959045 -0.041353527 0.0582551
000190 6f 54 2a 3d 6e 18 b0 bd df 3a 89 bd 2f c1 73 bd
       0.04158443 -0.085984096 -0.06700682 -0.059510406
0001a0 62 62 88 3c 74 03 98 3d 62 49 8d 3d 25 0b fe bd
       0.016648475 0.07422534 0.06898762 -0.124044694
0001b0 2b bc c4 bd 80 38 1b 3d 9e 1d 80 bd e7 56 c3 3d
       -0.09606203 0.03789568 -0.06255649 0.0953806
0001c0 12 83 80 bd c0 54 e5 bd 4b aa 95 3d 33 92 a4 3d
       -0.06275 -0.111978054 0.073078714 0.08035698
0001d0 7f a6 d9 3d af 31 94 3d ee fb 9c 3d 7d d6 b7 3d
       0.1062746 0.07236039 0.07665239 0.08976457
0001e0 e4 a8 2e 3d a0 4a 8b bd fc f4 cd 3b 16 f1 a7 3c
       0.042641535 -0.06801343 0.006285308 0.0205007
0001f0 b9 d4 db bc f9 4d 2d 3d 9a 0b 62 3d d6 08 15 3d
       -0.026834833 0.04231069 0.055186845 0.03638538
000200 cd 66 06 3d 0e 25 a7 bd 8d 7a 88 3d 72 e8 4f bd
       0.032812882 -0.081613645 0.06664 -0.050758786
000210 c8 93 fb 3b 3c 50 13 bc 4d 0b 85 3d 14 35 c7 bc
       0.007677529 -0.008991297 0.06496296 -0.024317302
000220 b7 94 bf 3d c7 31 c5 bd f8 e7 f4 3c d5 8a a5 3c
       0.09354537 -0.09628635 0.029895768 0.020207802
000230 51 dc 16 be 22 32 eb 3c e5 f5 25 3d 7f 8d fa bc
       -0.14732482 0.028710429 0.040517706 -0.030585049
000240 9f 4d 2d bd 60 40 24 bd 1c ad 26 be 0e 2d 8c 3d
       -0.042310353 -0.040100455 -0.16276973 0.06844531
000250 6d 6d cc 3d 7a 2b b1 3d 38 3e af bc 2a 6a 08 3e
       0.09981809 0.086508706 -0.021391973 0.13321748
000260 91 43 0e 3e f8 d2 35 3d d8 76 25 3e 3a c3 83 3e
       0.13892962 0.04439065 0.16158617 0.25734884
000270 da f7 91 bc ba 1d 24 3d 8a 00 5d 3e c3 8b a7 bc
       -0.01781838 0.040067412 0.21582237 -0.020452386
000280 da 16 7c 3d bc 65 54 bd 00 58 95 3c 15 88 d5 3d
       0.06154523 -0.051854834 0.018230438 0.10426346
000290 3d 52 80 3d 99 6c 63 bd 68 28 f2 bd 70 5c 23 3d
       0.06265686 -0.05552349 -0.11824113 0.039883077
0002a0 4b 44 b0 3b ed 5d 96 3d ca 95 b1 3d cd aa 33 bc
       0.005379235 0.07342134 0.08671148 -0.010966015
0002b0 5e d3 8a 3d fd 1b bf bd 86 a2 d8 bc da cf 60 3d
       0.06778596 -0.0933151 -0.026444685 0.054885723
0002c0 4f e0 cd bd c4 df 37 3d b3 31 df 3b 54 2f 45 3c
       -0.10052549 0.044891134 0.0068113445 0.01203521
0002d0 eb af 25 3c c1 0c 8e 3c 34 6a 8f bd 17 9f 9d 3d
       0.010112743 0.017340066 -0.070026785 0.076963596
0002e0 46 0b 7c 3c 23 8b cb 3a d9 f2 70 3a 8e 09 40 3d
       0.015383547 0.0015529137 0.00091914606 0.046884112
0002f0 6d b4 19 3d 02 39 eb bc 21 b0 30 bd 2c eb 2c 3c
       0.037525583 -0.028713707 -0.04313672 0.010554116
000300 01 f0 02 3d 11 9a 58 3d 74 ab 70 bb f2 3b c5 bb
       0.031967167 0.052881304 -0.0036723288 -0.006019109
000310 21 e3 9e 3c ff 80 e6 3c 6e b9 9f bc ec 91 9e bd
       0.019395413 0.028137682 -0.0194976 -0.07742676
000320 53 b8 04 3d 2e 54 0f bd 65 19 87 3c 04 95 04 be
       0.032402348 -0.03499239 0.016491601 -0.1294747
000330 f3 1c 76 bd d4 c6 c5 bd a6 95 25 bd ce a1 88 bd
       -0.060086202 -0.09657064 -0.04042592 -0.06671487
000340 e9 4c d7 bb 2e 8b 52 3d 76 fd 99 bb 40 33 ae bd
       -0.0065704477 0.051402263 -0.0046994044 -0.08505869
000350 e2 78 2e 3d 92 aa 80 bc 05 25 89 bd c4 eb 4a bc
       0.04259575 -0.015706334 -0.06696514 -0.0123853125
000360 4e 14 7c 3d 03 1c 3b 3c 00 7a 29 3d 0a 05 21 bd
       0.0615428 0.011420253 0.041376114 -0.039311446
000370 68 2b b3 bc a6 91 a3 bd dc a5 a1 3d 15 e6 c7 3c
       -0.021871284 -0.079867646 0.07892963 0.024401704
000380 16 b5 db 3c ce 9a 1f bd ee 9d a9 bd 16 83 b3 3c
       0.026819747 -0.038965993 -0.08282076 0.021913093
000390 ca 12 d9 3d 59 87 b3 3d d1 44 10 3d ca 9b 76 3d
       0.10599287 0.0876605 0.03522188 0.060207166
0003a0 65 b2 12 3c a5 b0 16 3e 1b 6e aa 3c c4 9c f9 3c
       0.008953665 0.14715822 0.020804456 0.03047026
0003b0 e7 b8 96 3d 85 f1 34 bc 57 a6 f5 3d 9e 0f 85 bd
       0.07359486 -0.011043911 0.119946174 -0.06497119
0003c0 fd 2b 7f bd 56 ae 97 3d 49 30 81 3d f4 3b ca bd
       -0.06229781 0.07406299 0.06308038 -0.098747164
0003d0 23 b4 f5 3c 01 db 42 3d 75 86 21 be f1 40 fe b8
       0.029993122 0.04757214 -0.15773948 -0.0001212376
0003e0 cc 9d fb 3d e1 5d 5e 3c 4a 6f 01 be b1 22 c1 bd
       0.12285957 0.013572187 -0.1264011 -0.09430445
0003f0 bc 8a bb 3d 9b 20 11 be c2 23 b1 bd aa 58 a2 bd
       0.09157321 -0.14172594 -0.086493984 -0.079270676
