small_scale_scenario/experiments/stid/URBANEV/-fewshot6/final_model_s2018.pt (torch, 277884 bytes, 18 tensors)

node_emb f4 [275, 32]
0	0x3d9d40a5	0.076783456
1	0x3b723dee	0.0036963183
2	0x3ddfe676	0.10932629
3	0xbbb39767	-0.005480695
4	0x3c42a12b	0.011879246
5	0x3c98807e	0.018615957
6	0xbd726236	-0.059175692
7	0xbca9e4e6	-0.02073903
8	0xbdb21224	-0.08694866
9	0x3dec248c	0.11530408
10	0xbddd9453	-0.10819306
11	0x3d2f4f6e	0.04280036
12	0xbc7d02c3	-0.015442553
13	0x3d8bdf23	0.06829669
14	0x3e363401	0.17793275
15	0x3d9700e2	0.07373215
16	0xbdaa18be	-0.083055004
17	0xbcfd1f26	-0.030898642
18	0x3dab8ea0	0.08376813
19	0x3d1ec5ac	0.038762733
20	0x3be9a766	0.007130551
21	0xbd0e8d29	-0.03480259
22	0x3dd94746	0.106092975
23	0x3b12f3d0	0.0022423156
24	0x3dd4d277	0.103917055
25	0xbdcc36fa	-0.099714234
26	0xbdb911ab	-0.09036573
27	0x3e53f32f	0.20698236
28	0xbd4bdca3	-0.049770962
29	0x3cfa22f9	0.030534254
30	0xbd332963	-0.04374064
31	0xbd9c3a0e	-0.076282606
32	0xbd19e27e	-0.037569515
33	0x3d880a9f	0.06642651
34	0xbdbd1ef2	-0.09234418
35	0x3dce916e	0.10086332
36	0xbd77f8fd	-0.060540188
37	0x3e287bb3	0.16453438
38	0xbc46956e	-0.012120588
39	0xbd9ddc0f	-0.077079885
40	0x3dc40a8a	0.09572323
41	0xbcc3787e	-0.023861166
42	0x3e2c93f2	0.16853312
43	0x3e364b28	0.17802107
44	0xbdade4ec	-0.08490929
45	0xbca290ef	-0.0198445
46	0xbd396fc3	-0.0452726
47	0x3cd710f4	0.026253201
48	0xbd8096ce	-0.06278764
49	0xbcbb990f	-0.022900132
50	0xbe0534d0	-0.13008428
51	0xbda3b6db	-0.07993861
52	0xbd855e41	-0.06512118
53	0xbde9838f	-0.11402046
54	0xbca79b88	-0.020459905
55	0xbe166e6d	-0.14690562
56	0xbdf0af38	-0.1175217
57	0x3ce9bd64	0.028532691
58	0xbcbd9300	-0.023141384
59	0xbdc64d6b	-0.09682735
60	0x3b816a0f	0.0039494107
61	0xbd9c6de2	-0.07638146
62	0x3d101035	0.035171706
63	0xbde04167	-0.109499745
64	0xbdc8ecd3	-0.09810796
65	0xbd6dcedf	-0.058058616
66	0x3d58a6ae	0.052893333
67	0x3ddd7f80	0.10815334
68	0xbb399821	-0.0028319436
69	0x3da9d4b0	0.0829252
70	0xbde86788	-0.11347872
71	0x3d8e9250	0.06961501
72	0x3dbdbced	0.0926455
73	0xbd0ac4bb	-0.033879023
74	0x3da4bbf1	0.080436595
75	0x3d6390fe	0.055558197
76	0x3cd69039	0.026191818
77	0x3c4ecc13	0.012621897
78	0x3cf10f5d	0.029426271
79	0x3e03a0b2	0.12854269
80	0x3cd00da9	0.025397139
81	0xbd309b86	-0.04311707
82	0x3d02b997	0.031915274
83	0xbd51bcc6	-0.05120542
84	0x3d2ae5d4	0.041723087
85	0x3d403425	0.04692473
86	0x3d6f7fbd	0.05847143
87	0xbbb28df5	-0.0054490515
88	0x3d768e8e	0.060194544
89	0xbd38f904	-0.045159355
90	0x3c72fe38	0.014831118
91	0x3ca98212	0.020691905
92	0x3d306ca0	0.043072343
93	0x3d39b3aa	0.045337357
94	0xbdade8f7	-0.084917
95	0x3cd4e1d8	0.025986597
96	0xbe061098	-0.13092268
97	0x3daf2cf7	0.08553498
98	0xbd2eb095	-0.04264887
99	0xbadf8fcd	-0.0017056406
100	0x3e89b0e7	0.26892778
101	0xbd073e54	-0.033018425
102	0xbe35e3e6	-0.17762718
103	0x3e3d7e62	0.18505242
104	0xbe06818e	-0.13135359
105	0x3d82a0ca	0.06378324
106	0x3d845ca8	0.06462985
107	0xbd10c66d	-0.035345484
108	0x3da772c2	0.08176185
109	0x3cc5319f	0.024071513
110	0x3ddf942b	0.10916933
111	0x3df50fdf	0.11965918
112	0xbe9ce29b	-0.30641636
113	0x3dcf981f	0.10136437
114	0x3b927dd7	0.0044705677
115	0x3e3c88b7	0.18411528
116	0xbe4f44cc	-0.20241088
117	0x3d5c8a60	0.053842902
118	0xbc8def85	-0.017326126
119	0x3d967908	0.07347304
120	0x3dcf0c5d	0.1010978
121	0x3d4434fe	0.0479021
122	0xbe1aa30f	-0.15101264
123	0x3da520d1	0.080629
124	0xbd49cfee	-0.049270563
125	0x3e1993bf	0.14997767
126	0xbe29d840	-0.16586399
127	0xba1c119a	-0.00059535506
128	0xbd8c3ec2	-0.068479076
129	0xbdd0bf83	-0.10192778
130	0xbdb1d239	-0.08682675
131	0xbd95084d	-0.07276974
132	0xbd69eaf6	-0.05710884
133	0xbda0188b	-0.07817181
134	0x3d33e51f	0.04391968
135	0xbd1882b3	-0.03723402
136	0xbd6d2c8d	-0.057903815
137	0xbda33148	-0.07968384
138	0xbda5ee9f	-0.08102154
139	0xbceae674	-0.028674342
140	0xbdcee04f	-0.10101377
141	0x3e0fad94	0.14031059
142	0x3dd07ca0	0.1018002
143	0x3baa3e6f	0.005195431
144	0xbbaee677	-0.005337532
145	0x3da7faa0	0.082021
146	0xbc8986c5	-0.016787896
147	0xbc615a47	-0.013754434
148	0x3db2b7b6	0.08726446
149	0x3db7433c	0.08948371
150	0x3cbbe0c0	0.022934318
151	0xbd4f67d7	-0.05063614
152	0x3d83b915	0.06431786
153	0xbdaab150	-0.08334601
154	0x3dd95196	0.106112644
155	0x3e19b0b0	0.15008807
156	0xbddbb4d0	-0.107278466
157	0xbcc7da6b	-0.024396142
158	0xbcdac03b	-0.02670299
159	0xbdad11de	-0.084506735
160	0x3df37d97	0.11889189
161	0xbd09bdfb	-0.033628445
162	0x3d2fc3c8	0.04291132
163	0x3c715af8	0.014731161
164	0xbc296213	-0.010338324
165	0xbd8bd44f	-0.06827604
166	0xbcae9e7a	-0.021315802
167	0x3cb04180	0.021515608
168	0x3cd2e7a9	0.02574523
169	0xbc8d014a	-0.017212529
170	0xbd3135cd	-0.0432642
171	0x3dc1957c	0.0945234
172	0x3d354b77	0.044261422
173	0xbbd59ae9	-0.006518711
174	0xbe314421	-0.17311145
175	0x3d131d2f	0.035916504
176	0x3d2ee024	0.042694226
177	0xbd1000bc	-0.03515695
178	0xbe019dd7	-0.12657867
179	0xbd2a56ab	-0.04158656
180	0xbaf2f1ee	-0.0018535235
181	0x3d997eee	0.07494913
182	0xbbe48c51	-0.006974735
183	0xbd9864a9	-0.074410744
184	0xbc4fa208	-0.012672909
185	0xbcfd7ef6	-0.030944329
186	0xbc998089	-0.018738048
187	0xbd15fb12	-0.036616392
188	0x3cfca633	0.030840969
189	0x3c8d5304	0.017251499
190	0xbc0aa606	-0.008462435
191	0xbd41acba	-0.047283866
192	0xbd0497bb	-0.032371264
193	0xbcd870db	-0.026421001
194	0xbb70aa27	-0.0036722512
195	0x3e02eaef	0.12784933
196	0x3d384385	0.044986267
197	0x3dfcb8c1	0.123399265
198	0x3e18888d	0.1489584
199	0xbc249ab3	-0.010046649
200	0x3e0e0a81	0.13871194
201	0xbe2db296	-0.16962656
202	0xbd111e86	-0.0354295
203	0xbd23dc77	-0.040005174
204	0xbcd187b3	-0.025577402
205	0x3ce183cd	0.027528668
206	0xbdf8a575	-0.121409334
207	0x3c85ff8b	0.016357204
208	0xbcf10279	-0.029420124
209	0xbd6ee40b	-0.058322947
210	0xbdc27f96	-0.09496991
211	0xbc18edb1	-0.009334014
212	0x3e077075	0.13226493
213	0xbdd1a15a	-0.102358535
214	0xbdeef400	-0.11667633
215	0x3d723d05	0.059140224
216	0x3ba28a5c	0.0049603414
217	0xbd22c967	-0.039742853
218	0x3ce04d02	0.02738047
219	0x3b11eefc	0.002226769
220	0xbd7d4404	-0.061832443
221	0x3c11acda	0.008891309
222	0xbd842bc5	-0.06453661
223	0xbd5a9b8d	-0.053371
224	0x3d45786c	0.048210546
225	0xbd659459	-0.05604968
226	0xbdd19905	-0.10234264
227	0xbd2bda6d	-0.041956354
228	0x3cea3cd3	0.028593456
229	0x3d218a27	0.039438393
230	0x3d567e49	0.05236653
231	0xbc998049	-0.018737929
232	0xbd65e4ab	-0.056126278
233	0x3c97e5f3	0.018542266
234	0x3d153fd0	0.03643781
235	0x3c5a934b	0.013340781
236	0x3c0c9a30	0.008581683
237	0x3cf56543	0.029955512
238	0x3c88712a	0.016655523
239	0x3e08c4a7	0.13356267
240	0x3d8a9a5a	0.067677215
241	0xbde5736e	-0.11203657
242	0xbd04ad66	-0.032391928
243	0xbd30ddf1	-0.04318041
244	0x3db7981a	0.08964558
245	0xbdb347e5	-0.08753947
246	0xbc84ba78	-0.016202196
247	0xbd36f4a6	-0.04466691
248	0x3ca2405a	0.019806076
249	0xbdb13c24	-0.08654049
250	0x3dc47a16	0.095935985
251	0x3d9ea5c9	0.07746465
252	0x3e062a8b	0.13102166
253	0xbe049536	-0.12947544
254	0x3d85dd34	0.06536332
255	0xbd8825ac	-0.0664781

time_in_day_emb f4 [24, 32]
0	0x3e96c5be	0.2944774
1	0x3e936afd	0.28792563
2	0xbe89450f	-0.268105
3	0xbdd17878	-0.10228056
4	0x3df4970e	0.11942874
5	0xbe150b44	-0.14555079
6	0x3e1a3efb	0.15063088
7	0xbe5f2f90	-0.21795487
8	0x3e7436d1	0.23849036
9	0xbe645ced	-0.22301073
10	0x3e893bca	0.26803428
11	0xbe6c3723	-0.23067908
12	0xbe434e87	-0.19072925
13	0xbe23122a	-0.15924898
14	0x3e894bcd	0.26815644
15	0x3de34918	0.11097926
16	0x3e1037cb	0.14083783
17	0x3e2e2b1e	0.17008635
18	0x3dcafa56	0.09911029
19	0xbe88d815	-0.26727358
20	0xbea36d04	-0.3191911
21	0x3e40f4e9	0.18843426
22	0xbd90d3f3	-0.07071676
23	0xbe6c86ea	-0.2309834
24	0x3c117d58	0.008879982
25	0xbe6ec63d	-0.2331781
26	0x3e984d99	0.29746702
27	0x3defda92	0.11711611
28	0xbe7db334	-0.24775392
29	0xbdfa18fa	-0.12211795
30	0xbe24d530	-0.1609695
31	0x3e57dcf9	0.21080388
32	0xbdf27f75	-0.11840717
33	0xbe6009fd	-0.2187881
34	0xbe313e1c	-0.17308849
35	0xbd4d2792	-0.050086565
36	0xbe010140	-0.12598133
37	0xb91d3ca4	-0.00014995277
38	0x3c860f08	0.01636459
39	0x3dbff1c5	0.09372286
40	0x3d7fc440	0.062443018
41	0x3d66c41c	0.05633937
42	0x3d377248	0.04478672
43	0x3dd5e212	0.1044351
44	0x3d9b00a5	0.07568482
45	0xbeb62df3	-0.3558193
46	0xbe345144	-0.17609125
47	0xbe31adaf	-0.17351411
48	0x3ddb6f91	0.10714639
49	0xbdfb6e55	-0.122769035
50	0x3e600483	0.21876721
51	0xbea36d14	-0.31919158
52	0xbe7ebbfb	-0.24876396
53	0x3e7c7223	0.24652915
54	0xbe010c41	-0.1260233
55	0xbd67f934	-0.056634143
56	0x3e8be85d	0.27325717
57	0x3dd1a0a6	0.102357194
58	0xbdd26a7f	-0.10274219
59	0xbe1dfdbb	-0.15428822
60	0xbe97e51a	-0.29666978
61	0xbe805cd7	-0.2507083
62	0xbe186d17	-0.14885364
63	0xbc214e40	-0.009845316
64	0x3db15455	0.08658663
65	0x3e3b8239	0.18311395
66	0xbd92a3d5	-0.07160155
67	0xbc8ff3b0	-0.017572254
68	0xbea24f2b	-0.31701025
69	0xbe1aafaa	-0.15106073
70	0xbe91cccf	-0.2847657
71	0x3d8b7874	0.06810084
72	0x3dd56802	0.104202285
73	0xbd331bfb	-0.043727856
74	0xbe08243f	-0.13295077
75	0x3db5a399	0.088690944
76	0x3d8a6e30	0.06759298
77	0xbdfd3c1c	-0.123649806
78	0x3e55c6c2	0.20876601
79	0x3dc085ad	0.09400497
80	0xbb92ea0e	-0.004483468
81	0x3e4207a4	0.18948227
82	0x3e875a2a	0.26435977
83	0xbe77d262	-0.24201348
84	0xbdd65b59	-0.10466642
85	0x3e570d19	0.2100109
86	0x3d6f4253	0.05841286
87	0xbe67c002	-0.22631839
88	0x3e85538c	0.26040304
89	0x3e1b53b4	0.15168649
90	0x3dcab1aa	0.09897168
91	0x3c910e31	0.017706962
92	0xbd028f1f	-0.031874772
93	0xbe3cc7ed	-0.1843564
94	0x3e5bae8a	0.214533
95	0x3e4b64cd	0.19862671
96	0xbe5a1df0	-0.21300483
97	0xbcfab8cc	-0.030605696
98	0x3e25b92e	0.16183922
99	0x3e5af72f	0.21383356
100	0xbdf2f873	-0.11863794
101	0xbe370088	-0.17871296
102	0x3e785263	0.24250178
103	0xbdf8b7db	-0.12144443
104	0x3c3f9867	0.01169405
105	0x3ded44a5	0.115853585
106	0x3e2dccbf	0.16972636
107	0x3de08733	0.10963287
108	0x3e44d577	0.19222055
109	0xbe1ef98b	-0.1552488
110	0x3e7c03a8	0.2461077
111	0xbe07ac79	-0.13249387
112	0x3e7001d5	0.23438199
113	0xbe812a5a	-0.25227624
114	0xbd8df2ee	-0.06931101
115	0xbe83d1d8	-0.25746036
116	0x3e082e40	0.13298893
117	0x3e80d847	0.25165007
118	0x3e4530be	0.19256875
119	0xbcae4e4c	-0.02127757
120	0x3e289f5f	0.16467045
121	0xbe62725a	-0.22113934
122	0xbea42534	-0.32059634
123	0xbe271cd2	-0.16319588
124	0xbc20b647	-0.009809083
125	0xbe300968	-0.17191088
126	0xbe45f2ec	-0.19330949
127	0xbd95e9d0	-0.07319987
128	0xbd2980ac	-0.041382477
129	0xbe9411da	-0.2891987
130	0xbdbafc2b	-0.091301285
131	0xbe83ca00	-0.2574005
132	0x3e84d5d3	0.25944385
133	0xbe62b153	-0.22137956
134	0x3e725731	0.23666073
135	0xbcbbca52	-0.022923622
136	0xbe3ab0f0	-0.18231559
137	0xbe75767c	-0.2397098
138	0x3de5a57d	0.11213205
139	0xbe859d77	-0.260967
140	0xbe0cd39b	-0.13752596
141	0xbe6200a2	-0.22070554
142	0x3e8050fc	0.25061786
143	0xbe912f43	-0.2835637
144	0xbe189a6d	-0.14902659
145	0x3dd23ca9	0.10265476
146	0xbd486b6a	-0.048930563
147	0x3e2b86fa	0.16750708
148	0x3e1adf0d	0.1512415
149	0xbd9ad62e	-0.07560383
150	0xbe6023eb	-0.21888702
151	0xbcd8ce7a	-0.026465643
152	0xbe625c8f	-0.22105621
153	0xbe6c4523	-0.23073249
154	0xbd3b81be	-0.04577803
155	0xbe99efe9	-0.3006585
156	0x3d0ef3a0	0.034900308
157	0xbc8becdf	-0.017080722
158	0xbd6766a6	-0.056494378
159	0xbd000de2	-0.03126324
160	0x3d9e6eb0	0.07735956
161	0x3e46d43b	0.19416897
162	0x3e9300e1	0.28711608
163	0x3e37c44c	0.17945975
164	0x3dbaf246	0.09128241
165	0xbe8bd40b	-0.27310213
166	0xbd9bb869	-0.07603533
167	0xbd96696f	-0.073443286
168	0x3d47c919	0.048775766
169	0x3ea0c5cd	0.3140091
170	0x3e12895c	0.14310211
171	0x3e464a12	0.19364193
172	0x3e41c034	0.18920976
173	0x3e1387c5	0.1440726
174	0x3e0aec6a	0.13566747
175	0xbea9da95	-0.33174577
176	0xbe8dca8d	-0.27693596
177	0x3e8a5e40	0.27025032
178	0xbd115361	-0.035479907
179	0xbe696270	-0.22791457
180	0xbe29c979	-0.16580762
181	0x3e2999d9	0.16562594
182	0x3d1cdc6b	0.038296144
183	0x3cf8dc46	0.030378472
184	0xbe8cd647	-0.2750723
185	0xbdd58e33	-0.10427513
186	0x3e652135	0.22375949
187	0x3e597a52	0.21238068
188	0xbd540db3	-0.051770877
189	0xbc955ff9	-0.01823424
190	0x3da414df	0.08011793
191	0xbbbd9690	-0.0057857707
192	0xbd1a2192	-0.03762967
193	0xbe3df524	-0.18550545
194	0x3e5a7774	0.2133463
195	0xbea00ad7	-0.3125827
196	0x3e89f056	0.26941174
197	0x3e3d9bc6	0.18516454
198	0x3dbacad9	0.09120721
199	0xbe15fe04	-0.1464768
200	0xbc6633bf	-0.014050423
201	0xbe203eab	-0.15648906
202	0x3d3f4f45	0.046706457
203	0xbda76297	-0.081731014
204	0x3dc4799d	0.095935084
205	0x3e426a5b	0.18985884
206	0xbe31d54e	-0.17366526
207	0x3dcd6d35	0.10030595
208	0xbe50e552	-0.20399979
209	0x3e81a69e	0.2532243
210	0x3e83c07f	0.257328
211	0x3d4b4bb4	0.049632743
212	0xbe53ce91	-0.20684268
213	0xbe0e6498	-0.13905561
214	0xbe9f6224	-0.31129563
215	0x3e803b3a	0.25045186
216	0x3e5b3f7b	0.21410935
217	0xb8df8991	-0.000106590924
218	0x3d64e618	0.055883497
219	0x3d538065	0.05163612
220	0xbea045a2	-0.31303126
221	0xbe1e9a64	-0.15488583
222	0xbea34544	-0.31888783
223	0xbd88961b	-0.06669255
224	0xbd85be2a	-0.065304115
225	0x3e3be861	0.18350364
226	0x3e7b3a8d	0.24534054
227	0x3e57b69a	0.2106575
228	0xbdd49fe4	-0.10382059
229	0xbe7751d3	-0.24152307
230	0xbe629739	-0.22128
231	0xbb59fe58	-0.0033263173
232	0x3e62f7f7	0.22164904
233	0xbde4f4db	-0.11179515
234	0xbdeb8036	-0.11499064
235	0x3e4bfefc	0.19921488
236	0x3d6ff3ee	0.05858224
237	0xbda55590	-0.080729604
238	0x3e91dbc8	0.28487992
239	0xbded1350	-0.11575949
240	0x3dc00419	0.093757816
241	0xbd76e626	-0.06027808
242	0x3d64ad8a	0.055829562
243	0x3d210635	0.03931256
244	0x3dfcf6cc	0.1235176
245	0xbe987799	-0.29778746
246	0xbe05946f	-0.13044904
247	0x3e1dcdd7	0.15410553
248	0xbe895960	-0.26826
249	0xbdf38bb3	-0.1189188
250	0xbe24903e	-0.16070649
251	0x3e044c1b	0.12919657
252	0xbe944130	-0.28955984
253	0x3d04d5a7	0.032430317
254	0xbebbd01f	-0.3668222
255	0x3e715da0	0.23570871

time_series_emb_layer.weight f4 [32, 36, 1, 1]
0	0x3d413db3	0.04717798
1	0x3d7163d7	0.058933105
2	0x3d97632b	0.07391962
3	0xbd37622a	-0.04477135
4	0x3df24c6d	0.11830983
5	0xbcb5cea0	-0.022193253
6	0xbe3967a8	-0.18105948
7	0xbe15f102	-0.14642718
8	0xbde04a7a	-0.10951705
9	0xbdbb3e37	-0.09142726
10	0xbc8272f0	-0.015923947
11	0xbde0b1bb	-0.109713994
12	0x3ded82dd	0.11597226
13	0x3e082472	0.13295153
14	0x3d9535b2	0.07285632
15	0xbdaffd01	-0.085931785
16	0x3e1f97e3	0.15585284
17	0x3cc908e0	0.024540365
18	0xbd7cc310	-0.061709464
19	0xbd840c33	-0.06447639
20	0x3de21c96	0.110406086
21	0x3c2f94bb	0.010716612
22	0xbdafeee7	-0.08590489
23	0x3dc014fe	0.09379004
24	0xbdeb12fb	-0.114782296
25	0x3d908b13	0.07057776
26	0x3c9e5395	0.019326964
27	0x3d90397a	0.07042213
28	0x3da9c2c0	0.08289099
29	0xbda3caa4	-0.07997635
30	0xbd75f5a6	-0.06004872
31	0x3dbe6897	0.09297293
32	0xbcdbd020	-0.02683264
33	0x3dce0f91	0.10061563
34	0xbdcdb53e	-0.10044335
35	0x3c7201b8	0.014770918
36	0x3e25e260	0.16199636
37	0x3d04fabe	0.03246569
38	0xbe37303c	-0.17889494
39	0xbdd2d9c5	-0.102954425
40	0xbdf76e19	-0.12081546
41	0xbe006f6d	-0.12542506
42	0xbd7ee14d	-0.062226582
43	0x3debbeca	0.115109995
44	0xbdf927aa	-0.121657684
45	0x3e079845	0.1324168
46	0x3cb7947d	0.022409672
47	0x3d1546a5	0.036444325
48	0x3dbb80cb	0.09155425
49	0x3cc6b323	0.02425534
50	0x3dcab221	0.09897257
51	0xbc83fd6c	-0.016112052
52	0x3de94c49	0.11391503
53	0x3d0620c1	0.03274608
54	0x3e30dc90	0.17271638
55	0xbe187725	-0.148892
56	0xbd988cd4	-0.07448736
57	0xbdec5be8	-0.11540967
58	0x3da955d0	0.082683206
59	0x3d1b90aa	0.03797976
60	0xbd7471eb	-0.059678953
61	0xbe0bdb70	-0.13657928
62	0xbe031e5a	-0.12804547
63	0x3e0e42cd	0.1389267
64	0xbdadf85d	-0.08494637
65	0xbcb40fbe	-0.021980163
66	0xbdf1a32b	-0.117987
67	0xbca4d0f0	-0.02011916
68	0xbdfb1a32	-0.12260856
69	0xbc9f00e4	-0.019409604
70	0x3de12907	0.109941535
71	0xbdf9e4d3	-0.12201848
72	0x3d1a879b	0.03772698
73	0xbd836be8	-0.06417066
74	0xbdc28b4f	-0.09499227
75	0xbdaaf9e4	-0.08348444
76	0xbd980e60	-0.07424617
77	0x3e16849b	0.14699022
78	0x3d975faa	0.07391293
79	0xbdd0b603	-0.10190966
80	0xbdc21600	-0.094768524
81	0xbbf6d98e	-0.0075332588
82	0xbdab5b09	-0.08366973
83	0x3dd37cb7	0.10326522
84	0x3dd5d23e	0.10440491
85	0x3d71400b	0.058898967
86	0x3df4a327	0.11945181
87	0x3d7da4c5	0.061924715
88	0xbd114293	-0.03546388
89	0x3dae2700	0.085035324
90	0x3ddf4ea0	0.109036684
91	0xbe0f5acc	-0.1399948
92	0xba262446	-0.00063378026
93	0xbbbbc36e	-0.005730084
94	0xbd10b275	-0.03532644
95	0x3e01b98d	0.12668438
96	0xbd11e9b9	-0.035623286
97	0xbd81d462	-0.06339337
98	0x3d739e70	0.05947727
99	0x3deccedd	0.115628935
100	0xbde07d54	-0.109614044
101	0xbd82c284	-0.06384757
102	0xbd9e1713	-0.07719245
103	0xbde6cb76	-0.11269276
104	0xbda59e0f	-0.08086788
105	0x3de67981	0.11253644
106	0xbdd0d238	-0.10196346
107	0x3d00d69b	0.031454664
108	0xbda69b4d	-0.0813509
109	0x3d33728e	0.04381042
110	0x3e0d252d	0.13783713
111	0xbc9328a9	-0.017963724
112	0x3e02cae9	0.12772717
113	0xbe1a7bdf	-0.15086316
114	0xbd5daf5f	-0.054122325
115	0x3c8e4c6b	0.017370423
116	0xbd5932ab	-0.053026836
117	0x3e0816e6	0.13289985
118	0xbdd4f029	-0.103973694
119	0xbd7dfcf8	-0.062008828
120	0x3d27cb7c	0.040965542
121	0xbdcf4498	-0.10120505
122	0xbd8995f9	-0.06718058
123	0xbd80da9d	-0.06291697
124	0x3d464e0f	0.048414286
125	0x3d6090f5	0.05482574
126	0xbe0ddb5b	-0.13853209
127	0x3d83fa05	0.06444172
128	0xbd9f1c1f	-0.077690355
129	0x3cb5eff2	0.022209141
130	0xbdd164d5	-0.1022431
131	0x3d08dd93	0.033414435
132	0xbdc0e551	-0.09418739
133	0x3e005294	0.12531501
134	0x3e154932	0.14578703
135	0x3e0bc080	0.13647652
136	0xbe02a22d	-0.12757178
137	0xbe149d61	-0.1451316
138	0xbd20fdc3	-0.039304506
139	0xbe15c064	-0.14624172
140	0xbde1fc75	-0.110344805
141	0xbdef2d88	-0.11678606
142	0x3e15b6be	0.14620492
143	0xbd969f0b	-0.07354554
144	0x3c8c0fac	0.017097317
145	0x3df8157c	0.12113473
146	0x3dbeba67	0.09312897
147	0xbd8df412	-0.06931318
148	0xbc88a8d4	-0.016682066
149	0x3e1204db	0.14259665
150	0xbda99f88	-0.08282381
151	0x3c839d2f	0.016066162
152	0x3e0582e5	0.13038214
153	0x3ce5d446	0.028055321
154	0xbd807085	-0.062714614
155	0x3de5032d	0.11182246
156	0x3e1ff84e	0.15622064
157	0xbe0992b1	-0.13434865
158	0xbd715598	-0.05891952
159	0x3e28cf58	0.16485345
160	0x3d9358cc	0.07194671
161	0x3e0b6d29	0.1361586
162	0xbc4fce1e	-0.0126834195
163	0x3d801a5e	0.06255029
164	0x3de297c9	0.11064107
165	0x3caf62eb	0.021409472
166	0xbe242705	-0.1603051
167	0xbcd11a10	-0.025525123
168	0x3e393c7b	0.18089478
169	0x3d823715	0.06358162
170	0xbd37338e	-0.0447269
171	0x3ba0972a	0.0049008327
172	0xbd639494	-0.055561617
173	0xbd9407dc	-0.072280616
174	0xbdceae12	-0.10091795
175	0x37c36d8d	2.3296825e-05
176	0x3dd42d0f	0.10360157
177	0x3df5ec4b	0.1200796
178	0x3d075920	0.03304398
179	0xbdb0c931	-0.08632124
180	0xbe1f07bc	-0.15530294
181	0xbd23b005	-0.039962787
182	0x3e0c4a38	0.13700187
183	0xbdf64c10	-0.120262265
184	0xbdedf7a2	-0.11619498
185	0xbe0c5524	-0.13704354
186	0x3e005e02	0.12535861
187	0x3d6b2c9f	0.0574156
188	0x3c8d7ff8	0.017272934
189	0x3e22fffc	0.15917963
190	0x3d95ef0a	0.07320984
191	0xbd94b5cb	-0.07261237
192	0x3c54571a	0.01296022
193	0xbcd0741b	-0.025445988
194	0x3e1b43ef	0.15162633
195	0x3e295e62	0.1653991
196	0x3e17117d	0.14752765
197	0x3d981f91	0.07427896
198	0xbdebf6f7	-0.11521714
199	0x3dc3bd8d	0.09557638
200	0x3c3da1bb	0.011574204
201	0x3de73c0a	0.112907484
202	0xbdba8d51	-0.09108985
203	0x3d8388b8	0.064225614
204	0x3d136fbe	0.035995238
205	0xbde8b2bc	-0.11362216
206	0x3ddbac44	0.107262164
207	0xbe0c3cef	-0.1369512
208	0xbc0323d9	-0.008004152
209	0x3dbfb405	0.09360508
210	0x3d50c730	0.05097121
211	0xbd3f6242	-0.046724565
212	0xbbe6665d	-0.0070312456
213	0xbe1d77d4	-0.15377742
214	0x3d7bc984	0.061471477
215	0x3e0686f1	0.13137414
216	0xbd83c9e1	-0.0643499
217	0x3de548cc	0.111955255
218	0xbe26822a	-0.16260591
219	0xbd0e534f	-0.034747418
220	0x3d6dc7ce	0.058051877
221	0xbd6ec32a	-0.05829159
222	0x3e043bea	0.1291348
223	0x3e18dc77	0.1492785
224	0x3da78d77	0.08181279
225	0xbde5a7ab	-0.11213621
226	0x3c469179	0.012119644
227	0x3d87191c	0.06596586
228	0x3e35d65a	0.1775755
229	0x3df05e4f	0.11736738
230	0x3c9ce87b	0.019153824
231	0xbdb3161e	-0.08744453
232	0xbd6faeed	-0.05851643
233	0x3da2fe62	0.07958676
234	0x3e139fab	0.14416377
235	0xbd9456ec	-0.072431415
236	0x3e1b1847	0.1514598
237	0xbd8c7571	-0.06858338
238	0xbe055443	-0.13020425
239	0x3de9a1bc	0.114078015
240	0xbdcc9d62	-0.09990956
241	0xbcef0828	-0.029178694
242	0x3dc2ee12	0.095180646
243	0xbe24aab7	-0.16080748
244	0xbdb16aa1	-0.08662916
245	0xbc81bfbd	-0.015838498
246	0xbd9af4fe	-0.0756626
247	0x3daa9107	0.08328443
248	0xbd62026f	-0.055178102
249	0xbe132cec	-0.14372605
250	0x3e025498	0.12727582
251	0xbe01bfaf	-0.12670778
252	0x3dc325c1	0.09528685
253	0xbe01ff9c	-0.12695163
254	0x3a4681c4	0.0007572437
255	0xbd903dab	-0.07043012

time_series_emb_layer.bias f4 [32]
0	0xbdf72d8c	-0.12069234
1	0x3e0d04b4	0.13771325
2	0x3d924eee	0.07143961
3	0x3db99046	0.09060721
4	0xbd3740f3	-0.044739675
5	0xbe306053	-0.17224245
6	0xbc018eef	-0.007907613
7	0x3d969cc4	0.073541194
8	0x3db20bad	0.08693633
9	0xbd10506a	-0.03523294
10	0x3b825ff3	0.003978723
11	0xbd87b2ff	-0.06625938
12	0xbe0b9a3d	-0.13633056
13	0x3d9e0ce0	0.077172995
14	0xbe198e36	-0.14995655
15	0xba2da6b2	-0.0006624266
16	0xbd981f0f	-0.07427799
17	0xbd940adc	-0.07228634
18	0x3c6b775a	0.014371717
19	0x3d10a048	0.035309106
20	0xbcb3ad14	-0.021933116
21	0xbdae1e66	-0.08501892
22	0xbe27b2d4	-0.16376811
23	0x3e1b8d69	0.15190662
24	0xbd7de4ab	-0.061985653
25	0xbe0ba295	-0.13636239
26	0xbb453ab7	-0.0030094811
27	0xbddc889a	-0.10768242
28	0x3df76421	0.12079645
29	0xbd9fddca	-0.07805975
30	0x3cf3c2ce	0.029755976
31	0xbdba11c4	-0.0908542

encoder.0.fc1.weight f4 [96, 96, 1, 1]
0	0x3d257b11	0.04040057
1	0x3d2cb729	0.042166863
2	0xbd3de28d	-0.046358634
3	0xbdbf4363	-0.09339025
4	0xbdb075c7	-0.08616214
5	0xbb05f420	-0.00204397
6	0xbd3e39d3	-0.046441864
7	0x3d6fc077	0.05853316
8	0x3cf81375	0.030282715
9	0x3d60c58d	0.0548759
10	0xbd8c43c1	-0.068488605
11	0xbbcbbdd3	-0.006217697
12	0x3c626141	0.013817132
13	0x3d77903e	0.060440294
14	0xbb22bc10	-0.0024831332
15	0xbdd51367	-0.10404091
16	0xbd45263b	-0.048132163
17	0x3d80216c	0.06256375
18	0x3cc015f7	0.023447974
19	0x3da44872	0.0802163
20	0x3db6d156	0.089266464
21	0xbd778751	-0.060431782
22	0xbdad9f5d	-0.08477662
23	0xbc2cc6d9	-0.010545456
24	0x3de083e0	0.10962653
25	0x3dadbbfc	0.08483121
26	0x3db2138c	0.086951345
27	0x3d34443f	0.044010397
28	0xbdc37e00	-0.09545517
29	0xbcd08ca3	-0.025457686
30	0x3ca493f4	0.02009008
31	0x3c82b1bc	0.015953891
32	0xbe0f2e4e	-0.13982508
33	0xbd03379a	-0.032035448
34	0x3d131796	0.035911165
35	0xbc3c3f62	-0.011489721
36	0x3ba00dfb	0.004884479
37	0x3cea0e5c	0.0285713
38	0xbdcf6a4b	-0.10127696
39	0x3e299604	0.16561133
40	0xbd99bd39	-0.075067945
41	0x3d8730fd	0.06601141
42	0xbd98e00d	-0.07464609
43	0xbdbd793b	-0.092516385
44	0xbbbb8551	-0.0057226797
45	0x3e2bd881	0.16781808
46	0xbcb5430d	-0.022126699
47	0x3c62dd99	0.013846778
48	0xbd2852c7	-0.041094568
49	0x3e134273	0.14380817
50	0x3e02f014	0.12786895
51	0xbdbdab4d	-0.09261189
52	0x3c018d53	0.0079072295
53	0xbc7edc74	-0.01555549
54	0xbdd55305	-0.10416225
55	0x3d650f79	0.05592296
56	0xbce165e1	-0.0275144
57	0x3dbe6f1d	0.09298537
58	0xbe2c691a	-0.16836968
59	0xbd3944c7	-0.045231607
60	0xbc4b6650	-0.01241453
61	0x3dab9c4b	0.0837942
62	0x3d3ff7ca	0.04686717
63	0x3bcdb5d7	0.0062777805
64	0x3d9e6b12	0.07735266
65	0xbd7e061c	-0.062017545
66	0xbd43584d	-0.047691632
67	0x3d2c0798	0.04199943
68	0x3d04da30	0.032434642
69	0x3ceeaa46	0.029133927
70	0xbd04c7d5	-0.032417137
71	0x3d018567	0.031621363
72	0x3d5e4e38	0.054273814
73	0x3bba7582	0.0056902776
74	0x3ddd20e3	0.10797288
75	0x3cb014fb	0.02149438
76	0x3d323030	0.043502986
77	0xbcd59238	-0.0260707
78	0x3d0591bd	0.03260969
79	0xbdd647ec	-0.10462937
80	0xbbb5399d	-0.0055305497
81	0x3b88667d	0.004162608
82	0x3cd7045e	0.0262472
83	0x3dacdac3	0.08440163
84	0xbd45d8be	-0.048302405
85	0x3c2e4782	0.010637166
86	0x3dfc48bf	0.12318563
87	0x3db2b5ee	0.087261066
88	0xbdaad887	-0.083420806
89	0xbd0e066f	-0.034674104
90	0xbcfae2cc	-0.030625723
91	0xbdcd8454	-0.10035005
92	0x3b93d7e4	0.00451182
93	0x3d0a6224	0.033785
94	0xbd867413	-0.06565108
95	0xbdf90e7c	-0.12160966
96	0x3df13037	0.117767744
97	0xbd93927c	-0.07205674
98	0x3c650c2d	0.013979954
99	0x3c993599	0.018702315
100	0xbdb3615b	-0.087588035
101	0xbc7d2378	-0.015450351
102	0xbd1d67f4	-0.038429216
103	0xbd8cce7b	-0.068753205
104	0xbd0114dc	-0.031514034
105	0xbc829cd0	-0.015943915
106	0xbcbe7c70	-0.023252696
107	0xbda9660c	-0.08271417
108	0xbca4ee7c	-0.02013325
109	0xbd52deeb	-0.051482122
110	0xbb995680	-0.004679501
111	0xbda3171a	-0.07963391
112	0xbc8cc556	-0.01718394
113	0xbba1d1c6	-0.004938337
114	0xbc63ac53	-0.013896066
115	0xbd9424c6	-0.072335765
116	0xbd3281fa	-0.043580987
117	0xbd8397bf	-0.06425428
118	0xbcfc8141	-0.030823352
119	0xbc85dc3b	-0.016340366
120	0x3dad520b	0.08462914
121	0x3d1ab4c4	0.037770048
122	0x3d019de0	0.031644702
123	0x3d297d56	0.041379295
124	0xbd5b8528	-0.053593785
125	0x3cc0503e	0.023475762
126	0x3d8f8ed1	0.07009662
127	0x3abef3e0	0.001456853
128	0xbd3dc5e4	-0.0463313
129	0xbe298111	-0.16553141
130	0x3d9f3cf8	0.07775301
131	0xbd94a806	-0.072586104
132	0xbd363f3a	-0.04449389
133	0x3bb7f74d	0.0056141973
134	0xbdebc549	-0.115122385
135	0x3dc8d3c2	0.098060146
136	0xbd772e59	-0.060346935
137	0x3d94c35e	0.07263826
138	0x3d2ec7f8	0.042671174
139	0xbe0d7ed4	-0.13817912
140	0xbcd9733d	-0.026544208
141	0x3d7c2408	0.0615578
142	0xbe2b105b	-0.16705458
143	0xbda3d7c6	-0.0800014
144	0x3ddd00a6	0.10791139
145	0x3d36adca	0.044599332
146	0xbc629ee8	-0.0138318315
147	0xbd60ae88	-0.054853946
148	0x39fced3f	0.00048241948
149	0xbca199ec	-0.019726716
150	0xbe1574ce	-0.14595339
151	0x3cace896	0.021107
152	0xbcc34d96	-0.023840707
153	0x3d8bdbae	0.0682901
154	0xbbaf2c9b	-0.0053458936
155	0xbdc0bce5	-0.09411029
156	0xbdc5cc10	-0.096580625
157	0xbca9b137	-0.020714385
158	0x3d8c0646	0.06837134
159	0x3e232550	0.15932202
160	0x3d790edd	0.06080519
161	0x3cc0d387	0.023538364
162	0x3ce91e6d	0.028456891
163	0x3c3523df	0.011055916
164	0x3d8f4199	0.06994934
165	0x3d49ee91	0.04929978
166	0xbbadeb75	-0.0053076097
167	0xbd92fd01	-0.07177163
168	0x3d04c02c	0.032409832
169	0xbca7519b	-0.020424655
170	0xbd498b7e	-0.049205296
171	0x3d6f4f40	0.058425188
172	0x3d68a70d	0.056799937
173	0xbce535d5	-0.02797977
174	0xbd90724e	-0.07053052
175	0xbc2f8b57	-0.010714374
176	0x3db2b078	0.08725065
177	0x3c83ec89	0.016104
178	0x3cc28850	0.02374664
179	0x3c30d29c	0.010792401
180	0x3d52a702	0.051428802
181	0x3d7aed85	0.061261673
182	0x3da3b030	0.079925895
183	0x3bd2ec08	0.0064368285
184	0xbd6ae109	-0.057343516
185	0x3d8a1e75	0.067440905
186	0x3c96b372	0.018396113
187	0xbb84c17b	-0.004051385
188	0xbce21a74	-0.027600504
189	0x3cb4ddc1	0.022078397
190	0x3d94168a	0.072308615
191	0x3d4b3cec	0.049618647
192	0xbd727b65	-0.05919971
193	0xbdd7cc61	-0.10537029
194	0x3dc05508	0.093912184
195	0xbdc0ac98	-0.0940792
196	0x3cc710bd	0.024299974
197	0xbd722f24	-0.059126988
198	0xbe051720	-0.12997103
199	0xbde429c0	-0.11140776
200	0x3dd8cc9c	0.10585901
201	0x3d43ba91	0.047785345
202	0x3da5e502	0.081003204
203	0x3db675ee	0.08909212
204	0xbd9a8e8a	-0.075467184
205	0x3d40ca90	0.04706818
206	0x3cd29ba9	0.02570899
207	0xbda035e5	-0.078227796
208	0x3b4d7d84	0.003135533
209	0x3d937235	0.07199518
210	0x3d0e4e81	0.034742836
211	0xbcee1a45	-0.02906526
212	0xbd1ec122	-0.038758405
213	0x3d5e2e8d	0.054243613
214	0xbd30ade6	-0.043134592
215	0xbd757d6d	-0.05993407
216	0x3d060238	0.03271696
217	0xbd03aa5b	-0.032144886
218	0x3dd1ddcd	0.10247383
219	0xbd0aae71	-0.033857767
220	0xbaf2b1fb	-0.0018516177
221	0xbcdf1471	-0.027231427
222	0x3db605a4	0.088877946
223	0xbd47ead6	-0.04880794
224	0xbc497b09	-0.0122974
225	0x3c2dc5f0	0.010606274
226	0x3d2b7437	0.041858878
227	0x3d888901	0.066667564
228	0x3db20ea7	0.08694201
229	0xbd1ba80b	-0.038002055
230	0xbe3b1fe8	-0.1827389
231	0x3dd4d654	0.10392442
232	0xbd5cabef	-0.053874906
233	0x3d07ee3d	0.033186186
234	0x3d582478	0.052769154
235	0x3cc0d3ad	0.023538435
236	0x3d433651	0.047659222
237	0x3d449d2f	0.048001464
238	0x3e085b88	0.13316166
239	0xbda7645d	-0.0817344
240	0xbe275966	-0.16342697
241	0x3e031ae4	0.12803227
242	0x3d24830f	0.04016405
243	0xbc43da40	-0.01195389
244	0xbd3c5f9e	-0.045989625
245	0x3de33ed3	0.11095967
246	0x3e099c6a	0.13438573
247	0x3df1db1f	0.11809372
248	0x3d5eedfa	0.05442617
249	0x3c3755eb	0.011189918
250	0xbc8a845b	-0.016908815
251	0x3c81f97d	0.015866036
252	0xbd0415c8	-0.032247335
253	0xbdcb03ba	-0.0991282
254	0x3ba1047b	0.004913864
255	0x3ca23ca9	0.019804316

encoder.0.fc1.bias f4 [96]
0	0x3d926a50	0.07149184
1	0xbd218c0e	-0.039440207
2	0xbbb1a91b	-0.0054217703
3	0xbcb170b0	-0.021660179
4	0xbc9e388f	-0.019314079
5	0x3d94225d	0.07233117
6	0x3c0721eb	0.008247833
7	0xbd72ec66	-0.05930748
8	0xbd2a5950	-0.04158908
9	0xbda5e717	-0.081007175
10	0xbd48eedd	-0.049055923
11	0xbdd000a0	-0.10156369
12	0x3d26a378	0.04068324
13	0x3d7e7a37	0.062128272
14	0x3c5ad1af	0.0133556565
15	0x3ca19160	0.01972264
16	0xbd958067	-0.072998814
17	0xbd46fb92	-0.04857976
18	0x3cff152a	0.031138021
19	0xbc1c1e7f	-0.009528755
20	0x3d4ec3ec	0.050479814
21	0xbcca58f2	-0.024700616
22	0xbd95f276	-0.073216364
23	0xbb5718d9	-0.0032821207
24	0xbd8326ef	-0.0640391
25	0x3d3d6b39	0.046244834
26	0xbc34df7c	-0.011039611
27	0xbcac4273	-0.02102778
28	0xbdb46f3c	-0.08810279
29	0xbdb071a1	-0.08615423
30	0xbca55913	-0.020184075
31	0xbc0fe272	-0.008782016
32	0xbd9eb601	-0.07749558
33	0xbdd748ab	-0.10511907
34	0xbdc523dd	-0.09625981
35	0x3d27b1a9	0.040940914
36	0xbdae6625	-0.08515576
37	0xbbea30dd	-0.0071469382
38	0xbde08ea0	-0.109647036
39	0x3d9ee764	0.07758978
40	0x3d9bfba1	0.07616354
41	0x3adac440	0.0016690567
42	0x3c302a6b	0.010752301
43	0xbbb9ab37	-0.0056661624
44	0x3cebfc78	0.02880691
45	0x3d07968c	0.033102557
46	0x3dbc8e42	0.09206821
47	0xbd335ea5	-0.043791432
48	0xbb341200	-0.002747655
49	0xbd505af2	-0.050867982
50	0xbcdbb0e2	-0.026817743
51	0x3c4308fb	0.011903997
52	0x3d5d1e83	0.053984176
53	0xbd2bcc54	-0.04194291
54	0x3d9dc316	0.07703225
55	0x3cd5ee05	0.026114473
56	0xbb90436b	-0.004402568
57	0x3db0879f	0.08619618
58	0x3db71984	0.089404136
59	0xbc92544a	-0.017862458
60	0xbd62dc80	-0.055386066
61	0xbdbcbd13	-0.092157505
62	0x3daaa714	0.08332649
63	0x3c6082bb	0.013703044
64	0x3d556686	0.052099727
65	0xbd914863	-0.07093885
66	0x3d2a9074	0.041641667
67	0xbd245d99	-0.040128324
68	0x3da298ad	0.07939277
69	0x3be75ca7	0.0070606056
70	0x3c0f3c1b	0.008742358
71	0x3cdb4ffc	0.026771538
72	0x3d1b629b	0.037935834
73	0x3da4b886	0.080430076
74	0xbd82b0c9	-0.06381375
75	0xbd12491d	-0.035714258
76	0xbd030ef3	-0.03199668
77	0x3db9d247	0.0907331
78	0xbc7a5f13	-0.0152814565
79	0xbd36c223	-0.044618737
80	0xbd437b22	-0.04772485
81	0xbd85f069	-0.06539995
82	0xbd9ff94c	-0.078112215
83	0x3d0d1064	0.03443946
84	0x3d161c4c	0.03664808
85	0x3d32ad21	0.04362214
86	0xbdbb7758	-0.091536224
87	0xbda8a865	-0.08235244
88	0x3d8d7742	0.06907512
89	0xbc1616b4	-0.009160686
90	0x3d1b9c08	0.0379906
91	0x3bd7bcfc	0.006583808
92	0xbd1e8ccb	-0.03870849
93	0x3db2ce66	0.08730774
94	0x3c975a3a	0.01847564
95	0xbd6ef663	-0.05834044

encoder.0.fc2.weight f4 [96, 96, 1, 1]
0	0xbdc8baf4	-0.098012835
1	0xbc015f04	-0.007896189
2	0x3ca1b813	0.019741094
3	0xbdc62966	-0.09675865
4	0x3df90598	0.1215927
5	0xbc87b0b5	-0.016563753
6	0xbbfbb4af	-0.0076814513
7	0x3dac6633	0.084179305
8	0xbcc6fb1a	-0.024289656
9	0x3d793748	0.060843736
10	0xbd310174	-0.043214276
11	0x3c1d63b3	0.00960629
12	0x3d73549a	0.059406854
13	0xbd9c40c3	-0.0762954
14	0x3d84c629	0.064831086
15	0x3c9d9ab0	0.0192388
16	0xbc51d05c	-0.012806024
17	0xbd9f1f14	-0.077695996
18	0xbd5ed844	-0.054405466
19	0xbd0a23bf	-0.033725496
20	0xbdffee5f	-0.124966376
21	0xbbb3a1ad	-0.0054819197
22	0x3bf90b0b	0.0076001934
23	0xbd9f6a45	-0.07783941
24	0xbd1fbb95	-0.03899725
25	0xbd06d924	-0.032921925
26	0xbdeb1050	-0.11477721
27	0x3d5ad3d2	0.053424664
28	0xbcdd705f	-0.027031122
29	0xbd8938a8	-0.067002594
30	0x3d9ba614	0.07600036
31	0x3dd751b9	0.10513634
32	0xbdf12cbf	-0.11776113
33	0xbbf0975c	-0.007342262
34	0x3da98a2e	0.08278309
35	0xbd8d6050	-0.06903136
36	0x3dbf69fc	0.09346387
37	0x3bb77e45	0.0055997693
38	0x3cc04e95	0.02347497
39	0xbda32f13	-0.07967963
40	0x3cb4f960	0.022091568
41	0x3c29496e	0.010332448
42	0xbd931d98	-0.07183379
43	0x3cb76a94	0.022389688
44	0xbd14bd05	-0.036313076
45	0x3d6acd6e	0.05732482
46	0xbc9ad703	-0.018901354
47	0xbc67e4c6	-0.014153665
48	0x3db082b5	0.086186804
49	0x3d4b6e60	0.04966581
50	0x3d9a767c	0.0754213
51	0xbcf12e65	-0.029441068
52	0xbdb1a8ae	-0.08674751
53	0xbd91d53b	-0.071207486
54	0xbdc2c101	-0.09509469
55	0xbc9ee0f5	-0.019394377
56	0xbd63d934	-0.055627063
57	0xbdbfe8df	-0.093705885
58	0xbd867e2d	-0.06567035
59	0xbc823b49	-0.01589741
60	0x3c5ebcdb	0.013594831
61	0xbc56d0a7	-0.01311127
62	0x3da27351	0.07932151
63	0xbd0dbfe3	-0.034606826
64	0xbd9d5561	-0.076823
65	0xbcdaa9ab	-0.026692232
66	0xbd02b50d	-0.031910945
67	0x3db2403e	0.087036595
68	0x3cda5f02	0.026656631
69	0xbb962bea	-0.0045828717
70	0x3dccde47	0.100033335
71	0x3cfcbe88	0.030852571
72	0x3c6b7028	0.014370002
73	0xbd3f36df	-0.04668319
74	0x3d1fc5e4	0.039007083
75	0xbd9ed248	-0.07754952
76	0xbcd2aad6	-0.025716227
77	0x3d3ec152	0.046571083
78	0xbd44a4ab	-0.048008602
79	0x3ddd65a0	0.10810399
80	0xbdd846dc	-0.1056039
81	0x3d040d97	0.032239523
82	0xbdaa1e4b	-0.08306559
83	0x3d216401	0.03940201
84	0x3bf7b449	0.0075593335
85	0xbde7daf6	-0.1132106
86	0xbc8909b6	-0.016728263
87	0x3e087f52	0.13329819
88	0xbdf6352d	-0.12021861
89	0x3d8594e5	0.0652254
90	0x3daeb90b	0.08531388
91	0xbd71e053	-0.059051823
92	0x3cb4ab81	0.022054436
93	0xbd86ecef	-0.0658816
94	0x3b5819de	0.0032974402
95	0xbd5e46ed	-0.05426686
96	0x3d667ba1	0.056270245
97	0xbdcdf9c1	-0.100574024
98	0x3cceaa0d	0.02522757
99	0x3da18643	0.078869365
100	0xbdae70ad	-0.08517585
101	0x3c934e1c	0.017981581
102	0x3cda0786	0.026614916
103	0xbd57a9fc	-0.052652344
104	0x3c6c8797	0.014436624
105	0xbd64b7a9	-0.055839214
106	0x3dd83c69	0.10558397
107	0xbd4868b9	-0.048927996
108	0xbd16ec4a	-0.036846437
109	0x3d7ccfea	0.06172172
110	0x3da2b35d	0.07944367
111	0xbd294908	-0.041329414
112	0xbd07622e	-0.033052616
113	0x3d174d27	0.036938813
114	0xbd320d21	-0.043469552
115	0xbcf84273	-0.030305123
116	0x3d8689bb	0.06569239
117	0xbe037263	-0.12836604
118	0x3d8ca898	0.06868094
119	0x3d99cd00	0.07509804
120	0xbc59b16f	-0.013286932
121	0xbe14868a	-0.14504448
122	0xbdd6e695	-0.10493199
123	0x3d2d4e0f	0.04231077
124	0xbc315f86	-0.010825997
125	0xbda0a556	-0.07844035
126	0xbd013cc4	-0.03155209
127	0x3a12f1af	0.00056054717
128	0xbcd0b16d	-0.025475228
129	0x3d2a9fac	0.04165618
130	0x3dcbd184	0.09952071
131	0xbd8bb107	-0.06820875
132	0x3c4b871e	0.012422351
133	0xbd8914fd	-0.06693456
134	0x3d02c15d	0.031922687
135	0x3d8d4482	0.068978325
136	0xbda6bde8	-0.081416905
137	0xbd75b939	-0.059991095
138	0xbdb60a40	-0.08888674
139	0xbcfd2f92	-0.030906472
140	0x3ce9050b	0.028444787
141	0x3d9ac0a7	0.07556277
142	0xbdafd52a	-0.0858558
143	0xbc3eb663	-0.011640164
144	0xbdc446d3	-0.09583821
145	0xbda9ee84	-0.08297446
146	0xbd63c1e4	-0.05560483
147	0xbd38033a	-0.044924952
148	0x3d85956b	0.0652264
149	0x3d070ccc	0.03297119
150	0x3c776ef9	0.015102142
151	0xbda5eaf5	-0.08101455
152	0x3ceffac8	0.029294387
153	0x3db12021	0.08648706
154	0xbcce032d	-0.025147999
155	0x3bb60280	0.0055544972
156	0xbd6153ff	-0.055011746
157	0x3ba7fe3f	0.005126744
158	0xbcdb8774	-0.026797988
159	0xbdd4f244	-0.10397771
160	0xbd9d6df1	-0.07686985
161	0x3dbdc29a	0.09265633
162	0xbcc8a329	-0.024491863
163	0xbd405c2c	-0.046962902
164	0x3b527e08	0.0032118578
165	0xbd08c006	-0.033386253
166	0xbc2c8f86	-0.0105322655
167	0x3d041324	0.032244816
168	0x3d32aef8	0.043623894
169	0xbda2a5c4	-0.079417735
170	0x3da9aa3a	0.08284421
171	0x3de7f118	0.11325282
172	0x3dbb7e80	0.09154987
173	0xbdc134eb	-0.094339214
174	0x3b336578	0.0027373713
175	0x3d480d5e	0.048840873
176	0x3caa8c26	0.020818781
177	0x3d50c354	0.05096753
178	0xbcfeb917	-0.031094117
179	0xbcfdd64f	-0.03098598
180	0xbda96840	-0.08271837
181	0x3baae24c	0.005214965
182	0x3d7b94d3	0.061421227
183	0xbdd01210	-0.10159695
184	0x3d191a63	0.03737868
185	0x3c400e93	0.011722225
186	0xbd1de11d	-0.038544763
187	0x3c5a840e	0.013337148
188	0x3d136ba7	0.035991337
189	0xbb9617a1	-0.0045804535
190	0xbd8e66a5	-0.06953172
191	0x3cb4d305	0.022073278
192	0xbd00282a	-0.031288303
193	0xbccd38bd	-0.025051469
194	0x3c882eba	0.016623843
195	0xbd17a3e5	-0.037021536
196	0xbce31f7c	-0.027724974
197	0xbcb3d879	-0.021953808
198	0xbcdbc785	-0.026828537
199	0xbd925add	-0.07146237
200	0xbdaf36ea	-0.08555396
201	0x3dcf5895	0.101243176
202	0x3d881cad	0.066460945
203	0x3d02d393	0.031940054
204	0x3d1c3a31	0.038141433
205	0xbc0576b3	-0.008145976
206	0x3d6857c7	0.056724336
207	0x3db976cd	0.090558626
208	0xbda178f5	-0.07884399
209	0x3ceff064	0.029289432
210	0x3d996ad0	0.07491076
211	0xbc06fe87	-0.008239395
212	0x3d564121	0.052308206
213	0x3cf7a5fb	0.030230513
214	0x3dedb6e3	0.116071485
215	0xbaa75277	-0.0012765665
216	0x3dad829f	0.084721796
217	0xbac3c53a	-0.0014936097
218	0x3d362032	0.044464298
219	0x3d55777d	0.052115906
220	0x3d037c15	0.032100756
221	0x3cc6bc2f	0.024259655
222	0xbc1d39ea	-0.009596327
223	0x3d0516a2	0.032492287
224	0x3db97a88	0.09056574
225	0xbaf5587e	-0.0018718389
226	0x3c35e470	0.011101827
227	0xbdc6d8e5	-0.09709338
228	0xbd345984	-0.04403068
229	0x3d004716	0.031317793
230	0xbd9b61cc	-0.07587013
231	0xbc17e358	-0.009270512
232	0x3cf0ff5c	0.02941864
233	0xbdb87928	-0.09007484
234	0xbccfca15	-0.025364915
235	0xbdbde21f	-0.09271645
236	0x3d8e42b6	0.06946318
237	0xbc83e8f5	-0.016102294
238	0x3df23f98	0.11828536
239	0xbd8e3ce7	-0.0694521
240	0xbbf66c02	-0.0075201998
241	0x3d94e895	0.07270924
242	0x3d490fed	0.049087454
243	0xbd6f2c93	-0.05839212
244	0xbd36be23	-0.044614922
245	0x3df3f61e	0.119121775
246	0xbc837090	-0.016044885
247	0x3d727034	0.059189036
248	0x3dc17070	0.09445274
249	0x3da03eec	0.078245014
250	0xbd7e9789	-0.062156234
251	0x3d8ca8da	0.068681434
252	0xbd4fcea6	-0.050734185
253	0x3d9f3584	0.07773879
254	0x3b931861	0.00448899
255	0x3df70c62	0.12062909

encoder.0.fc2.bias f4 [96]
0	0x3d976302	0.07391931
1	0x3d5897a8	0.052879006
2	0xbd81de98	-0.063412845
3	0xbd8fcdd2	-0.07021679
4	0xbd9f2777	-0.07771199
5	0x3cfa11b7	0.030526025
6	0xbda21f18	-0.07916087
7	0xbc3fc2bb	-0.011704142
8	0xbd7c34f0	-0.061573923
9	0xbd725905	-0.059166927
10	0xbdc728a2	-0.09724547
11	0xbd9919bd	-0.07475612
12	0x3c649e73	0.013953793
13	0xbdad4913	-0.084612034
14	0x3d60433d	0.054751623
15	0xbc93fc83	-0.018064743
16	0xbc9869b8	-0.018605098
17	0xbb016f23	-0.001975008
18	0xbd9056c7	-0.070478015
19	0x3c9b6019	0.018966721
20	0x3d5906fb	0.052985173
21	0xbc9a0819	-0.01880269
22	0x3d8515ad	0.06498275
23	0xbb7ae32f	-0.0038282385
24	0xbdab1eb0	-0.083554626
25	0xbabd50e8	-0.0014443668
26	0x3d0c7cd0	0.034298718
27	0xbdb67301	-0.08908654
28	0x3dcbe001	0.09954835
29	0x3ce49cc8	0.02790679
30	0x3d856196	0.06512754
31	0x3d89d0df	0.06729292
32	0x3dc794a0	0.09745145
33	0x3ca987d0	0.020694643
34	0xbd7a122f	-0.061052497
35	0xbd63c769	-0.055610094
36	0x3c8dbea7	0.017302824
37	0xbd9ab4bf	-0.07554006
38	0xbd7bbf35	-0.061461646
39	0x3d534f40	0.05158925
40	0xbd99e44a	-0.07514246
41	0x3d8dec29	0.069298096
42	0x3d2bb0ad	0.041916538
43	0xbd041c3b	-0.032253485
44	0xbdb06272	-0.08612527
45	0xbdd28cdf	-0.10280775
46	0xbbdee78f	-0.0068025063
47	0x3c4730c1	0.01215762
48	0xbd7dc5c7	-0.061956193
49	0x3cfbd0e0	0.030739248
50	0x3db37751	0.08762992
51	0x3d8ab2c2	0.067723766
52	0xbc438871	-0.011934386
53	0x3b127409	0.0022346994
54	0x3dccda0d	0.100025274
55	0xbd50b556	-0.050954185
56	0xbc224c9f	-0.009905963
57	0x3dc8f395	0.098120846
58	0xbd16a844	-0.036781564
59	0x3dc3694b	0.095415674
60	0xbc027e9e	-0.007964758
61	0xbd6dead2	-0.05808527
62	0xbdcbd843	-0.09953358
63	0xbc65d14c	-0.014026951
64	0x3d71acbd	0.059002627
65	0xbd6b03dc	-0.057376727
66	0xbd5ca277	-0.053865876
67	0xbc828cc0	-0.015936255
68	0xbde738f1	-0.112901576
69	0xbcab56ac	-0.020915352
70	0x3d7d36ba	0.06181977
71	0xbd6c7c42	-0.05773569
72	0x3cd1be9d	0.025603587
73	0x3dd22451	0.10260833
74	0x3bb85ce6	0.0056263087
75	0x3d547600	0.051870346
76	0xbc3b0e4b	-0.011416982
77	0x3cc9b5c5	0.024622807
78	0x3dd05cf0	0.101739764
79	0xbd5ff00d	-0.05467229
80	0x3cf79025	0.0302201
81	0xbda815c5	-0.08207277
82	0xbcdeaf84	-0.027183302
83	0xbdae673a	-0.08515783
84	0x3cf3b21a	0.029748011
85	0x3d2f569a	0.0428072
86	0xbcfb15ff	-0.030650137
87	0x3d3eae0d	0.046552707
88	0x3cd4ae96	0.025962155
89	0x3d80dd29	0.06292183
90	0x3c525ee4	0.0128400065
91	0x3c53b109	0.012920626
92	0x3da8ab85	0.0823584
93	0x3c9b9828	0.018993452
94	0x3d2f314a	0.042771615
95	0xbdc03a14	-0.093860775

encoder.1.fc1.weight f4 [96, 96, 1, 1]
0	0xbd80a36e	-0.06281172
1	0x3dcb4474	0.09925166
2	0x3d78ccb3	0.06074209
3	0xbdc09de7	-0.094051175
4	0xbd73983b	-0.05947135
5	0x3d0323ed	0.032016683
6	0xbdce8083	-0.100831054
7	0x3d83de98	0.06438941
8	0x3be43382	0.006964148
9	0xbda0f1a9	-0.07858593
10	0x3c38d38b	0.0112809045
11	0xbb7ba63f	-0.003839865
12	0x3d95f9dc	0.073230475
13	0x3d8e38a4	0.06944397
14	0x3d901356	0.07034938
15	0xbc946e96	-0.018119138
16	0xbdb674dd	-0.08909009
17	0x3db1c13c	0.08679435
18	0x3d341a1e	0.04397022
19	0xbaefe629	-0.0018302846
20	0xbd1ac6b2	-0.037787147
21	0x3d10dd06	0.035367034
22	0xbd2f0be6	-0.042735957
23	0xbdd220a7	-0.10260134
24	0x3d535311	0.05159289
25	0x3c506d06	0.012721306
26	0xbda8379a	-0.0821373
27	0xbdc57720	-0.09641862
28	0x3d8d3f6d	0.06896863
29	0xbc6a5484	-0.014302377
30	0xbd0b3f37	-0.033995833
31	0xbd830ae2	-0.0639856
32	0xbe14df96	-0.14538416
33	0xbbb0a984	-0.0053913016
34	0xbd495a4b	-0.049158376
35	0xbd6d0330	-0.057864368
36	0x3b351e5b	0.0027636501
37	0x3d186ad8	0.03721127
38	0x3d3d0433	0.046146583
39	0x3c357b36	0.011076739
40	0x3d8be720	0.06831193
41	0xbd2d442f	-0.042301353
42	0x3d0d59f0	0.0345096
43	0xbc3e7082	-0.011623504
44	0xbda40288	-0.08008295
45	0x3bccc9b1	0.0062496294
46	0x3def26f0	0.116773486
47	0xbba648d3	-0.0050745993
48	0xbd5e6be6	-0.05430212
49	0x3ddbddf9	0.10735697
50	0xbd94f933	-0.072740935
51	0x3d97cb1b	0.07411786
52	0xbe061a93	-0.13096075
53	0x3dbfd830	0.09367406
54	0x3c3b5b59	0.011435353
55	0x3d81e018	0.063415706
56	0x3da113f2	0.078651324
57	0x3deaa31d	0.11456893
58	0xbdeb93ee	-0.11502825
59	0xbd2b1927	-0.041772034
60	0x3dd48b2d	0.10378108
61	0x3da16632	0.0788082
62	0xbd23696d	-0.039895464
63	0xbcc257a8	-0.023723438
64	0xbdae7f5c	-0.085203856
65	0xbd6a39ba	-0.05718396
66	0xbde06953	-0.10957589
67	0x3dff80f1	0.124757655
68	0xbcfcbfb0	-0.030853122
69	0xbdd46c8b	-0.103722654
70	0x3b999377	0.0046867686
71	0xbc55b682	-0.013044002
72	0x3d9158bd	0.070970036
73	0x3c1d9391	0.009617702
74	0xbc8176a4	-0.015803643
75	0xbd2c134c	-0.04201059
76	0x3d962a22	0.07332255
77	0x3b721b15	0.0036942412
78	0xbd494a6f	-0.04914325
79	0x3d22c3db	0.039737564
80	0x3ce685dc	0.028140001
81	0xbd8b536b	-0.0680302
82	0xbc9fe3b3	-0.019517755
83	0xbb8ae679	-0.0042389003
84	0xbda6fdef	-0.08153903
85	0x3d323ee1	0.043516997
86	0x3d5a65ac	0.053319618
87	0x3ccab52c	0.024744593
88	0xbc454b39	-0.01204186
89	0xbd936a5c	-0.07198021
90	0xbddc4db8	-0.10757011
91	0xbc40a147	-0.0117572015
92	0xbd7a410d	-0.061097194
93	0xbd808182	-0.06274702
94	0x3d258bfa	0.040416695
95	0xbd14da58	-0.03634104
96	0xbd73f110	-0.059556067
97	0x3c797020	0.015224487
98	0xbd35bf9e	-0.044372194
99	0x3c048f86	0.008090859
100	0x3c4df333	0.01257019
101	0x3d3c4068	0.04595986
102	0x3cc040c0	0.023468375
103	0xbbe82d0c	-0.007085448
104	0x3d12b52d	0.035817314
105	0xbdd86f2a	-0.10568078
106	0xbdfe07f6	-0.12403862
107	0x3d459677	0.048239198
108	0x3da78dfa	0.08181377
109	0x3cdbdb61	0.026838006
110	0x3c0909b1	0.008364127
111	0x3d4e98c6	0.050438665
112	0x3d222c56	0.039593063
113	0x3cceada4	0.025229283
114	0x3d0e5769	0.03475133
115	0x3b6bb2c4	0.0035964707
116	0x3d5be4b4	0.053684905
117	0xbd607e52	-0.05480797
118	0x3db694fc	0.08915135
119	0x3caabf2b	0.02084311
120	0x3c7fd231	0.015614078
121	0xbd4a0d78	-0.04932925
122	0xbd99b2a7	-0.07504778
123	0x3da1e1cd	0.07904396
124	0x3bb69acb	0.005572652
125	0x3a49c41b	0.00076967635
126	0xbde8c33e	-0.113653645
127	0x3d588a96	0.05286654
128	0xbc889999	-0.016674804
129	0xbd9d0902	-0.07667734
130	0x3d824a8d	0.06361876
131	0xbd558ec2	-0.052138098
132	0x3bdc03fe	0.006714343
133	0x3beb2edb	0.0071772165
134	0xbcd402d1	-0.02588025
135	0xbd9a52aa	-0.07535298
136	0xbda4663c	-0.08027312
137	0xbd869064	-0.06570509
138	0xbd167211	-0.036729876
139	0xbaf6082d	-0.0018770747
140	0xbcbef6a3	-0.023310965
141	0x3be774c6	0.007063481
142	0xbd0d20cd	-0.03445511
143	0xbd094fb3	-0.033523273
144	0xbcd2aa28	-0.025715902
145	0xbdf62bcd	-0.12020073
146	0x3d32db63	0.043666255
147	0x3be5ce69	0.0070131314
148	0xbe2095d7	-0.1568216
149	0xbcd7ed05	-0.026358137
150	0x3d1dacc9	0.03849486
151	0x3afcc8ab	0.0019285878
152	0xbd906904	-0.0705128
153	0x3dccffe9	0.100097485
154	0x3caf107f	0.02137017
155	0xbd8e1195	-0.06936947
156	0x3d42483a	0.047432162
157	0x3d423cd2	0.047421284
158	0x3d228662	0.03967894
159	0xb92646c5	-0.00015857357
160	0xbc9a0318	-0.018800303
161	0xbce67a82	-0.028134588
162	0xbdedcc8f	-0.11611282
163	0xbc6a31ca	-0.014294097
164	0xbdf9afd9	-0.121917434
165	0x3c886492	0.016649518
166	0xbdbe2e8e	-0.09286223
167	0x3d20ebfc	0.039287552
168	0xbda354c3	-0.079751514
169	0xbd443bce	-0.047908597
170	0xbb97be74	-0.004630858
171	0xbcc99284	-0.024605997
172	0xbd835b90	-0.064139485
173	0x3d84fc8b	0.06493481
174	0x3b8eadd7	0.0043542194
175	0xbbc7016e	-0.0060731685
176	0xbd539fa2	-0.05166591
177	0x3cdfd318	0.027322337
178	0xbd81fb17	-0.0634672
179	0xb9a9cc49	-0.00032386396
180	0x3de22940	0.11043024
181	0xbd05b86a	-0.032646574
182	0x3cf2273b	0.029559722
183	0x3c08c056	0.008346638
184	0x3dbcf819	0.092270084
185	0x3d0b700e	0.03404241
186	0xbd73ba47	-0.05950382
187	0x3b0fdb77	0.002195088
188	0x3c09358d	0.008374584
189	0xbce07a59	-0.02740209
190	0x3b15b488	0.00228432
191	0x3c5f4ef2	0.013629662
192	0x3d804205	0.06262592
193	0x3d444b93	0.047923636
194	0xbcc48995	-0.023991385
195	0xbd8ce11f	-0.06878876
196	0xbd9b6114	-0.075868756
197	0xbd705fc8	-0.058685094
198	0x3da9e12c	0.08294901
199	0x3c5e570f	0.013570561
200	0x3cdce5f2	0.026965115
201	0xbdbbe132	-0.09173812
202	0xbd09171b	-0.0334693
203	0xbdb389d2	-0.087665215
204	0x3d828f1f	0.063749544
205	0xbd5158ca	-0.051110066
206	0x3d2def16	0.04246434
207	0x3c94c4cd	0.018160248
208	0x3b40fabe	0.002944633
209	0x3da31911	0.079637654
210	0xbda1fcd5	-0.07909552
211	0x3df45212	0.11929716
212	0x3db2b5c3	0.087260745
213	0xbc1187fb	-0.008882518
214	0xbd3f2292	-0.04666383
215	0xbd654277	-0.05597159
216	0xbcb4dd96	-0.022078317
217	0x3dbcb7ce	0.092147455
218	0x3d1e6e16	0.038679205
219	0x3cc9a42a	0.024614412
220	0xbd29b500	-0.04143238
221	0xbdee19f0	-0.11626041
222	0x3d75cac8	0.06000784
223	0x3b3d6604	0.0028899917
224	0xbd6d3ed1	-0.057921235
225	0x3d3d3dc3	0.04620148
226	0x3d86b588	0.06577593
227	0xbd720ecf	-0.059096154
228	0xbd239369	-0.039935503
229	0xbdd3cf1d	-0.10342238
230	0xbd8d8faf	-0.06912171
231	0xbd80274f	-0.062574975
232	0x3d6747cf	0.056464966
233	0x3dacc36f	0.084357135
234	0xbc87a73d	-0.016559238
235	0x3d71efb3	0.059066486
236	0xbd2e0ed7	-0.04249462
237	0xbd5fbba9	-0.054622326
238	0x3d13bbb3	0.036067676
239	0x3cd27456	0.025690239
240	0x3d65f054	0.056137398
241	0xbd5613df	-0.052265044
242	0x3cbd09c8	0.023075953
243	0x3da39f60	0.07989383
244	0x3b212654	0.0024589496
245	0x3c96a1fa	0.018387783
246	0x3ca89726	0.020579886
247	0xbd8b0851	-0.067886956
248	0xbd94c5ba	-0.07264276
249	0xbd9c914d	-0.076449014
250	0xbc61dd75	-0.01378571
251	0xbc7c6f0a	-0.015407333
252	0x3dabdbc5	0.08391527
253	0xbd9a1cda	-0.07525034
254	0x3cb93700	0.022609234
255	0xbc583129	-0.013195314

encoder.1.fc1.bias f4 [96]
0	0x3daf9960	0.08574176
1	0x3d1127b5	0.03543826
2	0xbb3cc849	-0.0028805903
3	0x3cb3f5de	0.021967825
4	0x3b9a6432	0.0047116512
5	0xbb8a446c	-0.0042195823
6	0x3bcd75e5	0.0062701576
7	0xbd80666f	-0.06269538
8	0x3b546dbe	0.0032414044
9	0x3d2ab405	0.041675586
10	0xbcb3ae43	-0.02193368
11	0x3c9efbe9	0.01940723
12	0xbd75c79d	-0.06000482
13	0x3c1b0db1	0.0094637135
14	0xbcb36f33	-0.02190361
15	0xbd79b408	-0.060962707
16	0x3dd0a17e	0.10187052
17	0x3dcba3e9	0.09943373
18	0xbd9b37c4	-0.07578996
19	0x3aa2bb91	0.0012415518
20	0x3d6d7f4d	0.05798273
21	0xbd22b2a3	-0.039721143
22	0xbd8e065f	-0.06934809
23	0x3d8769ba	0.066119626
24	0x3d02197a	0.031762578
25	0x3d1f826a	0.038942732
26	0xbd9588fa	-0.07301517
27	0x3c079b66	0.008276796
28	0x3d48abe0	0.048992038
29	0x3dc04721	0.09388567
30	0xbda8a3da	-0.08234377
31	0x3cf0bffe	0.029388424
32	0xbbbb3486	-0.0057130484
33	0x3da9df78	0.082945764
34	0x3c1cc019	0.009567284
35	0xbd609849	-0.05483273
36	0x3dce6be0	0.10079169
37	0x3d3ba956	0.04581579
38	0xbda13f5d	-0.07873414
39	0x3c093726	0.008374965
40	0xbd89feb3	-0.06738033
41	0x3a8b080c	0.0010607257
42	0x3c257be5	0.01010034
43	0xbc9c0a31	-0.019047828
44	0x3dfc9510	0.12333119
45	0xbcdf787a	-0.027279127
46	0x3d6d15ac	0.057881996
47	0xbd6c8865	-0.057747263
48	0x3dc00d1e	0.09377502
49	0xbd40b8e2	-0.047051318
50	0xbd456666	-0.048193358
51	0x3c82c424	0.015962668
52	0x3cee3684	0.02907873
53	0x3daccf7f	0.08438014
54	0x3d9e019f	0.07715153
55	0xbc35a4cd	-0.011086655
56	0xbce11b4f	-0.027478842
57	0x3b817da3	0.0039517446
58	0x3d688af3	0.056773137
59	0xbcb67dba	-0.022276748
60	0xbd7225b7	-0.059118
61	0x3d7d4495	0.061832983
62	0xbda297bd	-0.07939098
63	0x3d5fdcc6	0.054653905
64	0xbcff4fbf	-0.031165956
65	0xbd1a6633	-0.03769512
66	0x3c9f10f0	0.019417256
67	0x3c199734	0.009374429
68	0x3d829469	0.06375963
69	0x3cb7badd	0.02242797
70	0xbca31329	-0.019906597
71	0x3d13be50	0.036070168
72	0x3c4355ae	0.011922283
73	0xbd888587	-0.06666093
74	0xbce76814	-0.02824787
75	0xbd7b6e9d	-0.061384786
76	0x3da011d8	0.078159034
77	0xbcbf40bb	-0.023346296
78	0x3dbbca04	0.09169391
79	0x3d9aa16c	0.0755032
80	0xbd1217b3	-0.035667133
81	0xbcf81022	-0.03028113
82	0xbcfa5411	-0.030557664
83	0x3d9c6b32	0.076376334
84	0xbd55087d	-0.05201005
85	0x3d970632	0.073742285
86	0x3d95d625	0.073162355
87	0xbd83d099	-0.06436271
88	0xbdfc3f67	-0.123167805
89	0xbc11758d	-0.008878124
90	0xbd217475	-0.039417703
91	0xbd91ede0	-0.07125449
92	0x3c8fba02	0.01754475
93	0xbc90db32	-0.017682645
94	0xbda1c71e	-0.07899307
95	0xbcb3821a	-0.021912623
